Results/Nodes_1024/model_weights.pth (torch, 63620 bytes, 6 tensors)

weight f4 [85, 2]
-0.6651654 0.32442054 -0.32119018 -0.3667477 0.16893873 -0.36901218 -0.3267962 -0.23825958
-1.5952923 -1.5801156 -3.46334 0.69036597 -0.18750738 -2.0213425 -1.169698 -0.79482365
-0.0022190674 -0.7716272 -0.361329 -0.23193973 2.5778527 -4.126758 -1.3677182 -2.1107888
-0.7885464 0.08248587 -0.10558451 0.30031627 -0.41507614 0.10745187 -0.8462447 -0.06424071
-0.30927366 -0.17731348 -0.613508 0.002335947 1.3485755 1.1508197 -0.50502485 -1.4266088
-0.82594156 -3.2819164 0.55443615 0.011399036 -0.33249378 -3.0013309 -3.7749448 3.0954223
0.2614251 0.15860264 -0.3407866 0.6865284 -0.10408923 -0.43304285 -0.33072278 0.6960906
3.4054654e-05 -0.09598565 -0.2942708 -0.18536478 -0.5955455 -0.56192607 0.41386214 0.6048941
0.40744016 -0.7778397 0.38244808 -0.43767545 3.400255 -7.5749545 0.26926494 0.23120922
0.4423471 0.013762885 1.2111163 -2.8805232 -0.032862913 -0.5890606 1.2717646 -3.6726954
0.76443034 -7.2953563 0.33918518 -2.6298244 -0.6360031 0.046044335 -1.4042635 3.8439765
-2.0024495 -1.7312374 -0.69933546 0.2682154 2.9575157 -2.7030666 -1.2375947 3.0844967
-2.0873675 -1.6631296 2.2276974 -1.1530273 0.46824694 -0.47820607 0.41149762 -0.483006
3.9705567 -2.3538651 0.83056164 2.402135 0.1873907 -0.10843836 -1.2159865 -3.693928
-0.6665042 -0.2716726 5.1494427 -3.4336216 1.2573303 -5.443183 0.03412256 3.1473382
0.24961834 -0.36144587 -1.056094 -1.2318323 -0.7220132 0.30761322 -2.605949 0.20361336
1.1417251 1.7061524 2.3780782 -4.1320972 0.6801612 -0.120948896 -0.66072655 0.6980295
0.34366727 -1.9330556 0.22076918 -0.9972796 -1.2737772 -0.93018246 -0.09464901 0.16287623
-0.5930542 0.02114718 0.9299828 -2.6961725 -0.64745307 0.374921 2.1047795 -4.0151787
1.3566278 1.4990828 0.131213 -0.4151681 0.08109277 1.5527724 0.48499355 -0.5507444
1.785724 1.0679116 -0.08381905 0.12829974 0.602815 -0.55121434 0.5380522 -0.52859026
0.05300902 -0.49410048
00000000: 4848 2abf 731a a63e 0a73 a4be 5bc6 bbbe
00000010: 46fe 2c3e 2aef bcbe d551 a7be 52fa 73be
00000020: 8a32 ccbf 3a41 cabf 5da7 5dc0 d3bb 303f
00000030: ef01 40be ad5d 01c0 aab8 95bf 9079 4bbf
00000040: c66d 11bb 5c89 45bf 1d00 b9be 9c81 6dbe
00000050: 8afb 2440 670e 84c0 6411 afbf 2a17 07c0
00000060: 2dde 49bf 5aee a83d b13c d8bd 0ec3 993e
00000070: dc84 d4be ba0f dc3d 7ea3 58bf a290 83bd
00000080: 1e59 9ebe aa91 35be dc0e 1dbf b016 193b
00000090: 1f9e ac3f 0f4e 933f 4f49 01bf 1e9b b6bf
000000a0: e870 53bf eb0a 52c0 87ef 0d3f 06c3 3a3c
000000b0: a03c aabe ce15 40c0 b298 71c0 661b 4640
000000c0: 83d9 853e bb68 223e 957b aebe 53c0 2f3f
000000d0: bc2c d5bd cbb7 ddbe 7f54 a9be fe32 323f
000000e0: e8d5 0e38 2094 c4bd aaaa 96be 44d0 3dbe
000000f0: ab75 18bf 63da 0fbf bde5 d33e 57da 1a3f
00000100: ff9b d03e 8120 47bf 3cd0 c33e ff16 e0be
00000110: c79d 5940 0766 f2c0 18dd 893e 1cc2 6c3e
00000120: 527b e23e b97d 613c dc05 9b3f 7e5a 38c0
00000130: 439b 06bd adcc 16bf 2fc9 a23f 710d 6bc0
00000140: b5b1 433f 8f73 e9c0 aea9 ad3e 0b4f 28c0
00000150: 19d1 22bf fc98 3c3d e8be b3bf b603 7640
00000160: 2228 00c0 3099 ddbf a607 33bf 8753 893e
00000170: f047 3d40 0bff 2cc0 8169 9ebf 6568 4540
00000180: 6e97 05c0 6ee1 d4bf 9892 0e40 6696 93bf
00000190: 10be ef3e 6dd7 f4be d1af d23e 904c f7be
000001a0: 9a1d 7e40 baa5 16c0 b09f 543f 94bc 1940
000001b0: 59e3 3f3e ee14 debd 72a5 9bbf 5169 6cc0
000001c0: 05a0 2abf ac18 8bbe 3cc8 a440 75c0 5bc0
000001d0: 33f0 a03f 8e2e aec0 19c4 0b3d fd6d 4940
000001e0: f39b 7f3e 6f0f b9be 172e 87bf aeac 9dbf
000001f0: dbd5 38bf 7b7f 9d3e dec7 26c0 0580 503e
00000200: 0c24 923f 3463 da3f 6f32 1840 243a 84c0
00000210: 0b1f 2e3f 0eb4 f7bd 6025 29bf 10b2 323f
00000220: 28f5 af3e 5e6e f7bf 5111 623e b74d 7fbf
00000230: 220b a3bf 7020 6ebf 57d7 c1bd 07c9 263e
00000240: 66d2 17bf da3c ad3c 5a13 6e3f 178e 2cc0
00000250: 7cbf 25bf a5f5 bf3e b5b4 0640 587c 80c0
00000260: fba5 ad3f f2e1 bf3f b35c 063e ea90 d4be
00000270: f713 a63d 3fc1 c63f 1351 f83e 96fd 0cbf
00000280: 9b92 e43f 54b1 883f 52a9 abbd 0261 033e
00000290: 1552 1a3f 621c 0dbf cabd 093f b151 07bf
000002a0: fc1f 593d bdfa fcbe

bias f4 [85]
-0.15502134 -0.03213284 -0.08459496 -0.11170584 0.08223082 0.48361143 0.5390293 0.19942312
-0.14940171 -0.2554811 0.27068612 0.114999816 -0.16897935 -0.6166894 -0.5696147 -0.32947212
-0.2766557 -0.012975244 -0.36661097 0.4953091 0.42667294 -0.23450623 0.4037771 0.3038699
-0.54270315 -0.5460464 -0.5721023 -0.3875088 -0.27525988 -0.053223547 -0.17196284 -0.35726467
-0.49199566 -0.255792 -1.1917623 -0.5400184 -0.50628906 0.19288394 -0.2635199 0.34789908
-0.35349146 0.42708284 -0.51785636 -0.4868904 0.13345811 -0.3491916 -0.095205225 0.0051515675
0.14780758 -0.52881205 -0.24721976 -0.61672705 -0.24916095 -0.524471 -0.46213597 0.35518152
-0.6040266 -0.08532549 -0.76634365 -0.45971838 -0.44365913 0.6360188 -0.17708704 0.62827295
-0.43042433 0.2418306 -0.30393988 -0.15906018 0.4221067 -0.28570655 0.6439512 -0.3713997
-0.02575046 0.18168584 -0.18779978 0.2404744 -0.43692967 -0.6535293 -0.11011152 -0.32071316
-0.5451263 -0.50517124 -0.7014034 -0.26704812 -0.067726195
00000000: eabd 1ebe ba9d 03bd 1f40 adbd 08c6 e4bd
00000010: a268 a83d eb9b f73e d3fd 093f 9335 4c3e
00000020: c3fc 18be 6bce 82be 5f97 8a3e 0685 eb3d
00000030: ec08 2dbe 5bdf 1dbf 45d2 11bf 92b0 a8be
00000040: d1a5 8dbe 1e96 54bc 6fb4 bbbe 2899 fd3e
00000050: e074 da3e 6722 70be dfbb ce3e d694 9b3e
00000060: 98ee 0abf b2c9 0bbf 4c75 12bf 8e67 c6be
00000070: ddee 8cbe ef00 5abd 0717 30be 65eb b6be
00000080: dbe6 fbbe 2bf7 82be ab8b 98bf a53e 0abf
00000090: 299c 01bf 5e83 453e 15ec 86be d41f b23e
000000a0: d5fc b4be 9aaa da3e 3c92 04bf b349 f9be
000000b0: 3ea9 083e 3ec9 b2be f5fa c2bd 7bce a83b
000000c0: df5a 173e 3a60 07bf 2d27 7dbe d3e1 1dbf
000000d0: 0c24 7fbe bb43 06bf 169d ecbe 5ada b53e
000000e0: 7da1 1abf 21bf aebd 192f 44bf 3560 ebbe
000000f0: 4a27 e3be 21d2 223f 4e56 35be 7fd6 203f
00000100: 9460 dcbe 71a2 773e 029e 9bbe ace0 22be
00000110: 5f1e d83e 2148 92be fcd9 243f 1a28 bebe
00000120: a1f2 d2bc da0b 3a3e 964e 40be ec3e 763e
00000130: 3fb5 dfbe b24d 27bf 2682 e1bd 8434 a4be
00000140: 668d 0bbf e752 01bf 2c8f 33bf 88ba 88be
00000150: 08b4 8abd

weight f4 [85, 85]
-0.031984065 0.09965573 -0.023667019 0.06967993 -0.21635148 -0.3170562 -0.18969361 -0.1335037
-0.29378152 -0.29646423 -0.08336148 0.08715289 -0.26125732 0.06526841 -0.013876182 -0.2245984
0.008149366 0.035044465 -0.27087772 -0.2078137 -0.31599197 0.07516813 -0.12918405 -0.16848744
0.018383913 0.035722908 -0.07847978 -0.027102577 -0.010354912 -0.060359396 -0.080114596 0.072955616
0.3409463 -0.098506846 -0.19430584 -0.233818 0.103038535 -0.1545658 -0.10850494 -0.25884965
-0.14110163 -0.13214628 -0.10242676 -0.31479228 -0.203232 0.059226114 -0.2757583 -0.21557987
-0.22476313 -0.19781841 -0.058283746 0.06117862 -0.14307904 -0.30032083 0.0010507486 -0.21776168
0.034829892 -0.12501234 -0.1910248 -0.25495315 0.09741619 -0.26542792 -0.24203469 -0.24062629
-0.31176618 -0.21128933 -0.073591 0.011152464 -0.19881062 -0.17751852 -0.31587696 -0.103018574
0.049906734 0.39660358 -0.09624905 -0.18297704 -0.30102983 0.0067998297 -0.14405653 0.08228381
-0.30687404 -0.14688239 0.056653254 -0.20568822 0.10507317 -0.0430797 -0.025241578 -0.05481986
0.015607802 2.7298293 -2.521888 1.0627224 -0.02509264 0.6616408 0.18198134 2.7293231
2.0462315 -0.043946195 0.039472457 0.006990988 0.076149605 -0.009632962 -0.068456575 -0.358018
0.5789334 1.4457653 -0.07148974 1.335476 -3.9211361 0.028567333 0.05363006 -0.095145755
-0.07100919 -0.077978455 0.09116574 0.092208534 0.006790016 0.10182779 -0.03626036 2.5562074
0.03788635 0.03842582 1.028661 -3.1394193e-05 1.6152784 5.456362 0.83541775 -0.10763353
-0.30304834 0.60176027 0.097240284 1.1632502 -0.08575147 3.4719086 0.282801 -0.09742275
-0.039322793 -2.5557597 -0.30041674 -0.03334543 1.7332395 0.013582941 0.6021875 2.3292675
-0.5076028 -0.09015611 0.20221725 -0.101073764 -0.16457692 -0.31522563 2.1290684 -0.044990946
-0.01948973 1.2967044 -0.05987439 -0.12180646 -0.015224231 0.03102058 0.75151855 -0.054164253
1.9713562 -0.5953963 -0.06768071 -0.22205818 -0.0076582697 -0.23940125 0.025670003 0.08117359
-0.003575602 -0.08014552 0.048484933 -0.073304914 -0.014908803 -0.035121337 -1.0639694 -0.8012452
-2.0681953 -0.49869737 0.05271787 0.14211166 1.1209847 -0.90242565 -0.014252576 0.07205237
-0.08632246 0.35628432 -0.06179112 -0.0042381515 0.99792886 -1.3734905 -1.4722881 -0.07135905
0.079515554 0.5208597 -0.094339125 -0.04073328 0.001771716 -0.09377714 0.061115224 0.09824047
0.019183353 -0.08059128 0.29264337 0.039374355 0.38854352 0.22022937 -0.09717506 0.39916846
-0.14293754 -0.049472272 -0.14932668 -0.89626914 0.087802276 0.96217066 0.03994925 0.09682145
0.31032655 -0.04852121 -0.7089352 0.8944446 -0.09773671 0.043134782 4.2017274 0.79112005
-0.00048310595 -1.2760465 -0.011708818 0.25196064 -0.10378783 0.8112983 -0.024295822 -2.5785694
0.1063582 0.11702941 0.4298013 0.777283 -0.045318943 -0.06086628 -1.3422467 -0.12982365
-2.1485617 -0.09664421 -0.09613048 -0.5465497 0.06614795 0.7441261 0.6672 -0.006246914
0.5153348 -0.06489689 0.9860234 0.24477123 0.05116011 0.15286036 0.033331826 0.039714366
00000000: b901 03bd 4e18 cc3d 56e1 c1bc 5ab4 8e3d
00000010: 3e8b 5dbe 3155 a2be 0b3f 42be 32b5 08be
00000020: 886a 96be 29ca 97be 6cb9 aabd 377d b23d
00000030: 85c3 85be 72ab 853d ed58 63bc 1ffd 65be
00000040: eb84 053c c98a 0f3d 7cb0 8abe 1dcd 54be
00000050: b3c9 a1be c0f1 993d d348 04be f987 2cbe
00000060: dc99 963c 2f52 123d 02ba a0bd 3906 debc
00000070: a6a7 29bc 6a3b 77bd 1f13 a4bd c169 953d
00000080: 8390 ae3e f5bd c9bd 1cf8 46be fc6d 6fbe
00000090: de05 d33d 7f46 1ebe d737 debd f187 84be
000000a0: f27c 10be 5b51 07be 1fc5 d1bd 742c a1be
000000b0: 0d1c 50be 1597 723d 3130 8dbe f8c0 5cbe
000000c0: 4e28 66be e990 4abe f0ba 6ebd 6f96 7a3d
000000d0: 5083 12be a7c3 99be 46b9 893a ebfc 5ebe
000000e0: caa9 0e3d 3c03 00be 019c 43be 3889 82be
000000f0: 2482 c73d 2be6 87be f1d7 77be bd66 76be
00000100: d19f 9fbe 3b5c 58be e1b6 96bd d3b8 363c
00000110: 0395 4bbe 6ac7 35be a0ba a1be 67fb d2bd
00000120: 016b 4c3d a00f cb3e 391e c5bd 555e 3bbe
00000130: 9520 9abe 1bd1 de3b 8e83 13be 6a84 a83d
00000140: 981e 9dbe 5668 16be 3e0d 683d ef9f 52be
00000150: 9a30 d73d 5774 30bd 6dc7 cebc ca8a 60bd
00000160: deb7 7f3c 86b5 2e40 9d66 21c0 4a07 883f
00000170: 158f cdbc 4b61 293f 5159 3a3e 3bad 2e40
00000180: 75f5 0240 ed00 34bd dfad 213d a814 e53b
00000190: 53f4 9b3d 92d3 1dbc f632 8cbd 234e b7be
000001a0: fb34 143f d60e b93f 3669 92bd e1f0 aa3f
000001b0: e5f3 7ac0 0a06 ea3c 32ab 5b3d c7db c2bd
000001c0: 446d 91bd 2bb3 9fbd 1ab5 ba3d d4d7 bc3d
000001d0: c87e de3b 178b d03d be85 14bd e798 2340
000001e0: b82e 1b3d 6564 1d3d 2aab 833f 42ad 03b8
000001f0: 71c1 ce3f 849a ae40 f0dd 553f f86e dcbd
00000200: 2729 9bbe f60c 1a3f ea25 c73d 62e5 943f
00000210: 779e afbd c033 5e40 4bcb 903e 9485 c7bd
00000220: f010 21bd 9191 23c0 39d0 99be 3895 08bd
00000230: cbda dd3f fc8a 5e3c f628 1a3f b812 1540
00000240: 42f2 01bf c4a3 b8bd 0a12 4f3e c3ff cebd
00000250: da86 28be 4165 a1be a842 0840 6d48 38bd
00000260: eda8 9fbc 69fa a53f d93e 75bd aa75 f9bd
00000270: 0e6f 79bc df1e fe3c 8563 403f 56db 5dbd
00000280: 6655 fc3f e46b 18bf 2f9c 8abd 3863 63be
00000290: 39f2 fabb 9a25 75be e649 d23c 573e a63d
000002a0: a654 6abb 5623 a4bd 2398 463d e320 96bd
000002b0: 0d44 74bc 64db 0fbd 2630 88bf 681e 4dbf
000002c0: 505d 04c0 4355 ffbe b1ee 573d b885 113e
000002d0: 6d7c 8f3f 5e05 67bf a383 69bc 3190 933d
000002e0: d4c9 b0bd e66a b63e af18 7dbd 31e0 8abb
000002f0: 4478 7f3f 89ce afbf f073 bcbf b224 92bd
00000300: 0dd9 a23d 1057 053f df34 c1bd f1d7 26bd
00000310: ed38 e83a 3b0e c0bd f553 7a3d 4d32 c93d
00000320: 6826 9d3c 0a0d a5bd 5ad5 953e 0147 213d
00000330: 2def c63e cf83 613e b803 c7bd cf5f cc3e
00000340: 385e 12be 70a3 4abd 18e9 18be e571 65bf
00000350: aed1 b33d d150 763f d3a1 233d 534a c63d
00000360: 1fe3 9e3e 2dbe 46bd c77c 35bf 52fa 643f
00000370: 2f2a c8bd 19ae 303d 8d74 8640 d886 4a3f
00000380: 6249 fdb9 7e55 a3bf 58d6 3fbc fc00 813e
00000390: b78e d4bd 3fb1 4f3f 0808 c7bc 4807 25c0
000003a0: 54d2 d93d 1ead ef3d ea0e dc3e 05fc 463f
000003b0: 5ba0 39bd ec4e 79bd bdce abbf 7ef0 04be
000003c0: 0982 09c0 66ed c5bd 0fe0 c4bd aeea 0bbf
000003d0: 9478 873d 0c7f 3e3f 9fcd 2a3f eab2 ccbb
000003e0: fbec 033f a9e8 84bd 086c 7c3f 4fa5 7a3e
000003f0: 438d 513d 6d87 1c3e f486 083d 88ab 223d

bias f4 [85]
-0.24060364 0.20328486 -0.61090595 -0.33066112 -0.3119891 1.5453539 -0.39076 0.023838244
-0.1735932 -0.92702305 -0.2511887 -0.04536915 -0.735567 -0.663195 -0.35585293 -0.22770771
-0.2822138 -0.13322401 -0.29721305 -0.13584499 0.26739383 -0.23987317 -0.22717641 0.5753828
-0.25947824 -0.1897747 -0.055233724 -1.7566333 -0.4089777 0.15222634 -0.29742283 -0.0859075
0.70327955 -0.31679583 -0.51426 -0.26875386 -0.060776923 -0.9990245 -0.21169062 -0.11640767
-0.2821095 -0.26833922 -0.24947709 -0.28731748 -0.32930878 -0.6164397 -0.85040724 -0.7212818
-0.3699662 0.56704575 -0.23397832 -0.37391084 -0.38587126 -0.20314065 -0.27452943 -0.6688421
0.30929866 -0.2999104 -0.88877124 -0.07560895 -0.10714774 -1.2497718 -0.26752084 -0.35651466
-0.27952766 -0.22185971 -0.36260682 -0.10534728 -0.81901354 -0.8081006 -0.30761716 -0.20817022
-0.23190793 -0.20195262 -0.05394182 -0.18910795 -0.9558835 -0.42413372 -0.24721211 -0.04640853
-0.20069192 -0.23081397 -0.2460227 -0.19232783 -0.25429636
00000000: cd60 76be e829 503e 5564 1cbf 6a4c a9be
00000010: 09bd 9fbe 28ce c53f b211 c8be 6c48 c33c
00000020: 6ac2 31be 6251 6dbf ce9b 80be 00d5 39bd
00000030: 1e4e 3cbf 26c7 29bf 5b32 b6be 362c 69be
00000040: 547e 90be e06b 08be 4f2c 98be f31a 0bbe
00000050: d8e7 883e 50a1 75be efa0 68be 4a4c 133f
00000060: 55da 84be 4d54 42be c23c 62bd 5cd9 e0bf
00000070: 8665 d1be 39e1 1b3e ce47 98be 45f0 afbd
00000080: 210a 343f 1033 a2be 8ba6 03bf 1b9a 89be
00000090: 39f1 78bd 12c0 7fbf 6dc5 58be 2567 eebd
000000a0: a870 90be c263 89be ec76 7fbe 471b 93be
000000b0: 299b a8be fece 1dbf 4ab4 59bf eda5 38bf
000000c0: 366c bdbe e929 113f 0398 6fbe 3e71 bfbe
000000d0: eb90 c5be 1a04 50be 1f8f 8cbe 3c39 2bbf
000000e0: 655c 9e3e db8d 99be 8386 63bf ddd8 9abd
000000f0: 4670 dbbd 86f8 9fbf 7ef8 88be 1789 b6be
00000100: 401e 8fbe 312f 63be 9aa7 b9be 51c0 d7bd
00000110: dfaa 51bf aedf 4ebf ff7f 9dbe 932a 55be
00000120: 4679 6dbe abcc 4ebe 19f2 5cbd 84a5 41be
00000130: c8b4 74bf 0e28 d9be 2c25 7dbe df16 3ebd
00000140: 2f82 4dbe 7f5a 6cbe 60ed 7bbe 96f1 44be
00000150: 2233 82be

weight f4 [85, 85]
0.30790493 -2.4488645 0.35738796 0.19585171 0.2360905 5.3751564 0.27398613 -2.415615
0.17027834 -0.9981271 0.34524348 0.06905532 0.81447464 0.5146691 0.3156866 0.3305997
0.220373 0.5256524 0.2336371 0.46697792 1.3974748 -0.23498555 0.290025 1.438209
0.24612036 0.17158763 3.650456 -1.6536835 -0.117691875 1.8648686 0.4720335 0.45017406
3.6444397 -0.38359597 -1.715428 0.2539394 0.029837415 0.96870434 0.3066877 0.45693436
0.18781164 0.21969344 0.2299296 -0.21026893 0.20922945 0.52802765 -0.74626124 0.35878342
0.20715824 -1.9772849 0.25772214 0.28764746 0.22112702 0.21508375 0.31507176 -0.83444685
1.6521661 -0.15732133 -0.7507831 0.49706563 0.07213692 -1.1127877 0.19923034 0.4866133
0.3134441 -2.1515067 0.26801813 0.5208695 -0.67657304 -0.7942411 0.25972927 0.24195981
0.40616876 0.19565919 -0.07190724 0.06276326 -0.84288245 0.3230657 -0.24933429 0.04042989
0.21267344 0.18261817 0.23674834 0.23086843 0.25185817 0.041202746 -0.21475978 -2.3739655
0.33258393 0.25908586 -4.4659705 0.34626228 0.024026379 -0.38384393 0.9379063 0.19892706
0.057637464 0.7453733 -0.52926165 0.40761662 0.32262865 -0.3140758 0.2657023 -0.34905195
0.10666548 1.691542 -0.18739225 0.30822313 2.0284607 0.24624449 0.16312708 -1.0698215
-1.3633966 -0.47800398 1.4316425 0.49057886 0.2777737 1.0545015 0.27442428 -3.3902903
0.2015333 0.09426505 -1.0565106 0.20251976 0.17355007 -0.28135544 -0.2863571 0.38878852
-0.38345712 0.28637242 -0.44187665 -0.6757934 0.33499143 0.29090604 0.96576416 0.26247954
0.36704677 0.1959209 0.24216555 0.34999406 0.28591695 0.9399368 -0.317055 -0.77135336
0.2147301 -0.07703703 1.2397835 0.25081208 0.40004596 0.33687407 -1.0041935 0.2902711
0.21463034 -0.7779606 -0.9922256 0.3697032 0.2469721 0.27118814 0.30828893 0.035142515
0.20906538 0.88288826 -0.48452732 -0.30729705 -0.0967962 0.19344182 -0.23331124 0.34255016
0.30180812 0.21013395 0.25102007 -0.526054 1.7542304 -0.27901945 -0.31644505 0.76046324
-0.23796144 -0.27690235 0.44122308 -1.2337779 -0.38825098 0.01871377 -0.7541017 0.6739979
-0.19243771 -0.23122214 -0.21282627 0.15115152 0.38483208 0.39110887 0.2378953 -0.24444231
-0.36456627 0.4584297 -0.2646816 -0.18638945 -0.5640769 2.1622643 0.20971957 -1.882997
-0.09459318 0.014231093 0.015242763 0.32474124 -0.29654676 -0.26306954 0.06847672 -1.1368461
-0.25547877 0.35396874 0.31152537 0.34825417 -0.38922396 -0.3353139 -0.34781358 -0.54480267
-0.7671928 -0.38144735 -0.28614256 1.7636031 -0.3509334 -0.29909128 -0.26343995 -0.2828738
-0.3721775 -0.73035926 -0.6656709 -0.30379206 -0.735757 0.2997134 0.05640352 1.2223991
-0.3022083 -0.072679654 -0.30075923 -0.013001091 -0.28711873 0.33512112 -0.6971162 0.7160183
-0.20548843 0.30355567 0.114415325 -0.3414545 -0.0404869 0.29616845 -0.94255286 0.5074643
-0.1757453 -0.10302313 -0.30147338 0.2790338 -0.22918579 -0.33671895 -0.40628016 -0.31022808
00000000: b7a5 9d3e 32ba 1cc0 8efb b63e 5a8d 483e
00000010: b5c1 713e 4801 ac40 e947 8c3e 7099 1ac0
00000020: 725d 2e3e 4285 7fbf c1c3 b03e e06c 8d3d
00000030: 6981 503f 5bc1 033f ada1 a13e 5d44 a93e
00000040: 76a9 613e 2891 063f 903e 6f3e bb17 ef3e
00000050: 74e0 b23f 0da0 70be 287e 943e 3c17 b83f
00000060: fa06 7c3e abb4 2f3e 12a1 6940 e7ab d3bf
00000070: 7008 f1bd 04b4 ee3f 60ae f13e 377d e63e
00000080: 803e 6940 b166 c4be 2593 dbbf 5804 823e
00000090: 986d f43c 02fd 773f 2c06 9d3e 4df3 e93e
000000a0: b251 403e 51f7 603e aa72 6b3e bd50 57be
000000b0: 3f40 563e d22c 073f fa0a 3fbf 76b2 b73e
000000c0: 4a21 543e ac17 fdbf 28f4 833e 8746 933e
000000d0: 1f6f 623e ea3e 5c3e 1651 a13e 4f9e 55bf
000000e0: 2e7a d33f d818 21be 5233 40bf 637f fe3e
000000f0: 86bc 933d d46f 8ebf 0a03 4c3e 6125 f93e
00000100: bf7b a03e 49b2 09c0 ac39 893e b457 053f
00000110: e433 2dbf 6253 4bbf 3cfb 843e 50c4 773e
00000120: 5af5 cf3e e25a 483e 1a44 93bd 068a 803d
00000130: 25c7 57bf de68 a53e 7d51 7fbe d099 253d
00000140: 11c7 593e 4200 3b3e 286e 723e c668 6c3e
00000150: 8ef3 803e 36c4 283d fde9 5bbe 0def 17c0
00000160: 7148 aa3e e7a6 843e 3be9 8ec0 4a49 b13e
00000170: f8d2 c43c 3187 c4be a11a 703f 89b3 4b3e
00000180: 4315 6c3d c9d0 3e3f b17d 07bf 20b3 d03e
00000190: 952f a53e 8bce a0be 220a 883e f0b6 b2be
000001a0: 6e73 da3d 7384 d83f c1e3 3fbe 6ccf 9d3e
000001b0: 4dd2 0140 8427 7c3e c90a 273e e9ef 88bf
000001c0: c883 aebf f0bc f4be 1040 b73f 272d fb3e
000001d0: 5b38 8e3e e8f9 863f 5781 8c3e 84fa 58c0
000001e0: bf5e 4e3e 090e c13d bd3b 87bf 5761 4f3e
000001f0: 1cb7 313e d20d 90be 669d 92be 4a0f c73e
00000200: 7e54 c4be 689f 923e a83d e2be cc00 2dbf
00000210: ff83 ab3e a3f1 943e 523c 773f b863 863e
00000220: 8eed bb3e 7d9f 483e 3ffa 773e 6c32 b33e
00000230: b563 923e b39f 703f 0855 a2be 6a77 45bf
00000240: 35e2 5b3e 97c5 9dbd 3ab1 9e3f 716a 803e
00000250: d3d2 cc3e c27a ac3e 6a89 80bf 6a9e 943e
00000260: 0ec8 5b3e 6d28 47bf 7f02 7ebf bd49 bd3e
00000270: 41e6 7c3e 2cd9 8a3e 0cd8 9d3e 99f1 0f3d
00000280: 3c15 563e f704 623f f713 f8be 0a56 9dbe
00000290: 163d c6bd 9d15 463e 24e9 6ebe bc62 af3e
000002a0: 9886 9a3e 5b2d 573e b485 803e 7aab 06bf
000002b0: 9f8a e03f a3db 8ebe 1605 a2be b8ad 423f
000002c0: 2aac 73be 25c6 8dbe fee7 e13e 6fec 9dbf
000002d0: d5c8 c6be 9f4d 993c cf0c 41bf 208b 2c3f
000002e0: 640e 45be 7fc5 6cbe 21ef 59be 77c7 1a3e
000002f0: b608 c53e 6c3f c83e d39a 733e 164f 7abe
00000300: 6ea8 babe 4cb7 ea3e 5984 87be e0dc 3ebe
00000310: 5867 10bf 8a62 0a40 bac0 563e 0c06 f1bf
00000320: 12ba c1bd 8829 693c c8bc 793c 7c44 a63e
00000330: fad4 97be 0db1 86be 863d 8c3d 2c84 91bf
00000340: 1dce 82be 643b b53e 4180 9f3e 5f4e b23e
00000350: 5d48 c7be 43ae abbe 9f14 b2be 3078 0bbf
00000360: bf66 44bf 114d c3be 4781 92be bfbd e13f
00000370: 8bad b3be 7e22 99be 9ae1 86be d6d4 90be
00000380: 0d8e bebe d3f8 3abf 6869 2abf a28a 9bbe
00000390: 925a 3cbf 0974 993e 6107 673d 9377 9c3f
000003a0: 0cbb 9abe 12d9 94bd 1dfd 99be 8702 55bc
000003b0: 3a01 93be ff94 ab3e 3576 32bf fa4c 373f
000003c0: 8f6b 52be a66b 9b3e 9552 ea3d 20d3 aebe
000003d0: 97d5 25bd 64a3 973e 254b 71bf 2ee9 013f
000003e0: 93f6 33be cafd d2bd b85a 9abe 85dd 8e3e
000003f0: aeaf 6abe 6d66 acbe f403 d0be 37d6 9ebe

bias f4 [85]
-0.83024627 1.7755312 1.6320868 1.1520637 1.7695254 -0.080292456 -0.31124824 -0.06285595
-0.57750976 -0.29493615 -0.64986205 -0.28997102 0.21477781 0.10691252 -0.11251487 0.03296994
0.0073522404 0.15132692 0.07841947 0.14307222 -0.035128288 0.12219427 -0.04277898 -0.08651469
-3.5246252e-05 0.014838668 0.007863663 0.016752295 -0.01939416 -0.05007969 -0.037626434 -0.00045190437
-0.004875264 0.0051931017 -0.0016560976 0.0045620697 -0.0059726844 0.011767293 0.0065873484 -0.0056518307
-0.01186563 0.0018502502 0.0018537327 -0.008437498 -0.0070750206 0.0006872485 0.009154912 -0.005852743
-0.0069116326 0.023572795 0.0006980407 5.7017314e-05 -0.008797796 0.0017652047 -0.0035349787 0.00055133854
0.0046654353 -0.004017571 -0.002794993 0.00019657356 0.0058756084 0.0041525667 0.004740337 -0.005437183
-0.0042668507 0.0009587886 0.0031874746 0.008515589 0.0018445957 -0.014938111 -0.014089883 -0.0027401557
0.0038723638 0.00021413535 0.004210284 0.010041888 -0.0024438272 0.0038898198 0.0013169363 0.0010794529
0.0058049387 -0.017386645 -0.00040272006 -0.004195245 0.00076247053
00000000: 058b 54bf 9b44 e33f 38e8 d03f d376 933f
00000010: cf7f e23f 5f70 a4bd ee5b 9fbe 9fba 80bd
00000020: aed7 13bf df01 97be 5c5d 26bf 1577 94be
00000030: b7ee 5b3e f4f4 da3d 326e e6bd 7d0b 073d
00000040: 10eb f03b 72f5 1a3e 639a a03d 8681 123e
00000050: aee2 0fbd fd40 fa3d 0339 2fbd 9d2e b1bd
00000060: 60d5 13b8 e21d 733c 98d6 003c 1c3c 893c
00000070: 80e0 9ebc 5c20 4dbd 2d1e 1abd 94ed ecb9
00000080: aec0 9fbb e52a aa3b 6a11 d9ba 6a7d 953b
00000090: 82b6 c3bb 9bcb 403c afda d73b fe32 b9bb
000000a0: 0f68 42bc 1884 f23a f3f8 f23a 6e3d 0abc
000000b0: 93d5 e7bb 7728 343a 7cfe 153c 5ec8 bfbb
000000c0: fa7a e2bb bc1b c13c b8fc 363a e025 6f38
000000d0: a224 10bc 715e e73a 1aab 67bb b487 103a
000000e0: 82e0 983b d4a5 83bb 342c 37bb 501f 4e39
000000f0: 2d88 c03b 4112 883b d454 9b3b 662a b2bb
00000100: f0d0 8bbb 3757 7b3a f3e4 503b f884 0b3c
00000110: 5cc6 f13a fbbe 74bc 41d9 66bc 2f94 33bb
00000120: 7cc7 7d3b 8589 6039 6cf6 893b bb86 243c
00000130: 9e28 20bb 59ec 7e3b 0d9d ac3a 6e7c 8d3a
00000140: 5b37 be3b 706e 8ebc 2c24 d3b9 4478 89bb
00000150: 88e0 473a
