Results/Nodes_1024/model_weights_with_Jacobian.pth (torch, 127856 bytes, 8 tensors)

weight f4 [100, 2]
000000 4d be 0b bf ad 27 8d be 2c 44 35 3f 31 a5 38 bf
       -0.5458725 -0.27569333 0.7080715 -0.7212706
000010 ef e3 18 3f 9c c7 f1 3e 11 25 98 be 78 76 5e bd
       0.597228 0.47222602 -0.2971578 -0.0543122
000020 46 22 bf be 1d 85 0d 3f 95 4a fb bd 9e 12 33 3e
       -0.37330836 0.5528124 -0.12270085 0.1748757
000030 6f e9 eb be 1f 7c 59 3f 96 7e ae bc 9f a3 02 3f
       -0.46076533 0.8495502 -0.021300595 0.51030916
000040 4b 17 52 3e 3f 15 80 3b 3f eb 48 3f b1 c6 20 be
       0.20516698 0.0039087827 0.7848396 -0.15700795
000050 ec cd 39 3d ae 66 8c be 07 de 70 be ef f2 0f bf
       0.045362398 -0.27422088 -0.23522197 -0.5623006
000060 6c cb 32 bf f2 47 1a 3f f7 39 1a 3f a0 27 c1 be
       -0.6984165 0.6026603 0.602447 -0.37725544
000070 f6 75 10 3f c2 b0 31 bf 63 cc 36 bf 07 df 31 3f
       0.56429994 -0.69410336 -0.7140562 0.6948094
000080 e4 9a fa 3d a9 06 a5 3d 04 2c 1b bf 3d 02 9e 3f
       0.12236574 0.08057911 -0.6061404 1.2344433
000090 ab ae 19 3e bc 8d 67 bd 6b e8 38 3f 55 d8 9d bb
       0.15008037 -0.056531653 0.7222964 -0.0048170486
0000a0 f3 28 2d bf 87 00 9e 3e f3 7e 84 3e 73 27 21 bf
       -0.6764061 0.30859777 0.25878105 -0.6295082
0000b0 b3 26 fb 3d 23 a7 a5 3c c7 93 dc bd 1a 6d d9 bd
       0.12263241 0.020221299 -0.10770374 -0.106165126
0000c0 47 6e d0 3e 1f f0 ed 3d b0 6a 41 bf 5a 29 4f 3f
       0.40709135 0.11618065 -0.7555342 0.8092247
0000d0 c9 97 b5 3e b4 52 30 bf 99 77 f8 3e 54 36 37 bf
       0.35467365 -0.68876195 0.48528746 -0.71567273
0000e0 03 c9 21 be 5e 9a 68 be e3 5e 74 be 19 84 e7 3d
       -0.15799336 -0.22715136 -0.23864321 0.113044925
0000f0 11 9f 05 3d 3e 86 a7 3e 3f ad 55 3e cf 82 21 bf
       0.0326224 0.32719606 0.2086687 -0.63090223
000100 96 87 87 3e 9d 3a 07 be 43 71 32 be e7 4d 1c bf
       0.2647063 -0.13205953 -0.17426018 -0.6105637
000110 cd 1f 27 bf 73 2e fa 3e 26 3f ba be 32 8f c7 3e
       -0.652829 0.48863563 -0.36376303 0.38976437
000120 f9 d6 f6 3e a9 9c 7e 3e 5b a6 7b be 83 c9 af be
       0.48210886 0.24864449 -0.24575178 -0.3433343
000130 65 bc 13 3f 60 3d 1d 3f 6e de 7b be dd 84 8d 3f
       0.5770934 0.61421776 -0.24596569 1.1056172
000140 08 41 18 bf 2c f0 c9 3c 67 c9 20 bf 27 1d 3c 3e
       -0.5947423 0.024650656 -0.62807316 0.18370496
000150 67 83 91 3d 73 c8 33 bf f9 65 32 be 75 49 38 bd
       0.07105141 -0.70227736 -0.17421712 -0.04499193
000160 47 7e 7b be 36 b1 dd 3e a8 f4 15 bf 76 e2 f7 be
       -0.2455989 0.43299264 -0.5857644 -0.48414963
000170 24 d0 2b be 30 9c e2 3e 89 4e 16 bf 6b e3 e0 3e
       -0.16778618 0.44259787 -0.58713585 0.43923506
000180 12 3e 72 3e 1f d3 02 3f 09 2b aa be e5 ae f3 be
       0.2365649 0.51103395 -0.33235958 -0.4759437
000190 3c f7 61 3e db 64 41 3e 1e c2 32 3f 82 84 47 3d
       0.22066969 0.1888613 0.6982745 0.048710354
0001a0 42 86 a9 3e c7 6e 49 be 33 a6 b4 bc 22 57 ea be
       0.33110243 -0.19671164 -0.022051906 -0.45769602
0001b0 cd b9 ea 3e 69 c5 88 3e cb 9b 20 bf c6 95 ae 3e
       0.4584488 0.26713112 -0.6273772 0.34098643
0001c0 26 07 e9 3e c2 55 e5 3e e8 87 b1 3e c8 0d 2b bf
       0.45513266 0.4479199 0.34674 -0.66817904
0001d0 48 42 74 be 05 e5 52 3f d6 32 a3 be 84 1b 5a be
       -0.2385341 0.82380706 -0.31874722 -0.21299559
0001e0 ca 45 7b be da b2 09 3f f8 7e e4 be 9d c4 d4 3d
       -0.24538341 0.5378853 -0.4462812 0.103890635
0001f0 e2 a4 29 3f af 3a 2d 3f cd 54 95 3e df f1 05 3f
       0.66267216 0.6766767 0.2916626 0.5232219
000200 13 e7 09 bf 51 5a 73 3d 6a cb 01 bf ab 60 ad be
       -0.53868216 0.059412304 -0.5070101 -0.33862814
000210 47 da 25 3f ac 6f 15 3f b5 4b 18 3f 3e e4 ea be
       0.6478619 0.5837352 0.5949052 -0.4587726
000220 b9 1b 88 be 1f 7a 3e 3f 28 17 b0 3e 48 e7 c5 be
       -0.2658365 0.7440509 0.34392667 -0.38653016
000230 a3 b5 07 3f 97 9f 86 be 32 2e 25 3f f3 e6 bd be
       0.5301153 -0.26293632 0.64523613 -0.37090263
000240 a5 1d 80 3d 77 a0 94 be 5d dc df be 96 45 28 be
       0.06255654 -0.29028675 -0.4372281 -0.16432795
000250 0c d0 45 3e 43 a6 6b be 0e 48 36 3f 6d d6 b9 be
       0.19317645 -0.23012643 0.71203697 -0.36296406
000260 1f d3 88 be aa d6 eb be c6 b8 ef be 52 24 31 3f
       -0.26723573 -0.46062213 -0.46820658 0.69196045
000270 f3 24 2d 3f 39 f8 0b bf 68 2c 82 3e 81 03 d2 3e
       0.67634505 -0.5467563 0.25424504 0.41018298
000280 5b 05 bb be 3d 0d 2d bf 38 a8 43 3e 00 2c 35 bf
       -0.36527523 -0.67598325 0.19107139 -0.70770264
000290 5b cd cb be ed a6 92 3f e0 2f 38 3c fb 0f 0a 3f
       -0.3980511 1.1457192 0.011241883 0.53930634
0002a0 7d eb dc 3e 88 f7 f3 3e d3 e7 53 be 1f 6a b4 be
       0.43148413 0.4764979 -0.20693903 -0.35237214
0002b0 9e 1e 25 bf 4e 32 d4 be d3 e6 c2 3e 01 63 9e 3e
       -0.64499843 -0.4144463 0.3806673 0.3093491
0002c0 f8 cc cd be fa f1 d0 3d 2f 0d 2b be 1c d5 c6 3e
       -0.4019544 0.10202403 -0.16704248 0.38834465
0002d0 fc 86 c5 be 39 41 e9 bc 1f e3 6f 3e 86 8b 26 3e
       -0.38579547 -0.028473483 0.23426484 0.16264161
0002e0 38 c4 42 be c9 d0 d0 3e 54 4e 01 bf a9 ed c0 bd
       -0.19020164 0.4078429 -0.50510144 -0.0942033
0002f0 8a c6 3c bf 5a 5d ce 3e 7f db b2 be bf 3c b5 3e
       -0.73740447 0.40305597 -0.34933087 0.35397908
000300 f2 0d 68 bd 3f 56 98 be 5e af 33 3f 71 c9 0d bf
       -0.056653924 -0.297533 0.70189464 -0.553855
000310 02 9d 8d 3e 3f b1 2a 3f 9e ae 28 bf 6d 45 92 3e
       0.2765885 0.66676706 -0.65891445 0.28568593

bias f4 [100]
000000 a2 e8 1e bf 9e 00 a0 3e d2 94 e4 be df 89 55 be
       -0.6207372 0.3125047 -0.4464479 -0.20853375
000010 db 20 b3 be fe 5b a0 3e d9 f7 17 3c f6 2d 11 bf
       -0.34986004 0.31320184 0.0092754 -0.56710756
000020 1a 36 07 bf 11 fc 0e be 9f 43 e0 be e3 d8 06 3e
       -0.5281693 -0.13963343 -0.4380159 0.13168673
000030 4e 40 ff 3e 96 42 8a 3e b2 95 2b 3e 1c 95 27 3f
       0.49853748 0.27003926 0.16756323 0.654619
000040 8a 84 13 3e f9 34 d9 bd 39 73 07 bf b0 d7 4b 3c
       0.14406028 -0.10605807 -0.5291019 0.012441561
000050 51 08 06 bf ee a4 ba bd 42 7a 0f bf 96 2a b0 be
       -0.5235644 -0.09113489 -0.56045926 -0.3440749
000060 43 06 96 be 47 41 74 3d 46 68 04 3e 90 0a 8e bd
       -0.29301652 0.059632566 0.12930402 -0.069356084
000070 88 89 b3 be b8 95 29 bf 38 8b 35 3e 7e b5 22 3f
       -0.35065866 -0.6624408 0.17728889 0.63558185
000080 02 08 c1 3e b6 14 f3 be 88 14 1c bf c2 c2 1c bf
       0.37701422 -0.4747674 -0.6096883 -0.61234677
000090 c4 53 fd be e7 3d ee be 97 c5 0f 3f 9a f3 52 be
       -0.4947797 -0.46531603 0.56160873 -0.20600739
0000a0 a4 34 d2 3e 99 d5 9a 3e 09 dc 75 3e 48 ca 30 bf
       0.41055787 0.30241087 0.24009718 -0.69058657
0000b0 ce f1 31 3f 61 a5 fc 3e b6 b7 28 bf 00 fa ed be
       0.6950959 0.49344924 -0.6590532 -0.46479797
0000c0 8b df 76 3e e8 16 15 be 91 a5 fe be 1f a0 aa 3d
       0.24108712 -0.1455952 -0.49735692 0.08331322
0000d0 7a 11 2a bf 5e e9 0d 3f 71 79 ee 3e 27 6e df 3e
       -0.6643292 0.55434215 0.46577027 0.43638727
0000e0 0a 15 59 3e 9c f8 e0 be 52 34 0f be 0c 91 da 3e
       0.21199432 -0.43939674 -0.13984802 0.42688787
0000f0 cb e0 0b 3e 62 a4 22 3f aa e7 e4 3d 9f 27 10 bf
       0.1365997 0.6353208 0.11176999 -0.56310457
000100 97 5f e6 be 35 99 0e 3f 94 83 a9 3e 63 0f 04 3e
       -0.44994804 0.55702525 0.331082 0.12896495
000110 fb 33 cb 3d 78 f3 c3 3e ee 10 31 bf 31 52 2e bf
       0.09922024 0.3827169 -0.6916646 -0.68094164
000120 67 09 b3 be c3 dc ac be bc 4c a6 bd 05 ce 52 3e
       -0.3496811 -0.33762178 -0.08120105 0.20586403
000130 d2 a8 42 be 2e 3e 40 3c e5 39 0b bf d2 6f 96 be
       -0.19009712 0.011733575 -0.54385215 -0.29382187
000140 cb 85 1e 3f 13 5d 13 3f 0b 59 12 be 48 ee 5a 3e
       0.619229 0.57563895 -0.1429178 0.2137996
000150 41 3d f7 3e 23 35 13 3f 96 fb 6e bc 33 bb e9 be
       0.4828892 0.57502955 -0.01458635 -0.45650634
000160 fd f8 57 be 12 42 b9 3e 0a 76 a5 be 60 35 8f 3e
       -0.21091075 0.3618322 -0.3231662 0.2797041
000170 92 72 02 bf 6c 39 a7 3e 41 1b 03 3f b4 ab ff bd
       -0.5095607 0.32660997 0.5121346 -0.12483922
000180 9b 08 2f 3f a2 18 98 3e 47 3a 97 bd a8 65 1e be
       0.68372506 0.29706293 -0.073841624 -0.15468466

weight f4 [100, 100]
000000 b3 a1 f6 3b 67 21 65 bd 40 76 6e bc 78 3e bd bd
       0.0075266003 -0.055940058 -0.01455456 -0.092404306
000010 ad b1 09 3d cd 2a 40 3c 93 da 9f bd 07 bf b8 bc
       0.03361671 0.0117289545 -0.078053616 -0.022552026
000020 4a 95 0f 3d bd 7f 81 bd 4d 57 25 3d 4a 68 94 bd
       0.035054483 -0.06323192 0.04036646 -0.07246454
000030 33 78 ae 3b 33 e9 5a bc 43 d6 96 bd 0d 24 83 bc
       0.0053243875 -0.013361263 -0.07365086 -0.016008401
000040 6a c4 42 bd 20 ad 93 bc b3 94 3a 3c 33 99 81 bc
       -0.047550596 -0.018026888 0.011387992 -0.015820121
000050 a7 2d 3a bc 70 bd a3 3d f5 11 9e 3d f0 9e 53 bd
       -0.011363423 0.07995117 0.07718269 -0.051665246
000060 b3 81 58 3c f7 d9 19 3d b3 ac db 3b 33 7c 00 3c
       0.013214516 0.037561383 0.006703937 0.007842111
000070 93 4a 1d bd fa a8 95 3c c0 aa 6d bd 2d 74 ae bc
       -0.038401198 0.01826905 -0.058024168 -0.021295631
000080 4a ab 33 bd 10 28 0c 3d 6a f0 0e 3d 0f 7e af bd
       -0.043864526 0.034217894 0.034897245 -0.08568966
000090 cf 81 a1 bd 00 70 f6 3a 73 3c f6 3c ed 2f c4 bd
       -0.07886087 0.0018801689 0.030058121 -0.095794536
0000a0 67 b9 ff 3b 8a e3 74 bd f8 b8 b0 bd cf a2 b3 3d
       0.007804084 -0.05978731 -0.0862903 0.08771288
0000b0 3f 57 83 bd 50 5b 43 bd 6d f2 c5 3d 47 0a 75 bd
       -0.06413125 -0.047694504 0.0966538 -0.059824254
0000c0 7a 09 27 bd 83 80 77 bd 3d fa 56 bd 9a 78 40 3c
       -0.040780522 -0.060425293 -0.05248474 0.011747504
0000d0 f7 95 55 3d 7d b4 05 3d 40 7d ec bc 7a d7 d8 3c
       0.05214497 0.03264283 -0.028868318 0.026469935
0000e0 ca 99 96 bd 87 1c 9a 3d 10 60 92 bd 0d 14 3c 3d
       -0.07353552 0.075249724 -0.07147229 0.04591756
0000f0 92 fa 9d bd fd 0f 2e bd 5b 55 ba bd cd c1 73 3c
       -0.07713808 -0.042495716 -0.090983115 0.014877749
000100 aa a4 4b 3d b3 ef 8d bd 50 76 16 3d c7 40 bf bc
       0.049717583 -0.069304846 0.036733925 -0.023346318
000110 73 3b a9 3c c8 f3 8b bd 23 c9 97 bd 67 5c 6e bc
       0.02065823 -0.06833607 -0.07411411 -0.014548398
000120 10 6c 23 3d db 9c c7 bd 98 1c 86 bd 3f 61 9b bd
       0.03989798 -0.09746715 -0.065484226 -0.075869076
000130 40 fd 8b bc 93 00 93 bd 6a a8 5c bd aa 35 3c bd
       -0.017088532 -0.07177844 -0.05387155 -0.045949616
000140 55 fa 8a bd 73 83 70 bd 6a ec 32 bd 67 14 dd bc
       -0.06786028 -0.05871911 -0.043682493 -0.026987268
000150 9f 7d a5 3d b3 28 88 bb 67 f3 ad 3d 1a 82 16 3c
       0.08080601 -0.0041552423 0.08493691 0.009186292
000160 63 b1 3f 3d 53 01 12 3d 67 b2 be bb 9b f4 c0 3d
       0.04680003 0.035645794 -0.005819607 0.09421655
000170 20 ad 6c bd 5a c8 df bc ed eb 91 3c 40 df 01 3c
       -0.057782292 -0.027317215 0.017812693 0.007926762
000180 0d 78 1b bd d7 89 64 3d 5d 65 ba bd 57 77 bb 3d
       -0.037956286 0.055795517 -0.09101365 0.09153622
000190 9a 5a d0 3c 13 92 43 bc 2d 6f b8 3d 2d 19 1a bd
       0.025433827 -0.011936682 0.0900558 -0.037621666
0001a0 10 d7 c8 bd d0 ac cd bd 84 64 9b bd 6a 8f 5a bd
       -0.09806645 -0.10042727 -0.07587531 -0.053359427
0001b0 5a df ea 3c cb e7 c1 3d 8f 6b 83 3d 00 e7 a6 bd
       0.028670955 0.09468039 0.064169995 -0.081495285
0001c0 41 ff 72 3d 73 32 f0 3d e3 66 8c 3b 4d c1 c3 bd
       0.05932546 0.117283724 0.004284726 -0.095583536
0001d0 33 a1 c6 3d 96 76 10 bf 7d 67 97 bd b1 0c 41 3d
       0.09698715 -0.5643095 -0.07392786 0.047131244
0001e0 d3 76 83 bc d5 5e 89 be 27 c8 50 bc 4d 25 8f 3c
       -0.01604787 -0.26830164 -0.012743033 0.017473841
0001f0 0d 02 6d bc cc 91 25 be e4 c1 21 bc af 53 c8 bd
       -0.014465821 -0.16168898 -0.009872887 -0.097815864
000200 27 c7 9f 3d 4b d9 b4 bd 4f 40 a6 bb 12 80 a7 bd
       0.07801657 -0.08830508 -0.005073584 -0.08178724
000210 38 11 b6 3c 90 7f 3e bd 28 bc b8 3d 33 1e 96 bd
       0.022225007 -0.04650837 0.09020263 -0.07329979
000220 0a 84 8d bd a7 94 27 bc af 03 a5 3d 69 ae 1c be
       -0.0690995 -0.010228313 0.08057343 -0.15300907
000230 15 e2 48 bd a9 c2 97 3c c0 01 4b 3a aa 74 bc bd
       -0.049043734 0.018525438 0.0007744096 -0.092019394
000240 a1 df dc 3c fc f6 32 bd f3 ce bc bc 3d d9 03 3d
       0.026962103 -0.043692574 -0.0230479 0.032189596
000250 5b 84 58 bc e2 33 b9 3d 7a e5 8a bd f6 f5 2b 3e
       -0.01321515 0.09043099 -0.067820504 0.16793045
000260 73 7e 95 3d bd 96 0c 3d d5 f3 1c 3d 70 bc 20 be
       0.07299509 0.034323443 0.038318474 -0.15696883
000270 c7 5c 07 3e 00 6c a6 bd f8 88 8f be 5b bf 8d bd
       0.13218985 -0.08126068 -0.28034186 -0.06921264
000280 58 13 7c bd 69 5a 5f bd 58 3e 0e 3e e0 b5 ab bc
       -0.061541885 -0.05452958 0.1389097 -0.020960748
000290 ba e4 e9 bc b9 82 f0 bd 0b 0b b8 3d 63 9e 2b 3d
       -0.028551448 -0.11743683 0.08986481 0.041899096
0002a0 12 ed 27 be c2 33 c6 bd 2d c3 eb 3c 42 83 84 bd
       -0.16399029 -0.09677841 0.02877959 -0.06470348
0002b0 17 13 64 3d 47 34 dd bc 43 a6 b5 3d f3 d8 a1 3c
       0.055682268 -0.027002467 0.088696025 0.01975677
0002c0 50 88 c8 bd d6 df 5f bd 58 91 bf 3d 2a df 60 bd
       -0.097916245 -0.054656826 0.09353894 -0.054900326
0002d0 8c b0 0d bd 0f 40 66 bd e6 2e c2 be 57 49 97 3d
       -0.034592196 -0.056213435 -0.37926406 0.07387035
0002e0 87 0e c8 3c fd 37 03 be ad f2 bb 3d 48 a9 a1 bd
       0.02442099 -0.12814327 0.09177146 -0.07893616
0002f0 ed 09 87 bc 8c 1d d4 3d f3 b5 35 bc 8d 64 df 3d
       -0.016484225 0.10357198 -0.011090743 0.109078504
000300 cd 36 a2 3d 6d 75 92 bd 8c 16 a5 bd 7a 1f 97 bc
       0.07920609 -0.071513034 -0.08060941 -0.018447626
000310 d8 a6 9e bb 2d 9e a7 bb 49 12 3e 3d 67 86 a1 3a
       -0.0048416667 -0.0051152916 0.046404157 0.001232338
000320 ef 5d a4 bd 4f 29 8e 3d ed 3b bf 3c 7a 5f f9 3c
       -0.08025729 0.06941473 0.023344005 0.030441035
000330 67 d8 dd 3a 63 58 4e 3d ee d3 bc bd a7 c4 be bc
       0.0016925455 0.05037726 -0.0922011 -0.02328713
000340 8b 92 c0 bd 4c a8 bf 3b 37 4b cc bd a4 9a 86 3d
       -0.09402951 0.00584892 -0.099752836 0.06572464
000350 a1 91 d6 bd 78 0f 87 bc c6 5b 81 bd f2 a5 7d 3c
       -0.10476995 -0.016486868 -0.063163325 0.015481459
000360 f1 43 40 bc 7d f8 3e bc 1a 51 80 3d 24 57 ba 3d
       -0.0117349485 -0.011655924 0.06265469 0.09098652
000370 82 d8 bf 3d 99 4b 5d bd 7a 57 39 bd 02 94 a9 3d
       0.093674675 -0.054027174 -0.04524944 0.082801834
000380 da 6f 35 3d 82 ea 11 bc 12 9f 80 bd 52 f1 bb bd
       0.044296123 -0.008906009 -0.0628034 -0.091768876
000390 ca 8d 6f 3d ba 87 91 3c 0f 30 a3 3d 8c ed 5c bc
       0.05848483 0.017764915 0.07968151 -0.01348437
0003a0 e7 9a 73 3d 67 97 29 3c e7 a1 ac 3b 93 ae b6 3c
       0.0594739 0.010351039 0.0052683237 0.02230004
0003b0 ea 95 9f 3d 83 53 7c 3d 76 8c a7 3d f1 7e 87 bb
       0.07792266 0.06160308 0.08181088 -0.0041350056
0003c0 27 8f ec 3c 52 9f 26 bb 72 0c 5a 3d 2a 45 21 3d
       0.028876854 -0.0025424552 0.053234525 0.0393726
0003d0 ad de fa bc 59 e1 86 ba 33 b2 dd bb 27 f4 19 bd
       -0.030623758 -0.0010290548 -0.006765628 -0.037586357
0003e0 e3 28 43 bd 67 b2 0a bb 68 80 9c 3d 01 59 bf 3d
       -0.047646414 -0.0021163465 0.07641679 0.09343148
0003f0 ca 32 84 3d c2 e6 fc 3c a8 32 79 bd 91 9a 10 bc
       0.06455 0.030871753 -0.060839325 -0.008825914

bias f4 [100]
000000 40 fe 89 3d 5e 7d 8a bd ff d1 d4 bd 8d b4 ea 3c
       0.067379475 -0.06762193 -0.10391616 0.028650546
000010 27 fe 1d 3d 30 0e 98 bd 73 70 80 bd 30 19 78 bd
       0.038572457 -0.07424581 -0.06271448 -0.060570896
000020 cd f7 ba bc b4 6a a3 3d c2 a1 0a bd 0f 25 bf 3c
       -0.022823239 0.079793364 -0.03384567 0.0233331
000030 90 a3 2d be 15 93 56 3d 2a a4 0a 3e 0f 4d 07 be
       -0.16956925 0.052386362 0.13539186 -0.1321299
000040 43 03 96 3d f3 1e 0c bb 93 5b ca 3d 4d 5a 86 bb
       0.07324841 -0.0021380752 0.09880748 -0.00410012
000050 95 77 ea bd d5 df 2f 3d 64 c3 d1 bd b5 f1 9a 3b
       -0.1144859 0.042938072 -0.10242346 0.0047285208
000060 da 10 8a bd 14 73 31 3c f3 76 c5 bc f3 9e 92 bc
       -0.067414954 0.010830659 -0.024104571 -0.017898059
000070 43 d1 77 3d 53 ac b7 bd b4 cc 54 bd 5b 65 80 3a
       0.060502302 -0.08968415 -0.051953033 0.0009795831
000080 10 3d 32 bd 32 0e 14 3e 68 de a6 3d 41 85 1e 3c
       -0.043515265 0.1445854 0.081478894 0.009675325
000090 d3 4f 8f bc f0 fa 4c bd fc 21 c5 bd 85 9c a3 bd
       -0.017494118 -0.050044 -0.09625623 -0.07988838
0000a0 ba c7 6e 3c fb d4 83 3d d5 d1 bd bd bc 14 53 3c
       0.014573986 0.06437107 -0.09268538 0.012883361
0000b0 da da 40 bd 9a 8f af bb d8 e5 cc bd 3d d5 19 be
       -0.047083713 -0.005357695 -0.10004777 -0.1502275
0000c0 b9 02 a2 bc d7 7c 98 bd e5 d9 42 3a b4 f0 fc bd
       -0.019776689 -0.07445686 0.00074329815 -0.12350598
0000d0 a3 db 13 3d 6a 8c 2d 3d e1 d2 27 3d 01 ed 5e bd
       0.036098134 0.042370237 0.040972594 -0.054425243
0000e0 33 93 94 bc 5a 64 72 bd 38 62 e1 bd 36 72 82 bd
       -0.018136596 -0.059177734 -0.11005062 -0.0636944
0000f0 25 e2 e6 bd 57 b8 d4 bd ee 56 e0 3d cd a1 0a bb
       -0.112736024 -0.103867225 0.109540805 -0.002115357
000100 a7 d7 6b 3c 44 c2 16 be 6d 49 4d bc ba 2a 13 be
       0.014394677 -0.14722544 -0.012529713 -0.14371768
000110 99 09 d9 3c f3 fd b8 bc 9d e5 27 3d 38 60 1a bc
       0.026493834 -0.02258203 0.04099046 -0.009422354
000120 af 51 12 bd 29 36 c3 3d b4 8d e1 bd 9a ed 19 bc
       -0.03572243 0.095318146 -0.11013356 -0.0093950275
000130 98 8b db 3c f4 b2 ac bc 27 8d ae bd 8f cc 32 3b
       0.026799962 -0.021081425 -0.085230164 0.002728257
000140 73 8c 0e 3d db 68 44 bd fd 0c 08 be d4 83 98 3d
       0.03480191 -0.04795156 -0.13286205 0.07447019
000150 ff 8d 21 3d 0d 19 17 3c 02 e6 72 3d 00 f4 57 be
       0.03944206 0.009222281 0.059301384 -0.21089172
000160 03 40 a0 3d 1c 2a a5 bd 91 97 f8 3d ed 2e 21 bd
       0.07824709 -0.08064672 0.12138284 -0.039351393
000170 d3 30 05 3d 06 37 23 3e 1e d3 5d 3d 77 e8 29 3d
       0.032517266 0.15938959 0.054156415 0.04148146
000180 38 fa e9 3d 2c 59 c9 3c 9a c0 2d 3d 53 00 d8 bc
       0.114246786 0.024578653 0.042420007 -0.026367342

weight f4 [100, 100]
000000 65 0b 8e 3d 16 03 80 3d ae 1a 4e bc 87 66 32 3d
       0.06935767 0.062505886 -0.012579603 0.04355481
000010 21 f0 b4 3c 5a 06 69 3d f7 ab 2e bd fa d5 af 3d
       0.022087159 0.056890823 -0.042644467 0.08585735
000020 b0 8b 3f bd 0c 8a 45 3e 3f 7c 4a be 88 d2 aa 3d
       -0.046764076 0.19290942 -0.19773959 0.08340937
000030 55 20 4a 3e e5 dc 95 bb 5d 2d 61 3c 52 3a f8 3e
       0.19738896 -0.004573452 0.013743726 0.48481995
000040 c0 a1 fd 3c 9f 45 c9 bd 40 06 d8 3c ca e0 0f bd
       0.030960917 -0.09827732 0.026370168 -0.035126485
000050 ae 70 d3 3d 0e 97 57 3e 2f ee 11 3e cd 8c 98 be
       0.10324226 0.21053717 0.14251016 -0.29794922
000060 22 8c 28 3e f1 fb e5 bc 1a 1d 31 bd fd 9f 68 3d
       0.16459706 -0.028074237 -0.043240644 0.0567932
000070 86 77 f5 3d 00 16 1b bc 7d de 81 3e 7c f9 88 bc
       0.11985688 -0.009465694 0.25365058 -0.016720526
000080 62 ed 95 3d 71 32 1c be 37 0a b6 3d b9 6a 00 3d
       0.07320668 -0.15253617 0.08888667 0.03135178
000090 f3 38 35 bc 73 cd 7e 3d e8 7f 88 bd 34 e6 d4 bd
       -0.011060941 0.06220765 -0.06665021 -0.1039547
0000a0 f5 23 3f be f4 07 86 3c 1a ec ba bc 7e 26 50 3d
       -0.1866606 0.016361214 -0.02281766 0.05081796
0000b0 58 56 91 3d 50 e3 bf bd ee 89 fd 3d ec 53 30 3e
       0.07096547 -0.09369528 0.123798236 0.17219514
0000c0 c6 21 b8 bb 27 38 af bd c4 f9 79 bd f5 00 ef 3e
       -0.0056192605 -0.08555632 -0.06102921 0.46680418
0000d0 81 69 b8 3d 00 f0 d0 39 84 67 9b 3c 5d a8 10 3d
       0.09004498 0.00039851665 0.018970259 0.035316814
0000e0 4c ea a3 be c0 00 57 3c 62 99 6c 3b 4a cf 01 3e
       -0.32014692 0.013122737 0.0036102165 0.12676731
0000f0 b5 e7 bf 3d 07 b9 b7 3e df 3e 36 bb cd ce 1c 3d
       0.093703665 0.35883352 -0.002780847 0.038283158
000100 cd a9 88 bb 3b 54 2e be bc c0 d4 bc 8a 26 44 3e
       -0.0041706325 -0.17024319 -0.02597081 0.19155326
000110 47 01 29 bd a2 dc 88 3d 3a b7 bd bd 77 17 8f 3d
       -0.041260984 0.06682707 -0.09263463 0.069868974
000120 73 25 5e 3e 51 10 41 3e b3 37 94 3d a0 92 af 3d
       0.21693973 0.1885388 0.07237186 0.085728884
000130 1f af 8f bd e2 b8 83 bc a7 fc 36 bc 88 39 aa 3d
       -0.070158236 -0.01607937 -0.011168635 0.083117545
000140 41 f0 42 3d 78 ee fc bd 33 59 3b 3e d9 d5 d1 3c
       0.047592405 -0.12350172 0.18295746 0.025614666
000150 1a 6e ad bd a0 91 f5 bc 5e 37 5e 3c c2 c9 f4 bd
       -0.08468266 -0.029976666 0.013563005 -0.11952545
000160 80 6c ce 3b 2a 2a b8 3e e2 79 9d 3d 7a f6 33 3d
       0.0062995553 0.3596967 0.07689263 0.04393623
000170 ba 20 31 be 2f bc 05 3d 46 97 2b 3d 7d 69 4d be
       -0.1729764 0.03265017 0.041892312 -0.20059772
000180 84 33 6b be 98 3a 86 bd 00 e2 f1 3b 67 c4 56 bd
       -0.2296887 -0.065541446 0.0073816776 -0.052433398
000190 28 58 95 bd c8 3b db bb 8d d8 f0 3c cf eb 90 bd
       -0.07292205 -0.006690476 0.029400134 -0.07076227
0001a0 aa 18 24 bd fa 0d a5 3c 2d eb b9 bd d3 22 ac bd
       -0.040062584 0.020148266 -0.09078059 -0.0840508
0001b0 d8 68 94 bd 0b 49 b8 bd 1b 2c d8 3d 4f 1c ac 3d
       -0.0724656 -0.08998307 0.105552875 0.08403837
0001c0 5f be cd 3c 6d 46 58 3d 76 5b 23 3d 2a 74 31 3d
       0.02511519 0.05280154 0.039882146 0.043323673
0001d0 fd 11 3c bd 07 a5 cd bd 00 ee 8a 3a 87 4e 20 bd
       -0.045915592 -0.10041242 0.0010599494 -0.03913739
0001e0 48 39 17 3d 81 ba f9 3b 1e 58 8c bd 4a 54 65 bd
       0.036919862 0.00762111 -0.068527445 -0.055988587
0001f0 73 ea 49 3c ba 39 02 bd e0 f6 80 3c f8 6f c4 bd
       0.012323963 -0.031793334 0.01574272 -0.09591669
000200 80 d9 9f bd b3 c8 04 3d 27 83 46 bc 87 06 c3 bc
       -0.07805157 0.032417964 -0.01211623 -0.023806823
000210 4d 20 18 3d ed ff 2f bd a7 9a b3 3d 74 90 c2 bd
       0.03714018 -0.04296868 0.08769732 -0.095002085
000220 8a c4 21 3d 80 77 00 bc 1b 5c 58 3d 73 bc ba bd
       0.039494075 -0.007840991 0.052822214 -0.09117975
000230 ef e2 ce 3b 2d 5e c5 bc 60 f7 21 bd a8 11 21 3c
       0.0063136737 -0.024092758 -0.039542556 0.00983087
000240 cd 10 65 3a 5a f0 9a bd 74 ee ae 3c 60 63 62 3d
       0.000873816 -0.07565375 0.021353938 0.055270553
000250 21 e4 cb 3c c0 61 39 bc e5 72 cf 3d ed 03 e2 bc
       0.024889054 -0.011314809 0.10129336 -0.027589763
000260 48 ca 3c 3b 87 ef 4a bd 1a 18 a2 bd da ca f2 bc
       0.0028807092 -0.049544837 -0.07914753 -0.029637743
000270 89 b7 6b bd 73 25 8f bc 00 fa 01 3d 8f 75 e4 3c
       -0.05754808 -0.017473912 0.03173256 0.027888088
000280 b3 ac 1f bc 9b 64 65 bd 11 65 8a 3d 67 9b 70 bc
       -0.009745765 -0.056004148 0.06757558 -0.014685488
000290 d2 60 a1 bd 66 e7 39 bd 87 e6 b6 bd cb 1a 9c bd
       -0.07879795 -0.045386694 -0.08930688 -0.07622298
0002a0 f4 2f 85 bc 20 d6 88 bd e5 97 ba 3c 69 90 a9 3b
       -0.016258217 -0.06681466 0.022777507 0.0051746857
0002b0 31 3f db bd a2 2f 9c bc 3c 94 4c 3d f2 73 c2 bd
       -0.10705412 -0.019065682 0.049946055 -0.09494771
0002c0 c3 28 c7 bd 20 d4 9a 3d 00 7a a8 3c 19 0a c3 3c
       -0.097245716 0.07559991 0.020565987 0.023808526
0002d0 50 eb 8c 3d df d3 71 bd a0 e0 2e 3d 65 82 99 bd
       0.0688082 -0.059039947 0.042694688 -0.07495574
0002e0 fd ef 38 3d 8d f1 bd bc 7d 2d 1c bd 3b d6 4a 3d
       0.045150746 -0.02318647 -0.03812932 0.049520712
0002f0 fd 3c 31 3b 87 a9 8f bd ec b6 9b 3c 3b 5b ab bd
       0.0027044408 -0.07014757 0.019008122 -0.0836701
000300 ec 28 3a bc 17 0f a8 3d 12 05 82 3d 6e c9 a4 bd
       -0.011362296 0.08206003 0.06348623 -0.08046232
000310 98 db 88 bd 33 9a 90 bd ba 20 4f 3d c3 6f 06 bd
       -0.06682509 -0.07060661 0.05056832 -0.032821428
000320 0d 4a 18 bd 2f 8c 74 3d d5 d4 03 3d 53 f1 c8 3d
       -0.037179995 0.059704002 0.032185394 0.09811654
000330 c7 de 58 3d e7 f3 7e bc 35 cc b9 3d f0 0e 33 3d
       0.052946832 -0.015561081 0.090721525 0.043715417
000340 cd cd cd bb 71 9b db bd 21 e8 95 bc 5a 10 0f 3e
       -0.006280637 -0.107230075 -0.018299164 0.13971081
000350 cc aa c4 3d 0f a9 55 3c af 26 82 ba 10 83 2f 3d
       0.096028894 0.013040795 -0.0009929741 0.0428496
000360 cd 80 0b bc b2 1c ad 3d 00 49 5a 3b b3 f3 94 3b
       -0.008514595 0.08452739 0.0033307672 0.004545653
000370 97 13 68 3c 81 65 b0 3d ad 21 e4 bc 04 ab 70 bd
       0.014164827 0.0861311 -0.02784809 -0.058756843
000380 43 a7 48 3e 69 36 8c 3d ce 08 59 3d 90 3f 48 bd
       0.19595055 0.068463154 0.052986912 -0.048888743
000390 63 c6 0c 3e 4d 48 32 bd 77 fd a5 3d c3 e6 89 3d
       0.13747554 -0.043525983 0.08104985 0.067334674
0003a0 5a 31 5c 3d c5 0b 46 bd d0 57 ae bd 35 36 20 bd
       0.053758003 -0.048351068 -0.08512843 -0.039114196
0003b0 f3 f1 17 3d b3 bd 85 bd f9 bd 82 bc 1e 35 ca 3c
       0.037095975 -0.06530323 -0.015959727 0.024683531
0003c0 ab 3a 09 be 5d 0d a0 bd 0d 8c 02 bd c5 35 42 bd
       -0.13401286 -0.07815049 -0.031871844 -0.04741456
0003d0 e7 81 fb 3b f3 35 d5 3c 93 c0 c3 bd cc 8b b4 3d
       0.0076753977 0.026026702 -0.09558215 0.08815727
0003e0 74 f8 85 3c 73 d1 ac 3d 0c 23 e1 bd e4 04 f3 3d
       0.016353823 0.08438387 -0.10993013 0.11866167
0003f0 e5 fb 00 3d f3 b3 98 3c 74 ce 1a bd 40 eb 25 bd
       0.031490225 0.018640494 -0.037794545 -0.040507555

bias f4 [100]
000000 b7 48 0a be 83 95 91 bd 4e e7 99 3d ad b5 08 be
       -0.13504301 -0.07108595 0.07514821 -0.13350554
000010 2c 49 f3 bc cb 26 63 bd c6 f0 b3 be e6 9f 0a be
       -0.029697977 -0.055456918 -0.35144633 -0.13537559
000020 58 99 7b bd 15 9e 83 bd 4e da 40 3d 33 66 a7 3d
       -0.061425537 -0.06426636 0.04708319 0.0817379
000030 ee 80 e1 bc ed 23 a1 bd 09 73 19 be ec a0 b8 bd
       -0.027527299 -0.078681804 -0.14985289 -0.090150684
000040 e6 6d 57 3d 2e 42 41 be 07 24 01 3d 90 0c 6c be
       0.05259504 -0.18872902 0.0315285 -0.23051667
000050 6e 18 ca bd 21 c8 fa bd 96 fd 3c bc 60 e5 7f bb
       -0.09867941 -0.12245203 -0.011535069 -0.003904663
000060 60 07 8d 3d f8 5f 88 3c 4d 5d f2 3c 3d 49 70 bd
       0.06886172 0.016647324 0.029585505 -0.058663595
000070 8f 97 6d bd 72 5d 0d bd 1e aa 56 bd 10 4a 33 bd
       -0.058005866 -0.034512945 -0.05240833 -0.043771803
000080 6f a6 b2 bd f8 13 35 3d 16 da 9a bd 25 3f 65 be
       -0.08723151 0.044208497 -0.07561128 -0.22387369
000090 94 e2 ca 3d d0 a4 47 3c a6 9b d0 bc f5 b3 38 3c
       0.099064976 0.01218529 -0.025464844 0.011273374
0000a0 f6 9e 9b bd 19 4b 69 be fe 13 8a bc 84 57 36 3d
       -0.07598679 -0.22782554 -0.016855236 0.044517055
0000b0 df 32 a4 bd 3e 7f 22 3d 20 dc 8a bd d2 e4 82 bd
       -0.080175154 0.03967213 -0.06780267 -0.063913
0000c0 f3 7e 25 be 90 26 61 bd 27 b6 14 ba 9b f8 4b 3d
       -0.16161709 -0.054968417 -0.0005672895 0.049797636
0000d0 a2 4c 43 be cb 4b 94 bb ad 6d ad 3c 8e d3 6a 3d
       -0.19072202 -0.004525637 0.021170462 0.05733066
0000e0 11 43 ad bc e8 e2 99 bc 50 22 bf 3b 56 c4 06 3d
       -0.021150144 -0.018784955 0.005832948 0.032902084
0000f0 f8 dc b5 3c 83 a5 70 be 1d 6d 17 bd b2 84 b7 bd
       0.022200093 -0.23500638 -0.036969293 -0.089608565
000100 8d 47 a7 bc 9f 86 d2 3d 7a 92 a0 bd 4a be fb bd
       -0.02041986 0.10279583 -0.07840438 -0.12292154
000110 4b 97 40 bd e5 64 b9 bd 2c 92 01 be 9f 48 00 be
       -0.047019284 -0.09052447 -0.12653416 -0.12527703
000120 35 a8 31 be d1 60 aa bd 94 56 7c bd 45 e8 40 bc
       -0.17349322 -0.083192475 -0.061606005 -0.011774127
000130 2b e5 a2 3c b7 a9 c1 bd d8 71 51 bd 12 ca 6d bd
       0.019884666 -0.09456199 -0.05113396 -0.058054037
000140 f8 cd dc 3a 27 f0 27 bd 50 79 91 3d c3 c9 33 bd
       0.0016846051 -0.04100051 0.07103217 -0.043893587
000150 d0 4c 2b be b7 05 7e bd 22 eb b5 3c 5e 24 13 bd
       -0.1672852 -0.06201717 0.022206847 -0.035923354
000160 d4 9e 5a 3d eb d0 67 3c a2 97 41 bd c6 71 d8 bd
       0.053374127 0.014148931 -0.04726375 -0.105685756
000170 27 e1 e4 bd 06 87 e8 3d 90 2c c9 bd 14 06 ff bd
       -0.11175757 0.11353879 -0.09822953 -0.12452331
000180 02 eb 72 3c 24 2a 4a 3e 65 d6 c5 3c 73 a0 a2 bc
       0.014826538 0.19742638 0.024150083 -0.019851899

weight f4 [100, 100]
000000 fe bd 89 be b4 43 36 3b 58 79 e1 3d ec f3 97 bd
       -0.26902765 0.002781135 0.110094726 -0.07419571
000010 d0 9e 06 be ba 11 26 3e f6 09 a5 be 54 10 18 bd
       -0.1314652 0.162177 -0.32234162 -0.037124947
000020 2e 7a c6 3e bb e9 92 bd f0 3e de 3d da e6 5b bc
       0.3876509 -0.07173487 0.10851848 -0.0134217385
000030 15 ff f1 3e d0 fc bf bd b2 c6 84 3e 5b 7b 19 3e
       0.47264925 -0.09374392 0.25932842 0.14988463
000040 8b 2a e0 be c2 ea 95 be d5 0a 8c 3e ee ec b3 be
       -0.43782458 -0.29280668 0.27352014 -0.351417
000050 7a 08 5d 3d e9 0f 27 bd 9d 8e a3 3d 18 41 a6 3e
       0.053963162 -0.040786657 0.07986186 0.32471538
000060 f1 e0 3c be dd 91 77 3c 84 4a 64 3d f3 51 90 3c
       -0.18445183 0.01511046 0.055735126 0.017617201
000070 52 f5 e1 3e 97 b8 0b be a3 7e 54 bd d7 5a 5d bd
       0.44132477 -0.13644634 -0.051878583 -0.05404171
000080 73 9f cb 3c ad 7c 58 be 6a 35 74 be 6e 16 c7 be
       0.024856305 -0.2114131 -0.23848501 -0.388843
000090 02 6c 28 be 88 a8 d0 3d b8 c6 a2 be 87 8a e8 3e
       -0.16447452 0.10188395 -0.31792235 0.45418188
0000a0 a0 b6 71 be dc e5 e0 be e0 b1 1f bd b9 cd 91 3d
       -0.23604822 -0.4392537 -0.038987994 0.071193166
0000b0 8f 89 31 3d 9f 43 ac bd 10 2d 94 3d fc 1d 06 be
       0.043344077 -0.08411335 0.072351575 -0.13097376
0000c0 04 76 6d be da bb d1 3c 24 64 33 be ce 26 2c 3e
       -0.2318955 0.02560227 -0.1751867 0.16811678
0000d0 a3 e7 65 3c 24 45 81 bd 04 00 f8 bd bc e0 58 3e
       0.014032277 -0.06312016 -0.12109378 0.2117948
0000e0 f6 b0 b5 3a 84 2c e2 bc 2d 88 74 bd ac 7f e8 3d
       0.0013861943 -0.027609117 -0.05970018 0.113524765
0000f0 c4 1d 19 3e 69 15 ce bd 27 3f e8 bc 0d 9b 77 3d
       0.14952761 -0.100626774 -0.028350426 0.060450602
000100 3f e8 06 3e cc e8 87 3e 40 e2 ba 3c fe 62 45 be
       0.13174532 0.26544797 0.022812963 -0.19276044
000110 25 2e 91 3d 26 2f 55 3e f2 f0 78 3e 4e c4 95 bc
       0.070888795 0.20818767 0.24310663 -0.018282082
000120 ed 8b 3e be ef 5f 20 bd d5 79 92 be f8 98 34 3d
       -0.18608065 -0.03915399 -0.28608575 0.044091195
000130 4d 46 2e 3e a4 ad c3 bd 32 55 5b be bd 45 1f bd
       0.17019005 -0.09554604 -0.21419218 -0.038884867
000140 e1 ca b0 3d 9a 13 a7 3d 35 64 10 bd 05 b1 7e bb
       0.08632446 0.081580356 -0.035251815 -0.0038862836
000150 35 ee 16 be b0 59 77 3d b5 36 f6 bd ed 4c 41 be
       -0.14739306 0.060388267 -0.12022153 -0.18877001
000160 f6 c7 b1 3d a6 9f 28 be 3e a7 a7 be f8 b8 81 3e
       0.08680718 -0.16467151 -0.32744783 0.25336432
000170 7f 1c 48 3d 86 36 0b be 16 a6 3c bd 81 90 e1 bb
       0.0488553 -0.13595018 -0.04605683 -0.0068836813
000180 e0 a9 c3 bd f7 fb eb bd 77 0d 9d 3c d2 26 fa be
       -0.095538855 -0.11522668 0.01917146 -0.48857743
000190 52 15 5c 3d c8 3c f3 3c c1 bd d2 bd 17 bf 2f 3d
       0.05373127 0.029692069 -0.10290099 0.042906847
0001a0 36 9b 4c 3e bb d0 b3 bd fc 12 bb 3d 8d 83 22 3e
       0.19981083 -0.087800466 0.0913448 0.15870495
0001b0 b0 7f 99 3e c2 a5 ba 3d e4 fa 6f 3c 80 5d b8 3c
       0.2998023 0.09113647 0.014647219 0.022505522
0001c0 db a4 1f 3e 0e 6d 23 be 98 ef 47 bc a4 82 cf 3d
       0.15590231 -0.1595957 -0.01220312 0.101323396
0001d0 c6 60 1c bd 5b 37 f4 3e a5 d2 21 bd 42 3a 71 3d
       -0.038178228 0.47698483 -0.039507527 0.05889345
0001e0 26 23 93 3b e1 8e bb bd 71 bc ae bc b4 3c 91 3c
       0.004490274 -0.09158111 -0.02133009 0.01772914
0001f0 21 2e 96 3d 5b f7 52 3d ca e0 cc bc c0 44 92 bd
       0.07333017 0.051505428 -0.025009532 -0.07142019
000200 80 b6 a1 3d 45 74 7f be 67 b5 6a 3e 3f 51 a7 bd
       0.07896137 -0.24946697 0.22920762 -0.08169793
000210 3a 93 c9 3c ea c3 b4 3d b8 00 19 be 42 74 1f 3e
       0.024606336 0.0882643 -0.1494168 0.15571693
000220 a1 8c 29 3d bf 1b df bb 85 c9 16 3d c2 66 dc 3d
       0.04139388 -0.0068087275 0.036813278 0.10761787
000230 a1 74 21 3d d9 f2 6c 3e b9 bc 9d bd 38 2f dd 3d
       0.039417867 0.23139514 -0.077020116 0.10800022
000240 28 5f f4 bc 64 e1 78 bd 4a e1 66 3d ff 32 d0 be
       -0.02983053 -0.060761824 0.056367196 -0.40663907
000250 88 6f ac 3e 7a ac 0c 3e ac 05 43 3c 6b 6a b5 bd
       0.33678842 0.1373767 0.011903208 -0.08858188
000260 11 63 75 3e f2 a5 2e bd d7 f8 48 3d 76 cd 2e bc
       0.23963572 -0.042638727 0.049065437 -0.010669103
000270 a5 95 a7 3d ed 93 92 3d 4d 4b a5 3d 7a b0 01 bd
       0.08182839 0.07157121 0.08071003 -0.03166244
000280 95 05 a7 bd a6 a3 dc bb 80 dd 86 bc 73 5e b3 3c
       -0.081553616 -0.0067333756 -0.016463041 0.021895623
000290 65 a5 7c 3c 8d e1 03 3e ea bb a4 3d eb 70 84 3e
       0.0154202925 0.1287901 0.08043654 0.258674
0002a0 12 7c f7 bd f4 2f a7 3d 5b c8 79 3e 76 c0 ab 3d
       -0.120842114 0.08163443 0.24392836 0.083863184
0002b0 ca 24 87 3d 2d 5a 94 bd e1 51 38 3e cc 27 84 3c
       0.06598814 -0.07243762 0.17999984 0.016132258
0002c0 24 43 48 3d 22 ef 7d 3d 43 16 91 3e 35 f1 81 3c
       0.048892155 0.061995633 0.28337297 0.015862087
0002d0 fd 8e f3 3c 60 eb 04 bd 58 cb 17 3d 61 ec 31 bd
       0.029731268 -0.032451034 0.037059158 -0.04343832
0002e0 73 81 1b bd f3 98 ee bc 1c 60 b3 3d a7 df 7e be
       -0.03796525 -0.029125666 0.08758566 -0.24890004
0002f0 91 2a 01 be 94 9f f1 3d 31 3d 99 3e 27 f1 30 bd
       -0.12613894 0.11798015 0.29929498 -0.04319873
000300 95 ca 5f bd 49 59 43 bd 0d f8 82 3d 23 df 9a 3e
       -0.054636557 -0.04769257 0.06394968 0.30248365
000310 80 7d 92 3d b3 b9 d6 bc d7 b4 08 3e 2d 28 03 be
       0.071528435 -0.026211595 0.13350235 -0.12808295
000320 ad 99 82 bd af 50 8d 3d e6 fb 73 3c 2c 50 03 be
       -0.063769676 0.06900155 0.0148916 -0.12823552
000330 01 22 9a bc 57 57 08 be 99 a7 60 3d 14 34 d7 bb
       -0.018815042 -0.13314568 0.054847334 -0.0065674875
000340 7d ef 34 3d 20 e9 c0 bc 62 75 e9 3d 73 24 4e 3d
       0.044173706 -0.023548663 0.11399342 0.05032773
000350 e2 bd 82 bb 01 d4 0c be 8b 37 96 ba 3b 79 e8 bd
       -0.003989921 -0.13752748 -0.0011460645 -0.11351248
000360 6b bd 8f 3d 13 81 16 bd 7d 77 60 bc 23 00 ee bc
       0.070185505 -0.03674419 -0.013700363 -0.0290528
000370 a3 51 3f 3d 72 e0 09 be 6d 84 db 3c e8 3d b0 3c
       0.046708714 -0.13464525 0.026796544 0.021513894
000380 39 48 c8 bc f1 8f 62 3d 02 b2 81 bd b0 a1 64 3d
       -0.024448501 0.055313054 -0.063327804 0.05581826
000390 cd 45 c6 bd ea af 19 be 90 d8 9c be 27 25 7f 3d
       -0.09681282 -0.15008512 -0.30633974 0.06229129
0003a0 b0 43 14 bd 98 48 de bd f6 ff 99 bd f4 10 01 be
       -0.036197364 -0.1085369 -0.07519524 -0.12604123
0003b0 4f 83 5b bc af bb 0f 3d 3e d0 31 bd 85 53 d2 3b
       -0.013398006 0.0350911 -0.043411486 0.0064186477
0003c0 0e 25 69 bc 22 b5 49 bb 8c 60 8c bb 16 6a 42 3d
       -0.014230026 -0.003077813 -0.00428397 0.047464453
0003d0 c2 aa e1 bd b2 b9 78 3d fa 92 3e 3d 21 e3 12 bd
       -0.110188976 0.060723968 0.046526887 -0.03586114
0003e0 0e 34 2c be 68 1d 12 bd 7f 33 96 bc 5b ac 5d bd
       -0.16816732 -0.035672575 -0.018335102 -0.05411945
0003f0 6a 42 82 3e 8e 3c 9f 3d cf 59 c9 3d 3e ec 86 bd
       0.25441295 0.07775222 0.09831583 -0.06588028

bias f4 [100]
000000 ef 47 8a bd 3a 1f fd bd 66 71 14 bc c4 c9 10 bc
       -0.067520015 -0.123594716 -0.009060239 -0.008837167
000010 5b 49 fb 3c 21 2b a6 3c 02 1e c0 3c 73 bf 1b bc
       0.030674627 0.020284237 0.023451809 -0.009506094
000020 27 8a 39 bc 73 ec f5 bb a8 3f a3 bc 4e c3 e2 bc
       -0.011324442 -0.0075049936 -0.019927815 -0.02768102
000030 73 4d 3d 3b 2e f7 76 ba 3a cd df 3b d0 81 10 3b
       0.0028885275 -0.0009420988 0.006829885 0.002205003
000040 39 4e e0 3b 32 b3 0b bb ad 7a c2 bb e9 fd b3 3b
       0.0068452624 -0.0021316526 -0.0059350342 0.005492915
000050 1c 7c 7b bb 24 24 90 b9 10 bf 0d bb 7e f4 e9 ba
       -0.0038373535 -0.00027492747 -0.0021628775 -0.0017849354
000060 d5 35 87 3b 0b d2 48 39 b9 a9 da 3a 12 2c 9f 3a
       0.0041262903 0.00019151733 0.0016682661 0.0012143871
000070 af a0 46 ba 8c a3 39 3a 2d d3 80 bb 52 81 7f 3a
       -0.00075770443 0.00070815603 -0.003931424 0.0009746748
000080 8a 76 4d bb 4d 57 7e ba 76 25 a9 b9 90 13 f0 ba
       -0.0031351172 -0.000970234 -0.00032262102 -0.0018316377
000090 74 bf 09 ba 10 9f 9d b9 09 97 e5 b9 c8 f9 b5 b9
       -0.0005254664 -0.00030063884 -0.00043790814 -0.00034709112
0000a0 c4 f4 74 3a f6 9e 42 ba 75 8c 99 3a ea 46 17 3b
       0.0009344334 -0.00074242 0.0011714833 0.002308304
0000b0 dd cb 94 38 0a 06 03 3a 5f cb 1a ba 6e 1b 0f ba
       7.0951624e-05 0.00049981533 -0.00059049384 -0.00054591044
0000c0 a8 d5 16 b9 ac 0c 4c 39 35 a0 0b b9 93 b5 93 b9
       -0.00014384708 0.00019459677 -0.00013315755 -0.00028173308
0000d0 f7 33 1c ba c3 39 3b b8 bc 08 8d ba de 19 9c b9
       -0.0005958671 -4.463807e-05 -0.0010760049 -0.0002977391
0000e0 07 ea b6 39 14 58 ae 38 09 d3 4d 3a 6e bf d0 37
       0.0003488811 8.3133724e-05 0.0007851576 2.4884674e-05
0000f0 aa f5 8d b9 cf 43 eb b7 5a 64 01 3a 97 7e 9f b9
       -0.0002707665 -2.8045759e-05 0.0004935913 -0.0003042116
000100 3f b7 6e 38 87 96 e9 b9 8d 5d 8b 39 e7 06 86 b8
       5.6914283e-05 -0.00044553375 0.00026581847 -6.3909036e-05
000110 5b 40 a1 b9 a1 0a d4 39 e8 9a 76 b9 11 f8 de 39
       -0.00030756262 0.0004044371 -0.00023518095 0.00042527964
000120 8f f3 ad 39 43 94 5d b8 93 e5 ef 39 ef a0 8f 39
       0.00033178597 -5.2828585e-05 0.00045756678 0.0002739499
000130 db b3 a9 39 f4 9b aa b9 07 d7 ef 39 17 f9 71 b9
       0.00032368195 -0.0003254112 0.0004574584 -0.00023076344
000140 8b 27 aa 38 bf e5 51 37 b6 ea 87 39 45 d9 cf b8
       8.113597e-05 1.2510863e-05 0.0002592408 -9.910999e-05
000150 9f f6 60 b6 75 21 2d 36 2a 53 32 37 b3 1a 21 39
       -3.3522153e-06 2.5798483e-06 1.062899e-05 0.00015364103
000160 2e 75 36 b7 e9 fd 88 b9 a7 3e e1 b8 06 e5 6d b9
       -1.0875328e-05 -0.0002612912 -0.00010740506 -0.00022687399
000170 70 98 3f b9 8d 4b 99 b7 8b 73 5f 39 e4 ae 68 38
       -0.00018271967 -1.8274202e-05 0.0002130998 5.547599e-05
000180 5a 7a 13 39 ea 1c 5e 38 ea db 48 b9 2d c2 02 b8
       0.00014064592 5.2955853e-05 -0.0001915541 -3.1175256e-05
