Results/Nodes_1024/model_weights.pth (torch, 127560 bytes, 8 tensors)

weight f4 [100, 2]
00000000: 4848 2abf 731a a63e 0a73 a4be 5bc6 bbbe
00000010: 46fe 2c3e 2aef bcbe d551 a7be 52fa 73be
00000020: 5a26 03bf cde5 09bf ff45 43be 8f2b 3c3e
00000030: ed7b 12bf 8722 dbbe 5845 a5be 3dc0 6fbe
00000040: 21f1 633d e6c8 8ebe 6288 e0bd c8f7 873d
00000050: 526a 483d 082b 7cbf b3b4 1ebf 2392 72bf
00000060: 2a1a e5be 3ba6 c93e a058 b1be 8f1f 1fbd
00000070: 4b71 27bf 9315 05be 61fb dabe f0fa b43e
00000080: 4a2c 28bf 99ed 04bf f19b 72bf 1a5a a9be
00000090: 1dfd ab3e 97be 0f3c 17f0 36bf e3fc a7be
000000a0: b6c9 9ebd e7bb 11bf 87ef 0d3f 06c3 3a3c
000000b0: 9b49 abbd 6b7d 04bf 6acf 28bf 8bd8 58be
000000c0: 83d9 853e bb68 223e fc2b 16bf 35d5 e43e
000000d0: bc2c d5bd cbb7 ddbe cc0e 2bbf 9cb9 b73e
000000e0: 3c8c b0be 1f48 e0be 4cc8 06bf 5b82 d5be
000000f0: ab75 18bf 63da 0fbf 6ff8 b43d 68f8 8c3e
00000100: db15 e33e 0f96 3dbf 4949 123e 08db 2bbf
00000110: 90ce af3d 0435 333e 9aaa a03e 47b3 8c3e
00000120: 527b e23e b97d 613c b459 a63e e386 81be
00000130: 7723 9c3d 239b ebbe 16b7 b1be 0a93 cfbe
00000140: 3dfe 09bf 73f8 35bf 113f 74be 6931 e7be
00000150: 19d1 22bf fc98 3c3d 9b06 013e 568f 9f3e
00000160: e844 d33e 7ea8 bbbe bc8a 6ebf 59e1 093d
00000170: 7032 2b3e dbc5 55bf 70d2 813e 380c 193f
00000180: ce72 2f3d 071d dabe d969 143f a598 9a3e
00000190: f225 6f3e 3b3d 36bf 13a8 a83d b40e 83be
000001a0: 1b1e 333f 4c65 99be 522d 4b3e ae6f b0bd
000001b0: 9bc2 dc3e 74ee 34be bcb3 943e 36e3 96be
000001c0: 9bc6 7ebf fd0d 1abf 71f0 813e 6500 f9be
000001d0: ca4b ccbc 7357 01bf 625a 493e ce6d b83d
000001e0: f39b 7f3e 6f0f b9be 846a 4ebf a78e 4ebe
000001f0: f9ab 41bf 691f 773e 87f4 2dbf 9ac8 a13e
00000200: f175 343f ba51 b53e 1c69 843b 1874 6abf
00000210: d183 af3e e63b eabe 6025 29bf 10b2 323f
00000220: 509d 1fbf 8305 c7be 3a05 d53e b97c 38bf
00000230: c211 00bf bb7e eb3d bcb1 a5be 8dc1 86bd
00000240: 9e8e 53bf e5fc 58be 2d05 a1be 3efb b1be
00000250: d145 7abf 6274 383d d57b 0b3e a50a 19bf
00000260: da28 633e 6c34 00be 492c 5bbe 45b6 41bf
00000270: fb27 ffbd c372 e53e 8793 1f3e 2a12 61bf
00000280: a591 d73e 4e6b 31be c320 ae3e eb97 0c3f
00000290: 412a 543f 8ac0 6ebf 145e 943e 661e 50bf
000002a0: fc1f 593d bdfa fcbe eabd 1ebe ba9d 03bd
000002b0: b83d d9be f65f e8be 558c 92be 35b9 b43e
000002c0: 4159 d23e bc8c ca3e c24d 4bbd 2e36 5c3e
000002d0: 5bcb babe 401d 8dbe 0872 d9bd a264 5dbf
000002e0: 4eb5 4cbf 7f01 18be ede9 1ebf 0c09 b5be
000002f0: 5b25 26be 7c6c e13d 4ffa 663e 18d8 efbe
00000300: 15a0 6d3e b3de 643e 98ee 0abf b2c9 0bbf
00000310: 4c75 12bf 8e67 c6be 7e7b 1abf 593a c3be
-0.6651654 0.32442054 -0.32119018 -0.3667477 0.16893873 -0.36901218 -0.3267962 -0.23825958
-0.51230395 -0.53866273 -0.1906967 0.18375991 -0.57220346 -0.4279978 -0.32279468 -0.23413177
0.05564988 -0.27887648 -0.10963513 0.066390574 0.04892952 -0.9850316 -0.61994475 -0.94754237
-0.44746524 0.39384636 -0.34637928 -0.038848456 -0.65407246 -0.12996511 -0.42769912 0.353477
-0.6569258 -0.51925045 -0.947692 -0.33076555 0.33591548 0.0087734675 -0.714601 -0.32810125
-0.07753317 -0.5692734 0.55443615 0.011399036 -0.083636485 -0.5175387 -0.6594149 -0.21176355
0.2614251 0.15860264 -0.58660865 0.44693914 -0.10408923 -0.43304285 -0.66819453 0.35883796
-0.3448199 -0.43805024 -0.5264938 -0.41701016 -0.5955455 -0.56192607 0.088364474 0.2753327
0.44352612 -0.74057096 0.14285769 -0.6713109 0.085843205 0.17500693 0.3138016 0.27480528
0.4423471 0.013762885 0.32490313 -0.25298223 0.07623952 -0.46016797 -0.34709996 -0.4054187
-0.5390356 -0.7108223 -0.23852183 -0.45154884 -0.6360031 0.046044335 0.12600176 0.31164044
0.4126351 -0.36651987 -0.9318044 0.033662174 0.16718459 -0.8350503 0.25355864 0.5978427
0.042834096 -0.4260027 0.5797401 0.30194584 0.23354319 -0.7118718 0.082351826 -0.25597155
0.6996781 -0.29960096 0.19841507 -0.08615051 0.43117222 -0.17669088 0.29043376 -0.29470223
-0.995218 -0.60177594 0.25378755 -0.48633114 -0.024938483 -0.5052406 0.19663385 0.090053186
0.24961834 -0.36144587 -0.8063128 -0.20171605 -0.75653034 0.24133076 -0.67951244 0.3159836
0.70492464 0.35413915 0.0040408503 -0.91583395 0.34280255 -0.45748824 -0.66072655 0.6980295
-0.62349415 -0.38871393 0.4160555 -0.7206531 -0.50027096 0.11498781 -0.32362163 -0.06579886
-0.8263949 -0.21190222 -0.3144926 -0.34761995 -0.9776278 0.045032866 0.13621457 -0.5978187
0.22183552 -0.12519997 -0.21403612 -0.75668746 -0.124587975 0.4481412 0.15583621 -0.8791834
0.42103305 -0.1732609 0.3400937 0.5491931 0.82876974 -0.9326254 0.28978026 -0.81296384
0.05300902 -0.49410048 -0.15502134 -0.03213284 -0.424299 -0.45385712 -0.2862269 0.35297552
0.4108372 0.39560497 -0.049634703 0.21505043 -0.36483273 -0.27561378 -0.10617453 -0.8648168
-0.7996415 -0.1484432 -0.6207569 -0.35358465 -0.16225187 0.1100702 0.22556423 -0.46844554
0.23205598 0.22350578 -0.54270315 -0.5460464 -0.5721023 -0.3875088 -0.60344684 -0.38130453

bias f4 [100]
00000000: 0717 30be 65eb b6be e408 66be 2bf7 82be
00000010: 2504 e63e 952e 86be 299c 01bf c00e 20bd
00000020: ca34 c1be 9334 523e bfc4 d83d 54dd 993e
00000030: 3c92 04bf 0fa4 5a3e 2bb9 b53e 3ec9 b2be
00000040: 8a39 9c3e 45dd 4a3e 2668 a7be 23ec 323b
00000050: 2d27 7dbe d3e1 1dbf c438 5cbd f309 f1bd
00000060: 169d ecbe bd0d cd3d 7da1 1abf 72c7 8a3e
00000070: 660b af3e 3297 21bd 4a27 e3be c89b 8a3c
00000080: 1d67 e2bd cd9a 3bbd 85ed d3bd c0f5 9b3e
00000090: 029e 9bbe ace0 22be a337 20bd fdda 85be
000000a0: 0c01 5c3e 1a28 bebe a1f2 d2bc 0248 4dbe
000000b0: 964e 40be b047 7c3e e90c 1bbe b24d 27bf
000000c0: 17e3 9cbd 8434 a4be 768a 29be fcc0 d2be
000000d0: 2c8f 33bf 4a93 b6be d780 053e cc83 55be
000000e0: a118 a23e 19bc e8be 9788 553e bd56 22be
000000f0: eecd 18bf ba1d 80bd 2fdd 7a3e 4acf ecbe
00000100: 4203 eabe cad9 e83e 3345 6c3e adfa c9be
00000110: 40b1 b13d 1467 a4be e778 32bf 91ec 33be
00000120: e36b a2bb e231 59be ebef acbd 30ca 1abf
00000130: be40 1b3e e00c 853e d2ed 213e 024e 56be
00000140: 6f0e c43b e5f9 02bf 6c9e b73c 0b7a cbbe
00000150: 3178 c9be 5bb4 05bf 6610 063e 9d65 0b3e
00000160: 4e66 24bf c5cf dcbd ec2c 36bd f9f7 d83e
00000170: 6f27 383e 5f6e 9d3e 330e 6dbe abbf 853e
00000180: 2a00 763e 0ff1 2abf 314e 11bf 18a1 3dbe
-0.17196284 -0.35726467 -0.22464329 -0.255792 0.44925037 -0.26207414 -0.50628906 -0.039076567
-0.37735587 0.20527868 0.10584401 0.30051672 -0.51785636 0.21351646 0.35492834 -0.3491916
0.3051265 0.1981097 -0.32696646 0.0027301393 -0.24721976 -0.61672705 -0.053765073 -0.11769476
-0.46213597 0.10012386 -0.6040266 0.2710529 0.34188384 -0.03945083 -0.44365913 0.016919985
-0.110548235 -0.045801926 -0.10348038 0.3046093 -0.30393988 -0.15906018 -0.03911556 -0.26143637
0.21484774 -0.3713997 -0.02575046 -0.20047 -0.18779978 0.24636722 -0.15141644 -0.6535293
-0.076605015 -0.32071316 -0.16556725 -0.4116286 -0.7014034 -0.35659248 0.1303743 -0.20851058
0.31659415 -0.45456007 0.20852886 -0.158534 -0.59689224 -0.0625567 0.24498437 -0.462519
-0.4570561 0.4547866 0.23073272 -0.39449063 0.08676386 -0.32109892 -0.6971573 -0.17570712
-0.0049567088 -0.21210435 -0.08444198 -0.60464764 0.15161416 0.25986385 0.15813377 -0.20928195
0.005983166 -0.5116256 0.022414409 -0.3974155 -0.3934951 -0.52228326 0.13092193 0.13612981
-0.64218605 -0.107818164 -0.044476435 0.42376688 0.17983793 0.3074827 -0.23149948 0.26122794
0.240235 -0.66774076 -0.56759936 -0.18518484

weight f4 [100, 100]
00000000: 37a8 5f3d a07e 4bbd c071 343c 9a39 18b9
00000010: 676a 56be 3019 5cbd c707 673d 291d 2bbe
00000020: 2600 97be 1633 6fbe b9ce 6fbe dd25 4fbe
00000030: dbc9 be3d 131f 52be f0b8 83be 08f0 b73d
00000040: c97f 8bbe d999 86be 4d23 67be d34b 9ebe
00000050: 4d49 323c a8f3 8abd 1f11 65be 701d 62be
00000060: dac9 623c 6515 a3be 0d84 c2bd 66e3 40be
00000070: b66b 18be 54ce a4be a7b6 173d 44b0 9dbe
00000080: ea9a 69be 1faa 10be 01fd 21be fbac 9dbe
00000090: f75d 7d3d edf0 553d de09 70be 156c 01be
000000a0: 1a4f 8cbe 0da4 bebc 8304 4fbd f87e 60be
000000b0: cde9 d83c 02a8 67be b16f 94be 6063 38bd
000000c0: 9353 0b3d f592 b3bd 0b64 7fbe 757d 69be
000000d0: 83f4 25bd 57aa 46be 70b3 b3be 68c8 8f3d
000000e0: 76db 78be 13bd 703e 8ff5 27be 8d3d 61be
000000f0: 0d9e eabc c551 98be efe6 57be 1a54 c3bd
00000100: 53c2 d73c 5bde 3dbe 701d a5be b013 86bd
00000110: 6e84 9cbe 06cb 17be cf1a ae3d cb32 67be
00000120: 493d 0ebe 50ee 08bd 35a7 a7be 3a12 0f3d
00000130: 7402 4cbe 2dcf 0bbe bb39 70be e389 1fbe
00000140: 9d7f 31be 553a 943d cec6 c8be 1556 13be
00000150: 1595 aebd 009b b73d 4412 74be ba61 a5be
00000160: 47d0 e33c 9b25 82be 1283 a5be 84ca 8abe
00000170: 5924 65be 824e 20be add8 fbbc 5e9e 33be
00000180: 848a 63be 67e8 5c3b f3bf 9c3c a0fe 95be
00000190: ba3a aabd 7ab3 00bd fdd7 bebd 6704 3fbd
000001a0: 80c0 963b 18e2 86bd 83e6 29bd fa32 93bc
000001b0: cdbf 3cbc ed1a 62bd 1a74 9d3b 73f7 65bc
000001c0: a049 ea3c 3301 943b b78a 4cbd ca04 0dbd
000001d0: 0012 97ba 9a95 7fbd 1a43 003c 675c e7bb
000001e0: 80ea 1e3d 67e0 c13c da44 993d cd0a 58bb
000001f0: ea53 97bd 4a18 373d 5f69 8abd b333 61bc
00000200: 2da1 04bd a36b 1bbd a08b 17bd e731 bc3d
00000210: 737a 6a3d ed07 e33c 5f4c c03d 2298 b9bd
00000220: 3a31 843c af1b 833d ed0b 883d a8fd a2bd
00000230: bac5 113d e757 69bd 8009 80bb 53f1 aabc
00000240: 3000 abbd 975c c3bd cdbc 86bd 4add 393d
00000250: 975d 3b3d ab20 b2bd 77d2 19bd 3319 d63a
00000260: 0711 b1bd 7dca 663d 777e b93d 9ae2 903c
00000270: 602b 98bd ba06 bf3c bdb0 143d 622b a23d
00000280: 93ef 59bd 7a7b b7bd 40f5 333d 6700 cc3b
00000290: 6075 05bd ada1 2bbd 3d32 53bd f5c8 a53d
000002a0: 1358 8dbc 05b4 933d 8dd0 b63d cd8b 4f3c
000002b0: 0781 ae3c 672a dfbb e8a8 8c3d f58a b8bd
000002c0: 17e4 223d a778 85bc b007 3b3d cd84 e9b9
000002d0: 37a9 17bd 80dd 30bc 5a2e 5d3d 5f3d 8ebd
000002e0: 3374 81bd 737f b7bc 6d92 14bd 2de8 203d
000002f0: 00d3 893d 6778 2fbc 4da7 c13d 9a23 2bbd
00000300: d3d9 65bd 2060 37bd ff19 8dbd 1f8d 8fbd
00000310: e07a b6bd 8f82 b5bd 60cf d53c d3cb 793d
00000320: a346 c03d b772 ae3d 1ab9 bcbb 87f6 9e3c
00000330: e75f b8be ad51 1e3d e35e c4bd 3497 81be
00000340: 8e53 90be b601 8abe 65fe 86be 2c3f b1be
00000350: 7dbd af3d 204e 81be 0c37 70be c065 583c
00000360: de2c 73be c690 6ebe ba88 82be a779 65be
00000370: b395 94bc d5a9 863d 82f1 8dbe 98dd 75be
00000380: 9379 c73d 9725 8ebe ad07 18bd b8d5 9ebe
00000390: 9053 8bbe 401b 91be edc7 dfbc a73f 63be
000003a0: 04f5 75be 0b8b b9be 8de9 9dbe d3a7 9ebe
000003b0: bf5a 80bd 00f8 6e3c 4875 a9be d329 b4be
000003c0: 2c34 aabe d30a 12bd 7deb c33d f519 86be
000003d0: e08b c93d 9eb3 8bbe 3c25 8ebe 4a62 283d
000003e0: f399 8c3c a0b8 a0bd 3204 b8be f10c a6be
000003f0: 330b c53a 503c 86be 3db7 1d3d 7878 a23d
0.05460378 -0.049681306 0.011013448 -0.00014517308 -0.20939027 -0.05373496 0.0564039 -0.16710342
-0.294923 -0.23359331 -0.23418702 -0.20229287 0.093158446 -0.20519666 -0.25727034 0.08981329
-0.2724593 -0.2628925 -0.2257206 -0.30917224 0.010881734 -0.06784755 -0.22369812 -0.22081542
0.0138420705 -0.3185226 -0.09497843 -0.18836746 -0.14884838 -0.32188666 0.037039425 -0.30798542
-0.22813001 -0.14127396 -0.1581917 -0.30796036 0.06185719 0.052231718 -0.23441264 -0.12638886
-0.274041 -0.023271585 -0.050541412 -0.21923435 0.026478672 -0.22622684 -0.28991464 -0.045016646
0.03401525 -0.08768264 -0.24940507 -0.22801764 -0.040516388 -0.19400917 -0.35097837 0.07020646
-0.24302468 0.23509626 -0.16402267 -0.21996136 -0.028639818 -0.29749885 -0.21084188 -0.095375255
0.026337778 -0.18541853 -0.32249022 -0.06546724 -0.30569786 -0.14823541 0.08501207 -0.2257797
-0.13890566 -0.033430398 -0.32744756 0.03492949 -0.19922811 -0.1365325 -0.23459522 -0.15579943
-0.17333837 0.072376885 -0.39214176 -0.14388306 -0.08524529 0.08965111 -0.23835093 -0.32301122
0.027809275 -0.25419316 -0.3232656 -0.27107632 -0.22377147 -0.15654948 -0.030742968 -0.17540881
-0.22220808 0.0033707859 0.019134497 -0.29295826 -0.083119825 -0.031421162 -0.0931854 -0.046635058
0.0046005845 -0.06586093 -0.0414796 -0.017968643 -0.011520338 -0.05520146 0.0048051 -0.014036047
0.02859956 0.0045167445 -0.049936976 -0.034428395 -0.001152575 -0.06239853 0.007828498 -0.0070605758
0.038797855 0.023666574 0.074838355 -0.0032965422 -0.07389052 0.0447009 -0.06758379 -0.013745236
-0.03238027 -0.037944447 -0.03699839 0.091892056 0.057245683 0.02771374 0.09389567 -0.0906222
0.016136754 0.064017646 0.066429 -0.07958537 0.035588957 -0.056968596 -0.0039073825 -0.020867025
-0.08349645 -0.095391445 -0.0657898 0.045377053 0.04574355 -0.08697637 -0.03755423 0.0016334414
-0.08645826 0.05634545 0.090573244 0.017686177 -0.07430148 0.023318637 0.036301363 0.07918431
-0.05320699 -0.08959098 0.04393506 0.006225634 -0.03258264 -0.041902233 -0.051561583 0.0809497
-0.017253911 0.072120704 0.08926497 0.012667608 0.02130176 -0.0068104747 0.06868154 -0.09010879
0.039768305 -0.016292883 0.04566163 -0.00044540167 -0.03702661 -0.010794997 0.053999282 -0.06945299
-0.06320991 -0.02239964 -0.036272455 0.03928392 0.06729698 -0.0107098585 0.09455738 -0.041782
-0.056115936 -0.044769406 -0.06889724 -0.070093386 -0.08910155 -0.08862793 0.02609986 0.060985398
0.09388473 0.08517974 -0.0057593705 0.019404663 -0.36010668 0.03865211 -0.09588411 -0.2531067
-0.28188747 -0.2695443 -0.26365963 -0.3461851 0.08581064 -0.25254917 -0.23458499 0.013207853
-0.23747584 -0.23297414 -0.2549494 -0.22409688 -0.018137788 0.06575362 -0.27723318 -0.24010313
0.09739985 -0.27763054 -0.037116695 -0.3102243 -0.2721219 -0.28341103 -0.027317012 -0.2219225
-0.24019247 -0.36238894 -0.30842248 -0.30987415 -0.062673084 0.014585495 -0.3309729 -0.3518816
-0.3324293 -0.035654854 0.095664 -0.2619168 0.09841132 -0.27285475 -0.27762783 0.04110936
0.017163252 -0.078477144 -0.359407 -0.32431749 0.0015033245 -0.2621789 0.038504828 0.07933134

bias f4 [100]
00000000: 3e46 97be 8a04 983d c75d 6abe a015 933d
00000010: 6da7 e03c 3078 72be 3389 f1ba 90f7 58bd
00000020: 103b 4fbe 47c9 30bd 5416 013c d735 52bd
00000030: 9775 2dbd 48b5 aabe 4733 87be 74f9 36be
00000040: a7b0 fe3c 427f 91be d1b6 4abe 6e65 6abe
00000050: e36d 2fbd af93 97bd 1247 23be 12c2 b9bd
00000060: 6d12 9ebd 92bd c3be f93a 95be a095 8abd
00000070: 5f30 98be 236f 33bd c9a6 64be 988f b6bd
00000080: 7294 9abd def2 c8be 1879 b4bd 0350 51be
00000090: 3f2f bdbe 47ed a4be a2dc b3be b3b8 dcbc
000000a0: 21be a3be a360 823d 9a69 b0be 609d 94be
000000b0: 3ddc 683d 4866 56be e921 60be 542d 81be
000000c0: bc45 79be 9a81 54bd aec0 9ebe f1f5 93be
000000d0: 7ac5 95be 1038 a1be e743 81be 9694 96bc
000000e0: e22d 0abe 0a99 0cbd 4a02 9cbe f05d c1bd
000000f0: 1ee9 45be 5ead 92be 68e0 bebd 0f4f 64be
00000100: 401c 1dbd fbb0 b8be ab3d e2be 9aad 76bd
00000110: ce2c 80be b659 5cbe e869 73be 606c 25bd
00000120: 2127 3ebe 3bd6 8bbd 5ca9 60be 3a01 88bc
00000130: 8333 38bd 2336 a0be 5bd6 56be 2754 a8be
00000140: 05b4 68be 1edf 5ebe b79e 93bd 1b47 97bd
00000150: 1944 5cbe 4eb2 55be 5d3b 76be 0b82 50be
00000160: 3355 87bd a068 58bd 17ea 19bd fa64 63bd
00000170: 3546 8cbe 9c3b 87be 3267 92be 57ef 32be
00000180: cc59 a9be 470d 5cbe d80a 73be e2d1 72be
-0.29545778 0.07422741 -0.22887336 0.07181859 0.027423585 -0.2367866 -0.0018427729 -0.05297047
-0.20237374 -0.043160703 0.007878859 -0.051320877 -0.04234847 -0.33341432 -0.2640631 -0.17868596
0.031090094 -0.28417403 -0.19796301 -0.22890255 -0.042829406 -0.07401215 -0.1594508 -0.09070219
-0.07718358 -0.38230568 -0.29146555 -0.0676682 -0.29724404 -0.04380716 -0.22329248 -0.08914107
-0.07547845 -0.39247793 -0.08812159 -0.20440678 -0.36950108 -0.32212278 -0.35129267 -0.02694354
-0.31980994 0.06366088 -0.34455568 -0.29026318 0.05685066 -0.20937455 -0.21887936 -0.25229895
-0.24343008 -0.05188141 -0.31006378 -0.28898576 -0.29252225 -0.31488085 -0.25247118 -0.018381398
-0.13494065 -0.034325637 -0.30470496 -0.09441745 -0.19327208 -0.28647894 -0.09320146 -0.22295783
-0.03835702 -0.36072525 -0.44187674 -0.060224153 -0.25034183 -0.21518597 -0.23770869 -0.040386558
-0.18569614 -0.068279706 -0.21939605 -0.016602147 -0.044971 -0.31291303 -0.20980208 -0.32876703
-0.22724922 -0.217648 -0.07208007 -0.07386609 -0.21510352 -0.20868799 -0.24046083 -0.20362107
-0.06608047 -0.052834153 -0.03757676 -0.05551622 -0.27397314 -0.26412666 -0.28594357 -0.17474113
-0.33076322 -0.2148944 -0.23734605 -0.23712876

weight f4 [100, 100]
00000000: 9b3c 9e3d 678f afbb da01 c13d 838c 583d
00000010: fdb0 7abd cd7b ec3b ba40 47bd da07 9b3c
00000020: 2059 77bd fa2f 18bd 779d 28bd 2a73 c6bd
00000030: 1a0d bc3d 4a39 0cbd 00fc fabc 331f 08bb
00000040: 67ac e63a b702 acbd 6de6 e33c e759 7fbd
00000050: 37a7 a2bd bae0 75bd cfb3 9fbd d270 a03d
00000060: 0a9d 1c3d 4f76 b33d 47cf a4bd 6295 a2bd
00000070: 307d 223d aabf 3fbd 4d11 fbbc 67a6 70bd
00000080: 0852 acbd 1d4c 71bd 63c9 80bd fdda 513d
00000090: 33fa 2cbb 10f7 7f3d 050d b23d f33f 873d
000000a0: 77b0 a6bd e715 703d 6347 693d 7d82 39bd
000000b0: c08a acbc 9aad 093d 3356 27bc d084 7abd
000000c0: 8d2b 91bc 470c e2bc e395 7a3d 206e 323d
000000d0: 1307 803d b3a7 8abb fa70 babd 53f4 c73d
000000e0: 67ad 4a3b d7ae 2e3d f74b 68bd 4d49 a2bb
000000f0: e0aa da3c 5a97 26bd cad3 62bd 073e e63c
00000100: b26f a43d a7ca 9f3d d071 0b3d 0d81 0b3c
00000110: 6a1a 383d e7e5 ffbc 9ff0 9d3d 631e 583d
00000120: 8834 ccbd 70bd ba3d cd37 9a3b 5dd9 9abd
00000130: 73bc 1cbd c22a bfbe 3ffc aabd 4df5 cc3c
00000140: 00c3 09bd 8237 a8bd 5742 1e3d faa1 6e3d
00000150: b754 c93d c012 a7bd c752 483d afbf 913d
00000160: 9a29 21bb a000 9e3d 68f6 ba3d 48db a5bd
00000170: fdce 4d3d 2039 c33c a760 393c f7f9 963d
00000180: 00f0 af3b 938b 18bd f5e5 ae3d ad57 6d3d
00000190: 50b2 463d 408d dcbc b0d3 aabd a768 64bc
000001a0: 2d73 99bc f3b9 a4bc 1a09 51bd 1d0e 933d
000001b0: c049 88bc 939e c8bd 7f4f 83bd e89b cabd
000001c0: 3dab 623d 0df9 3bbc 0dc6 50bd c310 9dbd
000001d0: f79c 473d aa01 b1bd 5546 babd 80a1 13bc
000001e0: a791 743d 80b7 a1bd 7296 84bd 1d0e 043d
000001f0: 02f3 c6bd a813 883d 53f5 5a3d 33e4 473d
00000200: a053 ae3d 7aeb b13d b02e 3dbd b361 673d
00000210: cdab 5f3d 0072 393d 539a dfbc 2a65 61bd
00000220: 7ff5 84bd 00cd af3c 678d 33bb 33df a53b
00000230: fa6c b73d 3a67 a6bd d382 bd3c ed71 933c
00000240: 9a3d 91bb 1794 873d a2f5 843d 75e2 89bd
00000250: a0aa 913c 0d7e 76bd d37b 62bd a01a abbd
00000260: 70b6 183d 8d95 27bc e514 82bd 33a8 a2bc
00000270: 9aa1 f1bb 23c2 1a3d d747 ae3d 82fb 87bd
00000280: 67c5 ccbb 483b c63d 030c 873d a0cc 3c3d
00000290: fa89 f6bc 53ce 8e3c b3bd de3b 9a7f c03a
000002a0: 08a7 853d 7387 0bbd 2dea c9bc 1bbe 8e3d
000002b0: a0e4 cf3c 9d71 c2bd eda5 a0bc f529 8a3d
000002c0: 9734 783d e130 85be e708 70bd 9206 99bd
000002d0: 8dd2 023d d22a 9d3d f06b a73d 5d5f 1d3d
000002e0: cdca 713d 6f5f 8dbd ade7 c43c cdd7 28bc
000002f0: 9a63 92ba 8a70 413d 326c 99bd c00b 1e3c
00000300: 8d81 0fbd 7791 4d3d 60dc b6bd 6df4 61bd
00000310: 5349 92bd a75d 993d 50e9 7e3d 65d3 a93d
00000320: 48ba 6abe ed8f f93c 5443 a03e 53da e43c
00000330: 3a69 833c 5030 88be 0793 9abd d090 9d3d
00000340: 3d94 cabe f3dd 8e3d 1a22 77be ba60 d43c
00000350: b371 193d d6ac 9cbe 21d4 8dbe 7fef 8fbe
00000360: c72c 50bd 3d94 76bd daf8 5cbe 178a 9d3e
00000370: 00ec 86ba 4d50 db3c 9ed3 0abe 1ae2 fdbb
00000380: c7aa 44bd c829 693e 94cd 14be 27f7 b4bd
00000390: dab8 b23e 603c b33d 6202 b53e 6746 4aba
000003a0: 40c4 54bc a5dd 71be 6dcc 59bd 1737 45be
000003b0: 81e9 893e c449 7dbe 5e65 8e3e 18ad 88bd
000003c0: b7db a1be 5de1 703d 646a ac3e 3adb 98be
000003d0: 252c 85bd ac11 8f3e 10d7 943e c71a 83be
000003e0: f2b1 893d 6777 e33b 0d0d 8c3e abc4 963e
000003f0: 7d84 3abe 33a2 bdbe c8cd 4e3e f785 a4bd
0.07726403 -0.005357671 0.09424181 0.052868377 -0.061203945 0.0072169066 -0.048645712 0.018924642
-0.06038773 -0.03715513 -0.041165795 -0.096899346 0.091821864 -0.034234323 -0.030637741 -0.002077055
0.0017598987 -0.08398955 0.027819837 -0.062341597 -0.0794205 -0.06002877 -0.07797968 0.07834019
0.0382357 0.087628 -0.080473475 -0.07938649 0.03967017 -0.046813644 -0.030647898 -0.058752444
-0.08414084 -0.058910478 -0.062884115 0.051234234 -0.0026394248 0.062491477 0.086938895 0.06603994
-0.08139127 0.058614638 0.056952845 -0.04529046 -0.021062255 0.033612825 -0.010213423 -0.061161816
-0.017720962 -0.027593745 0.0611781 0.043562055 0.06251349 -0.004231417 -0.0910358 0.09763398
0.003092611 0.04264721 -0.05671307 -0.004952586 0.026692808 -0.040671684 -0.05537776 0.028105749
0.08029117 0.07802325 0.034044087 0.008514655 0.044947065 -0.031237556 0.077119105 0.052763354
-0.09970957 0.091181636 0.004706359 -0.0756099 -0.038265657 -0.3733731 -0.083488934 0.025019312
-0.033633232 -0.08213712 0.038637485 0.05825994 0.09830611 -0.08157873 0.048907068 0.07116639
-0.0024591447 0.07714963 0.091290295 -0.08098465 0.050246228 0.02383095 0.011314548 0.07371896
0.0053691864 -0.037242483 0.085399546 0.057944942 0.048509896 -0.026922822 -0.083411574 -0.013940967
-0.018731678 -0.020108199 -0.05103407 0.07180426 -0.01663673 -0.09795871 -0.06411647 -0.09893018
0.055339087 -0.011472953 -0.050970126 -0.07669213 0.048733678 -0.086428955 -0.09095446 -0.009010673
0.059709217 -0.07896328 -0.06474008 0.032240022 -0.09714319 0.06644374 0.053456616 0.048801612
0.08512044 0.08687492 -0.046187103 0.056489658 0.0546072 0.045274734 -0.027295267 -0.05502812
-0.06492137 0.021460056 -0.0027397515 0.005062008 0.089563325 -0.08125158 0.02313367 0.01799866
-0.0044323923 0.06620043 0.06492163 -0.067326464 0.017781556 -0.060178805 -0.05529387 -0.08354688
0.03728336 -0.010228527 -0.063516416 -0.019855594 -0.0073740007 0.0377828 0.08509796 -0.06639768
-0.006249118 0.09679276 0.06594088 0.046093583 -0.03009509 0.017432367 0.0067975163 0.0014686466
0.06525999 -0.03406472 -0.024647797 0.069698535 0.025377572 -0.09494326 -0.01961037 0.06746284
0.06059703 -0.26013854 -0.05860224 -0.07471956 0.031939078 0.07674183 0.08174884 0.038421024
0.059031297 -0.06902968 0.024036253 -0.010305357 -0.00111686 0.047226466 -0.0749134 0.009646356
-0.03503566 0.050187554 -0.08928752 -0.055164743 -0.07142892 0.07488566 0.062234223 0.082922734
-0.22922623 0.030464137 0.31301367 0.027936136 0.016041387 -0.2659936 -0.075475745 0.076936364
-0.39566222 0.06975927 -0.24134102 0.02592503 0.037461948 -0.30600613 -0.27700904 -0.2811241
-0.050823953 -0.060199965 -0.21579304 0.30769417 -0.0010293722 0.026771689 -0.13557288 -0.0077479007
-0.04801443 0.22769845 -0.14531547 -0.08836203 0.34906656 0.0875175 0.3535338 -0.0007716179
-0.012986243 -0.23619707 -0.05317347 -0.19259296 0.26935962 -0.2473517 0.27811712 -0.0667364
-0.31612942 0.058808673 0.3367492 -0.29854757 -0.065025605 0.2794317 0.2907033 -0.25606367
0.067233935 0.006941724 0.27353707 0.2944692 -0.18214603 -0.3703781 0.20195687 -0.08033364

bias f4 [100]
00000000: f29b 0fbf 9d99 04bf 56ce 4abe 2328 8fbe
00000010: 740e 80be 6ccf 76be c4d8 73bb 34d4 6ebe
00000020: b242 8bbe 6667 4cbe ed83 aa3a 50ce 21be
00000030: 2c1b 9ebe 3ca1 91be ff6a 8abe 064f 80be
00000040: 08e7 81be 62a5 7bbe b506 bcbd 83ee 80be
00000050: 502c b8be ea16 aabd f128 adbe 1a09 97be
00000060: f6d8 2cbe 03ca 86be 598d 65be af41 b8be
00000070: 4422 6abe a683 54be ac4a b7be 0999 82be
00000080: 62b5 8ebe b44a 4ebe c036 9ebe d415 5cbd
00000090: fb53 a7bd 00a9 6abe a996 48be ed5a b5be
000000a0: 1899 a4bd 0caf 32be 5d8a a8be 33c5 8bbd
000000b0: e4d4 cebe 97b8 adbe 903c 7bbd 291f b0be
000000c0: f20b 54be 6b99 5bbe f9ab 1abe 4d60 cabe
000000d0: 1a28 c7bc 1be4 a8be 4b4d aabe cecf 6c3c
000000e0: 2e6a b2be dce7 abbe 91b7 8dbe a95b a2be
000000f0: 0482 293b 80d1 62bd 7195 a3be 2076 acbe
00000100: e43d 90be 07ca 3bbe 20ee 74bd cf1a afbe
00000110: 68a9 8bbe 0163 4fbd c9d7 c4bd 60e7 80be
00000120: 7a91 7dbe 15c9 85be 4548 37be 3f9e 97be
00000130: 3ccd 21bd 2002 1d3e 18d0 52be b13c 7f3c
00000140: acf5 0cbb 40c9 84be b155 88be 18a7 56be
00000150: f165 a5be 1e61 8dbe be4a 95be 1fdc 71be
00000160: 3da3 9ebe 85ec 8fbe 7211 12bd c43d 7cbe
00000170: 2db2 82be cd5a 58be c596 54be 5d17 92bd
00000180: 1be5 82be 242e dbbd 7cc4 53be c6a5 5abe
-0.5609733 -0.51796895 -0.19805273 -0.2796031 -0.25011027 -0.24102563 -0.003720806 -0.23323137
-0.27199322 -0.19961318 0.0013009288 -0.15801358 -0.30880105 -0.28443325 -0.27034757 -0.2506029
-0.25371575 -0.24574807 -0.09180967 -0.2518197 -0.35971308 -0.08305152 -0.33820298 -0.2949913
-0.16879639 -0.26325998 -0.22417201 -0.35987613 -0.22864634 -0.20753345 -0.35799158 -0.25507382
-0.2787276 -0.20145684 -0.30901146 -0.053731754 -0.08170315 -0.22916031 -0.19588722 -0.35420933
-0.08037013 -0.17449588 -0.32918063 -0.06824722 -0.40396798 -0.33929893 -0.061337054 -0.34398773
-0.20707682 -0.21445243 -0.15104665 -0.39526597 -0.024311114 -0.3298653 -0.33262095 0.014453841
-0.34846634 -0.33575332 -0.27679113 -0.31710556 0.002586485 -0.055375576 -0.31949952 -0.33683872
-0.2817222 -0.18338786 -0.059797406 -0.3420014 -0.27277684 -0.050631527 -0.0961147 -0.25176525
-0.24762526 -0.26129976 -0.17898662 -0.2961292 -0.039502367 0.15332842 -0.20587194 0.015578435
-0.0021508737 -0.25934792 -0.26627877 -0.20962179 -0.32304338 -0.27613157 -0.29158586 -0.23619126
-0.30983916 -0.28110138 -0.03566117 -0.24632937 -0.25526562 -0.21128388 -0.20760639 -0.071333624
-0.2556542 -0.1070216 -0.20680422 -0.213523

weight f4 [100, 100]
00000000: 628f c3be 1668 4bbf 176b ffbd e3b0 263d
00000010: 9fb3 813e 21b3 2dbe c7b2 0b3c 9683 36be
00000020: dfc2 5bbe e41a 73be 3f79 d13c e018 63be
00000030: 022a 933e b083 54be 9378 8bbe 7c8d 683e
00000040: cb5b 49be 9c2d 33be 6708 e73b 959f b13e
00000050: 2f34 46bd 83db 49bd e45c 9dbe 89be 903e
00000060: 022b 4d3e dc98 983e ac0a 8d3e e46e b9be
00000070: 8b36 a03e 0b50 a33e ac32 75be 4165 90be
00000080: 26fe 96be 731e 913e 6636 183e 640d 85be
00000090: 10e4 5a3d 3b84 9a3e 2c40 5cbe 823f 35be
000000a0: cb97 a63d ce59 08be 5816 49be ddb7 5b3d
000000b0: edd5 18be 3d7d 523e 80c1 413c fd9b b63e
000000c0: 75af 62be e175 31be c542 99be 0243 983e
000000d0: b071 c93d bb54 563e acc9 95be a604 cd3d
000000e0: 888c 513e cad6 853e 4b92 1a3e 59af 58be
000000f0: cb50 053d cd12 483b 88f5 c23e 0f85 82be
00000100: 8f47 883e cedb 8dbe 4da6 2abd 4ef7 c53e
00000110: d4d5 693e 7436 26be f05a 8abe aa81 b53e
00000120: 849a 74be fb12 873e ebb0 85be 5ad0 803e
00000130: d03c 55be 44e3 be3e 4806 c03e 027f e23d
00000140: bbf3 223c 5b85 80be 35d4 d4bd 7d26 b53e
00000150: a131 973e 7948 b33e c17c 593e 1084 953e
00000160: cd32 2fbe 64a8 a5be 871c 54be 8064 8bbe
00000170: 8c02 c23e 9453 5abe e345 a63e ba1e 3ebd
00000180: a96f b33e 4ce8 bbbd 2fad cc3e 9776 ba3e
00000190: 417a c43e ac97 d83e efc5 1e3e b211 f73c
000001a0: ccb7 91be 9926 153e 845c 6fbc 2d61 303e
000001b0: 60d3 a6be d942 643e a933 2dbd d355 823e
000001c0: af04 21be a8f6 8a3e bfc0 8d3e 45ae aabe
000001d0: b50c 093e dd3b 5a3e 6394 abbd 87e0 93be
000001e0: d8fc 163e d370 bb3d 4d0a 503e 13f2 5cbe
000001f0: 8487 13be 2a31 b8be 6119 92be c0fc 733e
00000200: 8482 babe 6c8a 8bbe 3b34 b83e 78f9 ac3e
00000210: 3452 65be 9eb9 7bbe d83d 29bd fb85 3d3e
00000220: 870d a23d bde5 8bbe 4de5 933e 452f 283e
00000230: 07a9 be3c 4862 583e 911f 8d3e 4b36 95bd
00000240: 723a 51be 7f4a a5be f792 0bbd 5354 5ebe
00000250: f3ef 053e 3d4c 703e fc6e 863e 69ed 8fbe
00000260: f3fc 8c3d f367 93be a040 ae3e 2031 22be
00000270: 54c0 bbbe efbf c5be c09a f0bd a63a 613e
00000280: 6b0c 54bd edf9 b23c fea8 c1be 20f5 513e
00000290: eb5c abbe 40d5 043e 9354 80bd 850a a5be
000002a0: 28e4 80be b037 793e 885e 823e 83e6 a3be
000002b0: de65 2b3e b9ad b9be 0e90 0c3e 7876 71be
000002c0: c830 9f3e 4ec0 c5be 0528 8dbe ad25 2fbe
000002d0: 60f6 7abc 46e5 903e 2595 0c3e 0b4f 88be
000002e0: 7a4f 93be a62c a7be fae3 73be c307 8bbe
000002f0: b104 a53e 65f6 51be 4b32 2b3d 85f5 9f3e
00000300: 6959 66be f7ec 4f3e a300 adbe 3a61 b03c
00000310: ee98 73be 8052 13bb 2d55 8abe 0a4e 82be
00000320: 2c94 04bf 2d33 973e 53a5 353e 2690 063e
00000330: 08c5 9bbe 8b2f 2e3e e7bd 47bb ad0b 223e
00000340: 23e6 cabe 07df 953e 3119 a0bd faa4 6e3e
00000350: 898c 90bd 0752 88be 59db 893e b182 a2be
00000360: 842a 8f3e b748 693e 33e8 d63b 1f24 bcbe
00000370: d760 243d 3262 abbd 6753 a63e 7995 5dbe
00000380: ce76 aabd 77c2 86be 899a b1be fe21 9f3e
00000390: a397 84be 88b9 53be a628 493e 77ed 5e3e
000003a0: fa71 9ebe eddf 60be df6b ebbd 7992 b03e
000003b0: 6a00 18bd ea4b a1be 73f8 763e 5f49 703e
000003c0: 82bb 9c3d 46f9 963e edbb 4a3e 378a 38bd
000003d0: dbef b6be 7cae 72be 33cf d13a d34e 60be
000003e0: 2d7d 713e b334 053e 960f 443e 6921 6bbe
000003f0: 2783 b3bc 79a8 bfbe 20a6 823e 5849 4bbe
-0.3819533 -0.794557 -0.12471598 0.040696036 0.25332353 -0.16962864 0.008526511 -0.17823634
-0.21461056 -0.23740727 0.02557051 -0.22177458 0.28742987 -0.2075336 -0.27240428 0.22710222
-0.19663922 -0.17497867 0.007050562 0.34692064 -0.04838961 -0.04928161 -0.30734932 0.28270367
0.20035937 0.29804122 0.27547204 -0.36217415 0.31291613 0.31897005 -0.23945111 -0.2820225
-0.29490775 0.28343543 0.14864501 -0.2598678 0.053440154 0.3017901 -0.21508855 -0.17700008
0.08134421 -0.13315508 -0.1963743 0.053642143 -0.14925356 0.20555587 0.011825919 0.35665885
-0.22137244 -0.17330123 -0.29933754 0.29738623 0.09836137 0.2093076 -0.29255426 0.10010652
0.20463765 0.26140434 0.15094869 -0.2116064 0.032547753 0.0030528784 0.3807795 -0.2549214
0.26617095 -0.2770676 -0.041662503 0.3866524 0.22835475 -0.1623171 -0.27022505 0.35450488
-0.23887068 0.26381668 -0.2611154 0.2515896 -0.2082398 0.37282765 0.37504792 0.11059381
0.009945805 -0.25101742 -0.10392038 0.35380927 0.2953005 0.3501623 0.21238996 0.29202318
-0.17109223 -0.32355034 -0.20714007 -0.27225113 0.37892568 -0.21320945 0.32475194 -0.046416022
0.35046127 -0.091751665 0.3997588 0.36418602 0.38374522 0.42303216 0.15505193 0.030159805
-0.28460538 0.14565505 -0.01460946 0.1722457 -0.3258314 0.22291125 -0.042285595 0.25456104
-0.15724443 0.2714131 0.27686116 -0.33336082 0.13383754 0.21311899 -0.08377912 -0.28882238
0.1474489 0.09152379 0.2031643 -0.21576719 -0.14407164 -0.3597501 -0.28534988 0.23826885
-0.364277 -0.27254045 0.3597735 0.3378408 -0.22394639 -0.24582526 -0.041318744 0.1850814
0.079127364 -0.27323714 0.2888588 0.16424282 0.023273958 0.21131241 0.27563146 -0.07285746
-0.20432451 -0.32283399 -0.034075703 -0.21711855 0.13079815 0.23466583 0.2625655 -0.28110817
0.06884184 -0.28790244 0.3403368 -0.15839052 -0.36670172 -0.38622996 -0.11748266 0.21995029
-0.051769655 0.02184769 -0.37824243 0.20503664 -0.33469328 0.12971973 -0.06266131 -0.32234588
-0.2517407 0.2433765 0.25462747 -0.32011804 0.16738078 -0.36265352 0.13726828 -0.23580348
0.31091905 -0.3862328 -0.27569595 -0.17104216 -0.015317529 0.28299922 0.13728769 -0.26622805
-0.28771573 -0.32651252 -0.23817435 -0.2715436 0.32230142 -0.20504148 0.04179601 0.31242004
-0.22495045 0.20305239 -0.33789548 0.021530736 -0.23788807 -0.0022479594 -0.2701811 -0.25450164
-0.5178859 0.29531232 0.17738847 0.13140926 -0.3042376 0.17010324 -0.003047818 0.15824766
-0.39628705 0.2927172 -0.07817305 0.23305121 -0.07058055 -0.26625082 0.2692516 -0.31740335
0.27962124 0.22781645 0.006558442 -0.36746308 0.040131416 -0.08368339 0.32485506 -0.2163905
-0.083234414 -0.2632024 -0.34688213 0.3108062 -0.2589694 -0.20676243 0.19644412 0.21770273
-0.30946332 -0.21960421 -0.11495184 0.3448675 -0.03710977 -0.3150323 0.24118213 0.23465489
0.07652952 0.29487056 0.1979825 -0.045053687 -0.3572987 -0.23699373 0.0016007185 -0.21905069
0.23582907 0.13008384 0.1914657 -0.22961964 -0.021913124 -0.37433222 0.25517368 -0.19852197

bias f4 [100]
00000000: 5206 afbd 5103 a93d d439 953d e975 56bd
00000010: 4c1a 8bbd fd4e d0bd 9509 cbbd a8fc 2d3d
00000020: 9353 4b3d 8d49 4e3d f6cd c7bd e85e ebbd
00000030: 9225 d7bd da24 c2bd 6d3a 7d3d c40d 10bc
00000040: 83e3 80bd acba bd3d fae7 afbd a3db b6bd
00000050: 96ab d83d 737e 81bc a4b9 cbbd 8704 803d
00000060: 5c86 6ebd 3312 a5bd 6cbf 513d 0ccc 49bd
00000070: 941d 9a3d 3f5d e53d c303 c1bd 61a9 28bd
00000080: 88d6 833d 0290 853d 9312 d9bd 6fd7 9c3d
00000090: 8483 493d d829 a33d 6010 acbd 7a5f c4bd
000000a0: f96f 313c 7b59 86bd 05f6 be3d bbd1 2d3d
000000b0: 6450 a6bd 68da c33d 9af0 a43d 5530 8b3d
000000c0: 4fd6 a4bd 17c6 a73d 7359 c43d 0c4a f23c
000000d0: f848 2fbd 1a18 8d3d aa0e 463d 39c6 613d
000000e0: 1491 ab3d e55d 1c3d df4d e0bd 1d2b bebd
000000f0: 2b1d f8bc 11ac 45bd 5273 a63d 3a6b b53d
00000100: aa46 7e3d f089 863d 0001 23bd e849 d5bd
00000110: eabf 903d 7264 913d 1059 a63d f410 d33d
00000120: 4e44 c8bd 6916 98bd f0b9 30bd 433f c73d
00000130: 19cf 743d 8d5a 97bd dd8c 903d 0b9d e23d
00000140: e7d3 8bbd 4abe 6d3d d2bb 913d dd0f 873d
00000150: 9fdf cebd 3a07 56bd c8dc 433d f6b4 c9bd
00000160: 9a24 e13d de65 88bd e536 4bbd 1710 d23d
00000170: 5978 81bd 4c60 c23d 0e35 bc3d fc9c a4bd
00000180: d2c9 bdbd f874 753d 192b 633d ddce a2bd
-0.085461274 0.08252586 0.072864205 -0.05235854 -0.06792125 -0.10171316 -0.09913937 0.04247728
0.04964025 0.050363112 -0.09756081 -0.11492711 -0.10505213 -0.09479685 0.061823297 -0.0087923445
-0.062933944 0.092641205 -0.08589168 -0.08928611 0.105796024 -0.015807366 -0.099475175 0.062508635
-0.058233604 -0.08060112 0.051207945 -0.04926686 0.07525173 0.11199426 -0.094245456 -0.041177157
0.06437403 0.06521608 -0.10599246 0.07658278 0.04919769 0.079669654 -0.08401561 -0.09588523
0.010829919 -0.06560036 0.09324268 0.042436343 -0.08120802 0.09563142 0.080537036 0.06796328
-0.080486886 0.081920795 0.095873736 0.029576324 -0.042794198 0.06889363 0.04835383 0.05512068
0.08377281 0.038175482 -0.10952353 -0.09285567 -0.030287346 -0.0482598 0.08127464 0.088583425
0.06207911 0.06569278 -0.039795876 -0.10414487 0.07067855 0.070992365 0.08122456 0.10305968
-0.09778653 -0.074261494 -0.043146074 0.09728863 0.059767816 -0.07390318 0.070581175 0.1106511
-0.068275265 0.058042802 0.07115902 0.065948226 -0.10101246 -0.052252986 0.047817975 -0.09848969
0.10993309 -0.066600546 -0.0496129 0.10256975 -0.063217826 0.094910234 0.09189807 -0.08037755
-0.0926701 0.059926003 0.055461023 -0.07949612
