Results/Nodes_1024/model_weights_with_Jacobian.pth (torch, 127792 bytes, 8 tensors)

weight f4 [100, 2]
000000 4d be 0b bf ad 27 8d be cb a6 2c 3f b7 35 3b bf
       -0.5458725 -0.27569333 0.67442006 -0.7312884
000010 ef e3 18 3f 9c c7 f1 3e 11 25 98 be 78 76 5e bd
       0.597228 0.47222602 -0.2971578 -0.0543122
000020 46 22 bf be 1d 85 0d 3f 56 50 f6 bd e3 fa 48 3e
       -0.37330836 0.5528124 -0.120270416 0.19626956
000030 24 e0 02 bf 65 6a 5e 3f 96 7e ae bc 9f a3 02 3f
       -0.5112326 0.86881095 -0.021300595 0.51030916
000040 4b 17 52 3e 3f 15 80 3b 2f 4c 34 3f 27 b8 7b be
       0.20516698 0.0039087827 0.70428747 -0.24581967
000050 ec cd 39 3d ae 66 8c be f7 c9 52 be 68 ca 33 bf
       0.045362398 -0.27422088 -0.20584856 -0.7023072
000060 81 cf 36 bf 6f 81 28 3f 44 3b 18 3f 8d a9 c9 be
       -0.71410376 0.658225 0.5946543 -0.3938717
000070 d5 9d 09 3f 14 e9 35 bf 03 72 31 bf 03 6f 3c 3f
       0.5375646 -0.71058774 -0.69314593 0.7360689
000080 fd 6c 1b 3e 97 f3 e1 3b fb d9 10 bf 97 ad 8c 3f
       0.15178294 0.0068954933 -0.5658261 1.0990475
000090 ab ae 19 3e bc 8d 67 bd 44 c1 39 3f 5c 9e 85 bd
       0.15008037 -0.056531653 0.72560525 -0.06524345
0000a0 f3 28 2d bf 87 00 9e 3e 3c 1f 67 3e dc 8d 22 bf
       -0.6764061 0.30859777 0.22570509 -0.6349771
0000b0 b3 26 fb 3d 23 a7 a5 3c c7 93 dc bd 1a 6d d9 bd
       0.12263241 0.020221299 -0.10770374 -0.106165126
0000c0 47 6e d0 3e 1f f0 ed 3d b4 64 4c bf ee 16 60 3f
       0.40709135 0.11618065 -0.7984116 0.8753499
0000d0 2b cb a6 3e f8 3d 30 bf f8 9e 25 3f fa 14 4b bf
       0.3257688 -0.68844557 0.6469569 -0.7932888
0000e0 03 c9 21 be 5e 9a 68 be e3 5e 74 be 19 84 e7 3d
       -0.15799336 -0.22715136 -0.23864321 0.113044925
0000f0 2c a9 b7 3d 1b 88 a0 3e 7c f2 1d 3e 09 04 24 bf
       0.08967814 0.3135384 0.15424532 -0.6406866
000100 de bf 92 3e b0 8e 2b be 43 71 32 be e7 4d 1c bf
       0.28662008 -0.1675365 -0.17426018 -0.6105637
000110 cd 1f 27 bf 73 2e fa 3e 26 3f ba be 32 8f c7 3e
       -0.652829 0.48863563 -0.36376303 0.38976437
000120 f9 d6 f6 3e a9 9c 7e 3e 5b a6 7b be 83 c9 af be
       0.48210886 0.24864449 -0.24575178 -0.3433343
000130 fc 3a 26 3f ba 65 10 3f 46 e0 83 3e db bd 7f 3f
       0.64933753 0.5640522 0.25757045 0.9989907
000140 44 9c 19 bf b5 00 de 3d 84 82 24 bf ad cf 82 3e
       -0.6000407 0.108399786 -0.6426165 0.2554907
000150 89 da 04 3d e9 d3 36 bf f9 65 32 be 75 49 38 bd
       0.032434974 -0.714171 -0.17421712 -0.04499193
000160 9f 45 4a be 7d 2a e7 3e 51 9b 19 bf 40 01 de be
       -0.19753121 0.45149603 -0.6000262 -0.4336033
000170 24 d0 2b be 30 9c e2 3e 89 4e 16 bf 6b e3 e0 3e
       -0.16778618 0.44259787 -0.58713585 0.43923506
000180 a6 b2 97 3e 2e 70 ff 3e 09 2b aa be e5 ae f3 be
       0.29628485 0.49890274 -0.33235958 -0.4759437
000190 3c f7 61 3e db 64 41 3e a8 31 36 3f cf b1 e1 bc
       0.22066969 0.1888613 0.7116952 -0.027550606
0001a0 42 86 a9 3e c7 6e 49 be ee f7 e9 bd 91 9d db be
       0.33110243 -0.19671164 -0.11424242 -0.4289365
0001b0 54 6d fe 3e 4c a6 3d 3e 76 a9 1e bf d1 b3 ce 3e
       0.49692786 0.18520468 -0.61977327 0.40371564
0001c0 ac 1a f2 3e 91 6b da 3e e8 87 b1 3e c8 0d 2b bf
       0.47285974 0.42660192 0.34674 -0.66817904
0001d0 0a 5b 04 bc e9 ee 5e 3f c9 06 94 be ba 16 60 be
       -0.008078346 0.870833 -0.28911427 -0.2188367
0001e0 af 05 62 be 81 03 0f 3f 18 74 d3 be 6b 4a 02 3e
       -0.2207248 0.5586472 -0.4129951 0.127237
0001f0 e8 e8 3b 3f 11 9e 1f 3f cd 54 95 3e df f1 05 3f
       0.7340226 0.62350565 0.2916626 0.5232219
000200 13 e7 09 bf 51 5a 73 3d 5b 5b 11 bf 20 af 90 be
       -0.53868216 0.059412304 -0.5678002 -0.2825861
000210 a7 83 2c 3f 78 02 11 3f a1 be 10 3f 8a 3f f6 be
       0.67388386 0.5664439 0.56540877 -0.4809535
000220 c6 36 70 be f6 70 46 3f bc 82 a3 3e 00 b3 c8 be
       -0.23458394 0.77516115 0.3193568 -0.39199066
000230 a3 b5 07 3f 97 9f 86 be 32 2e 25 3f f3 e6 bd be
       0.5301153 -0.26293632 0.64523613 -0.37090263
000240 a5 1d 80 3d 77 a0 94 be 5d dc df be 96 45 28 be
       0.06255654 -0.29028675 -0.4372281 -0.16432795
000250 0c d0 45 3e 43 a6 6b be 0b 7b 24 3f 95 68 ca be
       0.19317645 -0.23012643 0.6425025 -0.39532915
000260 1f d3 88 be aa d6 eb be 46 4a 02 bf ae 16 3a 3f
       -0.26723573 -0.46062213 -0.5089458 0.72690856
000270 f3 24 2d 3f 39 f8 0b bf 68 2c 82 3e 81 03 d2 3e
       0.67634505 -0.5467563 0.25424504 0.41018298
000280 ca ac bb be a8 96 30 bf c1 50 27 3e 13 fd 3a bf
       -0.36655265 -0.68979883 0.16339399 -0.7304241
000290 fc 23 77 be 18 bc 5b 3f a6 b4 88 3d 70 cd 08 3f
       -0.2413482 0.85833883 0.06675081 0.5343847
0002a0 f3 13 f8 3e 55 34 db 3e 18 37 8e be e4 0b 92 be
       0.4845272 0.42813364 -0.27776408 -0.28524697
0002b0 9e 1e 25 bf 4e 32 d4 be d3 e6 c2 3e 01 63 9e 3e
       -0.64499843 -0.4144463 0.3806673 0.3093491
0002c0 f8 cc cd be fa f1 d0 3d 7c 0d 08 be bd 62 c8 3e
       -0.4019544 0.10202403 -0.13286394 0.3913783
0002d0 fc 86 c5 be 39 41 e9 bc fb 16 93 3e 9e fb ff 3d
       -0.38579547 -0.028473483 0.2872847 0.12499164
0002e0 38 c4 42 be c9 d0 d0 3e 81 dd 01 bf 0c 69 45 bd
       -0.19020164 0.4078429 -0.50728613 -0.048195884
0002f0 3d 4f 3d bf ac 5d df 3e 7f db b2 be bf 3c b5 3e
       -0.73949033 0.43626153 -0.34933087 0.35397908
000300 30 0e 14 be 0b 31 7e be 36 d1 30 3f a6 1b 12 bf
       -0.14458537 -0.24823396 0.6906923 -0.5707344
000310 4c 4e ca 3e e5 3e 1d 3f 9e ae 28 bf 6d 45 92 3e
       0.3951286 0.61424094 -0.65891445 0.28568593

bias f4 [100]
000000 a2 e8 1e bf cc 78 b4 3e d2 94 e4 be df 89 55 be
       -0.6207372 0.3524841 -0.4464479 -0.20853375
000010 db 20 b3 be 21 2c 9e 3e 48 ed 75 bb f6 2d 11 bf
       -0.34986004 0.30893043 -0.0037525464 -0.56710756
000020 1a 36 07 bf 6c 1e 02 be 9f 43 e0 be ca f8 b4 3d
       -0.5281693 -0.12706918 -0.4380159 0.08836515
000030 f2 9e 05 3f b6 fb 84 3e 65 a0 38 3e e7 96 26 3f
       0.52195656 0.2597329 0.18029936 0.6507401
000040 19 52 10 3e 7f e6 be bd 39 73 07 bf f7 84 ee 3c
       0.14093818 -0.093213074 -0.5291019 0.029116137
000050 51 08 06 bf 28 af 27 bd 42 7a 0f bf 96 2a b0 be
       -0.5235644 -0.040938526 -0.56045926 -0.3440749
000060 43 06 96 be ab 12 fe 3c e5 2a d0 3d 9d 37 27 bd
       -0.29301652 0.031014761 0.101644315 -0.04082452
000070 88 89 b3 be b8 95 29 bf dc ad 2a 3e 31 67 32 3f
       -0.35065866 -0.6624408 0.16667885 0.6968871
000080 1a 44 c3 3e b6 14 f3 be 88 14 1c bf c2 c2 1c bf
       0.38137895 -0.4747674 -0.6096883 -0.61234677
000090 c4 53 fd be e7 3d ee be d9 10 09 3f 10 ec 46 be
       -0.4947797 -0.46531603 0.5354133 -0.19425988
0000a0 86 b7 cb 3e 08 0f a2 3e c3 c6 8e 3e 48 ca 30 bf
       0.39788455 0.31652093 0.27886018 -0.69058657
0000b0 fa e3 22 3f 4a 45 ed 3e b6 b7 28 bf 00 fa ed be
       0.63629115 0.46341926 -0.6590532 -0.46479797
0000c0 ba 04 5c 3e e8 16 15 be 91 a5 fe be c4 bc 9e 3d
       0.21486178 -0.1455952 -0.49735692 0.07750848
0000d0 7a 11 2a bf ec 39 0a 3f 41 65 ec 3e 22 17 c9 3e
       -0.6643292 0.5399463 0.46171 0.3927546
0000e0 34 af 65 3e 9c f8 e0 be 95 c1 15 be da d8 cf 3e
       0.22430116 -0.43939674 -0.14624627 0.40595132
0000f0 0e 59 10 3e 48 8e 21 3f ba 6a c1 3d 9f 27 10 bf
       0.14096472 0.6310773 0.094441846 -0.56310457
000100 97 5f e6 be f5 8b 12 3f df b3 a9 3e 9a a0 36 3e
       -0.44994804 0.5724481 0.33145043 0.17834702
000110 7c d0 90 3d ef e0 c5 3e ee 10 31 bf 31 52 2e bf
       0.07071015 0.38648173 -0.6916646 -0.68094164
000120 67 09 b3 be c3 dc ac be bc 4c a6 bd 81 5c 6b 3e
       -0.3496811 -0.33762178 -0.08120105 0.22984506
000130 d2 a8 42 be ba 86 63 39 e5 39 0b bf d2 6f 96 be
       -0.19009712 0.00021698597 -0.54385215 -0.29382187
000140 60 b4 19 3f 36 8d 14 3f 40 0d f2 bd af 64 3e 3e
       0.60040855 0.5802797 -0.118189335 0.18593095
000150 d3 ed ed 3e fa 46 12 3f 96 fb 6e bc 33 bb e9 be
       0.46470508 0.5713955 -0.01458635 -0.45650634
000160 fd f8 57 be af ab a6 3e 0a 76 a5 be f9 ba 84 3e
       -0.21091075 0.3255286 -0.3231662 0.259239
000170 92 72 02 bf ff 19 a0 3e ef 06 fe 3e b4 ab ff bd
       -0.5095607 0.31269833 0.49614665 -0.12483922
000180 ab 84 34 3f 20 b1 8d 3e a2 ea 7e bd a8 65 1e be
       0.70514935 0.27674198 -0.062235482 -0.15468466

weight f4 [100, 100]
000000 b3 a1 f6 3b 67 21 65 bd 40 76 6e bc 78 3e bd bd
       0.0075266003 -0.055940058 -0.01455456 -0.092404306
000010 ad b1 09 3d cd 2a 40 3c 93 da 9f bd 07 bf b8 bc
       0.03361671 0.0117289545 -0.078053616 -0.022552026
000020 4a 95 0f 3d bd 7f 81 bd 4d 57 25 3d 4a 68 94 bd
       0.035054483 -0.06323192 0.04036646 -0.07246454
000030 33 78 ae 3b 33 e9 5a bc 43 d6 96 bd 0d 24 83 bc
       0.0053243875 -0.013361263 -0.07365086 -0.016008401
000040 6a c4 42 bd 20 ad 93 bc b3 94 3a 3c 33 99 81 bc
       -0.047550596 -0.018026888 0.011387992 -0.015820121
000050 a7 2d 3a bc 70 bd a3 3d f5 11 9e 3d f0 9e 53 bd
       -0.011363423 0.07995117 0.07718269 -0.051665246
000060 b3 81 58 3c f7 d9 19 3d b3 ac db 3b 33 7c 00 3c
       0.013214516 0.037561383 0.006703937 0.007842111
000070 93 4a 1d bd fa a8 95 3c c0 aa 6d bd 2d 74 ae bc
       -0.038401198 0.01826905 -0.058024168 -0.021295631
000080 4a ab 33 bd 10 28 0c 3d 6a f0 0e 3d 0f 7e af bd
       -0.043864526 0.034217894 0.034897245 -0.08568966
000090 cf 81 a1 bd 00 70 f6 3a 73 3c f6 3c ed 2f c4 bd
       -0.07886087 0.0018801689 0.030058121 -0.095794536
0000a0 67 b9 ff 3b 8a e3 74 bd f8 b8 b0 bd cf a2 b3 3d
       0.007804084 -0.05978731 -0.0862903 0.08771288
0000b0 3f 57 83 bd 50 5b 43 bd 6d f2 c5 3d 47 0a 75 bd
       -0.06413125 -0.047694504 0.0966538 -0.059824254
0000c0 7a 09 27 bd 83 80 77 bd 3d fa 56 bd 9a 78 40 3c
       -0.040780522 -0.060425293 -0.05248474 0.011747504
0000d0 f7 95 55 3d 7d b4 05 3d 40 7d ec bc 7a d7 d8 3c
       0.05214497 0.03264283 -0.028868318 0.026469935
0000e0 ca 99 96 bd 87 1c 9a 3d 10 60 92 bd 0d 14 3c 3d
       -0.07353552 0.075249724 -0.07147229 0.04591756
0000f0 92 fa 9d bd fd 0f 2e bd 5b 55 ba bd cd c1 73 3c
       -0.07713808 -0.042495716 -0.090983115 0.014877749
000100 aa a4 4b 3d b3 ef 8d bd 50 76 16 3d c7 40 bf bc
       0.049717583 -0.069304846 0.036733925 -0.023346318
000110 73 3b a9 3c c8 f3 8b bd 23 c9 97 bd 67 5c 6e bc
       0.02065823 -0.06833607 -0.07411411 -0.014548398
000120 10 6c 23 3d db 9c c7 bd 98 1c 86 bd 3f 61 9b bd
       0.03989798 -0.09746715 -0.065484226 -0.075869076
000130 40 fd 8b bc 93 00 93 bd 6a a8 5c bd aa 35 3c bd
       -0.017088532 -0.07177844 -0.05387155 -0.045949616
000140 55 fa 8a bd 73 83 70 bd 6a ec 32 bd 67 14 dd bc
       -0.06786028 -0.05871911 -0.043682493 -0.026987268
000150 9f 7d a5 3d b3 28 88 bb 67 f3 ad 3d 1a 82 16 3c
       0.08080601 -0.0041552423 0.08493691 0.009186292
000160 63 b1 3f 3d 53 01 12 3d 67 b2 be bb 9b f4 c0 3d
       0.04680003 0.035645794 -0.005819607 0.09421655
000170 20 ad 6c bd 5a c8 df bc ed eb 91 3c 40 df 01 3c
       -0.057782292 -0.027317215 0.017812693 0.007926762
000180 0d 78 1b bd d7 89 64 3d 5d 65 ba bd 57 77 bb 3d
       -0.037956286 0.055795517 -0.09101365 0.09153622
000190 9a 5a d0 3c 1e fc 20 3c 2d 6f b8 3d 2d 19 1a bd
       0.025433827 0.009825734 0.0900558 -0.037621666
0001a0 10 d7 c8 bd 4b 1a fe bd 9f 7b 48 bd 6a 8f 5a bd
       -0.09806645 -0.12407359 -0.04894602 -0.053359427
0001b0 5a df ea 3c f9 03 75 3d 8f 6b 83 3d f3 26 d7 be
       0.028670955 0.05981824 0.064169995 -0.42021903
0001c0 4e 80 e5 3c f4 54 1a 3e dd 77 c7 3c 15 e0 ff bd
       0.028015282 0.1507147 0.024349147 -0.12493912
0001d0 07 48 07 3e 15 42 b5 be 7d 67 97 bd 66 71 b6 3d
       0.1321107 -0.3540198 -0.07392786 0.08908348
0001e0 d3 76 83 bc c8 3c b2 be 27 c8 50 bc 4d 25 8f 3c
       -0.01604787 -0.34811997 -0.012743033 0.017473841
0001f0 0d 02 6d bc 08 dc 2a be 24 41 9d 3b 94 ca 78 bd
       -0.014465821 -0.16685498 0.004799025 -0.06074007
000200 27 c7 9f 3d 4b d9 b4 bd 48 04 cf 36 88 c8 a3 bd
       0.07801657 -0.08830508 6.169579e-06 -0.07997233
000210 a6 25 46 3d 90 7f 3e bd 28 bc b8 3d 33 1e 96 bd
       0.048375748 -0.04650837 0.09020263 -0.07329979
000220 0a 84 8d bd a7 94 27 bc 7a c6 d2 3d 82 15 26 bb
       -0.0690995 -0.010228313 0.10291763 -0.002534241
000230 33 be bd bd a7 f2 af bc 26 a7 80 3a aa 74 bc bd
       -0.09264793 -0.02147801 0.0009815439 -0.092019394
000240 18 e2 fb 3b 85 5b 9b bd f3 ce bc bc 3d d9 03 3d
       0.0076868646 -0.07585815 -0.0230479 0.032189596
000250 fa 09 97 3a e2 33 b9 3d 7a e5 8a bd f9 44 5b 3e
       0.0011523359 0.09043099 -0.067820504 0.2141303
000260 73 7e 95 3d c2 78 c3 3c 14 73 97 3d ab ce 43 be
       0.07299509 0.023861293 0.07394996 -0.19121806
000270 56 2e 1d 3e 00 6c a6 bd 0e 36 26 be fd 1e d9 bd
       0.15349707 -0.08126068 -0.16231558 -0.10601614
000280 7c 23 a0 bd 03 7e ce bd 25 3d 2a 3e e0 b5 ab bc
       -0.07819268 -0.100826286 0.16624887 -0.020960748
000290 ba e4 e9 bc da 00 28 be 75 fe ed 3d a9 c3 90 3d
       -0.028551448 -0.16406575 0.116207995 0.07068569
0002a0 a4 63 e9 bd 86 5c a0 bd 2d c3 eb 3c 42 83 84 bd
       -0.11395958 -0.078301474 0.02877959 -0.06470348
0002b0 17 13 64 3d 47 34 dd bc 43 a6 b5 3d ad 5b 43 3d
       0.055682268 -0.027002467 0.088696025 0.04769485
0002c0 50 88 c8 bd 4f 6c 56 bd 58 91 bf 3d 2a df 60 bd
       -0.097916245 -0.052349385 0.09353894 -0.054900326
0002d0 2d 7f 53 bd 6b bb 55 bd b6 7b 1a be 6b 97 95 3d
       -0.051634956 -0.05218069 -0.15086254 0.07304271
0002e0 27 9c 49 3d 0f 77 21 be ad f2 bb 3d 48 a9 a1 bd
       0.049221184 -0.15768073 0.09177146 -0.07893616
0002f0 ed 09 87 bc 4a e8 b3 3d f3 b5 35 bc 14 3d 1b 3e
       -0.016484225 0.0878454 -0.011090743 0.15160018
000300 cd 36 a2 3d da 15 f5 bd dc d0 ef bd 7a 1f 97 bc
       0.07920609 -0.119670585 -0.11709759 -0.018447626
000310 e5 2f 00 bd 63 aa b3 3c 17 9c 22 3e 67 86 a1 3a
       -0.031295676 0.021931833 0.15879856 0.001232338
000320 ef 5d a4 bd da ab 8b 3d ed 3b bf 3c 7a 5f f9 3c
       -0.08025729 0.068198875 0.023344005 0.030441035
000330 67 d8 dd 3a c6 2d 4f 3d cd 1b bd bd a7 c4 be bc
       0.0016925455 0.050580762 -0.09233818 -0.02328713
000340 8b 92 c0 bd 48 50 ff 3b 37 4b cc bd db f4 86 3d
       -0.09402951 0.0077915527 -0.099752836 0.06589671
000350 0a 0a d7 bd 06 f3 8c bc e5 15 86 bd db 24 7d 3c
       -0.10499962 -0.017205726 -0.06547145 0.015450682
000360 80 9c 3c bc 70 af 25 bc 1a 51 80 3d f8 5b ba 3d
       -0.011511922 -0.010112628 0.06265469 0.09099573
000370 82 d8 bf 3d c0 dc 5c bd 7a 57 39 bd 02 94 a9 3d
       0.093674675 -0.05392146 -0.04524944 0.082801834
000380 da 6f 35 3d af b5 11 bc 1c 3f 85 bd 18 7a ba bd
       0.044296123 -0.008893414 -0.06506178 -0.09105319
000390 ca 8d 6f 3d ba 87 91 3c 24 18 a6 3d 2a 60 67 bc
       0.05848483 0.017764915 0.08110073 -0.014122048
0003a0 c6 b8 73 3d 67 97 29 3c e7 a1 ac 3b 93 ae b6 3c
       0.059502386 0.010351039 0.0052683237 0.02230004
0003b0 ea 95 9f 3d 83 53 7c 3d 20 bd a9 3d 7b 72 92 bb
       0.07792266 0.06160308 0.08288026 -0.0044692135
0003c0 8c 69 e8 3c 29 60 46 bb 0c 16 54 3d 2a 45 21 3d
       0.028370641 -0.0030269718 0.051778838 0.0393726
0003d0 29 1c f7 bc c0 50 00 bb 33 b2 dd bb 27 f4 19 bd
       -0.030164795 -0.001957938 -0.006765628 -0.037586357
0003e0 c7 20 3b bd 67 b2 0a bb 68 80 9c 3d 65 1d bf 3d
       -0.045685556 -0.0021163465 0.07641679 0.093317784
0003f0 ca 32 84 3d 60 da f7 3c 0e 67 76 bd eb bf 15 bc
       0.06455 0.030255497 -0.060156874 -0.009139995

bias f4 [100]
000000 40 fe 89 3d 67 6b 08 be d7 c8 d4 bd 8d b4 ea 3c
       0.067379475 -0.1332222 -0.1038987 0.028650546
000010 47 d6 a0 3d 30 0e 98 bd 73 70 80 bd 30 19 78 bd
       0.0785337 -0.07424581 -0.06271448 -0.060570896
000020 cd f7 ba bc 87 9c 96 bd 2d df 03 3d a0 7b 80 ba
       -0.022823239 -0.07354074 0.03219526 -0.0009802468
000030 92 22 2b be 14 93 56 3d e7 02 e8 3c 12 29 57 bd
       -0.16712406 0.05238636 0.028321696 -0.052529402
000040 43 03 96 3d e3 59 67 3d 93 5b ca 3d 4d 5a 86 bb
       0.07324841 0.056482207 0.09880748 -0.00410012
000050 57 36 dd bd 65 b7 c6 bc db da d5 bd 74 2d 83 3d
       -0.1080138 -0.024257371 -0.10442134 0.06405154
000060 df 0a 90 bc b2 dd 00 bd db 0d c7 bc f3 9e 92 bc
       -0.017583309 -0.031461425 -0.024298599 -0.017898059
000070 55 b0 17 3d 53 ac b7 bd 4e 20 ee 3c 9f 05 49 3a
       0.037033398 -0.08968415 0.029068138 0.0007668379
000080 10 3d 32 bd a4 77 1c 3c 94 da 02 3d e4 f6 b8 3c
       -0.043515265 0.009550009 0.031946734 0.022578664
000090 d3 4f 8f bc f0 fa 4c bd 88 c8 31 be 56 03 a5 bd
       -0.017494118 -0.050044 -0.17361653 -0.08057277
0000a0 25 55 dc bd 40 f7 4f 3d d5 d1 bd bd 96 16 8f 3c
       -0.107584275 0.050772905 -0.09268538 0.017466825
0000b0 da da 40 bd 9a 8f af bb 5b 59 83 bd 1c 0c 89 bd
       -0.047083713 -0.005357695 -0.064135276 -0.06691763
0000c0 33 76 90 bc d7 7c 98 bd f5 96 5d 3b 8b c9 96 bd
       -0.017634487 -0.07445686 0.0033811901 -0.0736266
0000d0 b1 db 94 3c 6a 8c 2d 3d c7 a3 a8 bb 5d 30 85 bd
       0.018171163 0.042370237 -0.005146477 -0.06503365
0000e0 db 0a fc bd 5a 64 72 bd 90 1e 38 bd a7 49 27 3c
       -0.12306758 -0.059177734 -0.04495102 0.010210431
0000f0 9e 5f 2a be 28 aa fc bd b8 1b b0 3d cd a1 0a bb
       -0.16638038 -0.12337142 0.08599037 -0.002115357
000100 a7 d7 6b 3c 1f 2d 4d bd 2b 0e 08 bd 98 8d b8 bd
       0.014394677 -0.05009186 -0.033216637 -0.09011382
000110 56 9b 92 3d f3 fd b8 bc cd 3c d9 bd 70 ab b2 bc
       0.07158534 -0.02258203 -0.106073 -0.021810263
000120 01 ab 7d 3d d4 fd aa 3d ec 9e c7 bd 6b 06 cd bc
       0.06193066 0.08349195 -0.09747109 -0.025027474
000130 b6 21 2e bb f4 b2 ac bc 27 8d ae bd cc df a2 3c
       -0.0026570386 -0.021081425 -0.085230164 0.019882105
000140 a4 98 b7 3d 4c f7 c3 bc e7 b0 1e be ad ce 87 3d
       0.08964661 -0.023921631 -0.1549717 0.06631217
000150 e0 ee 1c 3d 0d 19 17 3c 79 38 de 3c b6 38 22 be
       0.038313746 0.009222281 0.027126538 -0.15841946
000160 6b 20 75 3d 0d d2 27 bd f1 73 b1 3c ed 2e 21 bd
       0.05984537 -0.040971804 0.02166173 -0.039351393
000170 98 d1 25 3d 81 28 76 bb cf 21 9d bd da 09 be bc
       0.040483087 -0.0037560763 -0.07672464 -0.023198057
000180 6d 95 1e 3e e2 4e ca 3c 9a c0 2d 3d 53 00 d8 bc
       0.15486689 0.024695817 0.042420007 -0.026367342

weight f4 [100, 100]
000000 65 0b 8e 3d 2c 8e 82 3d ad 04 5b bc 87 66 32 3d
       0.06935767 0.063747734 -0.013367814 0.04355481
000010 89 b1 e8 3c 5a 06 69 3d f7 ab 2e bd fa d5 af 3d
       0.028404968 0.056890823 -0.042644467 0.08585735
000020 b0 8b 3f bd cc 09 43 3e d7 25 8b bd 73 b4 36 3d
       -0.046764076 0.19046706 -0.06794327 0.044605684
000030 9f a0 98 3d 1c dd 95 bb bb 02 ee bc 80 17 11 3d
       0.07452511 -0.0045734774 -0.029054036 0.035422802
000040 c0 a1 fd 3c 59 ef ed bd 40 06 d8 3c ca e0 0f bd
       0.030960917 -0.116179176 0.026370168 -0.035126485
000050 d4 4b 34 3d da 9f 2e 3e ea 8f e7 3c c8 57 b7 bb
       0.044017628 0.17053166 0.028266866 -0.005595181
000060 c8 d3 a3 3d 8f 99 22 3d f6 fc 2e bd fd 9f 68 3d
       0.079993784 0.039697226 -0.04272171 0.0567932
000070 b1 d9 d2 3d 00 16 1b bc ac 09 c4 3d 35 ec 86 bc
       0.102954276 -0.009465694 0.09572157 -0.016470054
000080 62 ed 95 3d a2 ce 1f bc 37 0a b6 3d ea 49 78 3d
       0.07320668 -0.009753855 0.08888667 0.060617365
000090 f3 38 35 bc 73 cd 7e 3d 5a da a6 3d 86 c3 d7 bd
       -0.011060941 0.06220765 0.08147116 -0.1053534
0000a0 3d 0e fa bd 38 17 e3 bd 1a ec ba bc c5 f6 3e 3d
       -0.12209747 -0.11088413 -0.02281766 0.046622057
0000b0 58 56 91 3d 50 e3 bf bd fe 36 14 3e 2d 27 ee bd
       0.07096547 -0.09369528 0.14474103 -0.11628566
0000c0 17 82 1d bc 27 38 af bd 31 19 54 bd 56 49 f7 3d
       -0.009613535 -0.08555632 -0.051781837 0.120745346
0000d0 7d 09 6c bc 00 f0 d0 39 29 7f ae 3d f9 82 76 3e
       -0.014406559 0.00039851665 0.085203476 0.240734
0000e0 64 34 25 be c0 00 57 3c 7e 60 2a 3e db 92 69 3d
       -0.16133267 0.013122737 0.16638371 0.057024818
0000f0 95 36 9e bd ba 07 f0 3c 40 4b bd 3d cd ce 1c 3d
       -0.077252544 0.02930056 0.092428684 0.038283158
000100 cd a9 88 bb b4 41 4c be 39 6e ad 3d f8 0e c8 bc
       -0.0041706325 -0.19946939 0.08468289 -0.0244212
000110 33 e0 bd 3d a2 dc 88 3d 1e 51 78 bd f7 27 1f 3d
       0.09271278 0.06682707 -0.060624234 0.038856473
000120 66 d6 89 bd 15 dd dd 3c 03 a6 99 3c c5 9a 8c 3d
       -0.067303464 0.02708296 0.018755918 0.068654574
000130 2f 42 f4 bd e4 b8 83 bc a7 fc 36 bc aa 8c 2a 3d
       -0.11926686 -0.016079374 -0.011168635 0.041638054
000140 ea 6a 10 3e 31 30 b2 3d 34 b4 47 3d 39 66 7d 3d
       0.14103284 0.08700598 0.04875584 0.061865065
000150 f7 e8 af bd a0 91 f5 bc 57 51 c3 3d 4b 6f 52 be
       -0.085893564 -0.029976666 0.09536999 -0.20550267
000160 c8 c3 8a bd aa 06 9b 3d 9e 42 65 3d 7a f6 33 3d
       -0.067756236 0.075696304 0.055971734 0.04393623
000170 c7 00 36 bd 43 2d 71 3d e4 31 0a 3e d3 67 9d bd
       -0.044434335 0.058881056 0.13495594 -0.076858185
000180 a7 c5 83 3c 1c 02 85 bd 00 e2 f1 3b 67 c4 56 bd
       0.016085459 -0.06494543 0.0073816776 -0.052433398
000190 28 58 95 bd 8f e4 ef bb 8d d8 f0 3c cf eb 90 bd
       -0.07292205 -0.0073209475 0.029400134 -0.07076227
0001a0 22 93 24 bd fa 0d a5 3c 2d eb b9 bd d3 22 ac bd
       -0.04017938 0.020148266 -0.09078059 -0.0840508
0001b0 d8 68 94 bd 0b 49 b8 bd e2 d0 d8 3d 38 c7 aa 3d
       -0.0724656 -0.08998307 0.10586716 0.08338779
0001c0 13 4b c8 3c 6d 46 58 3d 57 57 20 3d d2 62 2e 3d
       0.02444986 0.05280154 0.039145794 0.04257471
0001d0 fd 11 3c bd 03 4a cf bd 00 ee 8a 3a 87 4e 20 bd
       -0.045915592 -0.101215385 0.0010599494 -0.03913739
0001e0 73 af 14 3d 01 1a df 3b 02 c5 8d bd a3 d8 67 bd
       0.036300134 0.00680852 -0.06922342 -0.056603085
0001f0 73 ea 49 3c 02 66 ff bc e0 f6 80 3c f8 6f c4 bd
       0.012323963 -0.03117657 0.01574272 -0.09591669
000200 98 3d a1 bd b3 c8 04 3d 79 6c 46 bc 87 06 c3 bc
       -0.07873076 0.032417964 -0.012110823 -0.023806823
000210 4d 20 18 3d 02 72 31 bd a7 9a b3 3d 0c 30 c9 bd
       0.03714018 -0.043321617 0.08769732 -0.09823617
000220 8a c4 21 3d 80 77 00 bc a3 70 55 3d b5 ef d0 bd
       0.039494075 -0.007840991 0.052109372 -0.102019705
000230 23 00 ba 3b c4 db 1b bd 60 f7 21 bd 80 e0 17 3c
       0.005676286 -0.03805138 -0.039542556 0.009269834
000240 cd 10 65 3a 5a f0 9a bd e9 49 ab 3c 60 63 62 3d
       0.000873816 -0.07565375 0.020909267 0.055270553
000250 4d 68 c5 3c c0 61 39 bc d2 b2 d0 3d ed 03 e2 bc
       0.024097586 -0.011314809 0.10190357 -0.027589763
000260 27 b5 0f 3b 87 ef 4a bd 49 15 a1 bd da ca f2 bc
       0.0021928044 -0.049544837 -0.07865388 -0.029637743
000270 20 a4 69 bd 73 25 8f bc 91 3d 00 3d 71 6c e5 3c
       -0.057041287 -0.017473912 0.031308714 0.02800581
000280 b3 ac 1f bc 3c 68 67 bd 4b 0b 8b 3d 67 9b 70 bc
       -0.009745765 -0.05649589 0.06789263 -0.014685488
000290 d2 60 a1 bd 78 19 38 bd 87 e6 b6 bd cb 1a 9c bd
       -0.07879795 -0.044946164 -0.08930688 -0.07622298
0002a0 a3 22 7a bc 20 d6 88 bd 71 3c b2 3c 39 22 94 3b
       -0.015267047 -0.06681466 0.021757336 0.004520681
0002b0 17 d1 c4 bd 10 6a 97 bc 3b 52 4a 3d f2 73 c2 bd
       -0.09610193 -0.018483192 0.049394827 -0.09494771
0002c0 41 9b cc bd 20 d4 9a 3d 00 7a a8 3c bc 33 be 3c
       -0.0999055 0.07559991 0.020565987 0.023218028
0002d0 8b 97 8b 3d 8f 77 61 bd 88 55 2c 3d b6 32 98 bd
       0.06816014 -0.05504566 0.042073756 -0.07431547
0002e0 fd ef 38 3d 8d f1 bd bc 75 0d 1a bd 7b 39 52 3d
       0.045150746 -0.02318647 -0.03761049 0.05132435
0002f0 24 53 01 3b f2 75 8e bd 3c 6d 9f 3c 3b 5b ab bd
       0.0019733394 -0.0695609 0.019461267 -0.0836701
000300 24 f8 44 bc 05 dd a6 3d 1c a5 80 3d 57 63 a3 bd
       -0.012022052 0.08147625 0.06281492 -0.07977932
000310 77 83 87 bd 33 9a 90 bd ba 20 4f 3d c3 6f 06 bd
       -0.06616872 -0.07060661 0.05056832 -0.032821428
000320 0d 4a 18 bd b7 45 02 3e 22 c4 02 3d 53 f1 c8 3d
       -0.037179995 0.12721907 0.031925328 0.09811654
000330 b2 d1 0f 3d e7 f3 7e bc 35 cc b9 3d f0 0e 33 3d
       0.03511209 -0.015561081 0.090721525 0.043715417
000340 cd cd cd bb 2e 6b 5f bc 93 2a 7a 3b 02 5b 52 3e
       -0.006280637 -0.0136363935 0.003817235 0.20542529
000350 96 b7 6b 3d 22 a9 55 3c 73 48 20 bc 95 ff c8 3d
       0.057548128 0.013040813 -0.009782898 0.098143734
000360 cd 80 0b bc af d2 9c 3c 00 49 5a 3b b3 f3 94 3b
       -0.008514595 0.01914343 0.0033307672 0.004545653
000370 c2 d1 d9 3a e3 9f 4e 3d 6a 6b 65 3d 98 39 6d bd
       0.0016618299 0.05044545 0.05601064 -0.057916254
000380 47 22 64 3c 81 2c 7c 3c e1 6e 51 3d 90 3f 48 bd
       0.013924188 0.01539147 0.051131133 -0.048888743
000390 39 52 ae 3e 4d 48 32 bd 56 a1 d7 3d 87 75 89 3d
       0.34047106 -0.043525983 0.10528819 0.0671187
0003a0 5a 31 5c 3d 29 25 17 bd 3d f2 09 be 53 99 4a 3c
       0.053758003 -0.036900673 -0.13471313 0.012365657
0003b0 f3 f1 17 3d b3 bd 85 bd 50 cc a0 3b d8 ea d9 3c
       0.037095975 -0.06530323 0.0049071684 0.02660124
0003c0 46 20 b9 3b b3 52 f9 3b 0d 8c 02 bd 49 f7 3b bd
       0.0056495992 0.0076087355 -0.031871844 -0.045890126
0003d0 e7 81 fb 3b f3 35 d5 3c c5 af 82 bc 9b 71 22 bd
       0.0076753977 0.026026702 -0.015952954 -0.039659124
0003e0 f6 d2 ae 3c 73 d1 ac 3d 04 39 3e be 50 84 2b bd
       0.021340828 0.08438387 -0.18576437 -0.04187423
0003f0 c7 ba fa 3d f3 b3 98 3c c6 bf 9c bd 8f d8 0b 3e
       0.12242656 0.018640494 -0.076537654 0.1365683

bias f4 [100]
000000 b9 77 b0 bd 5d f3 91 bd f1 b8 46 3d 77 42 f3 bd
       -0.08616585 -0.07126496 0.048516218 -0.118779115
000010 d6 b8 96 bd 69 24 e8 bc 2b 13 9d bd 4c 20 32 be
       -0.073594734 -0.028337674 -0.076696716 -0.17395133
000020 66 b8 c5 bd 15 9e 83 bd 04 0a e1 bd f9 33 59 3d
       -0.09654312 -0.06426636 -0.109882385 0.05302808
000030 fc 4d 12 bd 70 59 8c bd 42 10 76 be e1 cf d6 bd
       -0.035718903 -0.06852996 -0.2402964 -0.104888685
000040 a6 97 da bc 8f 84 80 bd fa 4c d9 3c 00 0b 09 be
       -0.02668364 -0.062752835 0.026525963 -0.13383102
000050 38 1a bd bd 9c 3f 1b be a8 de 46 3c 94 00 3a bd
       -0.092335165 -0.15160984 0.012138046 -0.045410708
000060 d8 b9 bf 3b e2 03 8a 3c 7b 7c b4 3c 3d 49 70 bd
       0.0058510117 0.016847555 0.022032013 -0.058663595
000070 58 d9 a3 bd b0 9f 31 bd 7b 43 f2 bd 10 4a 33 bd
       -0.080004394 -0.04336518 -0.11829277 -0.043771803
000080 6f a6 b2 bd d8 6c aa 3c 16 ba 14 bd 76 33 15 be
       -0.08723151 0.020803854 -0.036310278 -0.14570412
000090 a3 a4 a8 3d d7 36 46 3c 4b 07 51 bd d7 72 32 bc
       0.08234527 0.012098036 -0.051032346 -0.010891638
0000a0 07 c1 94 bd 7e 80 56 be 0b 14 0c 3d b9 a7 46 3d
       -0.072633795 -0.20947453 0.034198802 0.048499797
0000b0 cc 1d 4a bd 3a f4 0a 3d 20 dc 8a bd 0f 34 fa bd
       -0.049344823 0.03392432 -0.06780267 -0.12216961
0000c0 d8 05 19 bd 8b 50 a5 bd 3e 04 4d 3d a3 ab f2 3d
       -0.03735909 -0.08072003 0.050052874 0.11849143
0000d0 06 be 9a bd 73 be 7a bd f0 24 32 3d a3 46 44 3d
       -0.07555775 -0.061216783 0.043492258 0.047918927
0000e0 f9 36 05 bd 24 53 9e bc cf 17 f6 3c 1d b5 09 3d
       -0.03252313 -0.019326754 0.03004065 0.03361999
0000f0 de fa ad bd a1 c0 9f bd 32 16 e6 bc 87 ec 3f be
       -0.08495115 -0.07800413 -0.028086755 -0.18742572
000100 29 4a 1e be 5f 56 6e 3d 7a 92 a0 bd 05 30 16 be
       -0.15457977 0.05818784 -0.07840438 -0.14666755
000110 3a 6e ec bc df 84 ad bd 4c 87 8c bd b2 51 d5 bd
       -0.028861154 -0.08472609 -0.06861743 -0.10415973
000120 39 ef d3 bd 4e 3e 1d be 70 ed 3c bd b4 82 84 bc
       -0.103483625 -0.15355799 -0.046124876 -0.016175605
000130 05 a0 49 3c 1c 1d 55 be d3 e6 16 bd 45 34 64 bd
       0.012306218 -0.20811886 -0.036841225 -0.05571391
000140 f5 5d 29 3c c6 8b b5 bd 2f 94 91 3d 12 7c 31 bd
       0.0103373425 -0.0886455 0.07108342 -0.043331213
000150 40 45 df bd b7 05 7e bd 86 16 59 3d 51 b2 0e 3c
       -0.1090188 -0.06201717 0.052999996 0.008709506
000160 52 a7 80 bb 3e 03 04 bd 99 99 ae bd 70 cd a2 bd
       -0.003926196 -0.032229654 -0.0852539 -0.0794934
000170 10 99 e0 bd bc 24 b1 3d 44 70 de bd 98 cc e0 bd
       -0.10966694 0.08649585 -0.10861257 -0.10976523
000180 89 00 f3 3b 28 b2 26 3e e2 de bb 3c 1a 17 d9 3c
       0.0074158353 0.16278899 0.022933427 0.026500273

weight f4 [100, 100]
000000 8b cc 2c be fd a7 46 3a 6f 25 2e 3e fe 51 ca bc
       -0.16874902 0.0007578133 0.17006467 -0.0246973
000010 52 1a 2c be 3b cf ef 3e 04 3b 14 3d 7e ef e9 bc
       -0.16806915 0.46837792 0.036189094 -0.028556582
000020 7f a6 5a 3e bb e9 92 bd 3a 4e b1 3d 3f b9 6f bd
       0.21352576 -0.07173487 0.08657499 -0.058526274
000030 45 63 89 3e 48 36 8a bd 47 d7 e2 3e 0a ba 4c 3d
       0.2683355 -0.067486346 0.4430487 0.04998211
000040 13 ff 6c be 61 54 af be a5 24 d4 3e 9e c6 aa be
       -0.23144178 -0.34244063 0.41434208 -0.33354658
000050 1a 2e ba 3d 67 45 44 bd 7d ed 96 3e f5 4a c4 3e
       0.090908244 -0.04791775 0.29478064 0.38338438
000060 bb bf 16 be ea 89 9d 3b 18 df ea 3d f3 51 90 3c
       -0.14721577 0.0048077004 0.11468333 0.017617201
000070 59 76 b4 be 34 4e 87 bd 9c 65 e1 bb d7 5a 5d bd
       -0.35246542 -0.06606713 -0.006878568 -0.05404171
000080 73 9f cb 3c 01 5b 96 be 74 58 fd bd fa e2 b0 be
       0.024856305 -0.29366305 -0.12370387 -0.3454817
000090 1e 03 f9 bd ac 98 ce 3d e7 3f 49 be 47 db 98 3e
       -0.12158798 0.100877136 -0.19653283 0.29854795
0000a0 4a 05 96 be a6 b0 b7 be 1f ae d4 be b5 3d a3 3d
       -0.2930091 -0.3587696 -0.41539094 0.07970754
0000b0 1b 83 9a 3d 91 bd db bd 10 2d 94 3d e1 d1 b3 be
       0.07544538 -0.10729516 0.072351575 -0.35121062
0000c0 0e f6 77 bb 7e 5d 7b 3c 82 3c 5e be 30 64 02 3f
       -0.003783587 0.0153421145 -0.2170277 0.50934124
0000d0 71 bb 18 3c 00 66 c0 bb d8 5e 3d be ef bc 81 3e
       0.009322033 -0.0058715343 -0.18493211 0.25339457
0000e0 fd 73 2d 3c 01 ad 38 bd af d4 af bd f0 65 e5 3d
       0.010586736 -0.045086864 -0.08585488 0.11201084
0000f0 44 23 4a 3e 1b 92 96 3d f6 64 a3 3b 20 0e e4 3d
       0.19740015 0.07352086 0.0049864007 0.11135507
000100 34 44 3e 3e 4e b9 ab 3e 40 e2 ba 3c 40 ed 8c 3c
       0.18580705 0.33539814 0.022812963 0.017202973
000110 8e aa be bd ac 17 50 3e 74 93 75 be b5 ef 9c 3d
       -0.093098745 0.2032153 -0.2398203 0.07662908
000120 3b 82 ae 3d ef 60 8f be e9 bc 0f be d1 7f 21 3d
       0.08520933 -0.28003642 -0.14036907 0.039428536
000130 d9 c7 a1 3e 05 43 98 be be b2 d6 3d d6 2c 85 3b
       0.31597784 -0.29738632 0.10483311 0.0040641828
000140 dc 29 f8 3d c3 74 04 3e a7 db c5 bc 82 24 1a 3d
       0.12117359 0.12935166 -0.02415259 0.037632473
000150 4b 06 ec bd b0 59 77 3d e8 4e 5d bd 37 2f b0 bd
       -0.11524638 0.060388267 -0.05403033 -0.086027555
000160 cf 86 d4 3d d9 e4 74 be 50 cd 91 be 88 46 11 3e
       0.10377275 -0.23915423 -0.28476954 0.14187062
000170 b5 ca 1f 3d 73 7c 1d be 56 c4 bf 3d 21 87 b5 3b
       0.039011676 -0.15379505 0.0936362 0.0055397903
000180 0d e2 11 bd 47 50 2f be 3f 6f 20 3d 0f 99 ce bd
       -0.03561597 -0.17120467 0.039168593 -0.10087787
000190 39 f1 0d 3e 9d 24 f1 3c eb bb 0f be 3d 9e 9b 3c
       0.1386155 0.029436404 -0.14036529 0.018996352
0001a0 fc 8b 33 3e 81 27 4e 3d 44 fe 16 bd ab 81 0c 3e
       0.17533869 0.050330643 -0.03686358 0.1372134
0001b0 b7 cc 7f 3e c2 a5 ba 3d ba 79 46 3e a0 fa 59 bc
       0.24980436 0.09113647 0.19382372 -0.013304383
0001c0 8f 58 bd 3d 67 18 81 bd 34 19 2a bd eb a9 c2 3d
       0.09245407 -0.063034825 -0.04152794 0.095050655
0001d0 be 3a 04 bd cb 59 7a 3e f9 0e 8b 3d 76 e4 ab 3d
       -0.032282583 0.24448316 0.06789965 0.08393185
0001e0 2c dd e5 3b 27 9b 43 bd 0a 48 34 3d 53 10 91 3e
       0.007014891 -0.047755387 0.044014014 0.28332767
0001f0 f7 46 50 3d 87 50 64 3d e8 8e 3a 3d c0 44 92 bd
       0.050848927 0.05574086 0.045546442 -0.07142019
000200 27 39 b5 3e e0 3d 47 be 1f d4 27 3e 3f 51 a7 bd
       0.35395166 -0.19457197 0.16389512 -0.08169793
000210 3a 93 c9 3c 89 b4 21 3d 84 2a ea 3d 55 eb 62 3d
       0.024606336 0.039478812 0.114338905 0.05540021
000220 98 99 71 3d 95 c9 4c bc 72 cd 6c 3e 42 b5 8c 3e
       0.05898437 -0.012499233 0.23125246 0.2748204
000230 4d 1e 3d be 5f 82 b3 3e b4 a6 e2 3e 50 b8 c8 3d
       -0.1846859 0.35060403 0.4426781 0.0980078
000240 64 b0 de bb 34 09 3a be 4a e1 66 3d 3f 41 50 bd
       -0.0067959297 -0.18167573 0.056367196 -0.050843474
000250 91 a3 85 3d a1 9f db 3d a7 e2 83 3e 83 2d 2f 3e
       0.065253384 0.10723806 0.2575886 0.17107205
000260 8b 48 37 3d 33 c3 6e 3c 49 d9 c9 3d 9a 57 12 bd
       0.044746917 0.014572906 0.09855897 -0.035728075
000270 0f 34 96 3d 42 51 68 3d 97 d4 df 3c 45 1c f4 bc
       0.07334148 0.05671812 0.02732305 -0.029798636
000280 d5 40 9d 3b 3a f2 d5 3c 6d df 54 bd 9f ba c2 3d
       0.0047989883 0.02611648 -0.051970888 0.095082514
000290 e5 7f 94 bd 89 85 9e 3d ea bb a4 3d 3c ce 5c 3e
       -0.072509564 0.077403136 0.08043654 0.21563047
0002a0 d4 09 e4 bd 49 9a cb 3d 0f 50 60 3e c0 58 43 bd
       -0.11134687 0.09941537 0.2190554 -0.04769206
0002b0 1e e5 81 3d 4f 56 1b 3e d8 39 1d bd d4 a9 1c 3d
       0.06342529 0.15169643 -0.038385242 0.0382479
0002c0 01 e5 82 3d 11 2c 29 3e 0b a8 bc 3d 3a 2b 75 3c
       0.06391335 0.16520716 0.09211739 0.014963919
0002d0 0f c3 37 3d 2e 4c a4 bd ba 95 2d 3d 1f 84 8b bd
       0.044863757 -0.080223426 0.04237912 -0.068123095
0002e0 b6 98 a1 bd f3 98 ee bc 6e 90 38 3e ac b0 a3 bc
       -0.078904554 -0.029125666 0.18023846 -0.019981705
0002f0 3b d8 ea bd 35 42 1d 3e 68 1c 98 3e b2 0b ff bc
       -0.11467024 0.15357287 0.29709172 -0.031133506
000300 2f e8 34 3b bf 19 34 bd 03 56 08 3e 0f 06 3d 3e
       0.0027604213 -0.043969866 0.13314061 0.18459342
000310 7f e1 1d 3c 57 d7 fe bc 63 b7 d4 3d f0 35 4f 3d
       0.009636282 -0.031108541 0.10386541 0.05058855
000320 0d cb b5 bd b4 e2 8c 3d 1a c8 9c 3d c5 11 06 be
       -0.088766195 0.06879178 0.07655354 -0.13092716
000330 42 cd 93 bd 62 47 d7 bb eb ea fa 3d 7c 84 79 bb
       -0.07216884 -0.006569789 0.12251838 -0.0038073352
000340 c1 d5 a9 bb 20 e9 c0 bc 7c 74 3c 3e 18 31 a9 3d
       -0.005182952 -0.023548663 0.1840381 0.08261317
000350 4d 25 07 bd a8 33 c7 bd 60 cc 39 bd 41 67 7c bd
       -0.032994557 -0.097266495 -0.045360923 -0.061621908
000360 2f c2 ab 3d 87 cb c3 3d fe 74 00 bd 3d a7 75 3d
       0.08386647 0.09560304 -0.031361572 0.059973944
000370 8d 68 9b 3d af a9 85 bd 33 9c bd ba 20 a1 0a 3d
       0.07588301 -0.06526505 -0.0014466107 0.033845067
000380 53 3c 8d bc 96 d7 32 3d 1c 2d 28 3d b0 a1 64 3d
       -0.017240679 0.04366263 0.041058645 0.05581826
000390 51 57 e0 3d e0 f2 12 be 9d 91 8c be 27 25 7f 3d
       0.10954154 -0.14350462 -0.27454844 0.06229129
0003a0 b0 43 14 bd af 67 76 3d 9d ea 08 bd 00 65 fd ba
       -0.036197364 0.060157474 -0.03342687 -0.0019332469
0003b0 67 24 43 bc 81 fe be bb e9 e1 49 3d f5 62 0e 3d
       -0.011910534 -0.005828679 0.04928771 0.03476234
0003c0 b6 16 fc bd 82 53 13 be c5 86 e8 bd ff d3 03 3d
       -0.12309019 -0.14387324 -0.1135383 0.032184597
0003d0 77 b6 cf bd 3d 1f b2 3d fa 92 3e 3d 54 9f e4 bd
       -0.10142224 0.086973645 0.046526887 -0.11163202
0003e0 1f ae 89 bd c2 3e e5 bd a9 5f 06 3d c6 69 24 bb
       -0.06722664 -0.11193611 0.032806072 -0.002508746
0003f0 24 89 d2 3d 6d 08 a8 3c f6 8e 91 bb 5a 32 4f bd
       0.10280064 0.02051183 -0.004442091 -0.05058513

bias f4 [100]
000000 66 39 c9 bd ca f3 b7 bd 98 66 8a bc f5 d9 ac 3c
       -0.09825401 -0.08982046 -0.016894624 0.021100024
000010 7d 10 4e 3c c6 72 71 bc 59 ad 24 3c 20 3a 61 3c
       0.012577173 -0.014736837 0.010051095 0.013746768
000020 d2 f0 37 bc 7a 50 45 bb 3d 3d 62 bc 53 e1 2b bc
       -0.01122685 -0.0030107782 -0.013808546 -0.010490733
000030 71 bf 58 3a 7e f4 b4 3b f1 69 61 3b 98 8e ca 38
       0.0008268273 0.00552231 0.0034395421 9.658671e-05
000040 0e e1 f2 3a fa 3a 29 ba 34 04 6c ba 04 e5 95 3b
       0.0018530206 -0.00064556266 -0.0009003312 0.00457442
000050 4f 33 e7 3a 3d e8 c2 ba 3b b9 3b 3a 49 d8 a5 ba
       0.0017639193 -0.0014870238 0.00071610854 -0.0012652959
000060 92 ec e2 b9 1c a2 a9 3a 75 f4 ed 3a 2e ea 79 39
       -0.00043282338 0.0012941989 0.0018154519 0.00023833729
000070 a1 bb 82 ba 0f 50 52 ba c0 51 26 38 99 15 71 ba
       -0.0009974131 -0.0008022794 3.965362e-05 -0.0009196639
000080 4e 67 3f ba 9c b6 a1 ba c8 6d 24 b8 ac 62 89 ba
       -0.00073014654 -0.0012337747 -3.920289e-05 -0.0010481677
000090 ca 31 a1 39 b8 db 0a b7 49 e4 be ba 69 f8 68 39
       0.0003074541 -8.276598e-06 -0.0014563884 0.00022217784
0000a0 1d 5b 2a 3a cb 06 56 b9 8d 2c 88 b9 44 ed 66 3a
       0.0006498562 -0.00020411161 -0.00025973134 0.0008809159
0000b0 30 b7 63 39 b4 27 09 ba 5b aa 60 ba f7 15 84 ba
       0.0002171665 -0.00052320515 -0.0008570307 -0.0010077347
0000c0 2d 4b 87 b9 f5 f1 1f ba 0d 58 d7 39 61 ad 0d b9
       -0.00025805217 -0.0006101423 0.000410736 -0.00013511397
0000d0 87 a7 19 b9 6d ea ef b9 7c c4 1d 3a d7 6c 8b b9
       -0.00014653626 -0.00045760293 0.0006018353 -0.00026593238
0000e0 96 a9 2a 39 0f f0 85 b8 18 c9 87 3a 46 5c af b9
       0.00016275639 -6.3866486e-05 0.0010359613 -0.0003344735
0000f0 16 6b 9c b9 6c eb 02 b6 2e 75 06 3a 30 4a 77 37
       -0.00029834424 -1.9508543e-06 0.00051291555 1.473962e-05
000100 90 7b 54 38 22 b4 83 b9 b4 c5 10 b9 59 9a 30 3a
       5.0659815e-05 -0.00025120476 -0.0001380656 0.0006736867
000110 2a f2 bc 38 a8 af 99 39 12 f7 d4 38 fb c6 e6 b9
       9.009645e-05 0.00029313308 0.00010154968 -0.0004401727
000120 98 81 88 b9 9f ce 6b 39 0a 03 6e b9 4d 84 cd b9
       -0.00026036496 0.00022488319 -0.00022698581 -0.0003919922
000130 76 8d 87 36 00 19 37 35 90 f7 5a b9 8c 20 ab b9
       4.0397817e-06 6.820919e-07 -0.00020882324 -0.0003263991
000140 78 9c ff b7 04 89 e8 b8 e8 62 2c 39 d7 fa f4 38
       -3.047123e-05 -0.00011088143 0.00016440044 0.00011681549
000150 c8 4c fd 37 18 f0 98 36 9d e3 35 39 a6 cf e1 b8
       3.0195704e-05 4.5579036e-06 0.00017346298 -0.000107675136
000160 45 5b 00 38 5b 2a 1d b9 50 d8 aa b8 3c 85 15 38
       3.060258e-05 -0.00014988465 -8.146523e-05 3.5648452e-05
000170 a8 2b ab 39 d1 6d 44 39 67 ad b3 38 fd 67 82 37
       0.00032648188 0.00018732926 8.567684e-05 1.5545631e-05
000180 be 56 5f b9 78 e5 e4 b9 d2 52 e8 b8 49 af 8c 38
       -0.00021299251 -0.00043658516 -0.000110780486 6.7083696e-05
