Results/Nodes_1024/model_weights_with_Jacobian.pth (torch, 63824 bytes, 6 tensors)

weight f4 [85, 2]
0	0xbf2a4848	-0.6651654
1	0x3ea61a73	0.32442054
2	0xbea4730a	-0.32119018
3	0xbebbc65b	-0.3667477
4	0x3e2cfe46	0.16893873
5	0xbebcef2a	-0.36901218
6	0xbea751d5	-0.3267962
7	0xbe73fa52	-0.23825958
8	0xbfcfde45	-1.6239706
9	0xbfc62eec	-1.548307
10	0xc05e043f	-3.4690092
11	0x3f29d3a9	0.6633859
12	0xbe1f1647	-0.15535842
13	0xc0015ccd	-2.021289
14	0xbfa8af60	-1.317852
15	0xbf432f34	-0.762439
16	0xbb116dc6	-0.0022190674
17	0xbf45895c	-0.7716272
18	0xbeb9001d	-0.361329
19	0xbe6d819c	-0.23193973
20	0x4021fc78	2.5310345
21	0xc081d270	-4.056938
22	0xbf9df4fd	-1.234039
23	0xc0077ae6	-2.1168761
24	0xbf49de2d	-0.7885464
25	0x3da8ee5a	0.08248587
26	0xbdd83cb1	-0.10558451
27	0x3e99c30e	0.30031627
28	0xbed484dc	-0.41507614
29	0x3ddc0fba	0.10745187
30	0xbf58a37e	-0.8462447
31	0xbd8390a2	-0.06424071
32	0xbe9e591e	-0.30927366
33	0xbe3591aa	-0.17731348
34	0xbf1d0edc	-0.613508
35	0x3b1916b0	0.002335947
36	0x3fb25216	1.3931301
37	0x3f8b0e13	1.086367
38	0xbeecce93	-0.46251354
39	0xbfbc02d6	-1.4688365
40	0xbf582a8a	-0.8443991
41	0xc051edaa	-3.2801309
42	0x3f0def87	0.55443615
43	0x3c3ac306	0.011399036
44	0xbe9d15b3	-0.30680618
45	0xc03fc1b9	-2.996199
46	0xc06ce1e5	-3.7012875
47	0x4044c1d8	3.0743313
48	0x3e85d983	0.2614251
49	0x3e2268bb	0.15860264
50	0xbeae7b95	-0.3407866
51	0x3f2fc053	0.6865284
52	0xbdd52cbc	-0.10408923
53	0xbeddb7cb	-0.43304285
54	0xbea9547f	-0.33072278
55	0x3f3232fe	0.6960906
56	0x380ed5e8	3.4054654e-05
57	0xbdc49420	-0.09598565
58	0xbe96aaaa	-0.2942708
59	0xbe3dd044	-0.18536478
60	0xbf1875ab	-0.5955455
61	0xbf0fda63	-0.56192607
62	0x3ed3e5bd	0.41386214
63	0x3f1ada57	0.6048941
64	0x3ed09bff	0.40744016
65	0xbf472081	-0.7778397
66	0x3ec3d03c	0.38244808
67	0xbee016ff	-0.43767545
68	0x405b0967	3.4224489
69	0xc0f47795	-7.6395974
70	0x3e89dd18	0.26926494
71	0x3e6cc21c	0.23120922
72	0x3ee27b52	0.4423471
73	0x3c617db9	0.013762885
74	0x3f9d1a3d	1.2273632
75	0xc032ff12	-2.7968183
76	0xbd069b43	-0.032862913
77	0xbf16ccad	-0.5890606
78	0x3fa54a02	1.291321
79	0xc0639ff1	-3.556637
80	0x3f4bd122	0.79615986
81	0xc0e850b4	-7.2598515
82	0x3eb313cf	0.3497605
83	0xc02577fc	-2.5854483
84	0xbf22d119	-0.6360031
85	0x3d3c98fc	0.046044335
86	0xbfadf77a	-1.3591149
87	0x40789b15	3.8844655
88	0xc0051fea	-2.0800729
89	0xbfce213c	-1.6103892
90	0xbf3307a6	-0.69933546
91	0x3e895387	0.2682154
92	0x403cd166	2.9502807
93	0xc022600c	-2.5371122
94	0xbf940867	-1.1565064
95	0x4042927e	3.0401912
96	0xc00dcfb0	-2.2158012
97	0xbfc6a6d6	-1.5519664
98	0x4012f586	2.2962356
99	0xbf891f53	-1.0712684
100	0x3eefbe10	0.46824694
101	0xbef4d76d	-0.47820607
102	0x3ed2afd1	0.41149762
103	0xbef74c90	-0.483006
104	0x407b8967	3.9302614
105	0xc018cb73	-2.3874176
106	0x3f612335	0.87944347
107	0x401751a8	2.364359
108	0x3e3fe359	0.1873907
109	0xbdde14ee	-0.10843836
110	0xbf935cc5	-1.1512686
111	0xc06d220b	-3.7052028
112	0xbf2aa005	-0.6665042
113	0xbe8b18ac	-0.2716726
114	0x40a33222	5.0998697
115	0xc057d96c	-3.3726454
116	0x3fa0f033	1.2573303
117	0xc0ae2e8e	-5.443183
118	0x3d8908dd	0.06691144
119	0x40485473	3.1301544
120	0x3e7f9bf3	0.24961834
121	0xbeb90f6f	-0.36144587
122	0xbf8052bd	-1.002525
123	0xbfa2dff0	-1.272459
124	0xbf38d5db	-0.7220132
125	0x3e9d7f7b	0.30761322
126	0xc0247ff0	-2.5703087
127	0x3e198336	0.14991459
128	0x3f9f38bf	1.2439193
129	0x3fd4ef18	1.6635466
130	0x40181e77	2.3768594
131	0xc0814c58	-4.0405693
132	0x3f2e1f0b	0.6801612
133	0xbdf7b40e	-0.120948896
134	0xbf292560	-0.66072655
135	0x3f32b210	0.6980295
136	0x3ec226d6	0.37920254
137	0xbff6c199	-1.9277831
138	0x3e621151	0.22076918
139	0xbf7f4db7	-0.9972796
140	0xbf9c4e54	-1.2211404
141	0xbf7b74ac	-0.982249
142	0xbdc1d757	-0.09464901
143	0x3e26c907	0.16287623
144	0xbf17d266	-0.5930542
145	0x3cad3cda	0.02114718
146	0x3f7aba58	0.9794059
147	0xc0251bcf	-2.5798223
148	0xbf25bf7c	-0.64745307
149	0x3ebff5a5	0.374921
150	0x400641f9	2.0977767
151	0xc07c25b5	-3.9398015
152	0x3fb89a9e	1.4422185
153	0x3fb92d2c	1.446691
154	0x3e065cb3	0.131213
155	0xbed490ea	-0.4151681
156	0x3de1325e	0.10995935
157	0x3fbe06c7	1.4845818
158	0x3ef85113	0.48499355
159	0xbf0cfd96	-0.5507444
160	0x3fec269f	1.8449286
161	0x3f8e3809	1.111085
162	0xbdaba952	-0.08381905
163	0x3e036102	0.12829974
164	0x3f1a5215	0.602815
165	0xbf0d1c62	-0.55121434
166	0x3f09bdca	0.5380522
167	0xbf0751b1	-0.52859026
168	0x3d591ffc	0.05300902
169	0xbefcfabd	-0.49410048

bias f4 [85]
0	0xbe1ebdea	-0.15502134
1	0xbd039dba	-0.03213284
2	0xbdad401f	-0.08459496
3	0xbde4c608	-0.11170584
4	0x3dd9cacd	0.10634384
5	0x3ef25c30	0.47335958
6	0x3f09f34f	0.53886884
7	0x3e49ef40	0.19720173
8	0xbe18fcc3	-0.14940171
9	0xbe82ce6b	-0.2554811
10	0x3e851044	0.25988972
11	0x3d8e6334	0.06952515
12	0xbe2d08ec	-0.16897935
13	0xbf1ddf5b	-0.6166894
14	0xbf11d245	-0.5696147
15	0xbea8b092	-0.32947212
16	0xbe8da5d1	-0.2766557
17	0xbc54961e	-0.012975244
18	0xbec04abd	-0.3755702
19	0x3efea3ef	0.49734446
20	0x3ec7cfee	0.39025825
21	0xbe702267	-0.23450623
22	0x3ec8593d	0.39130583
23	0x3e9fc108	0.3120196
24	0xbf0aee98	-0.54270315
25	0xbf0bc9b2	-0.5460464
26	0xbf12754c	-0.5721023
27	0xbec6678e	-0.3875088
28	0xbe8ceedd	-0.27525988
29	0xbd5a00ef	-0.053223547
30	0xbe301707	-0.17196284
31	0xbeb6eb65	-0.35726467
32	0xbefbe6db	-0.49199566
33	0xbe82f72b	-0.255792
34	0xbf9862fa	-1.1905205
35	0xbf0a3ea5	-0.5400184
36	0xbf019c29	-0.50628906
37	0x3e3ac221	0.18238117
38	0xbe86ec15	-0.2635199
39	0x3eb789dd	0.3584737
40	0xbec0e676	-0.37675828
41	0x3ee06c2b	0.43832526
42	0xbf04923c	-0.51785636
43	0xbeebe1a8	-0.460706
44	0x3e873a7c	0.26411808
45	0xbeb2c93e	-0.3491916
46	0x3c3c9124	0.011509214
47	0x3b6a74bb	0.0035775143
48	0x3e4bb86a	0.19894567
49	0xbf0b8171	-0.54494387
50	0xbe7d272d	-0.24721976
51	0xbf1de1d3	-0.61672705
52	0xbe7f7e7d	-0.24950595
53	0xbf05b446	-0.522282
54	0xbeec9d16	-0.46213597
55	0x3ea339ec	0.31880128
56	0xbf1aa17d	-0.6040266
57	0xbdbdd324	-0.092687875
58	0xbf442f19	-0.76634365
59	0xbed6eb87	-0.41976568
60	0xbee3274a	-0.44365913
61	0x3f2377bf	0.63854593
62	0xbe35564e	-0.17708704
63	0x3f227e45	0.6347392
64	0xbed7b281	-0.42128375
65	0x3e69adcf	0.22820209
66	0xbe9b9e02	-0.30393988
67	0xbe22e0ac	-0.15906018
68	0x3edf5b65	0.43624416
69	0xbe924821	-0.28570655
70	0x3f26a858	0.6510062
71	0xbebe281a	-0.3713997
72	0xbcd2f2a1	-0.02575046
73	0x3e39f3fa	0.18159476
74	0xbe404e96	-0.18779978
75	0x3e64371b	0.22286646
76	0xbee1c4c1	-0.44095424
77	0xbf274db2	-0.6535293
78	0xbdd24552	-0.10267128
79	0xbea43484	-0.32071316
80	0xbf14f746	-0.5818981
81	0xbf0152e7	-0.50517124
82	0xbf338f2c	-0.7014034
83	0xbe88ba88	-0.26704812
84	0xbd8ab408	-0.067726195

weight f4 [85, 85]
0	0xbd0301b9	-0.031984065
1	0x3dcc184e	0.09965573
2	0xbcc1e156	-0.023667019
3	0x3d8eb45a	0.06967993
4	0xbe5d8b3e	-0.21635148
5	0xbea25531	-0.3170562
6	0xbe423f0b	-0.18969361
7	0xbe08b532	-0.1335037
8	0xbe966a88	-0.29378152
9	0xbe97ca29	-0.29646423
10	0xbdaab96c	-0.08336148
11	0x3db27d37	0.08715289
12	0xbe85c385	-0.26125732
13	0x3d85ab72	0.06526841
14	0xbc6358ed	-0.013876182
15	0xbe65fd1f	-0.2245984
16	0x3c0584eb	0.008149366
17	0x3d0f8ac9	0.035044465
18	0xbe8ab07c	-0.27087772
19	0xbe54cd1d	-0.2078137
20	0xbea1c9b3	-0.31599197
21	0x3d99f1c0	0.07516813
22	0xbe0448d3	-0.12918405
23	0xbe2c87f9	-0.16848744
24	0x3c9699dc	0.018383913
25	0x3d12522f	0.035722908
26	0xbda0ba02	-0.07847978
27	0xbcde0639	-0.027102577
28	0xbc29a7a6	-0.010354912
29	0xbd773b6a	-0.060359396
30	0xbda4131f	-0.080114596
31	0x3d9569c1	0.072955616
32	0x3eae9083	0.3409463
33	0xbdc9bdf5	-0.098506846
34	0xbe46f81c	-0.19430584
35	0xbe6f6dfc	-0.233818
36	0x3dd305de	0.103038535
37	0xbe1e467f	-0.1545658
38	0xbdde37d7	-0.10850494
39	0xbe8487f1	-0.25884965
40	0xbe107cf2	-0.14110163
41	0xbe07515b	-0.13214628
42	0xbdd1c51f	-0.10242676
43	0xbea12c74	-0.31479228
44	0xbe501c0d	-0.203232
45	0x3d729715	0.059226114
46	0xbe8d3031	-0.2757583
47	0xbe5cc0f8	-0.21557987
48	0xbe66284e	-0.22476313
49	0xbe4a90e9	-0.19781841
50	0xbd6ebaf0	-0.058283746
51	0x3d7a966f	0.06117862
52	0xbe128350	-0.14307904
53	0xbe99c3a7	-0.30032083
54	0x3a89b946	0.0010507486
55	0xbe5efceb	-0.21776168
56	0x3d0ea9ca	0.034829892
57	0xbe00033c	-0.12501234
58	0xbe439c01	-0.1910248
59	0xbe828938	-0.25495315
60	0x3dc78224	0.09741619
61	0xbe87e62b	-0.26542792
62	0xbe77d7f1	-0.24203469
63	0xbe7666bd	-0.24062629
64	0xbe9f9fd1	-0.31176618
65	0xbe585c3b	-0.21128933
66	0xbd96b6e1	-0.073591
67	0x3c36b8d3	0.011152464
68	0xbe4b9503	-0.19881062
69	0xbe35c76a	-0.17751852
70	0xbea1baa0	-0.31587696
71	0xbdd2fb67	-0.103018574
72	0x3d4c6b01	0.049906734
73	0x3ecb0fa0	0.39660358
74	0xbdc51e39	-0.09624905
75	0xbe3b5e55	-0.18297704
76	0xbe9a2095	-0.30102983
77	0x3bded11b	0.0067998297
78	0xbe13838e	-0.14405653
79	0x3da8846a	0.08228381
80	0xbe9d1e98	-0.30687404
81	0xbe166856	-0.14688239
82	0x3d680d3e	0.056653254
83	0xbe529fef	-0.20568822
84	0x3dd7309a	0.10507317
85	0xbd307457	-0.0430797
86	0xbccec76d	-0.025241578
87	0xbd608aca	-0.05481986
88	0x3c7fb7de	0.015607802
89	0x403ad018	2.918951
90	0xc01fbe53	-2.4959915
91	0x3f855581	1.0416719
92	0x3cd1cb78	0.025609717
93	0x3f29614b	0.6616408
94	0x3e3a5951	0.18198134
95	0x402cf19c	2.7022467
96	0x400c430e	2.1915927
97	0xbd3400ed	-0.043946195
98	0x3d21addf	0.039472457
99	0x3be514a8	0.006990988
100	0x3d9bf453	0.076149605
101	0xbc1dd392	-0.009632962
102	0xbd8c32f6	-0.068456575
103	0xbeb8d088	-0.36096597
104	0x3f0fa000	0.56103516
105	0x3fb6789f	1.4255561
106	0xbd926936	-0.07148974
107	0x3fa7b4da	1.3102067
108	0xc0757c35	-3.835706
109	0x3cea060a	0.028567333
110	0x3d5bab32	0.05363006
111	0xbdc2dbc7	-0.095145755
112	0xbd916d44	-0.07100919
113	0xbd9fb32b	-0.077978455
114	0x3dbab51a	0.09116574
115	0x3dbcd7d4	0.092208534
116	0x3bde7ec8	0.006790016
117	0x3dd08b17	0.10182779
118	0xbd1485be	-0.03626036
119	0x402f58fa	2.7398057
120	0x3d1b2eb8	0.03788635
121	0x3d1d6465	0.03842582
122	0x3f830688	1.0236368
123	0xb803ad42	-3.1394193e-05
124	0x3fcadeb0	1.5849209
125	0x40b1055a	5.5319033
126	0x3f4e611a	0.80616915
127	0xbddc6ef8	-0.10763353
128	0xbe9b2927	-0.30304834
129	0x3f477ff6	0.7792963
130	0x3dc725ea	0.097240284
131	0x3f92d75a	1.147197
132	0xbcb93b48	-0.022611275
133	0x406afc18	3.6716366
134	0x3ea19e3d	0.3156604
135	0xbdc78594	-0.09742275
136	0xbd2110f0	-0.039322793
137	0xc023acf7	-2.557432
138	0xbea38e26	-0.31944388
139	0xbd089538	-0.03334543
140	0x3fdfc936	1.748328
141	0x3c5e8afc	0.013582941
142	0x3f153ef2	0.5829917
143	0x401512b8	2.3292675
144	0xbee2ece5	-0.4432136
145	0xbdb8a3c4	-0.09015611
146	0x3e423b41	0.18967916
147	0xbdceffc3	-0.101073764
148	0xbe19b8a1	-0.15011837
149	0xbeab9efd	-0.33519736
150	0x40069047	2.102556
151	0xbd38486d	-0.044990946
152	0xbc9fa8ed	-0.01948973
153	0x3fa33e74	1.2753434
154	0xbd753ed9	-0.05987439
155	0xbe0477b9	-0.12936296
156	0xbc796f0e	-0.015224231
157	0x3cfe1edf	0.03102058
158	0x3f423d5a	0.75874865
159	0xbd5ddb56	-0.054164253
160	0x3ff99d32	1.9501097
161	0xbf1d5016	-0.61450326
162	0xbd8a9c2f	-0.06768071
163	0xbe22e9d2	-0.15909508
164	0xbbfaf239	-0.0076582697
165	0xbebbd1b2	-0.36683422
166	0x3cd249e6	0.025670003
167	0x3da63e57	0.08117359
168	0xbb6a54a6	-0.003575602
169	0xbda42356	-0.08014552
170	0x3d469823	0.048484933
171	0xbd9620e3	-0.073304914
172	0xbc74440d	-0.014908803
173	0xbd0fdb64	-0.035121337
174	0xbf883026	-1.0639694
175	0xbf4d1e68	-0.8012452
176	0xc0023e3b	-2.0350482
177	0xbeff5543	-0.49869737
178	0x3d57eeb1	0.05271787
179	0x3e1185b8	0.14211166
180	0x3f917e7e	1.1366727
181	0xbf67055e	-0.90242565
182	0xbc6983a3	-0.014252576
183	0x3d939031	0.07205237
184	0xbdb0c9d4	-0.08632246
185	0x3eb66ae6	0.35628432
186	0xbd7d18af	-0.06179112
187	0xbb8ae031	-0.0042381515
188	0x3f7c29a6	0.9850105
189	0xbfaaea0c	-1.3352675
190	0xbfc16a0a	-1.5110486
191	0xbd9224b2	-0.07135905
192	0x3de6aaa2	0.112630144
193	0x3f1a983a	0.6038853
194	0xbdc134df	-0.094339125
195	0xbd26d7f1	-0.04073328
196	0x3ae838ed	0.001771716
197	0xbdc00e3b	-0.09377714
198	0x3d7a53f5	0.061115224
199	0x3dc9324d	0.09824047
200	0x3c9d2668	0.019183353
201	0xbda50d0a	-0.08059128
202	0x3e95d55a	0.29264337
203	0x3d214701	0.039374355
204	0x3edf66a5	0.43633
205	0x3e6183cf	0.22022937
206	0xbdc703b8	-0.09717506
207	0x3ed98063	0.42480764
208	0xbe125e38	-0.14293754
209	0xbc8ccf57	-0.017188711
210	0xbdf62d98	-0.12020415
211	0xbf5a59c3	-0.85293216
212	0x3db3d1ae	0.087802276
213	0x3f90ca26	1.1311691
214	0x3d23a1d3	0.03994925
215	0x3dc64a53	0.09682145
216	0x3e9d3249	0.30702427
217	0xbd578737	-0.052619185
218	0xbf357cc7	-0.7089352
219	0x3f6248d9	0.88392407
220	0xbdc82a2f	-0.09773671
221	0x3d30ae19	0.043134782
222	0x40865885	4.1983056
223	0x3f4cfec7	0.8007626
224	0xb9fd4962	-0.00048310595
225	0xbfa6aba4	-1.302113
226	0xbc3fd658	-0.011708818
227	0x3e81862c	0.25297678
228	0xbdd48eb7	-0.10378783
229	0x3f5405e3	0.8282148
230	0xbcc70808	-0.024295822
231	0xc0229155	-2.5401204
232	0x3dd9d254	0.1063582
233	0x3e871660	0.26384258
234	0x3ed4f6d2	0.4159456
235	0x3f4c05ad	0.7969616
236	0xbd39a05b	-0.045318943
237	0xbd794eec	-0.06086628
238	0xbfa8986a	-1.3171513
239	0xbe04f07e	-0.12982365
240	0xc0072387	-2.1115434
241	0xbdc5ed66	-0.09664421
242	0xbdc4e00f	-0.09613048
243	0xbf041be3	-0.5160505
244	0x3d877894	0.06614795
245	0x3f44295f	0.7662563
246	0x3f26b853	0.65125006
247	0xbbccb2ea	-0.006246914
248	0x3ef778ac	0.48334253
249	0xbd84e8a9	-0.06489689
250	0x3f7f3101	0.9968415
251	0x3e7aa54f	0.24477123
252	0x3d518d43	0.05116011
253	0x3e1c876d	0.15286036
254	0x3d0886f4	0.033331826
255	0x3d22ab88	0.039714366

bias f4 [85]
0	0xbe7660cd	-0.24060364
1	0x3e58829a	0.2114357
2	0xbf0ef382	-0.55840313
3	0xbea94c6a	-0.33066112
4	0xbe9fbd09	-0.3119891
5	0x3fd07fc9	1.6288997
6	0xbec811b2	-0.39076
7	0xbc4c9786	-0.012487298
8	0xbe31c26a	-0.1735932
9	0xbf6d5162	-0.92702305
10	0xbe809bce	-0.2511887
11	0xbd39d500	-0.04536915
12	0xbf3c4e1e	-0.735567
13	0xbf29c726	-0.663195
14	0xbeb6325b	-0.35585293
15	0xbe692c36	-0.22770771
16	0xbe907e54	-0.2822138
17	0xbe086be0	-0.13322401
18	0xbe982c4f	-0.29721305
19	0xbe0b1af3	-0.13584499
20	0x3e905262	0.28187853
21	0xbe75a150	-0.23987317
22	0xbe68a0ef	-0.22717641
23	0x3f1a2880	0.6021805
24	0xbe84da55	-0.25947824
25	0xbe42544d	-0.1897747
26	0xbd21bdd4	-0.039487675
27	0xbfcbbe2a	-1.5917408
28	0xbed16586	-0.4089777
29	0x3df4fb59	0.11962003
30	0xbe9847ce	-0.29742283
31	0xbdaff045	-0.0859075
32	0x3f3dea3c	0.7418554
33	0xbea23310	-0.31679583
34	0xbef70300	-0.48244476
35	0xbe899a1b	-0.26875386
36	0xbd78f139	-0.060776923
37	0xbf7fc012	-0.9990245
38	0xbe58c56d	-0.21169062
39	0xbdee6725	-0.11640767
40	0xbe9070a8	-0.2821095
41	0xbe8963c2	-0.26833922
42	0xbe7f76ec	-0.24947709
43	0xbe931b47	-0.28731748
44	0xbea89b29	-0.32930878
45	0xbf1dcefe	-0.6164397
46	0xbf59b44a	-0.85040724
47	0xbf38a5ed	-0.7212818
48	0xbebd6c36	-0.3699662
49	0x3f18d867	0.59705204
50	0xbe6f9803	-0.23397832
51	0xbebf713e	-0.37391084
52	0xbec590eb	-0.38587126
53	0xbe50041a	-0.20314065
54	0xbe8c8f1f	-0.27452943
55	0xbf2b393c	-0.6688421
56	0x3ea539b1	0.32270578
57	0xbe998ddb	-0.2999104
58	0xbf638683	-0.88877124
59	0xbd9ad8dd	-0.07560895
60	0xbddb7046	-0.10714774
61	0xbf9ff886	-1.2497718
62	0xbe88f87e	-0.26752084
63	0xbeb68917	-0.35651466
64	0xbe8f1e40	-0.27952766
65	0xbe984648	-0.2974112
66	0xbeb9a79a	-0.36260682
67	0xbdd7c051	-0.10534728
68	0xbf51aadf	-0.81901354
69	0xbf4edfae	-0.8081006
70	0xbe9d7fff	-0.30761716
71	0xbe552a93	-0.20817022
72	0xbe6d7946	-0.23190793
73	0xbe4eccab	-0.20195262
74	0xbd5cf219	-0.05394182
75	0xbe41a584	-0.18910795
76	0xbf74b4c8	-0.9558835
77	0xbed9280e	-0.42413372
78	0xbe7d252c	-0.24721211
79	0xbd3e16df	-0.04640853
80	0xbe4d822f	-0.20069192
81	0xbe6c5a7f	-0.23081397
82	0xbe7bed60	-0.2460227
83	0xbe44f196	-0.19232783
84	0xbe823322	-0.25429636

weight f4 [85, 85]
0	0x3e9da5b7	0.30790493
1	0xc01c6e0a	-2.4442163
2	0x3eaeef0d	0.34166756
3	0x3e488d5a	0.19585171
4	0x3e71c1b5	0.2360905
5	0x40aa1169	5.3146253
6	0x3e8c47e9	0.27398613
7	0xc01b8ee1	-2.4305956
8	0x3e2e5d72	0.17027834
9	0xbf7f8542	-0.9981271
10	0x3eb0c3c1	0.34524348
11	0x3d8d6ce0	0.06905532
12	0x3f508169	0.81447464
13	0x3f03c15b	0.5146691
14	0x3ea1a1ad	0.3156866
15	0x3ea9445d	0.3305997
16	0x3e61a976	0.220373
17	0x3f069128	0.5256524
18	0x3e6f3e90	0.2336371
19	0x3eef17bb	0.46697792
20	0x3fbf5997	1.4949216
21	0xbe70a00d	-0.23498555
22	0x3e947e28	0.290025
23	0x3fc12855	1.5090433
24	0x3e7c06fa	0.24612036
25	0x3e2fb4ab	0.17158763
26	0x4068a013	3.6347702
27	0xbfc66cf2	-1.5501997
28	0xbdf10870	-0.117691875
29	0x3feccb83	1.8499607
30	0x3ef1ae60	0.4720335
31	0x3ee67d37	0.45017406
32	0x4065269d	3.5804818
33	0xbec466b1	-0.38359597
34	0xbfdc1d13	-1.7196373
35	0x3e820458	0.2539394
36	0x3cf46d98	0.029837415
37	0x3f77fd02	0.96870434
38	0x3e9d062c	0.3066877
39	0x3ee9f34d	0.45693436
40	0x3e4051b2	0.18781164
41	0x3e60f751	0.21969344
42	0x3e6b72aa	0.2299296
43	0xbe5750bd	-0.21026893
44	0x3e56403f	0.20922945
45	0x3f072cd2	0.52802765
46	0xbf3f0afa	-0.74626124
47	0x3eb7b276	0.35878342
48	0x3e54214a	0.20715824
49	0xbff82e22	-1.9389079
50	0x3e83f428	0.25772214
51	0x3e934687	0.28764746
52	0x3e626f1f	0.22112702
53	0x3e5c3eea	0.21508375
54	0x3ea15116	0.31507176
55	0xbf559e4f	-0.83444685
56	0x3fd85793	1.6901726
57	0xbe2118d8	-0.15732133
58	0xbf403352	-0.7507831
59	0x3efe7f63	0.49706563
60	0x3d93bc86	0.07213692
61	0xbf8e6fd4	-1.1127877
62	0x3e4c030a	0.19923034
63	0x3ef92561	0.4866133
64	0x3ea07bbf	0.3134441
65	0xc00ba547	-2.1819627
66	0x3e8939ac	0.26801813
67	0x3f0557b4	0.5208695
68	0xbf2d33e4	-0.67657304
69	0xbf4b5362	-0.7942411
70	0x3e84fb3c	0.25972927
71	0x3e77c450	0.24195981
72	0x3ecff55a	0.40616876
73	0x3e485ae2	0.19565919
74	0xbd93441a	-0.07190724
75	0x3d808a06	0.06276326
76	0xbf57c725	-0.84288245
77	0x3ea568de	0.3230657
78	0xbe7f517d	-0.24933429
79	0x3d2599d0	0.04042989
80	0x3e59c711	0.21267344
81	0x3e3b0042	0.18261817
82	0x3e726e28	0.23674834
83	0x3e6c68c6	0.23086843
84	0x3e80f38e	0.25185817
85	0x3d28c436	0.041202746
86	0xbe7fc0a8	-0.24975836
87	0xc0195404	-2.395753
88	0x3eaa4871	0.33258393
89	0x3e84a6e7	0.25908586
90	0xc08cfc49	-4.4057965
91	0x3eb1494a	0.34626228
92	0xbaefd969	-0.0018299046
93	0xbec48731	-0.38384393
94	0x3f701aa1	0.9379063
95	0x3e4bb389	0.19892706
96	0x3d6c1543	0.057637464
97	0x3f3ed0c9	0.7453733
98	0xbf077db1	-0.52926165
99	0x3ed0b320	0.40761662
100	0x3ea52f95	0.32262865
101	0xbea0ce8b	-0.3140758
102	0x3e880a22	0.2657023
103	0xbeb2b6f0	-0.34905195
104	0x3dda736e	0.10666548
105	0x3fd99799	1.6999389
106	0xbe3fe3c1	-0.18739225
107	0x3e9dcf6c	0.30822313
108	0x4000c2af	2.0118825
109	0x3e7c2784	0.24624449
110	0x3e270ac9	0.16312708
111	0xbf87baca	-1.0603878
112	0xbfb177dd	-1.3864704
113	0xbef4bcf0	-0.47800398
114	0x3fba7023	1.4565471
115	0x3efb2d27	0.49057886
116	0x3e8e385b	0.2777737
117	0x3f8939ff	1.0720824
118	0x3e8c8157	0.27442428
119	0xc057a3fa	-3.3693833
120	0x3e4e5ebf	0.2015333
121	0x3dc10e09	0.09426505
122	0xbf873bbd	-1.0565106
123	0x3e4f6157	0.20251976
124	0x3e31b71c	0.17355007
125	0xbe900dd2	-0.28135544
126	0xbe929d66	-0.2863571
127	0x3ec70f4a	0.38878852
128	0xbec4547e	-0.38345712
129	0x3e929f68	0.28637242
130	0xbee23da8	-0.44187665
131	0xbf2d00cc	-0.6757934
132	0x3eab83ff	0.33499143
133	0x3e94f1a3	0.29090604
134	0x3f6f4dea	0.9347826
135	0x3e8663b8	0.26247954
136	0x3ebbed8e	0.36704677
137	0x3e489f7d	0.1959209
138	0x3e77fa3f	0.24216555
139	0x3eb3326c	0.34999406
140	0x3e9263b5	0.28591695
141	0x3f76059e	0.9610232
142	0xbea25508	-0.317055
143	0xbf45776a	-0.77135336
144	0x3e5be235	0.2147301
145	0xbd9dc597	-0.07703703
146	0x3f9eb13a	1.2397835
147	0x3e806a71	0.25081208
148	0x3eccd2d3	0.40004596
149	0x3eac7ac2	0.33687407
150	0xbf80548d	-1.0025803
151	0x3e949e6a	0.2902711
152	0x3e5bc80e	0.21463034
153	0xbf47286d	-0.7779606
154	0xbf7e027f	-0.9922256
155	0x3ebd49bd	0.3697032
156	0x3e7ce641	0.2469721
157	0x3e8ad92c	0.27118814
158	0x3e9dd80c	0.30828893
159	0x3d0ff199	0.035142515
160	0x3e56153c	0.20906538
161	0x3f6204f7	0.88288826
162	0xbef813f7	-0.48452732
163	0xbe9d560a	-0.30729705
164	0xbdc63d16	-0.0967962
165	0x3e46159d	0.19344182
166	0xbe6ee924	-0.23331124
167	0x3eaf62bc	0.34255016
168	0x3e9a8698	0.30180812
169	0x3e572d5b	0.21013395
170	0x3e8085b4	0.25102007
171	0xbf09121a	-0.53543246
172	0x3fe10baf	1.758169
173	0xbe8edba3	-0.27901945
174	0xbea20516	-0.31644505
175	0x3f4b9db0	0.7953749
176	0xbe73ac2a	-0.23796144
177	0xbe928e02	-0.28623968
178	0x3ee1e7fe	0.44122308
179	0xbf9dec6f	-1.2337779
180	0xbec6c8d5	-0.38825098
181	0x3c994d9f	0.01871377
182	0xbf410ccf	-0.7541017
183	0x3f2c8b20	0.6739979
184	0xbe450e64	-0.19243771
185	0xbe6cc57f	-0.23122214
186	0xbe59ef21	-0.21282627
187	0x3e1ac777	0.15115152
188	0x3ec508b6	0.38483208
189	0x3ec83f6c	0.39110887
190	0x3e7d9c85	0.24766739
191	0xbe7a4f16	-0.24444231
192	0xbebaa86e	-0.36456627
193	0x3eece796	0.46270436
194	0xbe878459	-0.2646816
195	0xbe3edce0	-0.18638945
196	0xbf0f59e1	-0.5599652
197	0x400a88b9	2.164595
198	0x3e56c0ba	0.20971957
199	0xbfee2313	-1.8604454
200	0xbdc1ba12	-0.09459318
201	0x3c692988	0.014231093
202	0x3cbbfc8c	0.022947572
203	0x3ea6447c	0.32474124
204	0xbe87bcc4	-0.26511204
205	0xbe86b10d	-0.26306954
206	0x3d8c3d86	0.06847672
207	0xbf91842c	-1.1368461
208	0xbe82ce1d	-0.25547877
209	0x3eb53b64	0.35396874
210	0x3e9f8041	0.31152537
211	0x3eb24e5f	0.34825417
212	0xbec7485d	-0.38922396
213	0xbeabae43	-0.3353139
214	0xbeb2149f	-0.34781358
215	0xbf0b7830	-0.54480267
216	0xbf4466bf	-0.7671928
217	0xbec34d11	-0.38144735
218	0xbe928147	-0.28614256
219	0x3fe29917	1.7702969
220	0xbeb3ad8b	-0.3509334
221	0xbe99227e	-0.29909128
222	0xbe86e19a	-0.26343995
223	0xbe90d4d6	-0.2828738
224	0xbebe8e0d	-0.3721775
225	0xbf3af8d3	-0.73035926
226	0xbf273420	-0.6531391
227	0xbe9b8aa2	-0.30379206
228	0xbf3c5a92	-0.735757
229	0x3e997409	0.2997134
230	0x3d670761	0.05640352
231	0x3f9c7793	1.2223991
232	0xbe9abb0c	-0.3022083
233	0xbd94d912	-0.072679654
234	0xbe99fd1d	-0.30075923
235	0xbc55324d	-0.013012481
236	0xbe93013a	-0.28711873
237	0x3eab94ff	0.33512112
238	0xbf327635	-0.6971162
239	0x3f374cfa	0.7160183
240	0xbe526b8f	-0.20548843
241	0x3e9b6ba6	0.30355567
242	0x3dea5295	0.114415325
243	0xbeaed320	-0.3414545
244	0xbd25d597	-0.0404869
245	0x3e97a364	0.29616845
246	0xbf714b25	-0.94255286
247	0x3f01e92e	0.5074643
248	0xbe33f693	-0.1757453
249	0xbdd2fdca	-0.10302313
250	0xbe9a5ab8	-0.30147338
251	0x3e8edd85	0.2790338
252	0xbe6aafae	-0.22918579
253	0xbeac666d	-0.33671895
254	0xbed003f4	-0.40628016
255	0xbe9ed637	-0.31022808

bias f4 [85]
0	0xbf419855	-0.75623065
1	0x3fdd02ac	1.726644
2	0x3fe8abb1	1.8177396
3	0x3f8fffb5	1.124991
4	0x3ff18b66	1.8870666
5	0xbd37cc61	-0.044872645
6	0xbe9c854a	-0.3057044
7	0xbe03973a	-0.12850657
8	0xbf346bec	-0.70477176
9	0xbe8d478f	-0.27593657
10	0xbf3ddd51	-0.7416583
11	0xbe97611f	-0.29566285
12	0x3e768e25	0.24077661
13	0x3e01b1ac	0.12665433
14	0xbda17006	-0.07882695
15	0x3db2b7a0	0.0872643
16	0x3d01b2df	0.031664725
17	0x3e00c107	0.12573634
18	0x3d8bb154	0.06820932
19	0x3e0989cf	0.13431476
20	0xbda3c379	-0.07996268
21	0x3d6c6e85	0.057722587
22	0xbc906ead	-0.0176309
23	0xbd5b4dc5	-0.053540964
24	0xbcb75b2e	-0.022382345
25	0x3d2b2dee	0.04179185
26	0x3d0223e3	0.031772505
27	0xbd019798	-0.03163871
28	0xbc1cb1ee	-0.009563906
29	0xbcf0168d	-0.029307628
30	0x3c626f1a	0.013820434
31	0xbd3f6d97	-0.046735372
32	0x3bb11bcf	0.0054049264
33	0x3c70fb9c	0.014708426
34	0xbd665b32	-0.056239314
35	0x3c9c9edd	0.01911872
36	0xbcaae556	-0.020861309
37	0x3cd55287	0.026040329
38	0x3c2c8b88	0.010531314
39	0x3aa874a3	0.0012852143
40	0xbcc21e3a	-0.023696054
41	0x3c97c488	0.01852633
42	0x3aa94e30	0.0012916978
43	0x3c67b134	0.01414137
44	0xbd2cd9e1	-0.042199973
45	0xbcc1d492	-0.023660932
46	0x3ae34948	0.0017340565
47	0xbd4fd19e	-0.050737016
48	0x3c36d34e	0.011158777
49	0xba9628d8	-0.0011456264
50	0x3d3c7ca0	0.04601729
51	0xba8a4f67	-0.0010552228
52	0xbcde27aa	-0.027118523
53	0x3b1c87a9	0.002388457
54	0x3c16e655	0.009210189
55	0x3d00cdc2	0.031446226
56	0xbcabd4f9	-0.020975577
57	0xbbc7be65	-0.006095695
58	0xbcec9626	-0.02888019
59	0xbc15e06d	-0.009147746
60	0x3d3d7407	0.04625323
61	0xbca2cb5e	-0.019872364
62	0xbca2edef	-0.019888846
63	0xbb3d3a9a	-0.002887404
64	0x3c75ff5d	0.015014497
65	0xbd100499	-0.035160635
66	0xbb7a5217	-0.0038195902
67	0x3ce2c4a5	0.027681658
68	0x3b4a6956	0.003088554
69	0x3d92e6bd	0.07172916
70	0xbc78250f	-0.015145554
71	0x3ce19181	0.027535202
72	0xbb003bbb	-0.0019566852
73	0xbd796f03	-0.060896885
74	0xbb96a3d8	-0.0045971684
75	0xbc87206b	-0.01649495
76	0xbd20aa7b	-0.039225083
77	0xbc3479f5	-0.011015405
78	0x3ba8588e	0.0051375097
79	0x3bf769eb	0.007550468
80	0xbb64c7cf	-0.0034909134
81	0x3c92e595	0.017931739
82	0xbcada04f	-0.021194605
83	0x3c605e2b	0.013694326
84	0xbcf9ffce	-0.030517485
