Results/Nodes_1024/model_weights.pth (torch, 127624 bytes, 8 tensors)

weight f4 [100, 2]
0	0xbf2a4848	-0.6651654
1	0x3ea61a73	0.32442054
2	0xbea4730a	-0.32119018
3	0xbebbc65b	-0.3667477
4	0x3e2cfe46	0.16893873
5	0xbebcef2a	-0.36901218
6	0xbea751d5	-0.3267962
7	0xbe73fa52	-0.23825958
8	0xbf032696	-0.5123075
9	0xbf09e99e	-0.53872097
10	0xbe4345ff	-0.1906967
11	0x3e3c2b8f	0.18375991
12	0xbf127bed	-0.57220346
13	0xbedb2287	-0.4279978
14	0xbea54559	-0.3227947
15	0xbe6fc03b	-0.23413174
16	0x3d63f3b6	0.055652343
17	0xbe8ec85a	-0.2788723
18	0xbde0aa94	-0.10970035
19	0x3d87f011	0.06637586
20	0x3d494337	0.049136367
21	0xbf7c25e0	-0.9849529
22	0xbf1eb2c3	-0.6199152
23	0xbf729bc9	-0.9476896
24	0xbee51a2a	-0.44746524
25	0x3ec9a63b	0.39384636
26	0xbeb160d2	-0.3464418
27	0xbd1f5cd4	-0.038906887
28	0xbf27742c	-0.6541164
29	0xbe05274e	-0.13003275
30	0xbedafb61	-0.42769912
31	0x3eb4faf0	0.353477
32	0xbf282e7f	-0.6569595
33	0xbf04f87a	-0.51941645
34	0xbf72a745	-0.94786483
35	0xbea95647	-0.33073637
36	0x3eabfd15	0.33591524
37	0x3c0fbe20	0.008773357
38	0xbf36f00e	-0.71460044
39	0xbea7fce1	-0.3281012
40	0xbd9ec9b6	-0.07753317
41	0xbf11bbe7	-0.5692734
42	0x3f0def87	0.55443615
43	0x3c3ac306	0.011399036
44	0xbdab496d	-0.08363614
45	0xbf047d68	-0.51753855
46	0xbf28cf6d	-0.65941507
47	0xbe58d893	-0.21176367
48	0x3e85d983	0.2614251
49	0x3e2268bb	0.15860264
50	0xbf162816	-0.58654916
51	0x3ee4e9f7	0.4470975
52	0xbdd52cbc	-0.10408923
53	0xbeddb7cb	-0.43304285
54	0xbf2b12fb	-0.66825837
55	0x3eb7b250	0.3587823
56	0xbeb09088	-0.3448527
57	0xbee0534c	-0.4381355
58	0xbf06c84e	-0.5264939
59	0xbed5825e	-0.41701025
60	0xbf1875ab	-0.5955455
61	0xbf0fda63	-0.56192607
62	0x3db4ce13	0.08828368
63	0x3e8cfe4c	0.27537763
64	0x3ee3148d	0.44351617
65	0xbf3d9600	-0.74057007
66	0x3e12494a	0.1428577
67	0xbf2bdada	-0.67130816
68	0x3dafcebe	0.08584355
69	0x3e333517	0.17500721
70	0x3ea0a4be	0.31375688
71	0x3e8cb308	0.2748034
72	0x3ee27b52	0.4423471
73	0x3c617db9	0.013762885
74	0x3ea659b4	0.32490313
75	0xbe8186e3	-0.25298223
76	0x3d9c21cd	0.076236345
77	0xbeeb9adc	-0.46016586
78	0xbeb1b714	-0.3470999
79	0xbecf92cf	-0.40541694
80	0xbf09f733	-0.5389282
81	0xbf3607bf	-0.7110557
82	0xbe743f11	-0.23852183
83	0xbee73169	-0.45154884
84	0xbf22d119	-0.6360031
85	0x3d3c98fc	0.046044335
86	0x3e01069c	0.12600178
87	0x3e9f8f5e	0.31164068
88	0x3ed344e8	0.4126351
89	0xbebba87e	-0.36651987
90	0xbf6e8e20	-0.93185616
91	0x3d095b6d	0.033534456
92	0x3e2b327b	0.16718476
93	0xbf55c5d8	-0.8350501
94	0x3e81d270	0.25355864
95	0x3f190c38	0.5978427
96	0x3d2f72ce	0.042834096
97	0xbeda1d07	-0.4260027
98	0x3f1469d9	0.5797401
99	0x3e9a98a5	0.30194584
100	0x3e6f25fa	0.2335433
101	0xbf363d37	-0.71187156
102	0x3da8a7e9	0.08235151
103	0xbe830ec7	-0.25597212
104	0x3f331e1b	0.6996781
105	0xbe99654c	-0.29960096
106	0x3e4b2d49	0.19841494
107	0xbdb06fb6	-0.08615057
108	0x3edc637f	0.4304466
109	0xbe34e2a5	-0.17664583
110	0x3e94b3bc	0.29043376
111	0xbe96e336	-0.29470223
112	0xbf7ecb46	-0.9952892
113	0xbf1a15ba	-0.601894
114	0x3e81f072	0.25378758
115	0xbef90068	-0.48633122
116	0xbccc2d86	-0.024924051
117	0xbf0159b6	-0.50527513
118	0x3e495a88	0.19663441
119	0x3db86dfa	0.09005351
120	0x3e7f9bf3	0.24961834
121	0xbeb90f6f	-0.36144587
122	0xbf4e6a87	-0.806313
123	0xbe4e8ead	-0.20171614
124	0xbf41ade4	-0.7565596
125	0x3e770f19	0.24126853
126	0xbf2df487	-0.67951244
127	0x3ea1c89a	0.3159836
128	0x3f3475f1	0.70492464
129	0x3eb551ba	0.35413915
130	0x3b83a34d	0.0040172697
131	0xbf6a759e	-0.9158572
132	0x3eaf7edb	0.3427647
133	0xbeea3df5	-0.45750394
134	0xbf292560	-0.66072655
135	0x3f32b210	0.6980295
136	0xbf1f9a06	-0.62344396
137	0xbec6f961	-0.38862136
138	0x3ed5054a	0.41605598
139	0xbf387cae	-0.72065246
140	0xbf0011c2	-0.50027096
141	0x3deb7ebb	0.11498781
142	0xbea5b1b9	-0.32362154
143	0xbd86c179	-0.06579871
144	0xbf538ea0	-0.82639503
145	0xbe58fce6	-0.21190223
146	0xbea1052d	-0.3144926
147	0xbeb1fb3e	-0.34761995
148	0xbf7a45d2	-0.9776279
149	0x3d38744c	0.045032784
150	0x3e0b7bd5	0.13621457
151	0xbf190aa5	-0.5978187
152	0x3e6328a8	0.22183478
153	0xbe003298	-0.125193
154	0xbe5b2d0b	-0.21403901
155	0xbf41baa4	-0.75675416
156	0xbdff4637	-0.12464564
157	0x3ee57289	0.44813946
158	0x3e1f9393	0.15583639
159	0xbf611224	-0.87918305
160	0x3ed78c2d	0.42099133
161	0xbe31538c	-0.17317027
162	0x3eae20c3	0.3400937
163	0x3f0c97eb	0.5491931
164	0x3f542224	0.82864594
165	0xbf6e8866	-0.9317688
166	0x3e945e0d	0.28978005
167	0xbf501e7b	-0.8129651
168	0x3d591ffc	0.05300902
169	0xbefcfabd	-0.49410048
170	0xbe1ebdea	-0.15502134
171	0xbd039dba	-0.03213284
172	0xbed93336	-0.42421883
173	0xbee85ad8	-0.45381808
174	0xbe92a3f3	-0.28640708
175	0x3eb4abbe	0.3528728
176	0x3ed25941	0.4108372
177	0x3eca8cbc	0.39560497
178	0xbd4b4d53	-0.04963429
179	0x3e5c3642	0.21505073
180	0xbebacb54	-0.36483252
181	0xbe8d1d3c	-0.27561367
182	0xbdd996ba	-0.10624452
183	0xbf5d6d41	-0.86494833
184	0xbf4cad18	-0.7995162
185	0xbe17ccaa	-0.14824167
186	0xbf1eea5a	-0.6207634
187	0xbeb511be	-0.353651
188	0xbe26255b	-0.16225187
189	0x3de16c7c	0.1100702
190	0x3e66f118	0.22552907
191	0xbeefda6b	-0.46846327
192	0x3e6d9650	0.23201871
193	0x3e64e5fe	0.2235336
194	0xbf0aee98	-0.54270315
195	0xbf0bc9b2	-0.5460464
196	0xbf12754c	-0.5721023
197	0xbec6678e	-0.3875088
198	0xbf1a7b7e	-0.60344684
199	0xbec33a59	-0.38130453

bias f4 [100]
0	0xbe301707	-0.17196284
1	0xbeb6eb65	-0.35726467
2	0xbe6608e4	-0.22464329
3	0xbe82f72b	-0.255792
4	0x3ee6089f	0.44928452
5	0xbe862e95	-0.26207414
6	0xbf019c29	-0.50628906
7	0xbd200eda	-0.039076664
8	0xbec13459	-0.3773525
9	0x3e521f4e	0.20519754
10	0x3dd93d22	0.10607363
11	0x3e99f035	0.30066076
12	0xbf04923c	-0.51785636
13	0x3e5a9525	0.21345957
14	0x3eb5b609	0.35490444
15	0xbeb2c93e	-0.3491916
16	0x3e9c3fd8	0.3051746
17	0x3e4aa724	0.19790322
18	0xbea7682a	-0.32696658
19	0x3b32f886	0.0027308776
20	0xbe7d272d	-0.24721976
21	0xbf1de1d3	-0.61672705
22	0xbd5c386e	-0.053764753
23	0xbdf109fc	-0.117694825
24	0xbeec9d16	-0.46213597
25	0x3dccfc6b	0.100090824
26	0xbf1aa17d	-0.6040266
27	0x3e8abfad	0.27099362
28	0x3eaf0c72	0.34189183
29	0xbd21973b	-0.039450865
30	0xbee3274a	-0.44365913
31	0x3c898afa	0.016789902
32	0xbde26a8a	-0.11055477
33	0xbd3b9660	-0.045797706
34	0xbdd3ed79	-0.10348029
35	0x3e9bee77	0.30455372
36	0xbe9b9e02	-0.30393988
37	0xbe22e0ac	-0.15906018
38	0xbd203ac6	-0.03911855
39	0xbe85daf5	-0.26143613
40	0x3e5c5b93	0.21519308
41	0xbebe281a	-0.3713997
42	0xbcd2f2a1	-0.02575046
43	0xbe4d4803	-0.20047002
44	0xbe404e96	-0.18779978
45	0x3e7c4157	0.246343
46	0xbe1b0cd9	-0.1514162
47	0xbf274db2	-0.6535293
48	0xbd9ce317	-0.076605015
49	0xbea43484	-0.32071316
50	0xbe298a71	-0.16556717
51	0xbed2c106	-0.4116289
52	0xbf338f2c	-0.7014034
53	0xbeb6934c	-0.35659254
54	0x3e047154	0.12933856
55	0xbe5583cc	-0.20851058
56	0x3ea21c97	0.31662437
57	0xbee8bc19	-0.45456007
58	0x3e55950f	0.20857643
59	0xbe2256af	-0.1585338
60	0xbf18cdee	-0.59689224
61	0xbd801dcd	-0.06255684
62	0x3e7add0e	0.24498388
63	0xbeeccf4a	-0.462519
64	0xbeea0342	-0.4570561
65	0x3ee8d752	0.45476776
66	0x3e6c3ad1	0.23069312
67	0xbec9faad	-0.39449063
68	0x3db1f4f5	0.086893
69	0xbea46709	-0.3210986
70	0xbf3278e7	-0.6971573
71	0xbe33ec95	-0.17570718
72	0xbba26cf4	-0.004956836
73	0xbe5931e2	-0.21210435
74	0xbdacefe6	-0.084441945
75	0xbf1aca30	-0.60464764
76	0x3e1b415e	0.15161654
77	0x3e85117d	0.25989905
78	0x3e21da8a	0.15806022
79	0xbe564e04	-0.20928198
80	0x3bc138de	0.0058966717
81	0xbf02f9e5	-0.5116256
82	0x3cb3f967	0.02196951
83	0xbecb7a19	-0.3974159
84	0xbec97831	-0.3934951
85	0xbf05b45b	-0.52228326
86	0x3e06419e	0.13110968
87	0x3e0b3491	0.13594271
88	0xbf24664e	-0.64218605
89	0xbddccfa1	-0.107817896
90	0xbd362cc3	-0.04447628
91	0x3ed8f5d8	0.42375064
92	0x3e383aff	0.17991255
93	0x3e9d71f9	0.30751017
94	0xbe6d0e33	-0.23149948
95	0x3e85bab4	0.26119006
96	0x3e75efd5	0.2401727
97	0xbf2af10f	-0.66774076
98	0xbf114e31	-0.56759936
99	0xbe3da112	-0.18518475

weight f4 [100, 100]
0	0x3d5fa837	0.05460378
1	0xbd4b7ea0	-0.049681306
2	0x3c3471c0	0.011013448
3	0xb918399a	-0.00014517308
4	0xbe566a6d	-0.20939036
5	0xbd5c1930	-0.05373496
6	0x3d6707c7	0.0564039
7	0xbe2b1d2f	-0.16710351
8	0xbe97006e	-0.29492515
9	0xbe6f331f	-0.23359345
10	0xbe6fcec8	-0.23418725
11	0xbe4f25eb	-0.20229308
12	0x3dbec9db	0.093158446
13	0xbe521f1a	-0.20519677
14	0xbe83b8f1	-0.25727037
15	0x3db7f008	0.08981329
16	0xbe8b7fcd	-0.27245942
17	0xbe8699df	-0.2628927
18	0xbe672342	-0.22572044
19	0xbe9e4bda	-0.30917245
20	0x3c32494d	0.010881734
21	0xbd8af3a8	-0.06784755
22	0xbe651125	-0.22369821
23	0xbe621d84	-0.22081572
24	0x3c62c9da	0.0138420705
25	0xbea31565	-0.3185226
26	0xbdc2840d	-0.09497843
27	0xbe40e36b	-0.18836753
28	0xbe186bbe	-0.1488485
29	0xbea4ce59	-0.3218868
30	0x3d17b6a7	0.037039425
31	0xbe9db045	-0.30798545
32	0xbe699aef	-0.22813009
33	0xbe10aa28	-0.1412741
34	0xbe21fd05	-0.15819176
35	0xbe9dacfc	-0.3079604
36	0x3d7d5df7	0.06185719
37	0x3d55f0ed	0.052231718
38	0xbe7009e3	-0.23441271
39	0xbe016d2c	-0.12639302
40	0xbe8c4f20	-0.27404118
41	0xbcbea40d	-0.023271585
42	0xbd4f0483	-0.050541412
43	0xbe607ef3	-0.21923427
44	0x3cd8e9cd	0.026478672
45	0xbe67a809	-0.22622694
46	0xbe946fb2	-0.28991467
47	0xbd386360	-0.045016646
48	0x3d0b5393	0.03401525
49	0xbdb392f5	-0.08768264
50	0xbe7f6410	-0.24940515
51	0xbe697daa	-0.22801843
52	0xbd25f483	-0.040516388
53	0xbe46aa45	-0.1940089
54	0xbeb3b349	-0.3509772
55	0x3d8fc868	0.07020646
56	0xbe78db85	-0.2430249
57	0x3e70bc6b	0.23509376
58	0xbe27f594	-0.16402274
59	0xbe613d8e	-0.21996137
60	0xbcea9e0d	-0.028639818
61	0xbe9851cc	-0.29749906
62	0xbe57e6f7	-0.210842
63	0xbdc3541a	-0.095375255
64	0x3cd7c253	0.026337778
65	0xbe3dde5f	-0.18541859
66	0xbea51d72	-0.32249027
67	0xbd8613b0	-0.06546724
68	0xbe9c8474	-0.30569804
69	0xbe17cb05	-0.1482354
70	0x3dae1acf	0.08501207
71	0xbe6732cd	-0.22577973
72	0xbe0e3d58	-0.13890588
73	0xbd08ee50	-0.033430398
74	0xbea7a73d	-0.3274478
75	0x3d0f123a	0.03492949
76	0xbe4c027b	-0.19922821
77	0xbe0bcf37	-0.13653265
78	0xbe7039c0	-0.2345953
79	0xbe1f89f0	-0.15579963
80	0xbe317f9e	-0.17333838
81	0x3d943a55	0.072376885
82	0xbec8c6b1	-0.3921409
83	0xbe135645	-0.14388378
84	0xbdae9515	-0.08524529
85	0x3db79b00	0.08965111
86	0xbe74124d	-0.23835106
87	0xbea561ba	-0.32301122
88	0x3ce3d047	0.027809275
89	0xbe82259c	-0.2541932
90	0xbea58317	-0.32326576
91	0xbe8aca89	-0.27107647
92	0xbe65245f	-0.22377156
93	0xbe204e89	-0.15654959
94	0xbcfbd8ad	-0.030742968
95	0xbe339e63	-0.17540888
96	0xbe638a87	-0.22220813
97	0x3b5ce867	0.0033707859
98	0x3c9cbff3	0.019134497
99	0xbe95feb1	-0.29295877
100	0xbdaa3aba	-0.083119825
101	0xbd00b37a	-0.031421162
102	0xbdbed7fd	-0.0931854
103	0xbd3f0467	-0.046635058
104	0x3b96c080	0.0046005845
105	0xbd86e218	-0.06586093
106	0xbd29e683	-0.0414796
107	0xbc9332fa	-0.017968643
108	0xbc3cbfcd	-0.011520338
109	0xbd621aed	-0.05520146
110	0x3b9d741a	0.0048051
111	0xbc65f773	-0.014036047
112	0x3cea49a0	0.02859956
113	0x3b940133	0.0045167445
114	0xbd4c8ab7	-0.049936976
115	0xbd0d04ca	-0.034428395
116	0xba971200	-0.001152575
117	0xbd7f959a	-0.06239853
118	0x3c00431a	0.007828498
119	0xbbe75c67	-0.0070605758
120	0x3d1eea80	0.038797855
121	0x3cc1e067	0.023666574
122	0x3d9944da	0.074838355
123	0xbb580acd	-0.0032965422
124	0xbd9753ea	-0.07389052
125	0x3d37184a	0.0447009
126	0xbd8a695f	-0.06758379
127	0xbc6133b3	-0.013745236
128	0xbd04a12d	-0.03238027
129	0xbd1b6ba3	-0.037944447
130	0xbd178ba0	-0.03699839
131	0x3dbc31e7	0.091892056
132	0x3d6a7a73	0.057245683
133	0x3ce307ed	0.02771374
134	0x3dc04c5f	0.09389567
135	0xbdb99822	-0.0906222
136	0x3c84313a	0.016136754
137	0x3d831baf	0.064017646
138	0x3d880bed	0.066429
139	0xbda2fda8	-0.07958537
140	0x3d11c5ba	0.035588957
141	0xbd6957e7	-0.056968596
142	0xbb800980	-0.0039073825
143	0xbcaaf153	-0.020867025
144	0xbdab0030	-0.08349645
145	0xbdc35c97	-0.095391445
146	0xbd86bccd	-0.0657898
147	0x3d39dd4a	0.045377053
148	0x3d3b5d97	0.04574355
149	0xbdb220ab	-0.08697637
150	0xbd19d277	-0.03755423
151	0x3ad61933	0.0016334414
152	0xbdb11107	-0.08645826
153	0x3d66ca7d	0.05634545
154	0x3db97e77	0.090573244
155	0x3c90e29a	0.017686177
156	0xbd982b60	-0.07430148
157	0x3cbf06ba	0.023318637
158	0x3d14b0bd	0.036301363
159	0x3da22b62	0.07918431
160	0xbd59ef93	-0.05320699
161	0xbdb77b7a	-0.08959098
162	0x3d33f540	0.04393506
163	0x3bcc0067	0.006225634
164	0xbd057560	-0.03258264
165	0xbd2ba1ad	-0.041902233
166	0xbd53323d	-0.051561583
167	0x3da5c8f5	0.0809497
168	0xbc8d5813	-0.017253911
169	0x3d93b405	0.072120704
170	0x3db6d08d	0.08926497
171	0x3c4f8bcd	0.012667608
172	0x3cae8107	0.02130176
173	0xbbdf2a67	-0.0068104747
174	0x3d8ca8e8	0.06868154
175	0xbdb88af5	-0.09010879
176	0x3d22e417	0.039768305
177	0xbc8578a7	-0.016292883
178	0x3d3b07b0	0.04566163
179	0xb9e984cd	-0.00044540167
180	0xbd17a937	-0.03702661
181	0xbc30dd80	-0.010794997
182	0x3d5d2e5a	0.053999282
183	0xbd8e3d5f	-0.06945299
184	0xbd817433	-0.06320991
185	0xbcb77f73	-0.02239964
186	0xbd14926d	-0.036272455
187	0x3d20e82d	0.03928392
188	0x3d89d300	0.06729698
189	0xbc2f7867	-0.0107098585
190	0x3dc1a74d	0.09455738
191	0xbd2b239a	-0.041782
192	0xbd65d9d3	-0.056115936
193	0xbd376020	-0.044769406
194	0xbd8d19ff	-0.06889724
195	0xbd8f8d1f	-0.070093386
196	0xbdb67ae0	-0.08910155
197	0xbdb5828f	-0.08862793
198	0x3cd5cf60	0.02609986
199	0x3d79cbd3	0.060985398
200	0x3dc046a3	0.09388473
201	0x3dae72b7	0.08517974
202	0xbbbcb91a	-0.0057593705
203	0x3c9ef687	0.019404663
204	0xbeb85fe7	-0.36010668
205	0x3d1e51ad	0.03865211
206	0xbdc45ee3	-0.09588411
207	0xbe819735	-0.25310674
208	0xbe905390	-0.28188753
209	0xbe8a01b6	-0.2695443
210	0xbe86fe64	-0.2636596
211	0xbeb13f2d	-0.34618512
212	0x3dafbd7d	0.08581064
213	0xbe814e24	-0.2525493
214	0xbe703711	-0.23458506
215	0x3c5865c0	0.013207853
216	0xbe732cdf	-0.23747586
217	0xbe6e90c6	-0.23297414
218	0xbe8288bb	-0.25494942
219	0xbe6579a7	-0.22409688
220	0xbc9495b3	-0.018137788
221	0x3d86a9d5	0.06575362
222	0xbe8df17f	-0.2772331
223	0xbe75dd98	-0.24010313
224	0x3dc77993	0.09739985
225	0xbe8e2597	-0.27763054
226	0xbd1807ad	-0.037116695
227	0xbe9ed5b8	-0.3102243
228	0xbe8b538f	-0.27212188
229	0xbe911b42	-0.2834111
230	0xbcdfc7ed	-0.027317012
231	0xbe633fac	-0.22192258
232	0xbe75f505	-0.24019249
233	0xbeb98b0b	-0.36238894
234	0xbe9de98c	-0.30842245
235	0xbe9ea7d3	-0.30987415
236	0xbd805abf	-0.062673084
237	0x3c6ef800	0.014585495
238	0xbea97547	-0.33097288
239	0xbeb429d3	-0.3518816
240	0xbeaa342d	-0.33242932
241	0xbd120ad3	-0.035654854
242	0x3dc3eb7d	0.095664
243	0xbe8619f5	-0.2619168
244	0x3dc98be0	0.09841132
245	0xbe8bb39e	-0.27285475
246	0xbe8e253d	-0.27762786
247	0x3d28624a	0.04110936
248	0x3c8c99f3	0.017163252
249	0xbda0b8a0	-0.078477144
250	0xbeb80432	-0.359407
251	0xbea60cf4	-0.32431757
252	0x3ac50b33	0.0015033245
253	0xbe863c84	-0.26218045
254	0x3d1db73d	0.038504828
255	0x3da27878	0.07933134

bias f4 [100]
0	0xbe974643	-0.29545793
1	0x3d98048a	0.07422741
2	0xbe6a5dc7	-0.22887336
3	0x3d9315a0	0.07181859
4	0x3ce0a76d	0.027423585
5	0xbe727835	-0.23678668
6	0xbaf18933	-0.0018427729
7	0xbd58f790	-0.05297047
8	0xbe4f3b3d	-0.20237441
9	0xbd30c947	-0.043160703
10	0x3c0153c0	0.007893503
11	0xbd5235d7	-0.051320877
12	0xbd2d7597	-0.04234847
13	0xbeaab563	-0.33341512
14	0xbe873358	-0.2640636
15	0xbe36f96f	-0.17868589
16	0x3cfeb0a7	0.031090094
17	0xbe917eb4	-0.2841698
18	0xbe4ab6cf	-0.19796298
19	0xbe6a6570	-0.22890258
20	0xbd2f6de3	-0.042829406
21	0xbd9793af	-0.07401215
22	0xbe234714	-0.15945083
23	0xbdb9c212	-0.09070219
24	0xbd9e126d	-0.07718358
25	0xbec3bd92	-0.38230568
26	0xbe953af8	-0.29146552
27	0xbd8a95a0	-0.0676682
28	0xbe983060	-0.29724407
29	0xbd336f23	-0.04380716
30	0xbe64a6bc	-0.22329229
31	0xbdb68f98	-0.08914107
32	0xbd9a9472	-0.07547845
33	0xbec8f2de	-0.39247793
34	0xbdb47918	-0.08812159
35	0xbe515004	-0.2044068
36	0xbebd2f40	-0.3695011
37	0xbea4ed49	-0.32212284
38	0xbeb3dca0	-0.3512926
39	0xbcdcb8b3	-0.02694354
40	0xbea3be23	-0.31981
41	0x3d8260a3	0.06366088
42	0xbeb0699b	-0.3445557
43	0xbe949d5f	-0.29026315
44	0x3d68dc3d	0.05685066
45	0xbe566645	-0.2093745
46	0xbe6021ea	-0.21887937
47	0xbe812d6d	-0.2522997
48	0xbe7945bc	-0.24343008
49	0xbd54819a	-0.05188141
50	0xbe9ec0ae	-0.31006378
51	0xbe93f5f4	-0.28898585
52	0xbe95c577	-0.29252216
53	0xbea13811	-0.31488088
54	0xbe8143e6	-0.25247115
55	0xbc969af7	-0.01838444
56	0xbe0a2de9	-0.13494076
57	0xbd0c990a	-0.034325637
58	0xbe9c0a49	-0.30476597
59	0xbdc15df0	-0.09441745
60	0xbe45e8f6	-0.19327149
61	0xbe92ad60	-0.286479
62	0xbdbee068	-0.09320146
63	0xbe644f11	-0.22295786
64	0xbd1d1c40	-0.03835702
65	0xbeb8b0fb	-0.36072525
66	0xbee23a47	-0.44185087
67	0xbd76ad9a	-0.060224153
68	0xbe802ccf	-0.25034186
69	0xbe5c59b7	-0.21518598
70	0xbe7369e5	-0.23770864
71	0xbd256c60	-0.040386558
72	0xbe3e272e	-0.18569633
73	0xbd8bd63b	-0.068279706
74	0xbe60a95d	-0.21939607
75	0xbc88013a	-0.016602147
76	0xbd383383	-0.044971
77	0xbe9ed67a	-0.31023008
78	0xbe56d65a	-0.20980206
79	0xbea8542a	-0.32876712
80	0xbe68b409	-0.22724928
81	0xbe5edf1d	-0.21764798
82	0xbd939eb7	-0.07208007
83	0xbd97471b	-0.07386609
84	0xbe5c441a	-0.21510354
85	0xbe55b24e	-0.20868799
86	0xbe763b5e	-0.24046084
87	0xbe50820a	-0.20362106
88	0xbd875533	-0.06608047
89	0xbd5868a0	-0.052834153
90	0xbd19ea17	-0.03757676
91	0xbd6364fa	-0.05551622
92	0xbe8c4631	-0.27397302
93	0xbe873b9d	-0.2641267
94	0xbe926730	-0.2859435
95	0xbe32ef3e	-0.17474076
96	0xbea959cd	-0.33076325
97	0xbe5c0d44	-0.21489435
98	0xbe730adb	-0.2373461
99	0xbe72d1e0	-0.23712873

weight f4 [100, 100]
0	0x3d9e3c9b	0.07726403
1	0xbbaf8f67	-0.005357671
2	0x3dc101da	0.09424181
3	0x3d588c83	0.052868377
4	0xbd7ab0fd	-0.061203945
5	0x3bec7bcd	0.0072169066
6	0xbd4740ba	-0.048645712
7	0x3c9b07da	0.018924642
8	0xbd775920	-0.06038773
9	0xbd182ffa	-0.03715513
10	0xbd289d77	-0.041165795
11	0xbdc6732a	-0.096899346
12	0x3dbc0d1a	0.091821864
13	0xbd0c394a	-0.034234323
14	0xbcfafc00	-0.030637741
15	0xbb081f33	-0.002077055
16	0x3ae6ac67	0.0017598987
17	0xbdac02b7	-0.08398955
18	0x3ce3e66d	0.027819837
19	0xbd7f59e7	-0.062341597
20	0xbda2a737	-0.0794205
21	0xbd75e0ba	-0.06002877
22	0xbd9fb3cf	-0.07797968
23	0x3da070d2	0.07834019
24	0x3d1c9d0a	0.0382357
25	0x3db3764f	0.087628
26	0xbda4cf47	-0.080473475
27	0xbda29562	-0.07938649
28	0x3d227d30	0.03967017
29	0xbd3fbfaa	-0.046813644
30	0xbcfb114d	-0.030647898
31	0xbd70a667	-0.058752444
32	0xbdac5208	-0.08414084
33	0xbd714c1d	-0.058910478
34	0xbd80c963	-0.062884115
35	0x3d51dafd	0.051234234
36	0xbb2cfa33	-0.0026394248
37	0x3d7ff710	0.062491477
38	0x3db20d05	0.086938895
39	0x3d873ff3	0.06603994
40	0xbda6b077	-0.08139127
41	0x3d7015e7	0.058614638
42	0x3d694763	0.056952845
43	0xbd39827d	-0.04529046
44	0xbcac8ac0	-0.021062255
45	0x3d09ad9a	0.033612825
46	0xbc275633	-0.010213423
47	0xbd7a84d0	-0.061161816
48	0xbc912b8d	-0.017720962
49	0xbce20c47	-0.027593745
50	0x3d7a95e3	0.0611781
51	0x3d326e20	0.043562055
52	0x3d800713	0.06251349
53	0xbb8aa7b3	-0.004231417
54	0xbdba70fa	-0.0910358
55	0x3dc7f453	0.09763398
56	0x3b4aad67	0.003092611
57	0x3d2eaed7	0.04264721
58	0xbd684bf7	-0.05671307
59	0xbba2494d	-0.004952586
60	0x3cdaaae0	0.026692808
61	0xbd26975a	-0.040671684
62	0xbd62d3ca	-0.05537776
63	0x3ce63e07	0.028105749
64	0x3da46fb2	0.08029117
65	0x3d9fcaa7	0.07802325
66	0x3d0b71d0	0.034044087
67	0x3c0b810d	0.008514655
68	0x3d381a6a	0.044947065
69	0xbcffe5e7	-0.031237556
70	0x3d9df09f	0.077119105
71	0x3d581e63	0.052763354
72	0xbdcc3488	-0.09970957
73	0x3dbabd70	0.091181636
74	0x3b9a37cd	0.004706359
75	0xbd9ad95d	-0.0756099
76	0xbd1cbc73	-0.038265657
77	0xbebf2ac3	-0.37337312
78	0xbdaafc3f	-0.083488934
79	0x3cccf54d	0.025019312
80	0xbd09c300	-0.033633232
81	0xbda83782	-0.08213712
82	0x3d1e4257	0.038637485
83	0x3d6ea1fa	0.05825994
84	0x3dc954b7	0.09830611
85	0xbda712c0	-0.08157873
86	0x3d4852c7	0.048907068
87	0x3d91bfaf	0.07116639
88	0xbb21299a	-0.0024591447
89	0x3d9e00a0	0.07714963
90	0x3dbaf668	0.091290295
91	0xbda5db48	-0.08098465
92	0x3d4dcefd	0.050246228
93	0x3cc33920	0.02383095
94	0x3c3960a7	0.011314548
95	0x3d96f9f7	0.07371896
96	0x3baff000	0.0053691864
97	0xbd188b93	-0.037242483
98	0x3daee5f5	0.085399546
99	0x3d6d57ad	0.057944942
100	0x3d46b250	0.048509896
101	0xbcdc8d40	-0.026922822
102	0xbdaad3b0	-0.083411574
103	0xbc6468a7	-0.013940967
104	0xbc99732d	-0.018731678
105	0xbca4b9f3	-0.020108199
106	0xbd51091a	-0.05103407
107	0x3d930e1d	0.07180426
108	0xbc8849c0	-0.01663673
109	0xbdc89e93	-0.09795871
110	0xbd834f7f	-0.06411647
111	0xbdca9be8	-0.09893018
112	0x3d62ab3d	0.055339087
113	0xbc3bf90d	-0.011472953
114	0xbd50c60d	-0.050970126
115	0xbd9d10c3	-0.07669213
116	0x3d479cf7	0.048733678
117	0xbdb101aa	-0.086428955
118	0xbdba4655	-0.09095446
119	0xbc13a180	-0.009010673
120	0x3d7491a7	0.059709217
121	0xbda1b780	-0.07896328
122	0xbd849672	-0.06474008
123	0x3d040e1d	0.032240022
124	0xbdc6f302	-0.09714319
125	0x3d8813a8	0.06644374
126	0x3d5af553	0.053456616
127	0x3d47e433	0.048801612
128	0x3dae53a0	0.08512044
129	0x3db1eb7a	0.08687492
130	0xbd3d2eb0	-0.046187103
131	0x3d6761b3	0.056489658
132	0x3d5fabcd	0.0546072
133	0x3d397200	0.045274734
134	0xbcdf9a53	-0.027295267
135	0xbd61652a	-0.05502812
136	0xbd84f57f	-0.06492137
137	0x3cafcd00	0.021460056
138	0xbb338d67	-0.0027397515
139	0x3ba5df33	0.005062008
140	0x3db76cfa	0.089563325
141	0xbda6673a	-0.08125158
142	0x3cbd82d3	0.02313367
143	0x3c9371ed	0.01799866
144	0xbb913d9a	-0.0044323923
145	0x3d879417	0.06620043
146	0x3d84f5a2	0.06492163
147	0xbd89e275	-0.067326464
148	0x3c91aaa0	0.017781556
149	0xbd767e0d	-0.060178805
150	0xbd627bd3	-0.05529387
151	0xbdab1aa0	-0.08354688
152	0x3d18b670	0.03728336
153	0xbc27958d	-0.010228527
154	0xbd8214e5	-0.063516416
155	0xbca2a833	-0.019855594
156	0xbbf1a19a	-0.0073740007
157	0x3d1ac223	0.0377828
158	0x3dae47d7	0.08509796
159	0xbd87fb82	-0.06639768
160	0xbbccc567	-0.006249118
161	0x3dc63b48	0.09679276
162	0x3d870c03	0.06594088
163	0x3d3ccca0	0.046093583
164	0xbcf689fa	-0.03009509
165	0x3c8ece53	0.017432367
166	0x3bdebdb3	0.0067975163
167	0x3ac07f9a	0.0014686466
168	0x3d85a708	0.06525999
169	0xbd0b8773	-0.03406472
170	0xbcc9ea2d	-0.024647797
171	0x3d8ebe1b	0.069698535
172	0x3ccfe4a0	0.025377572
173	0xbdc2719d	-0.09494326
174	0xbca0a5ed	-0.01961037
175	0x3d8a29f5	0.06746284
176	0x3d783497	0.06059703
177	0xbe7f1ef5	-0.24914153
178	0xbd7008e7	-0.05860224
179	0xbd990692	-0.07471956
180	0x3d02d28d	0.031939078
181	0x3d9d2ad2	0.07674183
182	0x3da76bf0	0.08174884
183	0x3d1d5f5d	0.038421024
184	0x3d71cacd	0.059031297
185	0xbd8d5f6f	-0.06902968
186	0x3cc4e7ad	0.024036253
187	0xbc28d7cd	-0.010305357
188	0xba92639a	-0.00111686
189	0x3d41708a	0.047226466
190	0xbd996c32	-0.0749134
191	0x3c1e0bc0	0.009646356
192	0xbd0f818d	-0.03503566
193	0x3d4d9177	0.050187554
194	0xbdb6dc60	-0.08928752
195	0xbd61f46d	-0.055164743
196	0xbd924953	-0.07142892
197	0x3d995da7	0.07488566
198	0x3d7ee950	0.062234223
199	0x3da9d365	0.082922734
200	0xbe6aba4b	-0.22922628
201	0x3cf98fed	0.030464137
202	0x3ea04353	0.31301364
203	0x3ce4da53	0.027936136
204	0x3c83693a	0.016041387
205	0xbe883052	-0.26599365
206	0xbd9a9307	-0.075475745
207	0x3d9d90d0	0.076936364
208	0xbeca943d	-0.39566222
209	0x3d8eddf3	0.06975927
210	0xbe77221c	-0.24134105
211	0x3cd460ba	0.02592503
212	0x3d1971b3	0.037461948
213	0xbe9cacd7	-0.30600616
214	0xbe8dd420	-0.277009
215	0xbe8fef7d	-0.28112403
216	0xbd502cc7	-0.050823953
217	0xbd76943d	-0.060199965
218	0xbe5cf8dd	-0.21579309
219	0x3e9d8a17	0.30769417
220	0xba86ec00	-0.0010293722
221	0x3cdb504d	0.026771689
222	0xbe0ad39b	-0.13557284
223	0xbbfde21a	-0.0077479007
224	0xbd44aac7	-0.04801443
225	0x3e6929d4	0.22769862
226	0xbe14cd94	-0.14531547
227	0xbdb4f727	-0.08836203
228	0x3eb2b8da	0.34906656
229	0x3db33c60	0.0875175
230	0x3eb5027a	0.35353452
231	0xba4a4667	-0.0007716179
232	0xbc54c440	-0.012986243
233	0xbe71dda0	-0.236197
234	0xbd59cc6d	-0.05317347
235	0xbe453717	-0.19259296
236	0x3e89e984	0.2693597
237	0xbe7d4aa0	-0.24735498
238	0x3e8e655e	0.27811712
239	0xbd88ad18	-0.0667364
240	0xbea1dbb5	-0.31612936
241	0x3d70e15d	0.058808673
242	0x3eac6a6a	0.33674937
243	0xbe98db3a	-0.29854757
244	0xbd852c25	-0.065025605
245	0x3e8f1193	0.27943096
246	0x3e94d710	0.2907033
247	0xbe831ac6	-0.25606364
248	0x3d89b1f2	0.067233935
249	0x3be37767	0.006941724
250	0x3e8c0d0d	0.27353707
251	0x3e96c4b3	0.29446945
252	0xbe3a8478	-0.18214595
253	0xbebda233	-0.3703781
254	0x3e4ecdcd	0.20195694
255	0xbda485f7	-0.08033364

bias f4 [100]
0	0xbf0f9bf4	-0.5609734
1	0xbf04458c	-0.5166862
2	0xbe4ace61	-0.1980529
3	0xbe8f27eb	-0.27960142
4	0xbe800e74	-0.25011027
5	0xbe76cf47	-0.24102508
6	0xbb784606	-0.0037883534
7	0xbe6ed40f	-0.23323081
8	0xbe8b42b2	-0.27199322
9	0xbe4c671e	-0.19961211
10	0x3aaafd34	0.0013045431
11	0xbe21ce4c	-0.15801352
12	0xbe9e195c	-0.30878723
13	0xbe91a139	-0.28443316
14	0xbe8a6b00	-0.2703476
15	0xbe804f06	-0.2506029
16	0xbe81e709	-0.25371578
17	0xbe7ba441	-0.24574377
18	0xbdbc06b5	-0.09180967
19	0xbe80ee83	-0.2518197
20	0xbeb82c32	-0.35971218
21	0xbdaa16ea	-0.08305152
22	0xbead28f1	-0.33820298
23	0xbe97091b	-0.29499134
24	0xbe2cd652	-0.16878632
25	0xbe86ca01	-0.26325992
26	0xbe658d57	-0.22417198
27	0xbeb841af	-0.35987613
28	0xbe6a2244	-0.22864634
29	0xbe5483a6	-0.20753345
30	0xbeb74aab	-0.35799155
31	0xbe829909	-0.25507382
32	0xbe8eb561	-0.27872756
33	0xbe4e4ab4	-0.20145684
34	0xbe9e3934	-0.30903018
35	0xbd5aa49e	-0.053379647
36	0xbda753fb	-0.08170315
37	0xbe6aa901	-0.22916032
38	0xbe48969c	-0.19588703
39	0xbeb55aed	-0.35420933
40	0xbda49918	-0.08037013
41	0xbe32af02	-0.17449573
42	0xbea88a61	-0.32918075
43	0xbd8bc533	-0.06824722
44	0xbececab7	-0.40389034
45	0xbeadb898	-0.33929896
46	0xbd7b3c90	-0.061337054
47	0xbeb01f2c	-0.34398782
48	0xbe540c04	-0.20707709
49	0xbe5b9963	-0.21445231
50	0xbe1aabf1	-0.15104653
51	0xbeca604c	-0.39526594
52	0xbcc7281a	-0.024311114
53	0xbea8e41b	-0.3298653
54	0xbeaa4d48	-0.33262086
55	0x3c6d2103	0.014473203
56	0xbeb26a2e	-0.34846634
57	0xbeabe7dd	-0.33575335
58	0xbe8dbc42	-0.27682692
59	0xbea25baa	-0.3171056
60	0x3b2944d9	0.002582839
61	0xbd62d180	-0.055375576
62	0xbea39570	-0.3194995
63	0xbeac7620	-0.33683872
64	0xbe903de5	-0.28172222
65	0xbe3bca26	-0.18338832
66	0xbd74ee20	-0.059797406
67	0xbeaf1acf	-0.3420014
68	0xbe8ba969	-0.27277687
69	0xbd4f650b	-0.05063347
70	0xbdc4dfd5	-0.09613005
71	0xbe80e760	-0.25176525
72	0xbe7d9148	-0.24762452
73	0xbe85c914	-0.26129973
74	0xbe374745	-0.17898281
75	0xbe979e3f	-0.2961292
76	0xbd21c3d0	-0.039493382
77	0x3e1cf9f9	0.15329732
78	0xbe52d018	-0.20587194
79	0x3c7fb7ba	0.015607769
80	0xbb07f8a7	-0.0020747574
81	0xbe84c944	-0.25934803
82	0xbe885581	-0.26627734
83	0xbe56a716	-0.20962176
84	0xbea565ee	-0.3230433
85	0xbe8d611d	-0.27613154
86	0xbe954abd	-0.29158583
87	0xbe71dc1f	-0.23619126
88	0xbe9ea334	-0.3098389
89	0xbe8fec85	-0.28110138
90	0xbd12084f	-0.035652455
91	0xbe7c3dbf	-0.2463293
92	0xbe82b22d	-0.25526562
93	0xbe585abf	-0.21128367
94	0xbe5496c3	-0.20760636
95	0xbd92175d	-0.071333624
96	0xbe82e51c	-0.25565422
97	0xbddb2889	-0.10701091
98	0xbe53c47c	-0.20680422
99	0xbe5aa5c6	-0.213523

weight f4 [100, 100]
0	0xbec38f7c	-0.38195407
1	0xbf52d264	-0.8235228
2	0xbdff6b13	-0.12471595
3	0x3d26acbc	0.040692076
4	0x3e81b39e	0.2533235
5	0xbe2db323	-0.16962866
6	0x3c0e367c	0.008679982
7	0xbe368393	-0.17823629
8	0xbe5bc2e0	-0.21461058
9	0xbe731aeb	-0.23740737
10	0x3cd1060a	0.025515575
11	0xbe6318e0	-0.22177458
12	0x3e932b27	0.2874386
13	0xbe5483ae	-0.20753357
14	0xbe8b7893	-0.27240428
15	0x3e688d7b	0.2271022
16	0xbe495bc9	-0.1966392
17	0xbe332d91	-0.17497851
18	0x3be70867	0.007050562
19	0x3eb19f95	0.34692064
20	0xbd463428	-0.048389584
21	0xbd49db83	-0.04928161
22	0xbe9d5ce4	-0.30734932
23	0x3e90be89	0.28270367
24	0x3e4d2b4a	0.20036045
25	0x3e9898da	0.29804116
26	0x3e8d0aab	0.27547202
27	0xbeb96ee3	-0.36217412
28	0x3ea0368a	0.3129161
29	0x3ea3500a	0.31897002
30	0xbe7532b0	-0.23945117
31	0xbe906542	-0.28202254
32	0xbe96fe25	-0.29490772
33	0x3e911e73	0.28343543
34	0x3e1833b6	0.14863476
35	0xbe850d54	-0.2598673
36	0x3d5ae410	0.053440154
37	0x3e9a843c	0.30179012
38	0xbe5c402c	-0.21508855
39	0xbe353f86	-0.17700014
40	0x3da697cb	0.08134421
41	0xbe0859cd	-0.13315506
42	0xbe491654	-0.19637424
43	0x3d5bb7dd	0.053642143
44	0xbe19ad58	-0.15007532
45	0x3e527d3f	0.2055559
46	0x3c41c180	0.011825919
47	0x3eb69bfd	0.35665885
48	0xbe62af73	-0.22137241
49	0xbe3175e2	-0.17330125
50	0xbe9942c5	-0.29933754
51	0x3e984303	0.29738626
52	0x3dc971b0	0.09836137
53	0x3e5654bc	0.20930761
54	0xbe95c9a9	-0.29255417
55	0x3dccc044	0.09997609
56	0x3e518c87	0.20463763
57	0x3e85d6cb	0.26140437
58	0x3e1a925a	0.15094891
59	0xbe58af5d	-0.21160646
60	0x3d04ea3c	0.032449946
61	0x3b4812cd	0.0030528784
62	0x3ec2f589	0.38077953
63	0xbe82850e	-0.25492138
64	0x3e88478f	0.26617095
65	0xbe8ddbce	-0.2770676
66	0xbd2aa64d	-0.041662503
67	0x3ec5f74d	0.38665238
68	0x3e69d5d5	0.22835477
69	0xbe263679	-0.16231717
70	0xbe8a5af1	-0.27022508
71	0x3eb581aa	0.35450488
72	0xbe749a87	-0.23887073
73	0x3e8712fa	0.26381665
74	0xbe85b0ea	-0.26111537
75	0x3e80d059	0.25158957
76	0xbe553ca2	-0.20823911
77	0x3ebe5ea0	0.37181568
78	0x3ec00646	0.37504786
79	0x3de2517c	0.11050698
80	0x3c24a1c4	0.010048334
81	0xbe80855d	-0.25101748
82	0xbdd4d425	-0.10392026
83	0x3eb5267d	0.35380927
84	0x3e9731a1	0.2953005
85	0x3eb34879	0.3501623
86	0x3e597cc1	0.21238996
87	0x3e958410	0.29202318
88	0xbe2f3233	-0.17108993
89	0xbea5a864	-0.32355034
90	0xbe541a97	-0.20713268
91	0xbe8b6481	-0.27225116
92	0x3ec2028c	0.37892568
93	0xbe5a5392	-0.21320942
94	0x3ea645e2	0.3247519
95	0xbd3e1eba	-0.046416022
96	0x3eb36fa9	0.35046127
97	0xbdbbecb2	-0.091760054
98	0x3eccad31	0.39975885
99	0x3eba7697	0.36418602
100	0x3ec47a5c	0.38374603
101	0x3eccebf2	0.40023762
102	0x3e1ec5f0	0.15505195
103	0x3cf71dce	0.03016558
104	0xbe91b7cc	-0.28460538
105	0x3e152698	0.14565504
106	0xbc73ddb8	-0.014884405
107	0x3e30612a	0.17224565
108	0xbea6d361	-0.32583144
109	0x3e6442eb	0.22291152
110	0xbd2d5ea4	-0.042326584
111	0x3e8255d3	0.25456104
112	0xbe2108d5	-0.15726025
113	0x3e8af6d8	0.27141452
114	0x3e8dc0bc	0.27686107
115	0xbeaaae45	-0.33336082
116	0x3e090cb5	0.13383754
117	0x3e5a3bc6	0.21311864
118	0xbdab9463	-0.08377912
119	0xbe93e087	-0.28882238
120	0x3e16fcdb	0.14744894
121	0x3dbb70d3	0.09152379
122	0x3e500a4d	0.2031643
123	0xbe5cf216	-0.21576723
124	0xbe13872a	-0.1440703
125	0xbeb83129	-0.35975006
126	0xbe921960	-0.28534985
127	0x3e73fcc0	0.23826885
128	0xbeba8285	-0.36427703
129	0xbe8b8a6c	-0.27254045
130	0x3eb8343a	0.35977346
131	0x3eacf978	0.3378408
132	0xbe655233	-0.22394638
133	0xbe7bb9a0	-0.24582529
134	0xbd2925a5	-0.041295666
135	0x3e3d860c	0.18508166
136	0x3da20d87	0.079127364
137	0xbe8be5bd	-0.27323714
138	0x3e93e54a	0.2888587
139	0x3e282f3e	0.16424271
140	0x3cbea907	0.023273958
141	0x3e586246	0.21131238
142	0x3e8d1f92	0.2756315
143	0xbd95364b	-0.07285746
144	0xbe524dd0	-0.20537496
145	0xbea54a7f	-0.32283399
146	0xbd0b92f7	-0.034075703
147	0xbe5e5452	-0.21711853
148	0x3e05eff3	0.13079815
149	0x3e704c3b	0.2346658
150	0x3e866efc	0.2625655
151	0xbe8fed69	-0.28110817
152	0x3d8cfcf3	0.06884184
153	0xbe9367f2	-0.2879024
154	0x3eae409e	0.34033674
155	0xbe226755	-0.1585973
156	0xbebbc054	-0.36670172
157	0xbec5bfee	-0.38622993
158	0xbdf099a3	-0.11748054
159	0x3e613aa4	0.21995026
160	0xbd541572	-0.051778264
161	0x3cb2f9ed	0.02184769
162	0xbec1a8ff	-0.37824246
163	0x3e51f521	0.20503666
164	0xbeab5ced	-0.33469334
165	0x3e04d53d	0.12971969
166	0xbd805493	-0.06266131
167	0xbea50a86	-0.3223459
168	0xbe80e428	-0.2517407
169	0x3e7937a8	0.24337637
170	0x3e825e7c	0.2546271
171	0xbea3e682	-0.320118
172	0x3e2b65de	0.16738078
173	0xbeb9adb7	-0.36265346
174	0x3e0c8fff	0.13726805
175	0xbe717677	-0.23580347
176	0x3e9f30c2	0.31091887
177	0xbec5f661	-0.38664535
178	0xbe8d2805	-0.27569595
179	0xbe2f723b	-0.17133419
180	0xbc7b27b9	-0.015329295
181	0x3e90e545	0.2829992
182	0x3e0c9506	0.13728723
183	0xbe884f0c	-0.26622808
184	0xbe934f7b	-0.28771576
185	0xbea72ca6	-0.32651252
186	0xbe73e3fb	-0.23817436
187	0xbe8b07c5	-0.27154365
188	0x3ea50483	0.32230005
189	0xbe51f663	-0.20504145
190	0x3d2b30f8	0.041794747
191	0x3e9ff584	0.31242
192	0xbe665967	-0.22495042
193	0x3e4fecf3	0.20305233
194	0xbead00a3	-0.33789548
195	0x3cb0613a	0.021530736
196	0xbe7398ef	-0.23788808
197	0xbb133afc	-0.0022465577
198	0xbe8a552e	-0.27018112
199	0xbe824e0a	-0.25450164
200	0xbf049463	-0.5178892
201	0x3e9d80bb	0.30762276
202	0x3e35a552	0.17738846
203	0x3e069140	0.13141346
204	0xbe9bc509	-0.30423763
205	0x3e2e2f8c	0.17010325
206	0xbb58efa9	-0.0033101833
207	0x3e220bb0	0.15824771
208	0xbecae622	-0.39628702
209	0x3e95df09	0.29271725
210	0xbda09344	-0.07840589
211	0x3e6ea4fb	0.23305123
212	0xbd909d14	-0.0706121
213	0xbe884a4b	-0.2661918
214	0x3e89db5a	0.26925164
215	0xbea282b1	-0.31740335
216	0x3e8f2a84	0.27962124
217	0x3e6948c6	0.22781667
218	0x3bd6e833	0.006558442
219	0xbebc241f	-0.36746308
220	0x3d2460ce	0.040131383
221	0xbdab6232	-0.08368339
222	0x3ea65368	0.3248551
223	0xbe5d9579	-0.2163905
224	0xbdaa7730	-0.083235145
225	0xbe86c277	-0.2632024
226	0xbeb19a89	-0.34688213
227	0x3e9f21fd	0.31080619
228	0xbe8497a3	-0.2589694
229	0xbe53b98b	-0.20676248
230	0x3e4928a8	0.19644415
231	0x3e5eed74	0.21770269
232	0xbe9e71fb	-0.30946335
233	0xbe60dfee	-0.21960422
234	0xbdeb5946	-0.11491637
235	0x3eb09294	0.3448683
236	0xbd18006a	-0.03710977
237	0xbea14be9	-0.31503227
238	0x3e76f876	0.24118218
239	0x3e704960	0.2346549
240	0x3d9cbb82	0.07652952
241	0x3e96f946	0.29487056
242	0x3e4abbf0	0.19798255
243	0xbd388a37	-0.045053687
244	0xbeb6fdb1	-0.35740426
245	0xbe72ae79	-0.23699369
246	0x3ad1cf33	0.0016007185
247	0xbe604ed3	-0.21905069
248	0x3e717d31	0.23582913
249	0x3e0534b2	0.13008383
250	0x3e440f98	0.19146574
251	0xbe6b2168	-0.22961962
252	0xbcb38327	-0.021913124
253	0xbebfa879	-0.37433222
254	0x3e82a61f	0.25517365
255	0xbe4c58ce	-0.19955751

bias f4 [100]
0	0xbdaeaaba	-0.08528657
1	0x3da92758	0.08259457
2	0x3d9596e6	0.07304172
3	0xbd565df8	-0.05233571
4	0xbd8b2780	-0.067946434
5	0xbdd04a04	-0.10170367
6	0xbdcb1c50	-0.099175096
7	0x3d2e3db6	0.04253932
8	0x3d4b9231	0.049699966
9	0x3d4e6510	0.05038935
10	0xbdc7d0f0	-0.097566485
11	0xbdeb64f2	-0.11493863
12	0xbdd7370e	-0.10508548
13	0xbdc225c7	-0.09479862
14	0x3d7d48d7	0.061837044
15	0xbc105c7e	-0.008811114
16	0xbd80f523	-0.06296756
17	0x3dbdd3ab	0.09268888
18	0xbdaff317	-0.085912876
19	0xbdb6e57e	-0.08930491
20	0x3dd8b6e9	0.10581762
21	0xbc81e5b5	-0.015856603
22	0xbdcbc607	-0.0994988
23	0x3d800d6a	0.062525585
24	0xbd6e8ee8	-0.058241755
25	0xbda55988	-0.08073717
26	0x3d50f305	0.05101301
27	0xbd4a02b6	-0.04931899
28	0x3d9a35d3	0.075297974
29	0x3de57238	0.11203426
30	0xbdc111e3	-0.0942724
31	0xbd28ca1e	-0.04120838
32	0x3d83f93f	0.06444024
33	0x3d859e89	0.06524379
34	0xbdd91dc6	-0.10601382
35	0x3d9ce351	0.07660545
36	0x3d4997f4	0.04921718
37	0x3da33110	0.07968342
38	0xbdac1ee5	-0.0840433
39	0xbdc46aa3	-0.09590652
40	0x3c32c0a5	0.010910188
41	0xbd86601e	-0.06561302
42	0x3dbf01db	0.09326526
43	0x3d2df6bb	0.04247163
44	0xbda6584e	-0.081223115
45	0x3dc3e407	0.09564977
46	0x3da50371	0.08057297
47	0x3d8b3462	0.067971006
48	0xbda4e3c7	-0.080512576
49	0x3da7d0a0	0.08194089
50	0x3dc465c0	0.0958972
51	0x3cf2251e	0.029558714
52	0xbd2f42c5	-0.042788286
53	0x3d8d2eb7	0.06893676
54	0x3d4621d0	0.04837209
55	0x3d61db47	0.05514076
56	0x3dab9f1e	0.083799586
57	0x3d1c7804	0.038200393
58	0xbde062aa	-0.10956319
59	0xbdbe3a43	-0.09288456
60	0xbcf828cc	-0.030292891
61	0xbd45ac8e	-0.048260264
62	0x3da680c9	0.081300326
63	0x3db5889e	0.08863948
64	0x3d7e4eb8	0.06208679
65	0x3d8698b2	0.06572093
66	0xbd22f672	-0.03978581
67	0xbdd560ed	-0.10418878
68	0x3d90ccde	0.07070325
69	0x3d916ef2	0.07101239
70	0x3da66063	0.08123853
71	0x3dd31dec	0.103084415
72	0xbdc8563b	-0.09782072
73	0xbd9820e9	-0.07428152
74	0xbd30d4ad	-0.043171573
75	0x3dc74c9b	0.09731408
76	0x3d750e30	0.059827983
77	0xbd9764db	-0.073922835
78	0x3d909024	0.07058743
79	0x3de2a605	0.11066822
80	0xbd8bde83	-0.0682955
81	0x3d6dd017	0.058059778
82	0x3d91c3eb	0.071174465
83	0x3d871d21	0.06597353
84	0xbdcef162	-0.10104634
85	0xbd563dc1	-0.052304987
86	0x3d4403a4	0.047855034
87	0xbdc9c5d9	-0.098521896
88	0x3de13425	0.10996274
89	0xbd886e91	-0.06661714
90	0xbd4b64db	-0.04965673
91	0x3dd22125	0.10260228
92	0xbd818a5f	-0.0632522
93	0x3dc271be	0.09494351
94	0x3dbc3d8d	0.091914274
95	0xbda4a616	-0.08039491
96	0xbdbdd3c3	-0.09268906
97	0x3d758048	0.05993679
98	0x3d634a26	0.055490635
99	0xbda2d7b3	-0.079512976
