model_weights_with_Jacobian.pth (torch, 55696 bytes, 6 tensors)

fc1.weight f4 [80, 2]
0	0x3dcdc320	0.10046983
1	0xbcebb7c9	-0.028774159
2	0x3ea99a71	0.33125642
3	0xbf146deb	-0.5798022
4	0x3dc573be	0.09641217
5	0xbf3d6621	-0.7398396
6	0x3d017582	0.031606205
7	0xbeac7d75	-0.33689466
8	0xbf2b014c	-0.66798854
9	0x3f163fea	0.58691275
10	0xbeacf4b7	-0.33780453
11	0xbe960911	-0.29303792
12	0x3d85ddb5	0.06536428
13	0x3e3bb475	0.18330558
14	0xbde7a5a6	-0.11310892
15	0x3e9afa9d	0.30269328
16	0xbed30ce1	-0.41220763
17	0x3e81bf6a	0.2534135
18	0x3f042740	0.5162239
19	0xbf5e1c64	-0.8676207
20	0x3f0001c3	0.5000269
21	0xbf77de60	-0.9682369
22	0x3e0a543d	0.13508697
23	0x3f03a025	0.51416236
24	0x3f48b63b	0.7840306
25	0xbf8ad6f9	-1.0846854
26	0xbe9a99e7	-0.30195543
27	0xbe1988cc	-0.1499359
28	0xbf01af9c	-0.50658584
29	0xbe437e58	-0.19091165
30	0xbf142165	-0.57863456
31	0x3e89b2d5	0.2689425
32	0x3f0014f9	0.50032
33	0x3d6551c6	0.05598619
34	0x3df68d22	0.12038638
35	0xbfdece95	-1.7406794
36	0x3e8e318c	0.27772176
37	0xbf0cf995	-0.5506833
38	0x3c8d4b2a	0.017247755
39	0x3e03a735	0.12856753
40	0x3d8bc769	0.06825144
41	0x3d0ba7ff	0.03409576
42	0x3e1bb166	0.15204391
43	0xbe127f27	-0.14306317
44	0x3eab4313	0.3344961
45	0x3e8472cc	0.25868833
46	0xbf22ef98	-0.6364684
47	0xbed5dc07	-0.4176943
48	0x3cc26f03	0.023734575
49	0x3e895f70	0.26830626
50	0x3f9c3f7a	1.2206872
51	0xc0192f56	-2.3935142
52	0xbf339785	-0.70153075
53	0xbd16df96	-0.036834322
54	0x3fc74cf6	1.5570362
55	0xbfbf5340	-1.4947281
56	0xbe47203c	-0.1944589
57	0x3f0a64b6	0.5405992
58	0xbeb2fad7	-0.34957
59	0x3f412456	0.7544607
60	0xbfd92a92	-1.6966116
61	0x3f4848e8	0.78236246
62	0x3f65a396	0.8970274
63	0xc0046be9	-2.0690863
64	0x3f6e45aa	0.9307505
65	0xbfa492f5	-1.2857348
66	0x3f8d2319	1.1026336
67	0xbd4a87ff	-0.049446102
68	0x3d8bd2b8	0.06827301
69	0x3ea76c56	0.3269984
70	0x3d706def	0.05869859
71	0x3e9b303e	0.30310243
72	0x3ee65589	0.44987133
73	0xbf0d472f	-0.5518674
74	0x3eef82ad	0.46779385
75	0xbdd8d84d	-0.10588131
76	0x3ec846bb	0.39116463
77	0xbf4de009	-0.80419976
78	0x3f9b2673	1.2121109
79	0xbf99c97e	-1.2014616
80	0xbe4ff9c3	-0.2031012
81	0xbda1a1c9	-0.07892186
82	0x3e91f96e	0.28510612
83	0xbf53c28b	-0.82718724
84	0xbdd559db	-0.10417529
85	0x3e474dee	0.19463322
86	0x3f88d1b7	1.0689
87	0x3ea2f1c2	0.31825072
88	0x3e0f6721	0.14004184
89	0xbf807af5	-1.0037524
90	0x3d1e9481	0.038715843
91	0xbd9f619b	-0.07782289
92	0xbe53fd8e	-0.20702192
93	0xbef5adf0	-0.47984266
94	0xbcdb5f20	-0.026778758
95	0xbe055dae	-0.13024017
96	0x3dae64be	0.08515309
97	0xbee6c7e8	-0.4507439
98	0x3eaff694	0.34367812
99	0xbc852231	-0.016251655
100	0x3f1acf2e	0.6047238
101	0xbd2737b7	-0.04082462
102	0xbdcfbfc1	-0.10143996
103	0x3ecc5a72	0.39912754
104	0x3ec0641d	0.3757638
105	0xbf29b8bb	-0.662975
106	0xbeca3fee	-0.395019
107	0x3ed49367	0.4151871
108	0xbebc31f3	-0.36756858
109	0x3f1f1208	0.6213689
110	0xbcaee0b9	-0.02134739
111	0x3de32093	0.110901974
112	0xbe5a366f	-0.21309827
113	0x3e89149b	0.26773533
114	0x3d96365e	0.073345885
115	0x3f19ffee	0.6015614
116	0x3e37060b	0.17873399
117	0x3e438265	0.1909271
118	0xbeb70eeb	-0.3575357
119	0x3f668dd5	0.9006017
120	0xbe052b53	-0.13004808
121	0xbf152d4b	-0.58272237
122	0xbe75b18f	-0.23993514
123	0x3e72d83d	0.23715301
124	0xbd5e8a2e	-0.054330997
125	0xbf070ee3	-0.5275709
126	0x3f89ebc3	1.0775074
127	0xbf8f6617	-1.120303
128	0x3e3e838a	0.18604866
129	0x3ecd1c7a	0.40060788
130	0xbf292ace	-0.6608094
131	0x3d4035e1	0.046926383
132	0xbe809b0f	-0.251183
133	0x3f007abc	0.5018728
134	0x3e103617	0.14083134
135	0xbf23e6aa	-0.6402384
136	0x3ee1c1a6	0.44093055
137	0x3ec7bdfc	0.39012134
138	0x3f8137e3	1.009518
139	0x3d9b0a19	0.07570285
140	0xbe8d6c94	-0.276219
141	0xbebc2e74	-0.3675419
142	0x3d8492ea	0.06473334
143	0x3c65e8bd	0.01403254
144	0xbf2c6fe4	-0.6735823
145	0xbe22bdac	-0.15892667
146	0xbeddde08	-0.4333346
147	0x3f1c8bc6	0.6115078
148	0x3dd63fd2	0.104613915
149	0x3f19a3ca	0.6001555
150	0x3f85619d	1.0420414
151	0xbfce7103	-1.6128238
152	0xbe9b7c0e	-0.30368084
153	0xbe8daf16	-0.27672642
154	0xbf3fbc1d	-0.74896413
155	0x3f3e8b0f	0.74430937
156	0x3e76047a	0.24025145
157	0x3f110f82	0.5666429
158	0xbd077c79	-0.03307769
159	0xbf215d95	-0.6303342

fc1.bias f4 [80]
0	0xbe521258	-0.2051481
1	0x3e9e4b40	0.30916786
2	0x3ea7cd73	0.32773933
3	0x3ea6193e	0.32441133
4	0xbe546456	-0.207414
5	0xbf28f54d	-0.659993
6	0xbec28875	-0.37994733
7	0x3eba43b4	0.36379778
8	0xbe9207f6	-0.285217
9	0x3e6fbdbe	0.23412225
10	0x3e18c280	0.14917946
11	0xbe8b0df1	-0.27159074
12	0x3e149601	0.14510347
13	0xbe68ab6d	-0.22721644
14	0xbcc07240	-0.023491979
15	0xbe89e7be	-0.26934618
16	0xbf2bb5b5	-0.6707414
17	0x3f224e11	0.6340037
18	0x3e5f3f54	0.21801502
19	0xbeb6479c	-0.3560151
20	0x3eafc893	0.34332713
21	0xbf226267	-0.634314
22	0xbf2e7f97	-0.68163437
23	0xbedf9ce1	-0.43674377
24	0xbe7a3ea3	-0.24437957
25	0x3ec22796	0.37920827
26	0xbe0bed25	-0.13664682
27	0xbf0e2759	-0.5552879
28	0xbf1eddfe	-0.62057483
29	0xbdf0d97f	-0.11760234
30	0x3e1f6004	0.15563971
31	0x3ebca017	0.3684089
32	0x3efe9ed7	0.4973056
33	0xbee8d81d	-0.4547738
34	0xbec87665	-0.39152828
35	0xbf145635	-0.5794404
36	0xbe2f4cc1	-0.17119123
37	0xbeb59bbd	-0.3547038
38	0x3e434e86	0.19072923
39	0xbde0986c	-0.10966572
40	0x3dc53795	0.09629742
41	0x3e1274cd	0.14302368
42	0xbe0522e6	-0.13001594
43	0xbf258c23	-0.64666957
44	0x3e71910b	0.23590486
45	0xbdb3b28e	-0.08774291
46	0x3eb8a1d5	0.36060968
47	0xbf0d8a00	-0.55288696
48	0x3ea40ca8	0.32040906
49	0xbee6c783	-0.4507409
50	0xbf1e9672	-0.6194831
51	0xbe14a690	-0.14516664
52	0x3e3623ba	0.17787066
53	0x3e5e26ef	0.2169454
54	0xbdab2349	-0.083563395
55	0xbe2af3e3	-0.16694598
56	0xbdc5b2ed	-0.09653268
57	0xbe92c383	-0.2866479
58	0xbe6a77dc	-0.22897285
59	0xbe1a1ce4	-0.15050083
60	0x3eb8124b	0.35951456
61	0x3e3b1264	0.18268734
62	0xbf10db23	-0.56584376
63	0xbe07345a	-0.13203564
64	0xbedeadd8	-0.43492007
65	0xbde5e1a0	-0.11224675
66	0xbf0fde4f	-0.5619859
67	0x3e89e015	0.26928774
68	0xbf028771	-0.5098792
69	0x3ef7c378	0.48391318
70	0x3e88876f	0.26665828
71	0xbef93669	-0.48674324
72	0xbf2a6c55	-0.6657155
73	0x3e463fc0	0.19360256
74	0xbe3737b0	-0.17892337
75	0x3e882b61	0.26595595
76	0xbef511af	-0.47865054
77	0x3eb30e85	0.34972015
78	0xbf1c5af7	-0.610763
79	0xbebf12bb	-0.37318978

fc2.weight f4 [80, 80]
0	0xbd70be4f	-0.058775242
1	0x3d5d98b2	0.0541007
2	0xbb3fd56b	-0.0029271494
3	0xbddc0cc9	-0.10744626
4	0xbd82c572	-0.06385316
5	0xbd53ed5a	-0.051740028
6	0xbdd472c1	-0.1037345
7	0x3c6a8df9	0.0143160755
8	0x3d232f0c	0.03983979
9	0xbca80bc4	-0.020513423
10	0xbd363cce	-0.04449158
11	0xba31be32	-0.00067803555
12	0xbdb5de8e	-0.088803396
13	0xbd8b6c17	-0.06807726
14	0xbb271ae3	-0.0025498203
15	0x3dcb6a2c	0.0993236
16	0xbd0cd28b	-0.034380477
17	0x3d62fc52	0.055416413
18	0xbd3439a1	-0.04400027
19	0xbcf3cf0f	-0.02976182
20	0xbdd9f84d	-0.10643063
21	0x3dbdb374	0.092627436
22	0x3ddef52a	0.10886605
23	0xbb19e4d6	-0.0023482344
24	0x3d917b96	0.0710365
25	0x3dbb496f	0.09144866
26	0x3d63785e	0.055534713
27	0x3d6bd9f5	0.057580907
28	0xbdd9fb01	-0.10643578
29	0xbdd728d8	-0.10505837
30	0xbdafbf0d	-0.08581362
31	0x3d0f3d39	0.034970496
32	0xbdc60e7e	-0.09670733
33	0xbdaec91c	-0.08534452
34	0xbd5df7d3	-0.05419142
35	0xbdd30a98	-0.10304755
36	0x391df6d7	0.00015064642
37	0x3c84225f	0.01612967
38	0xbd85fecc	-0.06542739
39	0x3d95ec80	0.073204994
40	0xbd2ddb6c	-0.042445585
41	0xbd00eca4	-0.031475678
42	0x3dae72f9	0.08518023
43	0x3dc495e0	0.09598899
44	0xbc5224b8	-0.012826137
45	0xbda45ffd	-0.08026121
46	0xbd65bcd9	-0.056088302
47	0x3c694224	0.014236961
48	0x3d8638f3	0.06553831
49	0x3d63fc81	0.05566073
50	0xbd4a38a2	-0.049370416
51	0xbdd876ba	-0.1056952
52	0xbdc862a6	-0.09784441
53	0xbd11b2d8	-0.03557095
54	0x3ab7d364	0.0014024791
55	0xbd4db2d0	-0.050219357
56	0xbdb50ce9	-0.08840353
57	0x3c410c3b	0.011782701
58	0xbdb5bed8	-0.08874291
59	0xbdafd58d	-0.085856535
60	0xbdba2499	-0.09089012
61	0xbcf82ecc	-0.030295752
62	0x3dca3e19	0.098751254
63	0x3d33052d	0.043706108
64	0xbc593173	-0.0132564185
65	0x3cbc804e	0.0230104
66	0x3d365bca	0.04452113
67	0x3a2ac23c	0.00065139285
68	0xbdb8af1d	-0.09017775
69	0xbd8d12c8	-0.06888348
70	0xbd9b8dbe	-0.075953946
71	0xbb3a0d97	-0.0028389448
72	0xbdd19a44	-0.10234502
73	0xbca6875d	-0.020328218
74	0xbd277552	-0.04088337
75	0x3de0b526	0.10972051
76	0x3dba1d75	0.0908765
77	0x3d850001	0.06494141
78	0x3bcd7622	0.006270186
79	0xbd14454c	-0.0361989
80	0x3ce99e0b	0.028517744
81	0x3f055493	0.52082175
82	0x3eba1983	0.3634759
83	0x3ea10808	0.3145144
84	0xbcd73188	-0.026268736
85	0xbdd8e82f	-0.105911605
86	0x3d360c4c	0.04444532
87	0xbe5fb456	-0.21846136
88	0xbd7c975b	-0.06166778
89	0x3ebe6ddb	0.37193188
90	0x3f701622	0.9378377
91	0xbb859e96	-0.004077743
92	0x3ef61027	0.48059198
93	0x3dc66c9f	0.096886866
94	0x3c75712d	0.0149805965
95	0xbd90ddbf	-0.07073545
96	0xbd24baca	-0.0402172
97	0xbeb86aaa	-0.36018878
98	0x3f206f2c	0.62669635
99	0x3b0e6868	0.0021729711
100	0xbcc3b807	-0.023891462
101	0xbd322d2c	-0.04350011
102	0xbd2289a9	-0.039682064
103	0xbd718f7b	-0.058974724
104	0x3c961474	0.0183203
105	0xbff6879a	-1.9260132
106	0x3daf55d1	0.0856129
107	0x3f1fd307	0.6243138
108	0x3c0322a6	0.008003866
109	0xbdac8369	-0.08423502
110	0x40821044	4.0644855
111	0xbfd585f7	-1.6681508
112	0x3f39bc9a	0.7255341
113	0x3eee2834	0.46515048
114	0xbdc46956	-0.09590404
115	0x3b8d3c1a	0.004310143
116	0xbcc831ec	-0.024437867
117	0x3dcea0d6	0.10089271
118	0x3f717e1c	0.9433305
119	0xbf52509f	-0.8215427
120	0xbebccfa1	-0.36877158
121	0x3f220c2c	0.6329982
122	0x3dc70482	0.09717657
123	0xbeac7a45	-0.33687034
124	0x3f3566c5	0.7085994
125	0xbdb7c0d7	-0.08972328
126	0xbcd5564e	-0.02604213
127	0xbcf4ef58	-0.029899284
128	0x3ee5ef2e	0.44909042
129	0xbdcf9957	-0.10136669
130	0x3ca9bd09	0.020720022
131	0xbd3e74ca	-0.046498097
132	0x3f181eeb	0.5942218
133	0xbec079f3	-0.3759304
134	0xbe82594d	-0.25458756
135	0xbedd02e7	-0.43166277
136	0xbe869a17	-0.26289436
137	0x3c28c0d5	0.010299881
138	0xbe854a8e	-0.26033443
139	0x3dcf6c6c	0.10128102
140	0x3d9be8a9	0.07612736
141	0xbe0be6f6	-0.13662323
142	0xbd811242	-0.063023105
143	0xbf921342	-1.1412127
144	0xbba1539e	-0.004923298
145	0xbd83598d	-0.06413565
146	0xbdc533d5	-0.09629027
147	0x3ecad339	0.39614275
148	0xbd994350	-0.07483542
149	0x3f0db7c5	0.55358535
150	0xbe25eff9	-0.16204824
151	0xbd3546e1	-0.04425705
152	0xbd9941b1	-0.07483233
153	0x3f2792e4	0.6545851
154	0xbe873088	-0.26404214
155	0xbec02e28	-0.37535214
156	0x3d8984d9	0.06714792
157	0xbeac5f60	-0.33666515
158	0xbd307adc	-0.043085918
159	0x3d9da1e8	0.07696897
160	0xbd8e3ef1	-0.06945599
161	0x3f042466	0.5161804
162	0x3eef2a27	0.46711847
163	0x3ec893a0	0.3917513
164	0x3d0246a5	0.031805653
165	0x3dc1fe93	0.09472384
166	0xbd5890c3	-0.05287243
167	0xbe6f667f	-0.23378943
168	0x3d2c5f07	0.042082813
169	0x3e511816	0.20419344
170	0x3f5a6018	0.8530288
171	0xbd5844a7	-0.052799847
172	0x3e62ce5b	0.22149031
173	0xbdb612ba	-0.088902906
174	0xbd9afc1b	-0.075676166
175	0x3c49c7a1	0.012315662
176	0x3d22c1a9	0.03973547
177	0xbf164c00	-0.58709717
178	0x3f2e9237	0.68191856
179	0xbbd2b2a8	-0.006429989
180	0xbe8fcee2	-0.28087527
181	0x3c97661a	0.018481303
182	0xbcd4c0f8	-0.02597092
183	0x3b796c0a	0.003805878
184	0xbdd8d94d	-0.10588322
185	0xbfe4d4a0	-1.7877388
186	0x3d9ce827	0.07661467
187	0xbf0f7957	-0.56044525
188	0x3db4502e	0.088043556
189	0xbe0177ea	-0.126434
190	0x4014614e	2.318439
191	0xbf9e9906	-1.2390449
192	0x3e9e5261	0.30922225
193	0xbebbe7e1	-0.36700347
194	0x3ca244b1	0.019808145
195	0x3d1c7428	0.038196713
196	0xbdded713	-0.10880866
197	0x3d22c344	0.039737
198	0x3f44c590	0.76863956
199	0x3fad7159	1.3550216
200	0x3f24c84c	0.6436813
201	0x3f3dc484	0.74127984
202	0xbb67cafc	-0.003536879
203	0xbf230c3c	-0.63690543
204	0x3f497084	0.7868731
205	0x3d8221df	0.06354117
206	0x3f347f1d	0.7050646
207	0xbd89ccb6	-0.06728499
208	0x3eeb04fe	0.45902246
209	0x3db663cc	0.089057535
210	0x3da4ba69	0.080433674
211	0x3d8493ef	0.064735286
212	0x3ecfec5a	0.4061001
213	0xbe12f5f1	-0.14351632
214	0xbe2613cc	-0.1621849
215	0xbe9425e1	-0.2893515
216	0xbe41bbf8	-0.1891936
217	0x3c48c8b8	0.012254886
218	0xbedad702	-0.42742163
219	0xbccb7c55	-0.02483956
220	0x3f1c8a13	0.61148185
221	0xbe2493e5	-0.16072042
222	0xbddb8f6f	-0.10720717
223	0x3f880ad8	1.0628309
224	0xbdc7a1a9	-0.09747631
225	0xbd4d6c8b	-0.050152343
226	0x3d4273f2	0.047473855
227	0x3f46d0fd	0.7766264
228	0xbdc60460	-0.09668803
229	0xbe78c418	-0.24293554
230	0x3f41a12e	0.75636566
231	0xbaa03f5a	-0.0012225911
232	0xbda16ad1	-0.07881702
233	0x3de9f701	0.114240654
234	0xbe9b9662	-0.3038817
235	0xbea14813	-0.315003
236	0xbd15c9c9	-0.03656939
237	0xbd9f7b5e	-0.07787202
238	0xbda24f54	-0.07925287
239	0xbd57aff0	-0.05265802
240	0x3d77f465	0.060535807
241	0x3c44439a	0.011979008
242	0xbd337224	-0.043810025
243	0xbdd0e414	-0.101997524
244	0x3ddbed42	0.10738613
245	0x3cb4c76c	0.022067748
246	0xbd30c40c	-0.043155715
247	0xbdca5a48	-0.09880501
248	0xbc802e1a	-0.015646983
249	0xbbe6e9f0	-0.0070469305
250	0xbc9cf359	-0.019159006
251	0x3da5ff25	0.081053056
252	0xbd854ec1	-0.06509162
253	0x3dbd61d8	0.09247178
254	0xbd3a031c	-0.04541312
255	0xbd52e8a8	-0.05149141

fc2.bias f4 [80]
0	0xbd928515	-0.0715429
1	0x3e578c18	0.21049535
2	0xbf10c67a	-0.5655285
3	0xbdc5e934	-0.096636206
4	0xbe045e1f	-0.1292653
5	0x3e29e96f	0.16592954
6	0x3e6e340f	0.23262046
7	0x3f3b9023	0.7326681
8	0x3f2805ee	0.6563405
9	0xbdce2789	-0.100661345
10	0xbdd4a039	-0.103821225
11	0xbe9b1830	-0.3029189
12	0xbdd5f2f2	-0.10446729
13	0xbe5b8d38	-0.2144059
14	0xbe13766a	-0.1440064
15	0x3d9ac872	0.07557763
16	0x3d9ed400	0.077552795
17	0xbf40b1b1	-0.75271136
18	0xbd5ee4dd	-0.05441748
19	0x3ed8b719	0.42327192
20	0xbd961c5a	-0.073296264
21	0xbd604d7c	-0.054761395
22	0x3ea34a2a	0.3189252
23	0x3e7d03f5	0.2470854
24	0x3c063944	0.008192364
25	0xbd7ac9ec	-0.061227724
26	0xbd8edc80	-0.06975651
27	0xbdddfeb7	-0.108395986
28	0xbd249b93	-0.04018743
29	0xbe147728	-0.1449858
30	0x3e38f808	0.18063366
31	0x3ec731f0	0.38905287
32	0x3edc8742	0.43071944
33	0xbdd6ac7b	-0.10482117
34	0x3d470a02	0.04859353
35	0xbc732947	-0.014841384
36	0x3dfe2728	0.12409812
37	0xbdd07278	-0.10178083
38	0xbe2b2a84	-0.16715437
39	0xbd4e5fe8	-0.050384432
40	0xbeb634c4	-0.35587132
41	0x3e5cd0b0	0.21563983
42	0xbc69b11c	-0.014263418
43	0xbd99c87c	-0.075089425
44	0xbed6080e	-0.4180302
45	0x3bd2da6d	0.00643473
46	0xbe81d94b	-0.25361094
47	0x3d77de9a	0.060515024
48	0x3c99f795	0.018794814
49	0xbc60afff	-0.013713836
50	0xbc1e3aee	-0.009657605
51	0xbcd2dfb7	-0.025741441
52	0x3d8dbc4f	0.06920683
53	0xbd312efe	-0.043257706
54	0xbe52a643	-0.20571236
55	0xbd7557af	-0.059898075
56	0x3d9298e2	0.07158066
57	0xbddbc318	-0.107305706
58	0xbdb95eec	-0.09051308
59	0xbd738000	-0.059448242
60	0x3a0646dd	0.0005122254
61	0x3e252037	0.1612557
62	0xbda2a0a3	-0.07940795
63	0x3cf617d9	0.030040668
64	0xbede6ab7	-0.43440792
65	0xbd9440ff	-0.072389595
66	0x3d1a85a3	0.037725102
67	0x3ed89783	0.42303094
68	0x3d5b3f34	0.053527072
69	0xbe87d8ec	-0.26532686
70	0xbdb14d87	-0.08657365
71	0xbd261dd2	-0.040555783
72	0xbd1e6993	-0.038674902
73	0xbe9efb03	-0.31050882
74	0xbd9a8725	-0.07545308
75	0x3e8ea568	0.2786057
76	0x3dfa29b8	0.122149885
77	0xbda8e255	-0.082462944
78	0xbe7c2d02	-0.24626544
79	0x3d44ad58	0.048016876

fc3.weight f4 [80, 80]
0	0xbd1933d2	-0.037402935
1	0xbf0d12a1	-0.5510655
2	0xbe023c54	-0.12718326
3	0xbcfe854d	-0.031069422
4	0xbc86fddb	-0.01647847
5	0xbd875e79	-0.06609816
6	0x3eeb9460	0.4601164
7	0xbe44a752	-0.19204453
8	0xbe16aa70	-0.14713454
9	0x3d9368a7	0.07197695
10	0xbd1c2867	-0.03812447
11	0xbf4c927d	-0.79911023
12	0xbdd88abf	-0.10573339
13	0xbe56c0f2	-0.2097204
14	0xbd711047	-0.058853414
15	0x3de39a37	0.111133985
16	0x403485a1	2.820656
17	0x3ca95e92	0.020674977
18	0x3c9e0576	0.019289713
19	0x3e90c083	0.28271875
20	0x3d974003	0.07385256
21	0x3d514f8d	0.051101256
22	0x3ea5b4dc	0.32364547
23	0xbcb1d137	-0.021706207
24	0xbd8cc960	-0.06874347
25	0x3da00466	0.07813339
26	0x3c2c9ffc	0.01053619
27	0x3d933eab	0.07189687
28	0xbc665b19	-0.014059805
29	0xbe8d0bc2	-0.27548033
30	0xbe63f86f	-0.22262739
31	0xc00343c0	-2.0510101
32	0x3e765a90	0.24057984
33	0x3cd0e105	0.025497923
34	0xbc76c6dd	-0.015062061
35	0xbe844a2d	-0.25837842
36	0xbb1ae6f3	-0.0023636192
37	0x3dbb99f9	0.09160227
38	0x3de53a48	0.11192757
39	0x3cf20e7b	0.02954792
40	0x3e8f9f65	0.28051296
41	0xbd226d56	-0.039655052
42	0xbcb1c7bb	-0.021701684
43	0x3c45622a	0.01204733
44	0xbd7733b6	-0.06035205
45	0xbc869680	-0.016429186
46	0x3eff8b42	0.49910933
47	0x3d329471	0.043598596
48	0x3ce047c2	0.027377967
49	0xbdbbc5ff	-0.09168624
50	0xbdae2ab5	-0.085042395
51	0xbddf58c6	-0.10905604
52	0x3d30e567	0.043187525
53	0xbcccfdef	-0.025023429
54	0x3d5626ef	0.052283224
55	0x3c6ead65	0.014567708
56	0xbe071a54	-0.13193637
57	0xbd55e1a5	-0.052217145
58	0x3d5f624c	0.054537103
59	0x3d1b84be	0.03796839
60	0xbd2c83eb	-0.042117994
61	0xbf1c5c62	-0.61078465
62	0x3d9b377b	0.075789414
63	0xbd1f9434	-0.038959697
64	0xbde0e222	-0.109806314
65	0x3d166962	0.036721595
66	0x3cb8a0aa	0.022537548
67	0x3e650337	0.22364508
68	0x3f458ece	0.7717103
69	0x3e7e72b5	0.24848445
70	0x3d036d33	0.032086562
71	0xba02c10b	-0.0004987872
72	0xbee1409a	-0.439946
73	0xbe77ea83	-0.24210553
74	0x3d52b86d	0.051445413
75	0x3da64cb2	0.08120097
76	0xbeac5df2	-0.33665425
77	0x3c694fa1	0.014240176
78	0xbe812a5b	-0.25227627
79	0xbd382661	-0.044958476
80	0xbda8f0fa	-0.08249088
81	0xbe67c91f	-0.22635315
82	0x3e960252	0.29298645
83	0xbc2c2164	-0.010506008
84	0xbd3688f2	-0.044564195
85	0xbf027f22	-0.5097524
86	0xbfb6accc	-1.4271483
87	0x3e39c7d1	0.1814263
88	0x3decaab6	0.11555998
89	0x3d96126a	0.07327731
90	0xbdc7d745	-0.09757856
91	0xbf68572e	-0.90758026
92	0xbd8db791	-0.06919778
93	0x3e9d714f	0.3075051
94	0xbcb681fc	-0.022278778
95	0xbdc401d9	-0.09570665
96	0x3e10a906	0.14126977
97	0x3e2a01a4	0.16602188
98	0xbd8f94be	-0.07010792
99	0x3ea4c522	0.3218165
100	0x3d7a7f9f	0.061156865
101	0xbc7e9639	-0.015538746
102	0x3ec4e3db	0.3845509
103	0x3e720608	0.23635113
104	0x3db7f9e8	0.08983213
105	0x3b977dcd	0.004623151
106	0xbc80f017	-0.015739484
107	0xbda27006	-0.07931523
108	0x3d0a5b3d	0.033778418
109	0x3d8ff1a5	0.07028512
110	0xbdc82b5c	-0.09773895
111	0xc0018b58	-2.0241299
112	0x3e8413c1	0.2579632
113	0xbbff3c95	-0.0077892044
114	0x3da56f73	0.08077898
115	0xbe44b18b	-0.19208352
116	0xbe207065	-0.15667875
117	0xbc6a248a	-0.014290938
118	0x3cc688e1	0.02423519
119	0x3d8b7b41	0.06810618
120	0xbe75a3fa	-0.23988333
121	0xbe203044	-0.15643412
122	0x3d053ff3	0.03253169
123	0x3dab542c	0.08365664
124	0x3e3ed753	0.18636827
125	0x3d9a4ced	0.07534204
126	0xbfad51d0	-1.3540592
127	0x3cacdad8	0.021100447
128	0xbd26901b	-0.040664773
129	0x3d981572	0.07425965
130	0xbdbcecb0	-0.09224832
131	0xbc7881b4	-0.015167642
132	0xbfbcd1ec	-1.4751563
133	0x3ccbd9d6	0.024884146
134	0xbe2aa777	-0.16665445
135	0xbddea820	-0.10871911
136	0xbd226b54	-0.039653137
137	0x3ce152fa	0.027505387
138	0x3d65241b	0.055942636
139	0xbda367ed	-0.07978807
140	0xbcf48750	-0.029849678
141	0x3d72f584	0.059316173
142	0x3db0657a	0.08613105
143	0x3c6f00eb	0.014587621
144	0xbdb06c0e	-0.0861436
145	0x3da18035	0.07885782
146	0x3d644543	0.055730116
147	0xbd99ac95	-0.075036205
148	0x3f81d6d1	1.0143682
149	0xbf02ba75	-0.5106576
150	0xbc3b8bf8	-0.011446945
151	0x3ccc85a5	0.02496607
152	0x3db20dc4	0.08694032
153	0xbe3beaf9	-0.18351354
154	0xbd9573ed	-0.07297502
155	0x3e7181f4	0.2358473
156	0xbe81b997	-0.25336906
157	0xbda56fc7	-0.080779605
158	0xbe8d90dc	-0.2764958
159	0xbd12bd64	-0.03582515
160	0xbc051dad	-0.008124751
161	0xbe92d074	-0.28674662
162	0x3e3200c0	0.17383099
163	0xbd9d9121	-0.07693697
164	0xbbbe3aa8	-0.005805332
165	0x3e86e763	0.2634841
166	0xbe3d304a	-0.18475452
167	0xbe0b6061	-0.13610984
168	0x3ddc7108	0.107637465
169	0x3c4364e5	0.011925911
170	0x3d623beb	0.055232923
171	0x3f03035a	0.5117699
172	0x3d88ba41	0.0667615
173	0x3e8edabf	0.27901265
174	0xbddfc76a	-0.10926707
175	0xbdc9735f	-0.098364584
176	0x3e041afc	0.12900919
177	0x3cc6ed00	0.024282932
178	0x3cbb8d9b	0.022894671
179	0x3e0f50b1	0.13995625
180	0xbcb50bca	-0.022100348
181	0x3c030af1	0.007998214
182	0x3e5c3ecd	0.21508332
183	0xbd10e3ff	-0.035373684
184	0xbdd18bea	-0.102317646
185	0xbe066907	-0.13126002
186	0x3e136982	0.14395717
187	0x3d9a38b2	0.07530345
188	0x3d43e09c	0.047821626
189	0x3e0a3b81	0.13499261
190	0x3e0c228c	0.13685054
191	0x3c949eb7	0.018142087
192	0x3db18995	0.0866882
193	0xbe18c8cb	-0.14920346
194	0xbdb18d9a	-0.086695865
195	0x3e184ea3	0.14873748
196	0x3c3f6e33	0.011683988
197	0xbdb24318	-0.08704203
198	0xbdaf9f28	-0.085752785
199	0xbd0c122e	-0.034197025
200	0xbe137785	-0.14401062
201	0x3dcbe67a	0.09956069
202	0x3e0b9c89	0.13633932
203	0xbdc47c40	-0.09594011
204	0x3d6150d5	0.055008728
205	0xbe0ff879	-0.14059629
206	0x400106b5	2.0160344
207	0xbca7c599	-0.020479964
208	0x3d0ebd1c	0.034848318
209	0xbdde99d0	-0.10869181
210	0xbcdf5c25	-0.027265618
211	0xbe073a09	-0.13205732
212	0x3f703c2d	0.9384182
213	0xbe0add22	-0.13560918
214	0x3ddb3a4d	0.10704479
215	0x3d9837ad	0.07432494
216	0x3ddfb45a	0.10923071
217	0xbd1cdb4f	-0.038295086
218	0xbb7bb3f9	-0.0038406833
219	0x3de18689	0.11011989
220	0xbd5f953f	-0.05458569
221	0x3d5abbf3	0.0534019
222	0xbdb4ce01	-0.088283546
223	0x3c9b801b	0.018981984
224	0x3e188011	0.14892603
225	0xbe17498e	-0.14774153
226	0x3d8469aa	0.06465466
227	0xbda2d719	-0.07951183
228	0xbe69b8a1	-0.22824337
229	0xbd8ed31e	-0.06973861
230	0xbd3c872a	-0.04602734
231	0xbd07a076	-0.03311201
232	0xbe8d2e94	-0.275746
233	0xbe95ff53	-0.2929636
234	0x3dbc5473	0.09195795
235	0x3d800cc6	0.06252436
236	0x3dcbc7b5	0.099502005
237	0x3e005a17	0.12534367
238	0xbe652142	-0.22375968
239	0x3da33afe	0.07970236
240	0xb9d019df	-0.00039692127
241	0x3e087726	0.13326702
242	0x3e33ee37	0.1757134
243	0xbe2b1010	-0.16705346
244	0x3c82460e	0.015902545
245	0x3ed4dc5d	0.41574374
246	0x3d40a0b0	0.047028244
247	0x3d42f86d	0.0476002
248	0xbd4c5d8f	-0.049893912
249	0x3d56b89a	0.052422144
250	0xbd039c3d	-0.032131422
251	0x3f04e717	0.51915115
252	0xbdd6d21f	-0.10489296
253	0xbe46a6f2	-0.19399622
254	0x3db28ffa	0.087188676
255	0x3dbad757	0.09123104

fc3.bias f4 [80]
0	0x3ef25293	0.47328624
1	0xbf7126e5	-0.94199973
2	0xbf84654c	-1.0343413
3	0xbeccdd2d	-0.40012494
4	0x3b332ca8	0.002733985
5	0x3e4fb030	0.20282054
6	0xbdefa59c	-0.11701509
7	0xbe0ae02b	-0.13562076
8	0xbe58785b	-0.21139662
9	0x3dbfb254	0.09360185
10	0x3dc96332	0.09833373
11	0x3e04b5c7	0.12959968
12	0xbd8044a4	-0.06263092
13	0x3db64b75	0.08901111
14	0x3c4e2dc5	0.0125841545
15	0x3c0f1e68	0.008735277
16	0xbc071cbf	-0.0082466
17	0x3e0a40df	0.13501309
18	0x3dcdb664	0.10044554
19	0xbe2d6a6e	-0.16935131
20	0xbce88f41	-0.028388621
21	0xbe4d9ef2	-0.20080164
22	0xbbaed1a6	-0.0053350506
23	0xbe1d3716	-0.15353045
24	0xbe44cd26	-0.19218883
25	0x3d326fa9	0.04356352
26	0xbdaa7833	-0.083237074
27	0x3e1dfa06	0.15427408
28	0x3cb78deb	0.022406539
29	0xbd92e5cd	-0.07172737
30	0xbd4a76aa	-0.049429573
31	0xb8717600	-5.7568774e-05
32	0x3cf13239	0.029442893
33	0x3dec7cad	0.115472175
34	0xbe49fc56	-0.19725165
35	0x3e3846c7	0.1799575
36	0xbc86a284	-0.016434915
37	0xbd9ccd61	-0.076563604
38	0xbe6882e9	-0.22706188
39	0xbc643d47	-0.013930625
40	0x3d309533	0.043111037
41	0x3e459b6e	0.19297573
42	0xbe07e721	-0.13271762
43	0xbdf59ac8	-0.11992413
44	0xbdcdeebd	-0.10055301
45	0x3c6fd469	0.014638045
46	0x3e337b29	0.1752745
47	0xbde75652	-0.11295761
48	0xbe46d5ee	-0.19417545
49	0x3df448cd	0.11927948
50	0x3e04ed5c	0.1298117
51	0xbd32a465	-0.04361381
52	0x3e0e3096	0.13885722
53	0xbde72c96	-0.11287801
54	0xbd4e8554	-0.05042012
55	0xbd2163f7	-0.039401975
56	0x3d049004	0.032363907
57	0xbd398342	-0.045291193
58	0xbd0b2f14	-0.033980444
59	0xbc1eea12	-0.009699361
60	0xbe0d1172	-0.13776186
61	0xbd38149a	-0.044941522
62	0xbded89f1	-0.11598576
63	0xbdeac5e2	-0.114635244
64	0x3e030251	0.12793852
65	0x3d6b2f40	0.057418108
66	0xbd50ad8d	-0.05094676
67	0xbe193876	-0.14962944
68	0xbdcaf013	-0.09909072
69	0xbd29bb22	-0.04143823
70	0xbe48bb31	-0.19602658
71	0x3c2b4217	0.010452769
72	0x3e41ec53	0.18937807
73	0xbc58913e	-0.013218222
74	0xbe72bdfa	-0.23705283
75	0xbe468509	-0.19386686
76	0xbdd44011	-0.10363782
77	0x3d68ad79	0.05680606
78	0xbd831a32	-0.06401481
79	0x3d4b85ae	0.049688034
