model_weights.pth (torch, 55428 bytes, 6 tensors)

fc1.weight f4 [80, 2]
00000000: 20c3 cd3d c9b7 ebbc 0f92 09bf 0c34 00bf
00000010: 7d7e 9cbe 3db4 a0bf cab2 14bf e6ae 41bf
00000020: 4c01 2bbf ea3f 163f b7f4 acbe 1109 96be
00000030: b5dd 853d 75b4 3b3e 9ae6 32be b7d8 823f
00000040: e10c d3be 6abf 813e d306 983e 12dd b3bf
00000050: 7113 25bf fc48 c9be 3d54 0a3e 25a0 033f
00000060: a6ff 513f 39f4 c6bf e799 9abe cc88 19be
00000070: 9caf 01bf 587e 43be 6521 14bf d5b2 893e
00000080: f914 003f c651 653d 781c 09bf 3d40 26c0
00000090: c189 0dbf c151 ffbe 2a4b 8d3c 35a7 033e
000000a0: cde1 6c3f 2955 4e3f 66b1 1b3e 277f 12be
000000b0: 1343 ab3e cc72 843e 98ef 22bf 07dc d5be
000000c0: 036f c23c 705f 893e 66ee 6b3f 6c4a 3ac0
000000d0: 8597 33bf 96df 16bd 64c5 e53f 97f2 c5bf
000000e0: 3c20 47be b664 0a3f 7b6d ea3d 0c13 a93f
000000f0: 6e40 37c0 ac31 d63f 1cf7 103f ef01 28c0
00000100: 64b5 333f ae44 d1bf cb06 bc3f 04ed 0d3e
00000110: b8d2 8b3d 566c a73e ef6d 703d 3e30 9b3e
00000120: 8955 e63e 2f47 0dbf ad82 ef3e 4dd8 d8bd
00000130: 05c5 51bf f05d 8cbe 7ce5 0440 c6be afbf
00000140: 087d 02bf 7b41 013e ee70 49bf 8953 b7be
00000150: db59 d5bd ee4d 473e 5daa b73f 2044 5c3e
00000160: 8264 49bf 20d5 9bbe 8194 1e3d 9b61 9fbd
00000170: 5708 97bf 2d3f f7bc 205f dbbc ae5d 05be
00000180: e69e 06bf e2c2 64bf 94f6 af3e 3122 85bc
00000190: 2ecf 1a3f b737 27bd c1bf cfbd 725a cc3e
000001a0: 4b23 e1bb fc2a 84bf 4ce1 c63e 1b0d 833f
000001b0: efd5 243e c2cc 933f 6ae0 3c3f a750 5c3f
000001c0: c4fd da3e 2197 673f 5e36 963d eeff 193f
000001d0: 1dd0 793f f9f5 773f 644a 9d3c 52f0 b93f
000001e0: e4b1 83bf 6049 07be 0e91 213f 7e0b 793f
000001f0: 2e8a 5ebd e30e 07bf fc11 f73f 2370 a3bf
00000200: 8a83 3e3e 7a1c cd3e ce2a 29bf e135 403d
00000210: 0f9b 80be bc7a 003f 953b 86bf 7250 093a
00000220: a6c1 e13e fcbd c73e 054d b53f bb99 8a3e
00000230: e126 9fbf 7c89 413e ea92 843d bde8 653c
00000240: e46f 2cbf acbd 22be 4418 9dbf c4a1 b33f
00000250: 3c7d 483f 8eb3 a03f 5d87 453f 1708 06c0
00000260: 0e7c 9bbe 16af 8dbe f9d9 16bf a4fa ad3f
00000270: 7a04 763e 820f 113f 797c 07bd 955d 21bf
0.10046983 -0.028774159 -0.5373849 -0.5007942 -0.30565253 -1.2555004 -0.5808531 -0.756575
-0.66798854 0.58691275 -0.33780453 -0.29303792 0.06536428 0.18330558 -0.1747078 1.0222386
-0.41220763 0.2534135 0.29692706 -1.405184 -0.6448279 -0.39313495 0.13508697 0.51416236
0.82030714 -1.5543281 -0.30195543 -0.1499359 -0.50658584 -0.19091165 -0.57863456 0.2689425
0.50032 0.05598619 -0.53559065 -2.5976708 -0.5528832 -0.4986706 0.017247755 0.12856753
0.92532045 0.80598694 0.15204391 -0.14306317 0.3344961 0.25868833 -0.6364684 -0.4176943
0.023734575 0.26830626 0.9216064 -2.9107924 -0.70153075 -0.036834322 1.7950864 -1.5464658
-0.1944589 0.5405992 0.11446663 1.3208938 -2.8633075 1.6733909 0.5662706 -2.625118
0.70198655 -1.6349084 1.4689573 0.13859946 0.06827301 0.3269984 0.05869859 0.30310243
0.44987133 -0.5518674 0.46779385 -0.10588131 -0.8194125 -0.2741542 2.0765066 -1.3730094
-0.5097203 0.12622635 -0.7868794 -0.3580592 -0.10417529 0.19463322 1.4348866 0.21510363
-0.7866899 -0.3043604 0.038715843 -0.07782289 -1.179942 -0.030181492 -0.026778758 -0.13024017
-0.5258621 -0.8935987 0.34367812 -0.016251655 0.6047238 -0.04082462 -0.10143996 0.39912754
-0.0068706623 -1.0325618 0.38843763 1.0238374 0.16097234 1.1546862 0.7377993 0.86060566
0.42771733 0.9046498 0.073345885 0.6015614 0.9758318 0.968597 0.019200511 1.4526465
-1.0288663 -0.13211584 0.6311196 0.9728316 -0.054330997 -0.5275709 1.9302363 -1.2768596
0.18604866 0.40060788 -0.6608094 0.046926383 -0.251183 0.5018728 -1.0486933 0.00052381225
0.44093055 0.39012134 1.416413 0.27070412 -1.243374 0.18900102 0.06473334 0.01403254
-0.6735823 -0.15892667 -1.227303 1.4033742 0.7831609 1.2554796 0.7715967 -2.0942438
-0.30368084 -0.27672642 -0.5892635 1.3592114 0.24025145 0.5666429 -0.03307769 -0.6303342

fc1.bias f4 [80]
00000000: 5812 52be 7f30 103f 7c70 f23e 864e cf3e
00000010: 5664 54be 4df5 28bf 7588 c2be 7c10 a03e
00000020: f607 92be 9613 c93e 1fa2 983e f10d 8bbe
00000030: 1acb da3e 6dab 68be 4072 c0bc bee7 89be
00000040: b5b5 2bbf fbed a83e c309 a43e 9c47 b6be
00000050: 34d4 933e 6762 22bf 977f 2ebf e19c dfbe
00000060: a33e 7abe 81dd a03e 25ed 0bbe f533 ed3e
00000070: fedd 1ebf b687 063d 5a1f 8b3e 97d7 a13e
00000080: bbe8 433f 662c ab3e 6576 c8be 3556 14bf
00000090: c14c 2fbe bd9b b5be bc29 a83e 7295 11be
000000a0: d29e 413f 0e30 be3e e622 05be e575 d4bd
000000b0: f3ff b33e 8eb2 b3bd d45d 373f 008a 0dbf
000000c0: a2aa d63e 83c7 e6be 7296 1ebf 90a6 14be
000000d0: 5afe dd3e 87ae b53e a42d 763d 9c36 a3bd
000000e0: 10b6 14bd 83c3 92be 62d1 cbbd fefc 0cbc
000000f0: bab6 343f 5d4f a43e 23db 10bf 71b3 05be
00000100: d8ad debe a0e1 e5bd 4fde 0fbf 98f7 cb3e
00000110: 7187 02bf 22d9 f93e c775 323f 6936 f9be
00000120: 556c 2abf dea9 243d e9f9 90bd 755f 593e
00000130: af11 f5be fc11 903e f75a 1cbf bb12 bfbe
-0.2051481 0.56324 0.47351444 0.40489596 -0.207414 -0.659993 -0.37994733 0.31262577
-0.285217 0.39272755 0.2981119 -0.27159074 0.4273308 -0.22721644 -0.023491979 -0.26934618
-0.6707414 0.32994065 0.32038698 -0.3560151 0.28872836 -0.634314 -0.68163437 -0.43674377
-0.24437957 0.31418994 -0.13664682 0.46328703 -0.62057483 0.032844268 0.27172357 0.31609794
0.76526994 0.3343231 -0.39152828 -0.5794404 -0.17119123 -0.3547038 0.3284434 -0.14217165
0.75632966 0.37146038 -0.13001594 -0.10374049 0.3515621 -0.08774291 0.71627545 -0.55288696
0.41927058 -0.4507409 -0.6194831 -0.14516664 0.43358117 0.35484716 0.06010212 -0.079694
-0.03630644 -0.2866479 -0.09952046 -0.00860524 0.7059132 0.320918 -0.56584376 -0.13056733
-0.43492007 -0.11224675 -0.5619859 0.39837337 -0.5098792 0.48798472 0.69710964 -0.48674324
-0.6657155 0.04020106 -0.070789166 0.2122782 -0.47865054 0.2813872 -0.610763 -0.37318978

fc2.weight f4 [80, 80]
00000000: 4fbe 70bd b298 5d3d 6bd5 3fbb c90c dcbd
00000010: 72c5 82bd 5aed 53bd c172 d4bd f98d 6a3c
00000020: 0c2f 233d c40b a8bc ce3c 36bd 32be 31ba
00000030: 8ede b5bd 176c 8bbd e31a 27bb 2c6a cb3d
00000040: 8bd2 0cbd 52fc 623d a139 34bd 0fcf f3bc
00000050: 4df8 d9bd 74b3 bd3d 2af5 de3d d6e4 19bb
00000060: 967b 913d 6f49 bb3d 5e78 633d f5d9 6b3d
00000070: 01fb d9bd d828 d7bd 0dbf afbd 393d 0f3d
00000080: 7e0e c6bd 1cc9 aebd d3f7 5dbd 980a d3bd
00000090: d7f6 1d39 5f22 843c ccfe 85bd 80ec 953d
000000a0: 6cdb 2dbd a4ec 00bd f972 ae3d e095 c43d
000000b0: b824 52bc fd5f a4bd d9bc 65bd 2442 693c
000000c0: f338 863d 81fc 633d a238 4abd ba76 d8bd
000000d0: a662 c8bd d8b2 11bd 64d3 b73a d0b2 4dbd
000000e0: e90c b5bd 3b0c 413c d8be b5bd 8dd5 afbd
000000f0: 9924 babd cc2e f8bc 193e ca3d 2d05 333d
00000100: 7331 59bc 4e80 bc3c ca5b 363d 3cc2 2a3a
00000110: 1daf b8bd c812 8dbd be8d 9bbd 970d 3abb
00000120: 449a d1bd 5d87 a6bc 5275 27bd 26b5 e03d
00000130: 751d ba3d 0100 853d 2276 cd3b 4c45 14bd
00000140: 0b9e e93c 536d 7d3d 64ce 69be b303 6fbd
00000150: 8831 d7bc 2fe8 d8bd 4c0c 363d 413c b93e
00000160: 5b97 7cbd 5cb4 ecbe aca2 b73e 969e 85bb
00000170: c718 e6be 9f6c c63d 2d71 753c bfdd 90bd
00000180: caba 24bd 4809 67bf 13a6 523e 6868 0e3b
00000190: f9a1 5e3d 2c2d 32bd a989 22bd 7b8f 71bd
000001a0: 7414 963c 0f43 33c0 d155 af3d 4086 9ebe
000001b0: a622 033c 3f78 153f 67d7 a440 83a0 1ec0
000001c0: dfb0 74be 5d9b 66bd 5669 c4bd 1a3c 8d3b
000001d0: ec31 c8bc d6a0 ce3d 5873 293f 8518 0640
000001e0: b8af 793e 4498 a23e 8204 c73d ac03 3cbf
000001f0: e605 b73e d7c0 b7bd 6696 8e3e 58ef f4bc
00000200: 8889 c33a 5799 cfbd 09bd a93c ca74 3ebd
00000210: a508 21be 997a 033e 7c19 bf3e fec6 22be
00000220: 7f18 163e d5c0 283c 7294 7ebd 943f 503f
00000230: 5846 413e c426 4c3e 4212 81bd a228 dc3f
00000240: 9e53 a1bb 8d59 83bd d533 c5bd 862b 0d3f
00000250: 5043 99bd 0721 4c3d f535 c83e e146 35bd
00000260: b141 99bd 2d2f d43f 1e5d 753d 9911 96bf
00000270: d984 893d 3c75 0c3f dc7a 30bd e8a1 9d3d
00000280: f13e 8ebd 2dc1 a93d 7cac 053d 519e 55bd
00000290: a546 023d 93fe c13d c390 58bd c6e4 213e
000002a0: 075f 2c3d 92ef 57be 6640 c83e a744 58bd
000002b0: a1ea a6bc ba12 b6bd 1bfc 9abd a1c7 493c
000002c0: a9c1 223d e009 76bf 744d 723e a8b2 d2bb
000002d0: 4bb7 1c3e 1a66 973c f8c0 d4bc 0a6c 793b
000002e0: 4dd9 d8bd 5d2e 09c0 27e8 9c3d 1080 533c
000002f0: 2e50 b43d 8c78 b23e b8da 6140 6012 cfbf
00000300: a781 b0bd 927d d03d b144 a23c 2874 1c3d
00000310: 13d7 debd 44c3 223d f579 9d3e 86e2 4740
00000320: 1a3c 893e 2166 933e fcca 67bb 88fc 39be
00000330: f220 a63e df21 823d a7d4 833e b6cc 89bd
00000340: 1bd1 923c cc63 b63d 69ba a43d ef93 843d
00000350: 20b4 aebc d806 963e 94a1 933e 2c28 223e
00000360: db78 853e b8c8 483c 69e2 323c 4dc0 f93e
00000370: 49f3 273e 291b 8d3e 6f8f dbbd d1da 3440
00000380: a9a1 c7bd 8b6c 4dbd f273 423d dde4 9e3e
00000390: 6004 c6bd 8001 403e ff53 9d3e 5a3f a0ba
000003a0: d16a a1bd 701d 6e3f a20d fe3d 90ec edbe
000003b0: c9c9 15bd 2d99 9b3e 544f a2bd f0af 57bd
000003c0: 65f4 773d 9a43 443c 2472 33bd 14e4 d0bd
000003d0: 42ed db3d 6cc7 b43c 0cc4 30bd 485a cabd
000003e0: 1a2e 80bc f0e9 e6bb 59f3 9cbc 25ff a53d
000003f0: c14e 85bd d861 bd3d 1c03 3abd a8e8 52bd
-0.058775242 0.0541007 -0.0029271494 -0.10744626 -0.06385316 -0.051740028 -0.1037345 0.0143160755
0.03983979 -0.020513423 -0.04449158 -0.00067803555 -0.088803396 -0.06807726 -0.0025498203 0.0993236
-0.034380477 0.055416413 -0.04400027 -0.02976182 -0.10643063 0.092627436 0.10886605 -0.0023482344
0.0710365 0.09144866 0.055534713 0.057580907 -0.10643578 -0.10505837 -0.08581362 0.034970496
-0.09670733 -0.08534452 -0.05419142 -0.10304755 0.00015064642 0.01612967 -0.06542739 0.073204994
-0.042445585 -0.031475678 0.08518023 0.09598899 -0.012826137 -0.08026121 -0.056088302 0.014236961
0.06553831 0.05566073 -0.049370416 -0.1056952 -0.09784441 -0.03557095 0.0014024791 -0.050219357
-0.08840353 0.011782701 -0.08874291 -0.085856535 -0.09089012 -0.030295752 0.098751254 0.043706108
-0.0132564185 0.0230104 0.04452113 0.00065139285 -0.09017775 -0.06888348 -0.075953946 -0.0028389448
-0.10234502 -0.020328218 -0.04088337 0.10972051 0.0908765 0.06494141 0.006270186 -0.0361989
0.028517744 0.061871838 -0.22832638 -0.058353137 -0.026268736 -0.105911605 0.04444532 0.36178783
-0.06166778 -0.46231353 0.35866296 -0.004077743 -0.4494078 0.096886866 0.0149805965 -0.07073545
-0.0402172 -0.9024854 0.20571165 0.0021729711 0.054353688 -0.04350011 -0.039682064 -0.058974724
0.0183203 -2.800968 0.0856129 -0.309618 0.008003866 0.58386606 5.151294 -2.4785469
-0.23895596 -0.05630051 -0.09590404 0.004310143 -0.024437867 0.10089271 0.66191626 2.0952466
0.24383438 0.31756794 0.09717657 -0.734431 0.35746688 -0.08972328 0.2784912 -0.029899284
0.0014918307 -0.10136669 0.020720022 -0.046498097 -0.15725954 0.12839736 0.3732413 -0.15896222
0.14657782 0.010299881 -0.062153287 0.8134701 0.1887449 0.19936663 -0.063023105 1.71999
-0.004923298 -0.06413565 -0.09629027 0.55144536 -0.07483542 0.049836185 0.39103666 -0.04425705
-0.07483233 1.6576897 0.059903257 -1.172412 0.06714792 0.54866385 -0.043085918 0.07696897
-0.06945599 0.082887985 0.032635197 -0.052152935 0.031805653 0.09472384 -0.05287243 0.15809926
0.042082813 -0.21087483 0.39111632 -0.052799847 -0.020375552 -0.088902906 -0.075676166 0.012315662
0.03973547 -0.9610882 0.23662359 -0.006429989 0.15304296 0.018481303 -0.02597092 0.003805878
-0.10588322 -2.1434548 0.07661467 0.01290895 0.088043556 0.34857595 3.5289745 -1.6177483
-0.08618479 0.10180201 0.019808145 0.038196713 -0.10880866 0.039737 0.30757108 3.123201
0.26803666 0.28788856 -0.003536879 -0.1816274 0.3244701 0.06354117 0.25748178 -0.06728499
0.017921975 0.089057535 0.080433674 0.064735286 -0.021326125 0.29302096 0.28834212 0.15835637
0.26068768 0.012254886 0.010918238 0.48779526 0.164014 0.27559784 -0.10720717 2.8258555
-0.09747631 -0.050152343 0.047473855 0.31033984 -0.09668803 0.18750572 0.30728146 -0.0012225911
-0.07881702 0.9301367 0.12404944 -0.46469545 -0.03656939 0.303903 -0.07925287 -0.05265802
0.060535807 0.011979008 -0.043810025 -0.101997524 0.10738613 0.022067748 -0.043155715 -0.09880501
-0.015646983 -0.0070469305 -0.019159006 0.081053056 -0.06509162 0.09247178 -0.04541312 -0.05149141

fc2.bias f4 [80]
00000000: 1585 92bd 4680 2abd 85f6 403c 34e9 c5bd
00000010: 1f5e 04be 2c05 d73d 292f afbd 941a 0dbb
00000020: c953 a33d 8927 cebd 39a0 d4bd 13e2 78bb
00000030: f2f2 d5bd 4d59 733d 6a76 13be 72c8 9a3d
00000040: c899 e23d 290d 643d dde4 5ebd 3672 ed3e
00000050: 5a1c 96bd 7c4d 60bd 2888 d93e 5cb5 cb3e
00000060: 4439 063c ecc9 7abd 80dc 8ebd b7fe ddbd
00000070: 939b 24bd 43b8 a1bb 3a75 863d 1d46 aabd
00000080: f021 ec3e 7bac d6bd 020a 473d 1b81 503d
00000090: 4765 ad3e 7872 d0bd 89de 263e e85f 4ebd
000000a0: 625d cebd 0cce c53e 1cb1 69bc 7cc8 99bd
000000b0: 8a82 193e 6dda d23b 5b90 9dbe 9ade 773d
000000c0: 95f7 993c ffaf 60bc ee3a 1ebc b7df d2bc
000000d0: c4a7 13be fe2e 31bd 43a6 52be af57 75bd
000000e0: 028f 053e 18c3 dbbd ec5e b9bd 0080 73bd
000000f0: dd46 063a 4a90 ddbb a3a0 a2bd d917 f63c
00000100: 394b acba ff40 94bd a385 1a3d 0905 c33d
00000110: e1bc 8e3e 3746 1abd 874d b1bd d21d 26bd
00000120: 6230 163d 9f09 61bd 2587 9abd 1c9a e83e
00000130: 2474 f23d 55e2 a8bd 29f2 163c 58ad 443d
-0.0715429 -0.041626237 0.011777525 -0.096636206 -0.1292653 0.10499033 -0.08553917 -0.0021530734
0.07974965 -0.100661345 -0.103821225 -0.0037976548 -0.10446729 0.059411336 -0.1440064 0.07557763
0.11064488 0.055676613 -0.05441748 0.463762 -0.073296264 -0.054761395 0.4248669 0.39786804
0.008192364 -0.061227724 -0.06975651 -0.108395986 -0.04018743 -0.004935296 0.06565328 -0.08314154
0.46119642 -0.10482117 0.04859353 0.050904375 0.3386633 -0.10178083 0.16295828 -0.050384432
-0.10076405 0.38633764 -0.014263418 -0.075089425 0.14991203 0.00643473 -0.30774197 0.060515024
0.018794814 -0.013713836 -0.009657605 -0.025741441 -0.14419466 -0.043257706 -0.20571236 -0.059898075
0.13042834 -0.107305706 -0.09051308 -0.059448242 0.0005122254 -0.0067615854 -0.07940795 0.030040668
-0.0013144977 -0.072389595 0.037725102 0.09522445 0.27878478 -0.03766462 -0.08657365 -0.040555783
0.036667235 -0.054940816 -0.07545308 0.45430076 0.11838558 -0.082462944 0.009213009 0.048016876

fc3.weight f4 [80, 80]
00000000: d233 19bd 2007 aebf b686 96bf 4d85 febc
00000010: dbfd 86bc 0c19 79bf c081 51be 586d 9cbf
00000020: 15d4 98bf a768 933d 6728 1cbd 9e0f 7fbd
00000030: bf8a d8bd d28b 833d 4710 71bd 379a e33d
00000040: ed9a bbbd 9648 83bf 7605 9e3c 70c4 8d3f
00000050: 0340 973d 8d4f 513d 4dde 883f 3e91 793f
00000060: 60c9 8cbd 6604 a03d fc9f 2c3c ab3e 933d
00000070: 195b 66bc ee4b 9bbf a4a7 94bf fbb4 19c0
00000080: 4fca 883f 05e1 d03c ddc6 76bc 02ca 91bf
00000090: 2d51 803f f999 bb3d 65a5 6fbf 7b0e f23c
000000a0: 22f8 ce3c d1de 743f bbc7 b1bc 2a62 453c
000000b0: 9921 8cbf 8096 86bc b54e 153d 7194 323d
000000c0: c247 e03c ffc5 bbbd b52a aebd c658 dfbd
000000d0: 66fd 0fbf effd ccbc ef26 563d 65ad 6e3c
000000e0: 0fa2 8abf a5e1 55bd 4c62 5f3d be84 1b3d
000000f0: eb83 2cbd d59e a3bf 7b37 9b3d 3494 1fbd
00000100: 0be2 7cbf 6269 163d aaa0 b83c a27a 0d40
00000110: 194b 8d3f a793 02bb 336d 033d 0bc1 02ba
00000120: 8071 143d d02f 5e3c 6db8 523d 19ce 823f
00000130: 95a9 99bf a14f 693c 162f 5e3b 6126 38bd
00000140: faf0 a8bd 7c25 7bbf c2e8 39be 6421 2cbc
00000150: f288 36bd 1834 f33e b35a e5bf a0ab ccbe
00000160: dd52 9abe 6a12 963d 45d7 c7bd 86c7 dfbd
00000170: 91b7 8dbd 3771 093d fc81 b6bc d901 c4bd
00000180: 61de 38bb 105b e13e be94 8fbd 0e51 66be
00000190: 9f7f 7a3d 3996 7ebc f972 61bd 4a19 ba3f
000001a0: e8f9 b73d cd7d 973b 17f0 80bc 0670 a2bd
000001b0: 3d5b 0a3d a202 6cbe a441 85be 11cc 39c0
000001c0: c9d6 c8be 953c ffbb 736f a53d 7201 27bc
000001d0: 16b3 2f3e 8a24 6abc 972c 543f 417b 8b3d
000001e0: faba 7b3c b9f4 e03c f33f 053d 2c54 ab3d
000001f0: 3efd 823e ed4c 9a3d a4a4 e6bf d8da ac3c
00000200: 1b90 26bd 7215 983d b0ec bcbd b481 78bc
00000210: 1295 04c0 d6d9 cb3c 77a7 2abe 20a8 debd
00000220: c020 0bbe fa52 e13c 1b24 653d ed67 a3bd
00000230: 5087 f4bc 6dc7 1abf 7a65 b03d eb00 6f3c
00000240: 28e2 eb3e 3580 a13d 4345 643d 022d 7ebe
00000250: 8b73 4f3f b69f bebd f88b 3bbc a585 cc3c
00000260: f28d 243e c5c4 933d ed73 95bd 116f 42be
00000270: 0cff 88be c76f a5bd f8a4 aabc 64bd 12bd
00000280: ad1d 05bc eb87 f3be e6fc 85bd 2191 9dbd
00000290: a83a bebb 4328 653d 669d 553e 295c b0be
000002a0: 0da2 09be e564 433c eb3b 623d 65e4 b5bd
000002b0: 41ba 883d 922f a73b 6ac7 dfbd 5f73 c9bd
000002c0: 3146 59bd a1de f0be 9b8d bb3c 20e5 bdbc
000002d0: ca0b b5bc f10a 033c ecc2 2ebe aefc 46bd
000002e0: ea8b d1bd 0769 06be 8269 133e b238 9a3d
000002f0: 9ce0 433d 0af8 e73d 2c34 583e 9e10 25bf
00000300: 7064 0b3e cbc8 18be 9a8d b1bd b0b2 373e
00000310: 9882 a43e 1843 b2bd 206e 04bf 2e12 0cbd
00000320: 6bd0 e33d f11a 0c3f 899c 0b3e 407c c4bd
00000330: 3a37 d3be 79f8 0fbe dc19 2340 99c5 a7bc
00000340: 1cbd 0e3d d099 debd 255c dfbc 093a 07be
00000350: c8bc c13f 22dd 0abe 4d3a db3d ad37 983d
00000360: d8af 7f3d 4fdb 1cbd f9b3 7bbb 8986 e13d
00000370: 3f95 5fbd 169a 233e 01ce b4bd 1b80 9b3c
00000380: 7904 2dbe 8e49 17be aa69 843d c9e3 ca3e
00000390: 6dca 42bf dd61 e1bd 2a87 3cbd 76a0 07bd
000003a0: 898a 69bd 62c4 18bd 7354 bc3d 8346 d23e
000003b0: d9af c43e 175a 003e 69b0 023d fe3a a33d
000003c0: df19 d0b9 b59c 443e 76d8 bc3d 1010 2bbe
000003d0: 0e46 823c dffe e53d b347 3cbe 3f4f c83d
000003e0: 2cc0 a9bd 9ab8 563d 3d9c 03bd b959 03bd
000003f0: 1fd2 d6bd f1c0 a33d fa8f b23d 57d7 ba3d
-0.037402935 -1.3595924 -1.175986 -0.031069422 -0.01647847 -0.97303843 -0.20459652 -1.2220869
-1.1939722 0.07197695 -0.03812447 -0.062270753 -0.10573339 0.06423153 -0.058853414 0.111133985
-0.09160409 -1.0256526 0.019289713 1.1075573 0.07385256 0.051101256 1.0692841 0.97487247
-0.06874347 0.07813339 0.01053619 0.07189687 -0.014059805 -1.2132547 -1.161366 -2.4016712
1.068674 0.025497923 -0.015062061 -1.1389773 1.0024773 0.09160227 -0.9361175 0.02954792
0.025264803 0.9565249 -0.021701684 0.01204733 -1.0947753 -0.016429186 0.036452014 0.043598596
0.027377967 -0.09168624 -0.085042395 -0.10905604 -0.5624603 -0.025023429 0.052283224 0.014567708
-1.0830706 -0.052217145 0.054537103 0.03796839 -0.042117994 -1.2782847 0.075789414 -0.038959697
-0.98782414 0.036721595 0.022537548 2.21061 1.1038543 -0.0019924433 0.032086562 -0.0004987872
0.036241055 0.013561204 0.051445413 1.0219146 -1.2004877 0.014240176 0.0033902577 -0.044958476
-0.08249088 -0.9810407 -0.18155196 -0.010506008 -0.044564195 0.47500682 -1.7918304 -0.3997469
-0.30141345 0.07327731 -0.09757856 -0.10926728 -0.06919778 0.033555236 -0.022278778 -0.09570665
-0.002820872 0.44014788 -0.07010792 -0.22491857 0.061156865 -0.015538746 -0.055041287 1.4538968
0.08983213 0.004623151 -0.015739484 -0.07931523 0.033778418 -0.2304788 -0.26026642 -2.9030802
-0.39226368 -0.0077892044 0.08077898 -0.010193216 0.1715816 -0.014290938 0.8288054 0.06810618
0.015364403 0.027460443 0.03253169 0.08365664 0.25583833 0.07534204 -1.8018994 0.021100447
-0.040664773 0.07425965 -0.09224832 -0.015167642 -2.0715985 0.024884146 -0.16665445 -0.10871911
-0.13586712 0.027505387 0.055942636 -0.07978807 -0.029849678 -0.6046055 0.08613105 0.014587621
0.4607098 0.07885782 0.055730116 -0.24821857 0.8103568 -0.09307806 -0.011446945 0.02496607
0.16069773 0.07215265 -0.07297502 -0.18987681 -0.26757085 -0.080779605 -0.020830616 -0.03582515
-0.008124751 -0.47564635 -0.06542377 -0.07693697 -0.005805332 0.0559466 0.20860824 -0.34445313
-0.13440724 0.011925911 0.055232923 -0.088814534 0.0667615 0.0051021064 -0.10926707 -0.098364584
-0.053045455 -0.47044852 0.022894671 -0.023180544 -0.022100348 0.007998214 -0.17066544 -0.048580818
-0.102317646 -0.13126002 0.14395717 0.07530345 0.047821626 0.113266066 0.21113652 -0.6447848
0.13612533 -0.14920346 -0.086695865 0.17939258 0.32130885 -0.08704203 -0.5173054 -0.034197025
0.11123737 0.5472861 0.13633932 -0.09594011 -0.41253072 -0.14059629 2.5484533 -0.020479964
0.034848318 -0.10869181 -0.027265618 -0.13205732 1.5135736 -0.13560918 0.10704479 0.07432494
0.062423557 -0.038295086 -0.0038406833 0.11011989 -0.05458569 0.15976748 -0.088283546 0.018981984
-0.16896237 -0.14774153 0.06465466 0.3962691 -0.7609013 -0.11004994 -0.04602734 -0.03311201
-0.057016883 -0.03729666 0.09195795 0.4106942 0.3841541 0.12534367 0.03190652 0.07970236
-0.00039692127 0.19200404 0.09220974 -0.16705346 0.015902545 0.112302534 -0.18386726 0.0978074
-0.08288607 0.052422144 -0.032131422 -0.032067988 -0.10489296 0.07995785 0.087188676 0.09123104

fc3.bias f4 [80]
00000000: fcac bb3e 85a2 46be bc5e 9b3b 6256 24bd
00000010: a4af a03d 6a97 a43d 7c3a e2bd ebb1 e8bd
00000020: 2762 53bc 1d64 c2bd bd1c 8c3d b196 973d
00000030: 5bf5 c3bd e80d aa3d 8d11 10bc 6406 e03d
00000040: 46fb ffbc cf10 b03d 0184 9c3d c137 8bbd
00000050: ac2c 4ebd 6a8a c1bd 78b5 583c e590 5abd
00000060: d95a c4bc 2f62 583d 6d99 473d 50b8 a43d
00000070: e11c aa3d 7aa6 4a3d fb84 14bd c6a3 3f3c
00000080: fc8f e93d 93fd bb3d 17f7 0cbe 6380 d73d
00000090: 3b07 e6bc 68e5 47bd 1130 aebd 5bc1 693d
000000a0: 0fc8 fe3c 195b b53d 5cb9 4ebd 9d27 8d3d
000000b0: 5f11 bbbd b3ff a83d af80 983d ed70 5dbd
000000c0: 6a42 c5bd 9a97 f83c df20 043d 083b 013e
000000d0: fb0c 203d c872 b3bd 48f7 183d c0ba 04be
000000e0: d5c2 44bd cbd6 c13a 7f82 273c 35d0 b1bd
000000f0: 3d13 57bb 1663 96bd 1481 c1bd 4046 2b3c
00000100: 04aa 7dbc fc60 a2bb 10e7 d03d d383 edbd
00000110: 0b76 96bd 8162 1abc f8f5 c0bd f435 f33d
00000120: 957e e53d 29df 99bd 48cd a3bd cc21 84bd
00000130: 9f38 c3bc dccf 5a3c b970 03be 39ce bcbc
0.36655414 -0.19397934 0.004741518 -0.040121444 0.07846001 0.080366924 -0.11046311 -0.1136206
-0.012901819 -0.09491751 0.06841419 0.07401789 -0.09568282 0.08303434 -0.008793247 0.10938719
-0.031247746 0.08596956 0.07642365 -0.067977436 -0.05033557 -0.094502285 0.013226859 -0.05336084
-0.0239691 0.05282801 0.048730303 0.08042967 0.083062895 0.04947517 -0.036259633 0.0116967615
0.11404416 0.09179225 -0.13766132 0.10522535 -0.02807962 -0.048802763 -0.08505262 0.057069164
0.031101255 0.08855266 -0.05046974 0.06892321 -0.09134173 0.08251896 0.074464194 -0.054062773
-0.09631808 0.030345727 0.03225791 0.12620175 0.03907488 -0.08762127 0.0373452 -0.12961864
-0.04803737 0.0014788745 0.010223984 -0.086822905 -0.0032817863 -0.07343118 -0.09448448 0.010453761
-0.015482429 -0.004955409 0.10200322 -0.11597409 -0.07346734 -0.009422899 -0.09421915 0.11875525
0.11205784 -0.075132675 -0.07998139 -0.06451759 -0.02383071 0.013355222 -0.12835969 -0.023047553
