Results/Nodes_64/model_weights_with_Jacobian.pth (torch, 25488 bytes, 6 tensors)

weight f4 [50, 2]
000000 55 34 34 3f f2 db b0 be 71 dc 28 3f a7 f1 6a 3e
       0.7039235 -0.34542805 0.65961367 0.22943746
000010 2b ca 3e 3e 0c 30 29 3e 7d 9e 01 be e2 69 a1 3e
       0.18631808 0.16522235 -0.12658115 0.31526095
000020 78 d3 9c 3e b8 73 c8 be ea 01 6a be c6 6a 6f bf
       0.30630088 -0.39150786 -0.22852293 -0.935223
000030 84 43 af bd 23 16 4f 3e 6a 98 db be 79 e5 fd 3d
       -0.085577995 0.20223288 -0.4288972 0.12397284
000040 0d 50 c8 3e 7b 77 d4 3e 03 23 b7 be 81 37 72 3e
       0.39123574 0.41497406 -0.357689 0.23653986
000050 cc 7f 20 bf 46 3b 02 3f 98 ab 10 bf bb c0 20 3d
       -0.62695 0.50871694 -0.5651183 0.039246302
000060 eb 51 77 3d c3 c0 5e bf bf ca 08 bf df 17 d3 be
       0.060380857 -0.8701288 -0.53434366 -0.4122915
000070 ff 69 03 bf 1a 24 0a 3f 87 e4 9a 3b d7 2c da be
       -0.5133361 0.53961337 0.0047269496 -0.42612335
000080 dc 25 27 3b 79 6f a3 be 08 b4 d1 bd 28 ad 1b 3f
       0.0025504744 -0.31920984 -0.10239416 0.6081109
000090 41 c3 f1 be b0 1b 18 bf 2f 74 31 3e 20 58 fc 3e
       -0.4721928 -0.5941725 0.17329477 0.49285984
0000a0 39 fb 2b bf 1f 7c 63 3e 55 6d 5e 3f 58 4f d9 3d
       -0.6718021 0.22215317 0.8688558 0.10610837
0000b0 64 a0 d5 be 91 9c b1 3e ff 5c ba 3e 72 0f cf bd
       -0.4172393 0.34689763 0.36399075 -0.10110368
0000c0 45 a3 13 bf 96 a6 e0 3c bc 74 ea be 71 89 1a bf
       -0.57671005 0.027423184 -0.45792186 -0.6036597
0000d0 2f cf aa 3e 3f 51 e9 3e cd ee d2 3e ff e0 75 bf
       0.33361194 0.45569798 0.41197816 -0.9604644
0000e0 0e 84 19 3f 20 9d 04 3f 67 93 1b 3f b1 82 40 bd
       0.59967124 0.51802254 0.60771793 -0.046999637
0000f0 f5 45 66 bc ca 19 0d bf 10 cb dc 3e 1b d8 10 bd
       -0.014054765 -0.55117476 0.43123674 -0.035362344
000100 15 de 39 bf 90 33 29 3f 5b 3d bb bd 56 bf d9 3e
       -0.72604495 0.66094303 -0.09142562 0.4252879
000110 50 c1 d5 bd 09 d2 e3 bd 6d ac 08 3f 6b ee 09 3f
       -0.10437262 -0.111240454 0.533881 0.5387942
000120 12 a7 dd be 3f d4 dc 3d b6 28 02 3f d3 31 74 bd
       -0.43291527 0.1078267 0.5084337 -0.05961783
000130 d5 39 7a bd de b4 0b 3f 4b 68 1a 3f 91 4d 2b be
       -0.06109031 0.54572856 0.6031539 -0.16728808
000140 2e 0e 09 3f 11 6e 8f bd 88 f9 4c 3d c9 06 f5 3e
       0.5353726 -0.070034154 0.05004266 0.4785674
000150 aa ff ec 3d f5 1a 1e be ec 56 1d be d1 22 17 bf
       0.115722016 -0.15439971 -0.1536519 -0.590375
000160 22 88 6a 3f ce a1 0f be 29 f1 0a bf c8 00 c4 3d
       0.9161397 -0.14026567 -0.5427423 0.095704615
000170 e2 81 98 bd e4 0f e3 3c 29 df 63 3d 38 69 33 3f
       -0.07446648 0.027717538 0.055632744 0.70082426
000180 b5 c1 2f bf 3c ac d9 be 43 37 c9 3d d2 cd 06 bf
       -0.6865495 -0.42514217 0.098249935 -0.52657807

bias f4 [50]
000000 ab 02 0f bf 59 00 1a 3f d1 da 80 3e 6a 99 60 be
       -0.55863446 0.6015678 0.25166944 -0.21933523
000010 e5 47 0c 3e 6c 87 d6 3d 30 ac 8e bd c3 f6 0b 3f
       0.136993 0.104750484 -0.06966436 0.54673404
000020 47 d2 31 3c 69 1e ee 3e 58 e7 0c bf 67 19 93 be
       0.010853357 0.46507576 -0.550405 -0.28730318
000030 4a 92 f8 3d 12 69 aa 3e 3c 4e 93 be cf 94 d5 3e
       0.121372774 0.33283287 -0.28770626 0.41715094
000040 2a 2d 16 bf b1 19 8a be 03 6d e6 3e 91 41 07 bf
       -0.58662665 -0.26972726 0.45005044 -0.5283442
000050 75 c5 29 bf 2d f9 63 be 3f d0 16 bf 52 d2 73 3e
       -0.6631692 -0.22263022 -0.5891151 0.238107
000060 65 9c fe bd 35 23 55 be 41 89 bb 3e d2 23 93 3d
       -0.12432174 -0.20814212 0.36628154 0.071845666
000070 1b 33 23 bf 5e 89 2b bf 71 c5 d6 3e 56 e9 a1 3e
       -0.63749856 -0.6700648 0.4194751 0.31623334
000080 8a 42 b3 3e 88 bd 19 bf 49 ec 0b be 02 e8 12 3f
       0.35011703 -0.60054827 -0.13664354 0.57385266
000090 56 90 12 3f fd e7 eb 3e 77 4e 1c 3f 6f b4 70 be
       0.5725149 0.4607543 0.6105723 -0.2350633
0000a0 eb 22 0c bf aa ef b6 3e 54 9c c4 3e 4e aa 5a be
       -0.5474078 0.35729724 0.3840052 -0.21354029
0000b0 16 24 46 be 3d 7a 0b bd f6 93 20 bf 73 f4 95 be
       -0.19349703 -0.034052122 -0.6272577 -0.29288062
0000c0 d7 70 65 be c3 67 72 3e
       -0.22406326 0.23672394

weight f4 [50, 50]
000000 83 03 29 bd a2 1a 57 3d fb a1 ed 3d a4 f5 f6 bc
       -0.041263115 0.052515633 0.11603161 -0.030146427
000010 cc 85 3b bd b5 ea b5 bd fa d4 30 bc a8 e2 f1 bd
       -0.045781896 -0.088826574 -0.010792965 -0.118108094
000020 f3 9a ac 3d c4 80 08 3e 40 7e 1a 3d 29 f6 08 3e
       0.08427992 0.1333037 0.037718058 0.13375153
000030 48 0c a9 3d 50 27 d7 3d 7c c1 05 3e f1 4a de bd
       0.082542956 0.10505545 0.1306209 -0.10854138
000040 65 c8 35 bc ca 9e 59 3d 26 71 d9 bc e1 73 cd bd
       -0.011095141 0.05312995 -0.026543211 -0.10031868
000050 6b e2 35 bd 99 bd a6 bd a9 2a 4b bd 1c ce f3 bd
       -0.044405382 -0.08141632 -0.04960123 -0.119045466
000060 a6 bb 2e bd 45 f4 a5 3d fd 48 96 bd 9d 6a 48 3d
       -0.042659424 0.08103231 -0.0733814 0.0489298
000070 82 2f ee bd cb 81 b6 bd e2 74 5b 3b b4 0d f5 3d
       -0.11630155 -0.08911475 0.0033486416 0.11965504
000080 64 50 f4 bd 8e 23 7c 3d e2 9e ca 3c 6d e9 01 be
       -0.11929396 0.061557345 0.024733964 -0.12686701
000090 a2 20 bb bd b4 84 75 3d 63 1c 73 bd 61 ce b3 3d
       -0.091370836 0.05994101 -0.059353244 0.08779598
0000a0 96 4a c8 bd fb f5 f1 3d 78 e5 aa bd c6 a6 6a 3d
       -0.09779851 0.11814495 -0.08344549 0.057287954
0000b0 ec f9 fd 3c bb 44 e3 bd e6 e4 97 bd 14 51 0c bd
       0.031002961 -0.11097094 -0.07416706 -0.03425701
0000c0 23 41 eb 39 77 c0 6f 3d 02 1d 6e bd 18 74 aa 3c
       0.00044871224 0.05853316 -0.058133133 0.020807311
0000d0 6c 1c 9d bd fb ab 89 bd 89 01 bd 3d 65 a6 1e bd
       -0.07671437 -0.06722256 0.092288084 -0.038732905
0000e0 e3 c8 fd bd f0 a7 c2 3b 5e 27 a5 bc 44 ad 24 3d
       -0.12391832 0.00594043 -0.020160373 0.0402043
0000f0 2e bf 93 bd d0 98 c7 3b ff e2 8e bd d1 0a af bd
       -0.07214199 0.0060912147 -0.0697689 -0.08546985
000100 4b 6a 04 3d c5 0a 33 3d eb 53 d6 3c 8c c4 05 3e
       0.03232793 0.043711443 0.026163062 0.13063258
000110 1a cb 56 3c c2 08 45 3c eb 75 97 bc fa 01 0c be
       0.013109947 0.012026014 -0.018488845 -0.13672629
000120 37 8f 62 3d 5c c8 e1 3d c0 9a 65 3c e1 e1 e1 bd
       0.05531236 0.11024544 0.014013946 -0.11029411
000130 35 07 02 3e f9 c4 01 3d f6 7d d1 3d 89 95 7b 3d
       0.12698062 0.03168199 0.10229103 0.061421905
000140 3b bd b6 3c 51 ab 2a bd ef d8 ed 3c 67 62 3a 3d
       0.022307029 -0.041667286 0.029034106 0.045504
000150 21 78 0c bc 8f ff b8 bd 7e 36 98 bd 06 bb 04 be
       -0.008573563 -0.09033119 -0.074322686 -0.12961969
000160 11 8e 62 bd 16 c4 ba bc 92 e1 ec 3d aa ed 9a bd
       -0.055311266 -0.02279858 0.115664616 -0.07564862
000170 98 7e 0e be af bf 9e 3d a7 b8 f9 3d af e7 e1 bd
       -0.13915479 0.077514045 0.12193423 -0.11030518
000180 6e 1f b9 ba 03 2a 38 3d 80 b8 ba 3d f0 f8 cf bc
       -0.0014123747 0.04496194 0.09117222 -0.025387257
000190 48 ea 83 3d f6 3d b4 3d 49 ba 7e 3d 8a 1d 8d 3d
       0.0644117 0.088008806 0.062189374 0.068904
0001a0 d6 b4 85 3d 07 6e db bd 2d 54 f6 3c a9 0d e3 3d
       0.06528632 -0.107143454 0.030069435 0.1108659
0001b0 d5 8a d2 bd 40 d0 0d be 3a 2d ef bd b7 da 31 3d
       -0.10280386 -0.13848972 -0.11678548 0.043421473
0001c0 3e ee e0 3d 38 3e 0e bd 5b 45 66 bd 96 26 5e bc
       0.10982941 -0.034727305 -0.056218486 -0.013559004
0001d0 6a cf ee bd cc 8c c8 3c 7e 86 ed bd 6a f1 c2 bd
       -0.11660655 0.0244812 -0.11597918 -0.09518702
0001e0 97 46 d3 bd c1 89 18 bd 09 c1 bc 3d 49 82 07 3c
       -0.10316198 -0.037240747 0.09216506 0.0082708085
0001f0 58 90 c9 3d 63 b6 0b be fd 3b 0a be 7f 7d 87 3d
       0.098419845 -0.13643794 -0.13499446 0.06615733
000200 6c 25 e4 3d cb f6 f5 3d 7e b7 1c be 98 96 2f 3d
       0.1113995 0.12009963 -0.15304372 0.042868227
000210 9f eb f6 bd 37 50 2b bd 99 c0 3b 3b 73 73 3a 3d
       -0.1205666 -0.041824546 0.0028648733 0.045520257
000220 69 26 8d bd cf ae 12 be ac 89 00 be 07 fe 1f bd
       -0.06892092 -0.14324497 -0.12552518 -0.03906062
000230 76 b9 dc 3d a1 d9 9d 3d 74 e7 40 3d e2 3d ea bd
       0.10777561 0.07707525 0.04709573 -0.114375845
000240 82 9e 13 be de fd 05 3e 56 2f bd 3d 80 ac 79 bd
       -0.14415935 0.13085124 0.09237544 -0.060955524
000250 34 d4 42 3c d8 b7 a5 3d cd 5b 02 3e 09 0c e9 bd
       0.0118914135 0.08091706 0.12730332 -0.11379249
000260 87 8c 8f bd 01 1a 61 3d 55 4a dd 3d f0 8d c9 3c
       -0.07009225 0.05495644 0.10805193 0.024603814
000270 fe fe 0e bc 9c 80 b3 3b 50 c8 03 3e d3 65 e3 bd
       -0.008727787 0.005477978 0.12869382 -0.11103406
000280 a0 f2 83 3d c6 5b cf bd a3 4d 5c 3c c8 cc 08 be
       0.064427614 -0.10124926 0.013446244 -0.13359368
000290 81 96 bb 3d 6b 5f a1 bd f6 ea 19 3c d4 a4 b5 bd
       0.09159566 -0.07879528 0.009394398 -0.08869329
0002a0 92 31 54 3c 08 0a 8d bd 40 1f 94 bd eb 07 7b bd
       0.012951272 -0.06886679 -0.07232523 -0.061286848
0002b0 c2 b4 b3 3d 35 e7 a1 3c 5d 33 15 bd 9d ae f6 3d
       0.08774711 0.019763568 -0.036425937 0.120450236
0002c0 f6 08 e3 3c 0b 75 3b bd 63 8b d1 bb a3 7c 62 bd
       0.027714234 -0.045765918 -0.00639479 -0.055294644
0002d0 fb cb 65 bd b3 e3 34 bd bb 0b 0a 3d ba f2 00 be
       -0.056102734 -0.044162463 0.033702593 -0.12592593
0002e0 71 8e e1 bd 6d 6c c2 3d 15 bc 0a bd 4f 19 ab bb
       -0.11013497 0.09493337 -0.033870775 -0.005221523
0002f0 e4 4e 4a 3d cb 8c 81 bd e9 e5 ca 3d 3a 1f 03 bd
       0.049391642 -0.06325682 0.09907133 -0.0320122
000300 9d 30 0d 3c 4f df c8 bd e7 8c 6b 3d 10 dc cd bd
       0.008617547 -0.09808218 0.05750742 -0.10051739
000310 f8 24 b0 3d bf 04 a4 bc 12 90 53 bd a6 e8 41 bd
       0.08600801 -0.020021794 -0.051651068 -0.04734101
000320 80 00 5d 3d 0f c1 d5 3d 71 20 58 bb fe 86 b1 3d
       0.053955555 0.10437214 -0.003297832 0.08668326
000330 82 42 dd bd b9 ed e3 3d 22 06 a4 bd 02 71 bb bd
       -0.10803701 0.111293264 -0.08008982 -0.09152414
000340 a7 08 f0 3c fb f9 2f bd 6e 20 03 3d 89 53 66 bd
       0.029301 -0.04296301 0.03201335 -0.05623201
000350 b7 70 00 3e fc 15 d2 bc 85 32 0b be 8e ac 69 3d
       0.12542997 -0.025645249 -0.1359349 0.057049327
000360 67 6f d9 bd c1 a3 de 3d 86 71 fc 3d e8 81 a2 bd
       -0.106169514 0.10871077 0.123263404 -0.07934934
000370 bb 8a 25 bd 09 2f 16 be 89 a8 d0 3d 01 3b 99 bd
       -0.040415507 -0.1466638 0.101883955 -0.07481957
000380 35 60 f3 bc 20 2b 2b 3c e9 86 83 3c 8c 5d da be
       -0.029708961 0.0104472935 0.016055541 -0.42649496
000390 c3 ff 8d 3d f8 f5 94 3d 80 a1 89 3c 8e 18 99 3d
       0.06933548 0.07273477 0.016800642 0.074753866
0003a0 02 c6 0c be 53 b5 9d bd 44 d5 35 bc f2 a6 88 bd
       -0.13747409 -0.077006005 -0.01109821 -0.06672467
0003b0 d2 90 81 3d 7d 0e b8 3d 17 5e fa bd 58 92 53 3d
       0.063264504 0.089871384 -0.122249775 0.051653236
0003c0 d2 fc 0a 3d 59 4f 9b 3d 7d 82 a7 3d c6 d0 fb bc
       0.033932514 0.07583494 0.081791855 -0.0307392
0003d0 77 e3 02 bc 3e bd c0 bd 0c a0 ff 3c 57 a6 e2 3d
       -0.007988802 -0.09411095 0.031204246 0.11066883
0003e0 d1 53 47 3d be a2 03 3e 1e 5c 67 3d cb d3 19 3d
       0.048663918 0.1285505 0.056484334 0.037555497
0003f0 a3 cb 0a bd 6b 38 fa bd d2 c2 17 3c 0c 62 9c 3d
       -0.03388561 -0.12217792 0.009262757 0.076358885

bias f4 [50]
000000 39 59 cb 3c 88 76 0b 3c 1d 31 cd 3d ba a6 6d 3d
       0.024822818 0.008512147 0.10019133 0.05802033
000010 b9 59 d5 3d 04 d9 3a bc 81 c5 f3 bd 18 32 b5 bd
       0.10417504 -0.01140428 -0.11902905 -0.08847445
000020 9f 95 17 3e c2 e5 b0 3d b9 f5 67 3c a2 b1 ce bd
       0.1480317 0.08637573 0.014157706 -0.100924745
000030 9c 02 db 3d 82 98 02 3d 2c 88 e4 bd 9d 67 28 3d
       0.10693857 0.031883724 -0.11158785 0.04111444
000040 ff d5 c0 3d 5d f6 8f bd ff 38 dd 3d d1 7e 25 3d
       0.094158165 -0.07029412 0.10801887 0.040404145
000050 ad 7d 50 bd 83 a4 be 3d eb 55 07 3e ef e6 03 3e
       -0.050901104 0.09308722 0.13216369 0.12881063
000060 aa b5 1b be 89 fd 00 3c c3 22 9d 3d 0f 0e 76 3d
       -0.15206018 0.0078729475 0.07672646 0.060072
000070 1d 37 15 bd 1a f0 41 3e 82 8d 8f 3d be 7f 50 bb
       -0.036429513 0.18939248 0.07009412 -0.0031814422
000080 ee a4 c6 3d 92 b2 ae 3d 50 55 ac bc b8 d8 b9 bd
       0.096994266 0.08530153 -0.021036774 -0.09074539
000090 e4 29 b5 bd 99 5d e9 bd 72 1c ad bd 9d cd 4d be
       -0.08845881 -0.113948055 -0.08452691 -0.20097966
0000a0 4f d4 5a 3d 33 17 26 bd 62 f3 0f bc 8d d2 bc 3d
       0.05342513 -0.04054947 -0.008786054 0.09219847
0000b0 e6 86 f5 bb 81 f6 c8 bd 70 4e bd 3d 9d b4 ca 3d
       -0.007492888 -0.09812642 0.092434764 0.098977305
0000c0 c0 74 85 3c 1d d9 43 3d
       0.016291022 0.047814477

weight f4 [50, 50]
000000 9b ab dd bd 93 dd a9 3d b2 4b 62 3c 34 f1 4c bc
       -0.10823747 0.08294215 0.0138119925 -0.012508679
000010 06 0b dd 3b 5c 81 38 3c 8e 35 2d 3d 62 91 9e 3d
       0.006745699 0.01126131 0.0422874 0.07742573
000020 0c eb 14 bc 1c 2b 84 3d 16 b9 58 3b 30 84 cc 3d
       -0.009089243 0.06453535 0.0033069304 0.0998615
000030 0d 6e 3f 3e a4 59 87 bd 13 ef 6e bd 64 70 9b bd
       0.18694325 -0.066088945 -0.058333468 -0.07589796
000040 0a b9 b6 bd 57 d3 53 bd b5 ee 08 3f 69 86 af bd
       -0.08922012 -0.05171522 0.5348924 -0.085705586
000050 a4 6c a0 3d cf a5 b8 3b 9b 91 93 bd 5b af bc 3c
       0.078332216 0.0056350003 -0.072055064 0.023032835
000060 9e a3 da bd 5b 6c f8 bd cf 6e 2a 3e e5 00 ad bd
       -0.10675739 -0.12130042 0.16643833 -0.08447436
000070 3b 4b ca bb 89 d8 c3 be 9f 1b f6 3e 8f dc f8 bd
       -0.006173519 -0.3825114 0.48067948 -0.12151443
000080 39 89 50 3c 3f e4 79 bc fa b4 60 3c 45 04 46 be
       0.012728029 -0.015252172 0.013715023 -0.19337566
000090 dc 7b ab bd 96 de 45 bb ea cc 76 bc 8f e8 b5 be
       -0.08373234 -0.0030192486 -0.015063504 -0.3552899
0000a0 df a9 3a 3e 11 51 27 3c b1 58 18 3e 27 08 3e 3e
       0.18228863 0.010212199 0.14877583 0.18557797
0000b0 6e f5 f8 3c 49 45 00 be f7 81 28 bc b9 c6 0d 3e
       0.030390467 -0.1252643 -0.010284892 0.13845338
0000c0 7e 23 a6 3d b3 1c b4 3d 3b 7c e8 3d e2 95 96 bd
       0.08112238 0.087945364 0.1135182 -0.07352807
0000d0 a7 ba 0d bd 18 9c ac bc 7a 6f aa 3e 51 45 29 3e
       -0.034601834 -0.021070525 0.33288175 0.16530348
0000e0 19 cf 1c be 2e bb 28 bc b1 af 94 3e be 41 93 be
       -0.15313376 -0.010298533 0.29040292 -0.28761095
0000f0 0c 6a a4 3d 66 8a f9 bd b5 bd fa bd 3a 39 68 bd
       0.08028039 -0.121846005 -0.12243215 -0.0566952
000100 d8 45 37 3d 74 6f fd 3c f7 8a 81 bc 7d 0c 3b 3e
       0.044744343 0.030936934 -0.015813334 0.18266483
000110 66 ad 69 be 72 3d 0c be c0 2f c0 3c 91 3d 0a 3e
       -0.22820053 -0.13695315 0.023460269 0.13500048
000120 1b 6d 9f be d4 9f 7a 3d d6 c5 ba bc 0e 25 94 3d
       -0.31137928 0.06118758 -0.022799414 0.0723363
000130 99 3e e1 3d ec 01 44 3d af 77 92 3c 46 6f 40 be
       0.10998268 0.047853395 0.017879335 -0.18792447
000140 66 f4 97 3d 0b b7 aa be a7 cb dd bd 44 ce 90 3d
       0.07419662 -0.33342776 -0.10829859 0.07070592
000150 15 25 02 3e ce 87 bf 3d 56 00 ef 3d 1b 2b ef 3b
       0.12709458 0.093520746 0.11669986 0.0072988397
000160 54 70 c7 3d 34 e3 21 3f 67 12 69 be ba 6c d9 bc
       0.09738222 0.6323731 -0.22760926 -0.026541103
000170 1e 26 24 3d cb f0 3f 3e 18 f6 b2 3c 98 fb 04 3e
       0.040075414 0.18744199 0.021845862 0.129866
000180 f8 b6 89 bc 43 19 bd 3e 3c 91 87 3d 47 52 1f 3d
       -0.01681088 0.36933336 0.06619498 0.038896825
000190 f1 f2 82 bc d3 6b ce 3d c8 fe 29 bd 02 35 e1 3d
       -0.015984984 0.100791596 -0.041502744 0.109964386
0001a0 66 19 57 bc 77 ce 1a 3d 74 14 5c bd ad ec 31 be
       -0.013128614 0.037794556 -0.053730443 -0.17375441
0001b0 31 99 42 3d 7d 44 4d 3e e0 11 0a bd 5b 2f 04 be
       0.047509376 0.20045657 -0.033708453 -0.1290869
0001c0 3d dd 79 3d a1 c6 94 3d c2 f7 04 be bb 3a f3 3c
       0.061002005 0.07264448 -0.12985137 0.02969109
0001d0 45 83 88 3d d4 d7 d6 3d 61 af 0f bf fa 91 b2 bd
       0.06665663 0.10490385 -0.5612698 -0.08719249
0001e0 41 83 d1 bc 3a fb cf bd 59 4d 64 3d e2 bf 61 3c
       -0.025575282 -0.101553395 0.055737827 0.013778659
0001f0 91 21 0d 3e a2 5b d6 bd 94 95 b0 bd cc 01 23 be
       0.13782336 -0.10466696 -0.0862228 -0.15918654
000200 5f 2a f0 bd 0d f6 55 be 8d 2f 01 3e 45 4d 1f 3e
       -0.11726832 -0.20894642 0.12615795 0.1555682
000210 fa c1 2e bd 07 f7 72 bd 88 99 2e 3d 05 98 c1 3c
       -0.04266546 -0.059317615 0.042626888 0.023632059
000220 53 ef 49 3d 87 80 cc bd 91 ad 00 3e bf 56 25 3e
       0.049300503 -0.09985452 0.1256621 0.16146372
000230 6e 8e 08 bd d6 f1 ba 3d 98 a0 56 be 44 31 71 be
       -0.033338957 0.09128158 -0.20959699 -0.2355395
000240 f0 31 d6 3d c7 8c 60 3d 11 dd 77 be 9f 8b c1 3b
       0.104587436 0.054821756 -0.24205424 0.0059065367
000250 86 94 d3 bc 58 bf 8c bb 0f 8b 22 3d 63 47 54 3d
       -0.025827657 -0.004295271 0.039683398 0.051825892
000260 5b 10 cc 3d a7 32 c7 bd fc 58 9b bd be 6c cf 3c
       0.09964057 -0.09726458 -0.07585332 0.025320407
000270 99 18 9c bd 04 9e a9 bd 9b 48 44 3d b1 9e eb 3d
       -0.07621879 -0.08282092 0.047920804 0.11504877
000280 e4 24 bf 3d a3 62 b2 bd 76 05 e4 bc bc a4 1b be
       0.09333208 -0.0871022 -0.027834635 -0.1519956
000290 0f dc 50 bd 25 5b f1 3d de 8a 19 bc 68 f2 19 3d
       -0.050991114 0.117849626 -0.009371487 0.037584692
0002a0 a4 40 b3 bd 07 a6 6e 3d 8c 49 c3 3d ee 6f 5e bd
       -0.087525636 0.058263805 0.09535512 -0.054305963
0002b0 b0 99 f9 3d 98 43 fb 3c 78 4c 06 be 17 1d d9 bd
       0.12187517 0.03067188 -0.13115108 -0.106012516
0002c0 e6 31 0d bc d2 1e 53 bd 00 68 ca bd 95 de 83 bd
       -0.008617854 -0.051543064 -0.09883118 -0.064389385
0002d0 b8 0a 0b 3d 45 78 6f 3d 15 ad 6c bd d0 a1 7d 3d
       0.03394577 0.058464307 -0.05778225 0.061921895
0002e0 3f d5 ed 3d 05 fd 68 3d 66 68 0d be 98 41 2b bd
       0.11612939 0.056881923 -0.13809356 -0.041810602
0002f0 b8 46 8c 3d 80 d2 b9 3d 4f a3 dd bd 9b 97 9e 3d
       0.06849426 0.09073353 -0.10822164 0.0774376
000300 0f 54 27 3d 36 f1 9a bd 40 d0 a5 3d 1b 22 c6 3d
       0.04085165 -0.075655386 0.08096361 0.09674474
000310 e7 3b 03 bd 27 cc d0 bd 5d 34 4d 3d 78 77 b9 ba
       -0.03203955 -0.10195189 0.050098766 -0.0014149984
000320 94 19 b1 bc 0e 6c 00 3e 52 44 13 bd 68 e0 92 bd
       -0.021618642 0.1254122 -0.035953827 -0.07171708
000330 31 c4 18 be 3e da c3 3d 81 0f 03 3d 0c 05 69 bd
       -0.14918591 0.09563111 0.031997208 -0.05688958
000340 d9 ff f8 bc 26 1c d4 bc 6d 55 da 3d 9f 3f d9 bd
       -0.030395435 -0.025892328 0.10660825 -0.10607838
000350 9c 3c 02 3c 8f d5 ba bd 74 ff 93 3d 88 fb a7 3d
       0.007949021 -0.09122764 0.07226458 0.08202273
000360 b3 80 91 bd a3 03 e2 bd 35 af 71 bc 84 61 47 bb
       -0.071046256 -0.1103585 -0.014751245 -0.0030423114
000370 c0 f4 56 3a b3 19 30 3d 07 5d 02 3d 8a 6a c9 3d
       0.0008199923 0.04299326 0.031827 0.09834774
000380 7d 35 69 bd b4 6d 85 bd 6b 75 29 3d 3a a1 b0 bd
       -0.056935776 -0.06515065 0.041371744 -0.086245015
000390 25 84 8a bd c5 88 df bc b1 f0 83 bd 54 82 97 3c
       -0.06763486 -0.027286896 -0.064423926 0.018494762
0003a0 52 f5 90 3d 54 c0 32 bd 13 99 28 3d 35 67 7e bc
       0.07078041 -0.04364045 0.041161608 -0.015527536
0003b0 02 2c 1e be b3 5b 7c bd 7a b1 8c bd 2e df f6 bc
       -0.15446475 -0.06161089 -0.068697885 -0.030135717
0003c0 9a 0b 56 bd 4a 46 be bd 6e bc 8f bd 36 11 03 be
       -0.052257158 -0.0929075 -0.07018362 -0.12799534
0003d0 f7 9c 16 3d 48 4b d5 3d 19 0a 1e 3d cb d6 b2 bd
       0.036770787 0.104147494 0.03858385 -0.08732375
0003e0 81 ed 03 3e 0e 09 8d 3c ca b1 b1 3d 13 5c f8 bd
       0.1288357 0.017216232 0.08676489 -0.12126937
0003f0 51 3f 01 3d a1 0e f6 bc e1 3c 7e be 3c b7 a5 3d
       0.031554524 -0.030036272 -0.24827911 0.0809159

bias f4 [50]
000000 24 e8 e3 bd b4 3c ae 3d cf b7 ba 3d 65 54 1d bc
       -0.11128262 0.08507672 0.0911709 -0.009602641
000010 c6 fc db 3d 8f b5 81 bc 39 6a d6 bd 4f ab ba 3d
       0.10741572 -0.015833644 -0.10469479 0.09114706
000020 36 18 8e bb b3 00 8d 3d 5e 14 94 3d a2 f3 0c 3d
       -0.0043363823 0.06884899 0.07230447 0.034412034
000030 d6 b7 81 bd bf cd b7 bc a9 ab bb 3d ff ca 63 3d
       -0.06333892 -0.022436975 0.09163601 0.055613514
000040 26 18 5d bc 63 73 2c 3c 53 f4 29 3c 5e d0 2e 3c
       -0.013494527 0.010525557 0.010373193 0.010669796
000050 37 c1 2d 3d 65 ef 3d 3d 08 af c3 3d b3 cd bb 3d
       0.042420592 0.046370883 0.09554869 0.091700934
000060 3c 85 8e bc be 93 8e 3c 8f f4 bd bd 59 61 99 bc
       -0.017397515 0.017404433 -0.092751615 -0.018723177
000070 82 29 ae 3c e8 70 62 bd 39 21 a4 3d 91 e1 5b bd
       0.021260027 -0.055283457 0.08014149 -0.053681914
000080 5a 28 cc bd 77 22 74 bb e5 77 de bc 69 15 9b bd
       -0.09968634 -0.0037251988 -0.02715678 -0.07572443
000090 18 60 54 3d dd a2 90 3c 18 6e ff bb a0 40 fe 3c
       0.051849455 0.017655784 -0.0077951066 0.031036675
0000a0 ae 1a f5 bd 20 a9 3c 3d ef 5a 95 3c 6b 01 a1 3c
       -0.11967979 0.046059728 0.018231837 0.019653996
0000b0 04 5e 28 3c 89 f5 7a bd 5f 51 7c 3d ab b1 71 bd
       0.010276321 -0.061269317 0.06160104 -0.059007328
0000c0 6c 86 ab bc 34 3e 9e 3d
       -0.02093812 0.07726708
