Results/Nodes_64/model_weights_with_Jacobian.pth (torch, 12816 bytes, 6 tensors)

weight f4 [31, 2]
000000 1e 16 8d c0 91 0b 49 bd 4f 77 2f 3f f6 0d 41 c0
       -4.40895 -0.049083296 0.68541425 -3.016477
000010 1b 9b a9 be da 9c 49 c0 d5 51 a7 be 52 fa 73 be
       -0.3312615 -3.1501985 -0.3267962 -0.23825958
000020 71 c5 8e 3f 06 5d 52 c0 ff 45 43 be 8f 2b 3c 3e
       1.1154004 -3.2869277 -0.1906967 0.18375991
000030 93 40 0e 3f 10 dd 45 c0 50 15 88 3f 84 50 31 3f
       0.5556728 -3.0916176 1.0631504 0.6926348
000040 e2 c2 64 3e a6 98 98 c0 61 01 8e be 4f 48 87 40
       0.22339967 -4.768634 -0.27735427 4.2275767
000050 8f c0 aa 40 46 e2 5b c0 94 f2 11 bf 2f 75 9d be
       5.3360057 -3.4356856 -0.5701077 -0.30753466
000060 b2 a4 89 40 95 91 9e c0 b1 3c d8 bd 0e c3 99 3e
       4.3013544 -4.9552712 -0.10558451 0.30031627
000070 bc 07 45 bf 61 15 8d c0 61 fb da be f0 fa b4 3e
       -0.76964927 -4.4088597 -0.42769912 0.353477
000080 1e 59 9e be aa 91 35 be dc 0e 1d bf b0 16 19 3b
       -0.30927366 -0.17731348 -0.613508 0.002335947
000090 d1 3e ca 3e d1 90 6d 40 97 29 c1 be 7b ce 1b 3c
       0.3950105 3.711964 -0.37727043 0.009509678
0000a0 b6 c9 9e bd e7 bb 11 bf 87 ef 0d 3f 06 c3 3a 3c
       -0.07753317 -0.5692734 0.55443615 0.011399036
0000b0 11 7d 18 3e a3 33 92 be b0 3a 08 bf 55 ef dd bd
       0.14891459 -0.2855502 -0.5321455 -0.108366646
0000c0 ac dc ea be 21 7e 8f c0 2b c5 c0 c0 42 4f 95 40
       -0.45871484 -4.4841466 -6.0240684 4.665925
0000d0 eb 05 0b 3e 3f 30 6f c0 7f 54 a9 be fe 32 32 3f
       0.13576476 -3.7373197 -0.33072278 0.6960906
0000e0 e8 d5 0e 38 20 94 c4 bd 42 94 cd 3f c1 6e 2e c0
       3.4054654e-05 -0.09598565 1.606087 -2.72551
0000f0 17 d4 1c 3f b5 17 67 c0
       0.61261123 -3.610822

bias f4 [31]
000000 12 89 56 3f cc db db 3e dc 3c ca 3e 7e af 02 bf
       0.838029 0.4294113 0.39499557 -0.5104903
000010 ee 52 b6 3e ff 16 e0 be 01 7f f1 3e 42 f1 1d bf
       0.35610145 -0.43767545 0.4716721 -0.61696255
000020 63 f5 e3 3e 14 c1 80 be 3c 23 fe be b9 b1 92 be
       0.44523153 -0.25147307 -0.49636257 -0.28651217
000030 5a 17 54 3e e3 86 81 be 80 52 e6 3e 49 b8 68 be
       0.20712033 -0.25298223 0.44984818 -0.22726549
000040 1e 88 42 bc 2f 8e 1d bf d7 ea aa be e7 62 be be
       -0.011873273 -0.6154508 -0.33382294 -0.37184832
000050 11 3f 74 be 69 31 e7 be 19 d1 22 bf a4 80 15 be
       -0.23852183 -0.45154884 -0.6360031 -0.14599854
000060 18 17 13 3f 85 57 18 3f 4c 86 b4 3e 7e a8 bb be
       0.57457113 0.59508544 0.3525871 -0.36651987
000070 a6 07 33 bf 26 23 73 3e a3 aa 0f 3f
       -0.69933546 0.23743877 0.56119746

weight f4 [31, 31]
000000 72 9d aa bf 39 e6 83 3d 24 7f 1b 3e 7d 41 32 3c
       -1.3329298 0.06440396 0.15185219 0.010879871
000010 7b 9a dd bd ca c9 16 3e ea 11 9d 3d 1c 94 f3 3d
       -0.108204804 0.14725414 0.076694325 0.11893484
000020 5c c2 f8 bd 9e dc 89 bf 91 41 fb bd d2 fb 35 3e
       -0.12146446 -1.0770452 -0.12268365 0.17771843
000030 a5 d9 9b bd ac a4 dd 3d 75 4f 13 3d 60 f5 42 3d
       -0.07609872 0.10822424 0.035964448 0.04759729
000040 a3 a2 e1 bc dc 14 97 3d 37 d1 a0 bf f2 5a 2d be
       -0.027543372 0.073770255 -1.2563847 -0.16929224
000050 72 52 8d bd eb 1a 10 3e 87 ad 41 bd 87 3b 67 3d
       -0.06900491 0.14072768 -0.04728463 0.056453254
000060 41 ff 87 bd af 00 86 bf c7 24 dc 3d 7f d9 81 3d
       -0.06640483 -1.0468959 0.10749202 0.06340312
000070 7e 05 bc bd 7a 48 16 be 06 94 dd 3b eb 45 cd be
       -0.09180735 -0.14676085 0.0067620305 -0.40092406
000080 c0 6f 17 be d7 b1 ef be 50 5f a4 3d ed 9a ee bd
       -0.14788723 -0.4681537 0.08025992 -0.116506435
000090 75 38 b8 3d 84 f0 6f be 39 cd ef be a3 7c fb bd
       0.08995143 -0.23431593 -0.4683626 -0.12279632
0000a0 de 0d a7 be 69 40 ed be 0c 8e 35 3e f8 be bc be
       -0.32627767 -0.46338204 0.17729968 -0.36864448
0000b0 8a 2f 50 bc f3 50 06 be 2e fb fe bd 5d 1e 02 be
       -0.012706647 -0.13116817 -0.124502525 -0.12706895
0000c0 62 43 ef 3c 5d f1 c4 bc 3a 74 29 3d 4e 40 1a be
       0.029206935 -0.024040872 0.041370608 -0.15063593
0000d0 7b 02 b0 3b c2 98 a3 bd 4d d4 b4 bd 6c 86 eb be
       0.0053713894 -0.079881206 -0.08829556 -0.46000993
0000e0 90 22 4d be 67 9c 85 be 8b 7d 1b be 5f f2 11 3e
       -0.20032716 -0.26095888 -0.1518461 0.14252613
0000f0 8d 2d 77 be ec 42 86 be 92 bb cf be 8d df 8b be
       -0.2413847 -0.26222932 -0.40572792 -0.27318993
000100 82 45 02 be 3f 4a fc 3d 38 5d e1 be dc e1 27 3e
       -0.12721828 0.12318849 -0.44016433 0.16394752
000110 f4 9c 92 be 53 06 5b be 86 a3 24 be 20 b1 16 be
       -0.2863537 -0.21389131 -0.16078004 -0.14716005
000120 e3 6c e1 be de 3a ea 3e 48 32 d8 be 63 99 5c 3c
       -0.44028386 0.45748037 -0.42225862 0.013464305
000130 65 ff d9 be 29 48 21 bd dc b8 05 bc ce 05 b0 bc
       -0.42577663 -0.039375458 -0.00816175 -0.021487143
000140 91 44 a8 be b1 16 68 3c 03 6b 35 3e e6 b6 d5 3d
       -0.32864812 0.014165566 0.17716603 0.10435276
000150 6f ca cd 3d df 8a be 3e 01 19 25 be 17 fc 9d be
       0.10048377 0.37215325 -0.1612282 -0.30856392
000160 da 6d 92 be ba 65 17 3d 0b 66 20 be 6d d1 e3 be
       -0.28599435 0.03696225 -0.15663926 -0.44495717
000170 49 77 8e be d6 00 48 be 07 6e 5c be 44 53 8c be
       -0.27825382 -0.19531569 -0.21526347 -0.27407277
000180 e2 07 e5 3c 4b dc 10 3c 0f fa 73 bd d6 32 d4 3d
       0.02795786 0.008841584 -0.059564646 0.10361259
000190 a8 98 0a be fb 39 c3 be be 57 e8 be db 41 c6 be
       -0.13534796 -0.38130173 -0.45379442 -0.3872212
0001a0 81 ae 4e 3e 7c 30 df be ef 7d 5d bc 3f 66 92 be
       0.20183755 -0.43591678 -0.013518794 -0.28593633
0001b0 af d8 b9 bd 2d b7 69 bd a4 0f 85 bd 47 6c d2 be
       -0.09074532 -0.057059456 -0.06497124 -0.41098234
0001c0 3b 54 88 bd 14 af 03 be 20 e8 98 3d e3 f8 29 bc
       -0.06656691 -0.12859756 0.07466149 -0.010374281
0001d0 75 6e 8f bd d4 b8 2e be 21 d6 e8 bd 28 7e 8a be
       -0.0700349 -0.17062694 -0.11368967 -0.27049375
0001e0 2c 77 ec 3d 6b 59 1a 3e 4e 87 86 be b4 bb 86 3e
       0.11546168 0.15073173 -0.26275104 0.2631508
0001f0 4e 9c 29 be e3 bb 98 be 6e ce 5a be 14 9a 80 bd
       -0.16563532 -0.29830846 -0.21367809 -0.06279388
000200 f6 f1 e9 be 06 f6 39 3d de a6 7c be 41 d7 d5 be
       -0.45692414 0.04540064 -0.2467303 -0.41765788
000210 5c 48 5a be 1f 4b e8 be 0c 33 15 be e7 5e 01 be
       -0.21316665 -0.45369813 -0.14570254 -0.12633859
000220 61 b4 80 be c5 c9 e6 bd a6 f9 59 be bc bc fa 3c
       -0.25137618 -0.11268953 -0.2128664 0.030607574
000230 69 0a 48 3d 39 c7 71 3d d9 c0 df 3e 75 1b 9e bd
       0.048838053 0.059027884 0.4370182 -0.07720081
000240 dd 7b 25 bd a7 9e 48 3d 40 51 a0 3c 4c 2c 1f be
       -0.04040133 0.048979428 0.019569993 -0.15544242
000250 70 0a ca be fa 16 9d be ed 8e 88 be 54 62 43 bd
       -0.39461088 -0.30681592 -0.26671544 -0.047701195
000260 ca c1 fa 3d b0 ae 8f be 33 bb ee be cc 61 f0 be
       0.122439936 -0.28062963 -0.46627197 -0.46949613
000270 a6 2b e9 be a1 81 a3 be db fd aa bc 26 fd 0f bf
       -0.45541114 -0.31934837 -0.020873 -0.5624565
000280 77 0e 06 bd f2 21 d1 be 47 f8 1b bf 70 1b 3d bd
       -0.03272864 -0.4084621 -0.60925716 -0.046168745
000290 82 1a 17 bf 0e 4e ea bd a3 3c 36 3d 1b e7 0c bf
       -0.5902482 -0.11440669 0.04449142 -0.5504014
0002a0 e2 de 2c 3d 8e 3b 94 be 54 99 f0 bd d6 c1 ed bd
       0.042204745 -0.28951687 -0.11747995 -0.11609237
0002b0 9d 06 34 3e 9e 3d c1 be 09 36 cd bd 43 57 dd 3d
       0.17580648 -0.37742323 -0.10020072 0.108076595
0002c0 d9 3a bc bc f9 53 35 be 78 17 5d 3c ca ec 2d bd
       -0.02297728 -0.17707814 0.013494365 -0.042462148
0002d0 7d b1 11 bf 5d b0 f9 bd 3f 44 1d be c8 e9 fe 3d
       -0.5691145 -0.12191842 -0.15358065 0.12446934
0002e0 c8 cb 60 be 45 a7 95 be 87 60 f9 3c a6 92 92 bf
       -0.21952736 -0.2922918 0.030441536 -1.1451004
0002f0 5f c6 aa bf 9c d2 37 bd d0 56 9c bf 77 b1 cc bd
       -1.3341788 -0.044878587 -1.2213993 -0.09994786
000300 ec 1f ab bf f8 68 f7 3d 95 8a 8a bf bb 07 27 be
       -1.3369117 0.12080568 -1.0823542 -0.16311543
000310 73 d4 92 bf 7d a2 95 3d 5e 4e 84 bf 74 cf d4 3d
       -1.1471084 0.07306383 -1.0336416 0.10391131
000320 4e 01 85 bf 3e d9 70 bd e9 cf 00 3e ee 98 15 3e
       -1.0391023 -0.05880093 0.12579311 0.1460912
000330 45 d7 af bf 67 a1 13 be fb e6 14 3d 99 d9 c8 3d
       -1.373757 -0.14417039 0.036353093 0.098071285
000340 5b be b6 bd 36 0b a2 3c 7b 2c 9a bf b8 33 3a 3d
       -0.08923026 0.019780736 -1.2044824 0.04545948
000350 df 7e a6 bf ae 78 cf 3d 8c 9c f4 3d 93 18 aa bf
       -1.3007468 0.1013044 0.119439214 -1.328875
000360 f4 eb 99 bf 61 35 a2 bd 51 35 72 bc ac 99 63 3d
       -1.2025132 -0.079203375 -0.014783219 0.055566475
000370 3f be 57 3d 8d 6c 9a bd 4d 2e 25 3e 3b c8 81 bd
       0.052671667 -0.07540236 0.16130944 -0.06337019
000380 22 a2 55 be 1f f6 d7 bd 27 4f a5 be 1f 41 b0 bd
       -0.2086263 -0.10544991 -0.3228695 -0.08606171
000390 af 15 36 3e 87 ed 19 be d6 f6 8c 3c 5d 10 ca bd
       0.17781709 -0.15032016 0.017207544 -0.09866402
0003a0 6d 18 1b be 2c ae 2e be e8 3e a9 3d 7e 78 db be
       -0.15146036 -0.17058629 0.082639515 -0.42865366
0003b0 ab 33 23 be 23 3e 88 3d 68 62 07 be 96 7a 38 3c
       -0.15937679 0.06652477 -0.13221133 0.0112596955
0003c0 03 26 7a bd 91 46 c6 bc 45 bb 8f be df 5d b1 3d
       -0.061071407 -0.02420357 -0.28072563 0.086604826
0003d0 f3 1f c0 3d b4 6f 90 b9 20 fc c5 3d fb 3c 41 3d
       0.09381094 -0.00027549046 0.0966723 0.047177296
0003e0 5a d9 41 c0 53 70 84 3e 9c b7 38 3f 3c cb 42 3d
       -3.028891 0.25866947 0.72155166 0.0475571
0003f0 4a 28 2d 3e ab f4 ce bd df 1e 59 3c 70 fd 7d 3f
       0.169099 -0.101052605 0.013251989 0.9921484

bias f4 [31]
000000 d0 f0 ab bf 5a a5 cd be 82 a7 96 be 4b 3f 7b be
       -1.3432865 -0.40165216 -0.29424673 -0.24535863
000010 98 01 5a be e7 ba 16 bf 0e f4 b0 bf 94 44 29 be
       -0.2128967 -0.5887894 -1.382448 -0.16530067
000020 c5 b6 44 3e fc 1c 7e be b1 e0 4a bf cb f0 04 bd
       0.19210346 -0.24815744 -0.792491 -0.0324562
000030 ec 9a 93 be a2 d5 49 be 30 10 00 be df 30 44 be
       -0.28829134 -0.197104 -0.12506175 -0.19159268
000040 c6 6a bf be 6b f8 b7 bd 53 4e 58 be 35 79 37 3f
       -0.3738615 -0.08982929 -0.21123628 0.7166932
000050 a5 6c 78 bd d8 42 c4 be 40 fd 17 3f 47 6e 5e be
       -0.060650486 -0.38332248 0.59370804 -0.21721755
000060 03 a1 a0 be 64 a5 64 be d1 78 3e be e6 89 0f be
       -0.31372842 -0.22328717 -0.18600775 -0.14017448
000070 19 27 84 bd 05 ce 28 bf 2e 20 af be
       -0.0645277 -0.6593936 -0.3420424

weight f4 [31, 31]
000000 61 8c 92 bf 20 cc 1e be 0f bb cb be 1b 1f f6 be
       -1.144909 -0.15507555 -0.39791152 -0.48070607
000010 a2 57 41 be 9c ee 39 bf 65 94 92 bf d7 17 ef be
       -0.18881086 -0.72629714 -1.1451536 -0.46697876
000020 77 58 1f 40 f8 21 27 be 9c eb 26 3f ea 5b 8e be
       2.4897745 -0.16321552 0.6520326 -0.278045
000030 b9 3f 59 be b2 44 44 be 7a ee a1 bc 85 6d d8 3d
       -0.21215715 -0.1916683 -0.019767035 0.10567764
000040 97 80 78 be bb e1 de bb b1 ad aa be 89 fe 30 c0
       -0.24267803 -0.0068018115 -0.3333564 -2.7655356
000050 81 47 4c be 07 bf 5e be c6 4b e2 3f 09 32 16 be
       -0.19949152 -0.21752559 1.7679374 -0.14667524
000060 45 f4 d8 be dc ee a6 be 99 ab 4b be 21 49 98 bb
       -0.42373863 -0.3260411 -0.19889678 -0.0046473895
000070 47 0d 98 bd 00 2c 11 bf ad 70 22 be 46 dc 9c 3f
       -0.074244075 -0.56707764 -0.15863295 1.2254722
000080 53 93 2e be 45 55 d5 3e f8 02 26 be 82 b6 b9 3e
       -0.17048387 0.41666618 -0.1621207 0.36272055
000090 d0 e7 40 bf 24 45 9c 3f d6 26 3e be 3a 17 85 3e
       -0.7535372 1.22086 -0.18569502 0.25994283
0000a0 0f 7a ba 3e 98 79 40 bf a0 2c 33 bd 12 56 24 3e
       0.36421248 -0.7518554 -0.04374373 0.16048458
0000b0 2f 31 8d 3d fa e2 c2 3d ce a7 17 be ec 3f d1 be
       0.06894147 0.095159486 -0.14810106 -0.4086908
0000c0 1f 38 09 be 85 56 db 3e da ed 37 bf d8 96 32 be
       -0.13400315 0.42839447 -0.7184731 -0.17440355
0000d0 16 10 6f bd 5d 01 20 c0 f2 d7 9f 3e 34 63 93 be
       -0.05836495 -2.5000832 0.3121944 -0.28786623
0000e0 d9 ed 30 be c0 61 3e 3e 15 56 df 3d 89 8d e0 bd
       -0.17278232 0.18591976 0.10905091 -0.10964496
0000f0 f6 f9 24 3f 8a 05 f2 3e a1 8c 93 bf 9a a8 ea be
       0.6444391 0.4726985 -1.1527292 -0.45831758
000100 96 30 30 be f0 80 89 3e 52 e9 97 be 80 e4 ef 3e
       -0.17206034 0.26856184 -0.29670197 0.4685402
000110 54 eb 94 3f 23 19 7d 3d 2f 81 78 be 90 85 30 be
       1.1634316 0.06179155 -0.2426803 -0.1723845
000120 7b 7b 60 3f 86 6f cb 3e dd bd d2 be 68 13 03 3e
       0.87688416 0.39733523 -0.4116048 0.12800372
000130 76 f3 8f bd 2e 07 44 3e db 23 82 be 3b f4 79 3d
       -0.07028858 0.19143364 -0.2541798 0.061023932
000140 1f 18 20 be f0 7a 04 3e 11 33 33 bd 6b 34 28 3e
       -0.15634201 0.12937522 -0.043749873 0.16426246
000150 7f 09 ae 3e 04 83 43 be 8d bb c8 3e 4a b1 b4 be
       0.3399162 -0.19092947 0.3920559 -0.3529151
000160 82 d1 07 3e 51 a5 c5 bd e2 ac 84 3e 1b d7 36 3f
       0.13263515 -0.09650672 0.2591315 0.71421975
000170 51 7c 5b be ef 36 9c 3f 1a ab 67 3e 1c c0 d1 3e
       -0.21434142 1.2204264 0.22623864 0.4096688
000180 88 76 d8 be 85 af 96 3e 64 58 81 bf af 31 84 3f
       -0.42277932 0.29430786 -1.01051 1.0327662
000190 b0 57 86 be 34 70 9f 3d f3 e1 56 3e 0e d3 21 bf
       -0.26238775 0.07785073 0.2098463 -0.6321267
0001a0 7c 2b fd be e1 30 02 3e fa 14 32 3e b5 3f 7e bd
       -0.49447238 0.12713958 0.17390814 -0.062072475
0001b0 f2 51 79 3e f1 f5 b6 be c7 df a7 3d 8f 12 12 3e
       0.24347666 -0.35734513 0.08196979 0.14264892
0001c0 70 c1 3c bd b7 00 39 be 51 46 96 3e 26 9d d7 bd
       -0.046082914 -0.18066679 0.29350522 -0.105280206
0001d0 14 56 d2 3e e5 78 19 be 75 c5 1c 3e 47 7a 83 3e
       0.41081297 -0.14987524 0.15309699 0.25679228
0001e0 a8 83 b8 bd 69 7f 1a be ab 20 14 3f 6d b4 e3 3e
       -0.090094864 -0.15087666 0.5786235 0.4447359
0001f0 11 c6 82 bf ab 67 86 3e c9 e6 9c 3e 2c 0a 6e be
       -1.0216695 0.26250967 0.30644825 -0.23246068
000200 81 54 8e 3e 41 e1 e2 be 18 ea aa bf 06 70 1e be
       0.27798846 -0.4431248 -1.335269 -0.15472421
000210 36 4d cd 3c 34 5b 12 3e 5d 97 34 3f f6 bc 0b be
       0.025061231 0.14292604 0.7054346 -0.13646302
000220 03 b7 da 3e 04 d2 a9 3e a1 54 7e bc 0a b9 81 3e
       0.42717752 0.33168042 -0.015523107 0.25336486
000230 62 c3 a4 3e 76 08 84 bc 20 63 93 3e 68 ea a4 bc
       0.32180315 -0.016117316 0.28786564 -0.020131305
000240 81 5d 5b bd c5 ff e7 3d de 4d b2 bc 5a 5c 42 3e
       -0.05355597 0.11328081 -0.021765646 0.18980542
000250 d0 7b 98 3c b7 4f 21 3e 7a a5 b1 3e 1f 9e 04 be
       0.018613726 0.15753065 0.3469656 -0.12950943
000260 30 ae 7d bb e2 9d fc be b9 e1 34 3e cf b7 a9 bf
       -0.003870856 -0.49339205 0.17664231 -1.3259219
000270 77 a0 92 be 5b 11 80 3e 21 16 4c be f5 fa 36 3e
       -0.2863805 0.2501324 -0.19930317 0.1786917
000280 6b e3 12 bf b3 30 86 3f 10 4c b0 be ea 9c e1 bc
       -0.5737826 1.0483612 -0.3443303 -0.027540643
000290 52 3b c6 3e 67 df 3c 3f 31 de c8 be 1b 70 4a 3e
       0.38717133 0.73778385 -0.3923202 0.19769327
0002a0 89 9d a6 3e 7f a4 2a be 48 a4 92 3e 94 24 ca 3e
       0.32542065 -0.16664313 0.28640962 0.39481032
0002b0 4f fa 06 bd 87 4a 6a 3e ea 9a ab 3c e8 ab d9 be
       -0.032953557 0.22879992 0.020947892 -0.42513967
0002c0 e1 4f ca 3d 95 e4 01 3d a9 6e eb 3e ea c1 b7 3e
       0.09878517 0.031712133 0.45982864 0.35890132
0002d0 c8 51 c7 3e 6d 19 6b 3e fb d4 43 bd 7a 15 c4 be
       0.38929582 0.22958918 -0.047810536 -0.38297635
0002e0 73 87 ee be 35 48 f3 3e 85 c0 95 3f 83 b2 d1 3e
       -0.46587715 0.47516027 1.1699377 0.40956506
0002f0 a1 0c 1d be 46 db d6 3d ea c2 54 be cc 6b f3 3e
       -0.15336849 0.10491042 -0.20777479 0.4754318
000300 7b 5f 84 3f 14 7c 8c bd 14 0c e2 3c 34 48 e9 be
       1.0341638 -0.068596035 0.02759365 -0.455629
000310 58 ff 1a 3f ab 33 4c bd 41 7f ee be 79 6e 83 be
       0.60545874 -0.049853962 -0.46581462 -0.2567022
000320 fd 43 d4 3c 7d 1d 22 3e 8e a2 02 3f 39 a5 8b bd
       0.025911326 0.15831561 0.5102929 -0.06818623
000330 2a a1 b3 be 2b 27 8a bc 1a 8b 8c 3d c4 b0 8f be
       -0.35083896 -0.01686438 0.06862469 -0.2806455
000340 7a aa b4 bc 95 df c7 be ec ab 41 bd f2 ab 47 be
       -0.022053946 -0.39037767 -0.047283098 -0.19499186
000350 8d eb 57 be 92 6d a2 bd f8 47 ba bd be db f8 3e
       -0.21085949 -0.07931055 -0.09095758 0.4860515
000360 76 ff b6 be db 20 92 bf be 68 c0 be d8 73 e2 be
       -0.35741776 -1.1416277 -0.37579912 -0.44229007
000370 32 c6 06 3e 47 bb e2 be 5a 89 01 3f 82 4f 86 3f
       0.13161543 -0.44283506 0.50600207 1.0493014
000380 cb 04 bd 3d ff 15 bb 3c c7 95 6b be c1 a0 38 3f
       0.0922943 0.022837637 -0.23006354 0.7212029
000390 7e 86 0b 3e a9 3e 6a be d9 b5 96 be 80 57 14 be
       0.13625523 -0.22875465 -0.29435614 -0.14486504
0003a0 16 6d 1c 3e d5 5d fd be 02 71 95 bb 5a eb ed be
       0.15275988 -0.4948565 -0.0045605907 -0.46468621
0003b0 a4 e3 e9 bb 66 92 33 bd 53 68 94 bd 4a 70 ee bb
       -0.0071377326 -0.04384079 -0.07246461 -0.0072765695
0003c0 53 a7 48 be 1a d5 ab bc ac 83 b7 be ff 48 82 be
       -0.19595079 -0.020975638 -0.35842645 -0.25446317
0003d0 53 25 fe bd b0 8e 3a 3d bf 5f 28 bf cc 58 af be
       -0.12409463 0.045546234 -0.65771097 -0.34247434
0003e0 f8 b8 f8 3e bb 7a 65 be c9 07 1c be 94 86 36 3e
       0.4857862 -0.22410099 -0.15237345 0.17824775
0003f0 bc f3 80 be 13 8c 20 3f d6 55 97 3f 69 c7 88 3e
       -0.25185955 0.62713736 1.182307 0.26714638

bias f4 [31]
000000 14 53 8c 3f 9a 5d 1a 40 5b 4c 1c 3e 5e 90 ef bc
       1.0962853 2.411963 0.15263502 -0.029243644
000010 3e 2d 26 3b 49 67 1b 3c 43 38 66 ba ef 48 f5 bc
       0.0025356556 0.009485074 -0.00087821874 -0.029942004
000020 08 a7 12 bd 7c 65 2e bc 8e c1 27 bb ef e7 2c 3b
       -0.035803825 -0.010644313 -0.0025597545 0.002638336
000030 57 c3 b7 ba 3d d6 a5 3b 0a a1 4d 3b fb 76 02 bb
       -0.0014020008 0.0050609396 0.0031376504 -0.0019907344
000040 d2 cd b8 bb 12 38 bd 3b 3e 3c 05 3b 94 72 80 ba
       -0.00563977 0.0057745064 0.0020330097 -0.0009799772
000050 db 5d bd 3b 7f 54 87 3b a3 f1 4d 39 09 a5 20 3b
       0.0057790107 0.0041299458 0.0001964034 0.002451243
000060 df f2 09 bb 37 7f 0c bb 34 3c ad ba fe 92 07 b9
       -0.0021049303 -0.002143813 -0.0013216794 -0.00012929362
000070 eb 06 20 39 e6 1a 6c 3b 80 29 8d 38
       0.00015261366 0.0036026775 6.731134e-05
