Deep_model/saved_model/model_jacobian_truncated.pth (torch, 6706 bytes, 6 tensors)

weight f4 [9, 9]
00000000: 338b a0be 8e9a 1c3e 5b0b 1bbe 2b09 31be
00000010: 8019 a33d 0021 32be 20c0 1dbe 4606 e6bd
00000020: 363b 00be b88d 0ebe 061b b8bd 9668 b13d
00000030: 461b 8abe 339a 4ebe ab60 9f3b d6df 3d3d
00000040: 0e84 3c3e 7ec4 6fbe b6e7 d93d a802 423e
00000050: 6087 3d3e 6ef6 9ebe 1641 02be ffb2 92be
00000060: e8ff 57be e81d 3e3e cbde 4bbd d8f7 103e
00000070: 665d 48be d679 4f3d 4b75 4ebe 3ba1 2a3e
00000080: c34a 15be 562f abbd 6413 94be 5655 903a
00000090: fe80 5d3e 030c 633d 839c 7dbd a0ce 17be
000000a0: 729d 023d 9126 18be dd4c 503e 4e85 aebd
000000b0: 9b61 42bc a30b e33c 6e57 6b3e fb7d 573e
000000c0: 193a 903d 32e2 823d 5c3e ee3c 754a ec3d
000000d0: 2e53 443d 807b da3b c3b5 9a3e b2b7 06bd
000000e0: 862c 253e 07cc 49bd 153e 7ebc 3255 92bd
000000f0: 7a10 68be e02d d8bd acd4 adbd b111 773e
00000100: 9482 0e3e 9387 b9be fe27 333d eb9d 2b3d
00000110: 7e1e 673d c9bc 0f3d cced 823d 35e5 2b3e
00000120: 6e87 553e 5698 d43b 30d6 1c3e 003d f4bd
00000130: e0a0 143e 1069 dbbd 0068 b7bb 6f8b 94be
00000140: 0080 b2bd
-0.313562 0.15293333 -0.1514105 -0.17288654 0.07963848 -0.17395401 -0.15405321 -0.11231665
-0.12522587 -0.13921249 -0.08989529 0.08662526 -0.26973933 -0.2017601 0.0048638186 0.046356045
0.1840975 -0.234148 0.106398985 0.18946326 0.18508673 -0.31047386 -0.12720141 -0.28652188
-0.21093714 0.18566096 -0.04977302 0.14157045 -0.19566879 0.0506533 -0.20161931 0.16663067
-0.145793 -0.08358638 -0.28921044 0.001101176 0.21631238 0.055431377 -0.06191684 -0.14824915
0.031888433 -0.14858462 0.20341821 -0.085215196 -0.011864091 0.02771551 0.2298257 0.21044151
0.07042331 0.063907996 0.02908247 0.11537639 0.04793089 0.0066675544 0.30216798 -0.03289003
0.16130266 -0.04926684 -0.015517731 -0.07145156 -0.22662535 -0.10555625 -0.084878296 0.24127842
0.13916999 -0.36236247 0.04373931 0.04189865 0.056425564 0.03509215 0.063930124 0.16786654
0.20852444 0.0064878864 0.15316081 -0.11925697 0.14514494 -0.107133985 -0.0055971146 -0.2901263
-0.0871582

bias f4 [9]
00000000: 7b7f 33be 1647 e6bd 8bf8 59be 5281 99be
00000010: d6bc 40bd 9abd a73e 0748 cb3e 19e9 c13d
00000020: 03ed 30be
-0.17529099 -0.11244027 -0.21286218 -0.29981476 -0.047055088 0.32761842 0.3970339 0.09468288
-0.17277913

weight f4 [16, 9]
00000000: 7fca a8be f378 013e fb40 3f3e f784 92be
00000010: 82aa 4f3e d224 623e c5ea 8e3d ce3e dcbd
00000020: f2ec 8b3e 38c1 113e 0608 623e bbd6 66be
00000030: 2ea3 463e b2e4 fdbc 49d8 fd3d 15a9 93bd
00000040: adef fd3c c0b2 883d f0e9 b43d 7661 51bd
00000050: 9b32 0c3e 1642 0ebe ebdd a0be 2e24 03be
00000060: 53b9 853e b6b9 b3bd 2093 d63d 6066 fcbd
00000070: 8606 803e e048 4c3e 9bfd f03d fe79 2ebe
00000080: f374 8bbe ab9d 4d3c f03e 48be 3252 8c3e
00000090: ac01 a4be f387 183e d723 aa3e 0ef3 2a3e
000000a0: 67d2 443e da6d cbbe 7be3 2b3e 1186 ab3d
000000b0: ee78 9fbe ce79 a83e 26e6 0abe 2b30 c1bc
000000c0: 2c35 9c3e 613a 61be 0f1b 66be 157d 303d
000000d0: 9137 09bd 263f 9d3d 9823 8fbe 8054 233c
000000e0: b3cf 17be 70cd 27be 5c4e 1bbe 129b 6a3e
000000f0: e48e 473e 21f0 0fbe d06e 873e 10e8 cd3d
00000100: 0b5b 7d3d c368 48be 00e6 4d3d b771 a43e
00000110: 801d 6a3e 5ced 84be c4c9 9b3e 40a7 d33c
00000120: 602b 243e 828d 843e b27e 913e 660a 85be
00000130: 5772 953e 36d3 67be 16b5 cc3c e682 6ebe
00000140: cba9 95bd 802d 78bc 9657 23bd 96b0 57bd
00000150: 805e d73c 34be 8c3e bc17 ef3e 8f34 e43d
00000160: cd94 0b3e 7e20 843e 0009 7cbc 161f d93c
00000170: a67d 8c3d f7d7 94be 527b 89be 4b64 273d
00000180: f88b 05be ab6d c8bb d6a4 9cbd 1688 543d
00000190: a813 5e3e a066 e2bd 23ae 883e 4d00 7c3e
000001a0: 5185 95be 23a5 96be e0f3 88be be0e 3bbe
000001b0: 7bdf 04be 2b89 cdbc eb04 a6bd 4b75 2cbe
000001c0: 5fae a73d b212 f83d 88a6 b23e 2399 92bd
000001d0: 1e65 74be 36e4 0d3e 40ba 9dbc 00a8 823e
000001e0: b646 553e e0cb 9c3e 8efa 79be 436e 5b3e
000001f0: e73a 8f3e a88f 28be 96df 9c3e cee0 7f3e
00000200: 563b 6f3b 2093 243e cbac eebd 4bda 94be
00000210: 8690 ac3d 2b85 cb3d db14 5fbe eb8b 253e
00000220: 8fc9 91be 3ee1 923e 9f45 a53e 9bdc b93d
00000230: 9029 56be fb1d 263e a0ac 683d 40a1 b93d
-0.32966992 0.12643795 0.18677132 -0.2861707 0.20279887 0.22084358 0.069783725 -0.107541665
0.27329212 0.14233863 0.22073373 -0.2254285 0.19398186 -0.03099284 0.12394769 -0.07209984
0.030998075 0.06674719 0.088336825 -0.051118337 0.1369118 -0.13892397 -0.3141931 -0.1280677
0.26117954 -0.08775656 0.104772806 -0.12324214 0.25004977 0.19949675 0.117671214 -0.17038724
-0.27237663 0.012549798 -0.19555259 0.2740646 -0.32032526 0.1489561 0.3323047 0.1669428
0.19220887 -0.39732248 0.16785996 0.083751805 -0.3114695 0.3290543 -0.13564357 -0.023582539
0.30509317 -0.21994926 -0.2247126 0.043088038 -0.033500258 0.0767806 -0.27956843 0.009968877
-0.14825325 -0.16386962 -0.1516661 0.22910717 0.19488102 -0.14056446 0.2645173 0.10054028
0.061854403 -0.19571213 0.050268173 0.32118008 0.22862816 -0.2596234 0.30427372 0.025836587
0.16032171 0.25889212 0.28416973 -0.25984496 0.29188797 -0.22639164 0.024988692 -0.23292121
-0.07307776 -0.015147567 -0.03987845 -0.05265864 0.026290178 0.27488863 0.46697795 0.11142837
0.13630982 0.2580604 -0.015383005 0.02650408 0.06859903 -0.29071018 -0.26851898 0.04086713
-0.13041675 -0.006116589 -0.076486275 0.051887594 0.21687186 -0.110547304 0.26695356 0.2460949
-0.29203275 -0.29422864 -0.26748562 -0.18267342 -0.12975876 -0.02508982 -0.08106407 -0.16841619
0.081875555 0.12112941 0.34892678 -0.07158115 -0.23866698 0.13856587 -0.01925385 0.255188
0.20827755 0.30624294 -0.24411985 0.2142878 0.27974626 -0.1646105 0.30639333 0.249881
0.0036503873 0.16071749 -0.116540514 -0.29072794 0.08426003 0.09937509 -0.217853 0.16166656
-0.2847409 0.2868747 0.3227968 0.0907528 -0.20914292 0.16222374 0.056805253 0.09063959

bias f4 [16]
00000000: 5ef1 7a3e 46c6 5c3e a3b7 12be 0090 99bd
00000010: 97d2 663e b475 ce3c 3a79 c33e 0b48 33be
00000020: 2be2 46bc 5c5e 88bd 0b4f b5bd 25b6 423e
00000030: 8c43 a5bd 3abc 9dbe 20ea 13bd 68d0 1abe
0.24506137 0.2156001 -0.14327864 -0.07498169 0.22541271 0.02520261 0.38178426 -0.17507951
-0.012138884 -0.066586226 -0.08852967 0.19014795 -0.08069524 -0.30807668 -0.03611195 -0.15118563

weight f4 [16, 16]
00000000: 59c5 323e 287c d43c 66ef 7dbe 4899 3abd
00000010: 5ae8 cc3d 7435 80bd 8350 ac3e 986f 5fbd
00000020: 7475 243e 24e2 533e 1c19 58be c3df c33d
00000030: d1f4 f93e 2473 27be d478 25be da95 7a3e
00000040: 0735 a53e 9a86 66be f60b 1a3e a000 03bd
00000050: 1ef5 36bf d2f1 f43c 4229 293e 7894 99bd
00000060: c81d b23d a9c2 0dbf 7e69 313e 2e3c 333e
00000070: 4182 123d 208f 2d3d 6ca0 a83d 6e3a 39be
00000080: 8627 f6bc 88ad b6bd e075 0ebe 3416 3dbe
00000090: cf49 92bd 191e 393e 1e74 7fbe acec a23d
000000a0: 6048 d03d c200 8a3e 181c 143e fe15 4e3e
000000b0: 685d cb3d 864c 333e 123b 503e 7cbf 71be
000000c0: 5f3b 8ebe 5435 70bd 22c9 0b3e 485e febd
000000d0: a832 85be 4a18 3cbc f110 56bd be8f 09be
000000e0: dc64 103e 8305 833e b2a0 31be cd59 f3bc
000000f0: 380a 123e 4869 a43d 527c 6e3e a026 963d
00000100: 159e d7bd 1fa9 463d 34d5 c2bd 9cab 94bd
00000110: 3ac0 1ebd d68f 37be fda9 023e 92b0 2dbe
00000120: a093 d23c e3b1 09be 28be 0d3d 9dfd 4abe
00000130: 4315 f93c 8094 eb3d 688b 5b3e d62a 63be
00000140: c2a5 d63d 01b6 d2bd 5064 803c ec2b 6e3e
00000150: a91b 593e 93c9 2fbe f225 573e 94b6 053e
00000160: 000c c9b9 7627 213e 8c5a cbbd 7953 1dbd
00000170: fd90 bdbe b059 133d 2092 873d 602f a33c
00000180: d0f2 ecbd 65db 6cbe 7828 ae3d b277 60be
00000190: e23e 17be 8ed5 b63b e192 afbd 7853 ba3d
000001a0: 5000 843c 0326 1c3d d0e2 b5bc 52dc ffbd
000001b0: c151 373e 1800 0f3d c8a2 92bd f6ba 28be
000001c0: 9a9a 033e 08f2 9cbe 74d9 863d dc27 fd3d
000001d0: d24c 20bd 3536 1cbe aaf4 dcbd 702b 573e
000001e0: 82a1 593e 109a 853d 9455 703e d0fc f7bd
000001f0: 8b40 96bd c8d6 b23d b062 b53d 56fa 7a3e
00000200: 2467 6dbd 3947 d83c 32eb 1c3e ea48 393e
00000210: 30a7 1ebd 8730 5e3e 4516 38bc c081 653e
00000220: a0bd 29bc 741b db3a 2c62 8e3d 5185 b4bd
00000230: 9507 553d 9c9e b9bd d028 d33c 7e62 473e
00000240: a6e7 bc3d 371b ba3d e83b 003d 4011 0a3c
00000250: a91c a3bc d99e 1cbe 1882 12be 58e0 a0bd
00000260: fc8d 6ebe 06f9 75bc a070 3c3c 08ac 02be
00000270: ed9c d63c b8ff 37bd c0ef ebbc d450 0dbe
00000280: 9ce3 c0bd 9b84 a5bd 046e 923d 8001 393c
00000290: 6758 04be 5b0a c7bd fee7 d3bd 80bd 1fbe
000002a0: e053 a03c 8593 c4bc 20a5 c63d f46a d13c
000002b0: ef6b dc3d c006 07bc e428 3dbe 5cde e43d
000002c0: 3849 97be 7f94 d5bd 78c9 a5bd 8c46 c2bd
000002d0: c89f 39be f7db 5f3e d16a 243c f4e4 8d3d
000002e0: 765f 703e 433c d4bb 883d 253d e556 fd3d
000002f0: 703f b83d 12bd 4bbe 2837 b63d f0d6 11be
00000300: bff4 15be 7dff 97bd 3cc0 55be bc33 74be
00000310: fb9d cdbd d28f d13d 36c5 72bb d6a8 5ebe
00000320: 1447 c0bd db5d 9bbc 4855 5dbe 6160 d73d
00000330: 312a 953d 401b 353d 3836 3ebe 68c8 6e3d
00000340: 31b4 2dbc c9f0 143d bc35 08be 585a 65be
00000350: 37fc b7bd 3d93 da3c 8472 19be 188a d6bd
00000360: 66ff 03be d4ae 0dbd 18ae 30bd 031f 1b3e
00000370: 4102 143e 60b7 013d 4821 5a3d 807a 8bbc
00000380: caba 673e 46e8 01be 1c9d cb3d d0d6 26bd
00000390: 2821 623d feaf 233c 27f4 a2bd e014 ddbc
000003a0: f83c 0a3e 4c20 f23c 40d1 21be b318 debc
000003b0: bcc1 91bd 3822 c93d c047 2c3e 8056 dbbc
000003c0: b9fe 053e e570 50be 24a8 0fbe 2838 e5bd
000003d0: 4505 4fbd ff0d 28be 3e0a 47be 32e3 62be
000003e0: 9ca1 853d 1fae df3c 4c58 703e cef7 343e
000003f0: 8367 6e3d 28b4 463d 7c2b 19be 18e6 c53d
0.17458095 0.025938109 -0.24798355 -0.045556337 0.10005255 -0.062601954 0.33655176 -0.054549783
0.1606043 0.20691735 -0.21103328 0.095641635 0.48819593 -0.16352516 -0.16159374 0.24471226
0.3226702 -0.22512284 0.15043625 -0.031983018 -0.7146777 0.029900465 0.16519645 -0.07499021
0.086970866 -0.5537515 0.17325398 0.17503425 0.03576875 0.042372823 0.08233723 -0.18088695
-0.030048143 -0.08919817 -0.13912153 -0.18465501 -0.07142984 0.18077888 -0.24946639 0.07955298
0.101700544 0.26953703 0.14463842 0.20125577 0.09929925 0.1750966 0.20335034 -0.23608202
-0.27779672 -0.058644608 0.13650945 -0.124203265 -0.2601521 -0.0114804 -0.05226225 -0.1343374
0.14100975 0.25590143 -0.17346457 -0.029705906 0.1426171 0.08027893 0.23289612 0.07331586
-0.10528199 0.04850113 -0.095133215 -0.072592944 -0.03875754 -0.17925963 0.12760158 -0.16961887
0.025705159 -0.13446765 0.034605175 -0.19823308 0.030405646 0.115029335 0.21439898 -0.2218431
0.104808345 -0.10288621 0.015672833 0.23258942 0.21201958 -0.17166738 0.21010569 0.1305793
-0.00038346648 0.1573771 -0.0992938 -0.038409684 -0.3702468 0.035974205 0.06619668 0.019920051
-0.1156975 -0.23130567 0.085038126 -0.2192066 -0.14770082 0.005579657 -0.08572937 0.09097952
0.01611343 0.03812219 -0.02220288 -0.12493195 0.1790228 0.0349122 -0.07159954 -0.1647757
0.12851945 -0.30653405 0.06584445 0.12361118 -0.03913576 -0.15255053 -0.107888535 0.21012664
0.21253017 0.06523526 0.23470145 -0.12108767 -0.07336529 0.087323725 0.08856714 0.24509558
-0.05795969 0.02640115 0.15324095 0.18094221 -0.03873366 0.21698199 -0.011235778 0.22412777
-0.0103601515 0.0016716556 0.069523185 -0.088144906 0.052009184 -0.090634555 0.025776297 0.19471166
0.09223871 0.09087222 0.03130713 0.008426964 -0.019911127 -0.1529497 -0.1430744 -0.0785529
-0.2329635 -0.015012985 0.011501461 -0.12760937 0.026197875 -0.044921607 -0.028800845 -0.13800365
-0.09418413 -0.08081933 0.0714989 0.0112918615 -0.12924348 -0.09718772 -0.103469834 -0.15599632
0.019571245 -0.023996124 0.09699464 0.025563695 0.10762774 -0.008241355 -0.1847263 0.11175224
-0.2954805 -0.10428714 -0.08095068 -0.09486112 -0.18127358 0.21861254 0.010035233 0.06928435
0.23473915 -0.0064769103 0.040341884 0.123700894 0.08996475 -0.19896343 0.08897239 -0.14242148
-0.14644144 -0.074217774 -0.20874113 -0.2384786 -0.10039898 0.1023251 -0.0037043816 -0.21744093
-0.09388557 -0.018965652 -0.21614563 0.1051643 0.07283438 0.04421544 -0.1857537 0.05829659
-0.010602043 0.036362443 -0.13301748 -0.22397745 -0.08983653 0.026681537 -0.1498509 -0.10475558
-0.12890396 -0.034590557 -0.04313478 0.15148549 0.14453985 0.03166902 0.053254396 -0.017026186
0.22629848 -0.12686262 0.099420756 -0.040732205 0.0552074 0.00999069 -0.079567246 -0.026987493
0.1349982 0.029556416 -0.15802479 -0.027111387 -0.0711703 0.0982098 0.16824245 -0.026774645
0.1308545 -0.20355566 -0.14028984 -0.111923516 -0.050542135 -0.16411589 -0.19437501 -0.2215698
0.06524965 0.027304707 0.23471183 0.17672655 0.058204185 0.048511654 -0.14957994 0.096630275

bias f4 [16]
00000000: bd34 26be f3c8 1b3d 5dbe b9bd cfed a0bd
00000010: 8b73 e1bc 4b72 b4bc d1ee e53d 9f3d a73d
00000020: af47 ab3c 74d5 55bd ffa1 c33d 120d 723d
00000030: 0e28 963d 5801 7d3d 33a0 8f39 14b4 c93d
-0.16231056 0.038033437 -0.09069512 -0.078578584 -0.027520915 -0.022027155 0.11227191 0.0816605
0.020908205 -0.052205518 0.09552383 0.059094496 0.073318586 0.06176886 0.00027394443 0.098488
