Deep_model/saved_model/model_without_jacobian.pth (torch, 6686 bytes, 6 tensors)

weight f4 [9, 9]
000000 33 8b a0 be 8e 9a 1c 3e 5b 0b 1b be 2b 09 31 be
       -0.313562 0.15293333 -0.1514105 -0.17288654
000010 80 19 a3 3d 00 21 32 be 20 c0 1d be 46 06 e6 bd
       0.07963848 -0.17395401 -0.15405321 -0.11231665
000020 36 3b 00 be b8 8d 0e be 06 1b b8 bd 96 68 b1 3d
       -0.12522587 -0.13921249 -0.08989529 0.08662526
000030 46 1b 8a be 33 9a 4e be ab 60 9f 3b d6 df 3d 3d
       -0.26973933 -0.2017601 0.0048638186 0.046356045
000040 0e 84 3c 3e 7e c4 6f be b6 e7 d9 3d a8 02 42 3e
       0.1840975 -0.234148 0.106398985 0.18946326
000050 60 87 3d 3e 6e f6 9e be 16 41 02 be ff b2 92 be
       0.18508673 -0.31047386 -0.12720141 -0.28652188
000060 e8 ff 57 be e8 1d 3e 3e cb de 4b bd d8 f7 10 3e
       -0.21093714 0.18566096 -0.04977302 0.14157045
000070 66 5d 48 be d6 79 4f 3d 4b 75 4e be 3b a1 2a 3e
       -0.19566879 0.0506533 -0.20161931 0.16663067
000080 c3 4a 15 be 56 2f ab bd 64 13 94 be 56 55 90 3a
       -0.145793 -0.08358638 -0.28921044 0.001101176
000090 fe b6 87 3e bc f2 e0 3d c8 e5 67 be 18 7a 39 bd
       0.265068 0.10983798 -0.22646248 -0.045282453
0000a0 d9 00 af bd 16 ca a1 be ee 17 61 3e ae b0 79 bd
       -0.085450836 -0.31599492 0.21981785 -0.06095951
0000b0 83 e8 29 3d b0 23 21 ba 04 98 47 bd 32 72 16 3e
       0.041481506 -0.00061469804 -0.048728958 0.14692
0000c0 a8 dd 2e 3e 4b 09 f4 3d 39 a4 ea bc 41 12 7f bd
       0.17076743 0.11915835 -0.02864276 -0.062273268
0000d0 af 12 57 bc e6 d2 8c bc 82 af e9 3c 71 07 af 3e
       -0.013127013 -0.017190408 0.028526071 0.34185365
0000e0 9b f0 4e 3d e2 ba 3d 3d f2 b8 a1 bd 73 24 a2 3c
       0.050522428 0.046320803 -0.07896604 0.019792771
0000f0 9c e9 de bc 60 fd f5 bb fc fc 3e 3d be 58 38 3e
       -0.027211003 -0.0075070113 0.046627983 0.18002602
000100 29 a7 73 3e 31 41 a3 be fc d6 bf 3d df fe 85 be
       0.23794235 -0.31885675 0.09367177 -0.26171014
000110 93 1a cd 3d 7a 15 6e bd f4 c7 dd 3d 86 bd 30 3e
       0.10014834 -0.05812595 0.10829154 0.17259797
000120 6e 87 55 3e 56 98 d4 3b 30 d6 1c 3e 00 3d f4 bd
       0.20852444 0.0064878864 0.15316081 -0.11925697
000130 e0 a0 14 3e 10 69 db bd 00 68 b7 bb 6f 8b 94 be
       0.14514494 -0.107133985 -0.0055971146 -0.2901263
000140 00 80 b2 bd
       -0.0871582

bias f4 [9]
000000 7b 7f 33 be 16 47 e6 bd 8b f8 59 be 52 81 99 be
       -0.17529099 -0.11244027 -0.21286218 -0.29981476
000010 10 e4 ef bc b8 bb a9 3e b2 42 ce 3e 59 85 d4 3d
       -0.029283553 0.3315103 0.4028526 0.103769965
000020 03 ed 30 be
       -0.17277913

weight f4 [16, 9]
000000 7f ca a8 be f3 78 01 3e fb 40 3f 3e f7 84 92 be
       -0.32966992 0.12643795 0.18677132 -0.2861707
000010 46 99 27 3e d7 86 be 3e e0 ef e4 3d 12 0f e2 bd
       0.16367063 0.3721225 0.11178565 -0.11038031
000020 f2 ec 8b 3e 38 c1 11 3e 06 08 62 3e bb d6 66 be
       0.27329212 0.14233863 0.22073373 -0.2254285
000030 2e a3 46 3e 16 87 86 be 3f 73 89 3e ca d0 46 be
       0.19398186 -0.26274937 0.26845738 -0.19415584
000040 77 44 17 3e c0 b2 88 3d f0 e9 b4 3d 76 61 51 bd
       0.14772211 0.06674719 0.088336825 -0.051118337
000050 9b 32 0c 3e 16 42 0e be eb dd a0 be 2e 24 03 be
       0.1369118 -0.13892397 -0.3141931 -0.1280677
000060 53 b9 85 3e b6 b9 b3 bd 20 93 d6 3d 60 66 fc bd
       0.26117954 -0.08775656 0.104772806 -0.12324214
000070 86 06 80 3e e0 48 4c 3e 9b fd f0 3d fe 79 2e be
       0.25004977 0.19949675 0.117671214 -0.17038724
000080 f3 74 8b be ab 9d 4d 3c f0 3e 48 be 32 52 8c 3e
       -0.27237663 0.012549798 -0.19555259 0.2740646
000090 ac 01 a4 be f3 87 18 3e d7 23 aa 3e 0e f3 2a 3e
       -0.32032526 0.1489561 0.3323047 0.1669428
0000a0 26 ce 1f 3e bc 16 82 be 9f 79 b8 3e 77 9b 90 3b
       0.15605983 -0.2540797 0.3603029 0.004413064
0000b0 ee 78 9f be ce 79 a8 3e 26 e6 0a be 2b 30 c1 bc
       -0.3114695 0.3290543 -0.13564357 -0.023582539
0000c0 2c 35 9c 3e 0d ff 77 be d2 df 7c be 15 7d 30 3d
       0.30509317 -0.24218388 -0.24694756 0.043088038
0000d0 1f 4b 64 bd 26 3f 9d 3d 98 23 8f be 80 54 23 3c
       -0.055735704 0.0767806 -0.27956843 0.009968877
0000e0 b3 cf 17 be 70 cd 27 be 3f 3d 86 be da 7b 91 3e
       -0.14825325 -0.16386962 -0.26218602 0.28414804
0000f0 2b 51 2a 3e dc 2a 3e be d0 6e 87 3e 10 e8 cd 3d
       0.16632526 -0.18571037 0.2645173 0.10054028
000100 0b 5b 7d 3d c3 68 48 be 00 e6 4d 3d b7 71 a4 3e
       0.061854403 -0.19571213 0.050268173 0.32118008
000110 80 1d 6a 3e 5c ed 84 be c4 c9 9b 3e 40 a7 d3 3c
       0.22862816 -0.2596234 0.30427372 0.025836587
000120 60 2b 24 3e 82 8d 84 3e b2 7e 91 3e 66 0a 85 be
       0.16032171 0.25889212 0.28416973 -0.25984496
000130 57 72 95 3e 36 d3 67 be 16 b5 cc 3c e6 82 6e be
       0.29188797 -0.22639164 0.024988692 -0.23292121
000140 cb a9 95 bd 80 2d 78 bc 96 57 23 bd 96 b0 57 bd
       -0.07307776 -0.015147567 -0.03987845 -0.05265864
000150 80 5e d7 3c 4d ba 95 3e 09 28 0a 3e 89 e7 d5 3d
       0.026290178 0.292437 0.13491835 0.104445525
000160 42 5a 8e 3d 7e 20 84 3e 00 09 7c bc 16 1f d9 3c
       0.06950809 0.2580604 -0.015383005 0.02650408
000170 a6 7d 8c 3d f7 d7 94 be 52 7b 89 be 4b 64 27 3d
       0.06859903 -0.29071018 -0.26851898 0.04086713
000180 f8 8b 05 be ab 6d c8 bb d6 a4 9c bd 16 88 54 3d
       -0.13041675 -0.006116589 -0.076486275 0.051887594
000190 a8 13 5e 3e a0 66 e2 bd 23 ae 88 3e d0 f4 6e 3e
       0.21687186 -0.110547304 0.26695356 0.23335576
0001a0 9b a5 93 be 4a 4a 94 be 55 3d 9a be be 0e 3b be
       -0.28837284 -0.28962928 -0.30124918 -0.18267342
0001b0 7b df 04 be 2b 89 cd bc eb 04 a6 bd 4b 75 2c be
       -0.12975876 -0.02508982 -0.08106407 -0.16841619
0001c0 8e 4c 0a be 69 8a c1 bd fb b0 a4 3e 1c ea f3 bd
       -0.13505766 -0.09450228 0.32166275 -0.11909887
0001d0 1e 65 74 be 36 e4 0d 3e 40 ba 9d bc 00 a8 82 3e
       -0.23866698 0.13856587 -0.01925385 0.255188
0001e0 b6 46 55 3e e0 cb 9c 3e 8e fa 79 be 43 6e 5b 3e
       0.20827755 0.30624294 -0.24411985 0.2142878
0001f0 e7 3a 8f 3e a8 8f 28 be 96 df 9c 3e ce e0 7f 3e
       0.27974626 -0.1646105 0.30639333 0.249881
000200 56 3b 6f 3b 20 93 24 3e cb ac ee bd 4b da 94 be
       0.0036503873 0.16071749 -0.116540514 -0.29072794
000210 86 90 ac 3d 2b 85 cb 3d db 14 5f be eb 8b 25 3e
       0.08426003 0.09937509 -0.217853 0.16166656
000220 8f c9 91 be 3e e1 92 3e 9f 45 a5 3e 9b dc b9 3d
       -0.2847409 0.2868747 0.3227968 0.0907528
000230 90 29 56 be fb 1d 26 3e a0 ac 68 3d 40 a1 b9 3d
       -0.20914292 0.16222374 0.056805253 0.09063959

bias f4 [16]
000000 48 03 4d 3e 93 f4 4f 3e a3 b7 12 be 00 90 99 bd
       0.20020783 0.20308141 -0.14327864 -0.07498169
000010 b9 95 20 3e ab 75 ce 3c 66 5c bb 3e 0b 48 33 be
       0.15682115 0.025202593 0.36593932 -0.17507951
000020 2b e2 46 bc aa c5 69 3b 0b 4f b5 bd 5c f4 47 3e
       -0.012138884 0.0035670795 -0.08852967 0.1952681
000030 55 a7 0d 3d 3a bc 9d be 20 ea 13 bd 68 d0 1a be
       0.03458341 -0.30807668 -0.03611195 -0.15118563

weight f4 [16, 16]
000000 91 c7 25 3e 08 f4 94 3d 66 ef 7d be 48 99 3a bd
       0.1618941 0.07273108 -0.24798355 -0.045556337
000010 0c 23 c9 3d fb 35 80 bd da 0f b7 3e 98 6f 5f bd
       0.09821138 -0.06260296 0.3575428 -0.054549783
000020 74 75 24 3e 98 4a 1f 3e 1c 19 58 be 7c bf af 3d
       0.1606043 0.15555799 -0.21103328 0.085814446
000030 c4 29 a5 3e 24 73 27 be d4 78 25 be da 95 7a 3e
       0.32258427 -0.16352516 -0.16159374 0.24471226
000040 77 5d 07 3e 8a dc 56 be f6 0b 1a 3e a0 00 03 bd
       0.13219248 -0.20982566 0.15043625 -0.031983018
000050 8d a1 95 be 67 66 fb 3b cf fc 84 3c 78 94 99 bd
       -0.29224816 0.0076721194 0.01623383 -0.07499021
000060 c8 1d b2 3d 97 20 87 be 7e 69 31 3e 3c 66 3f 3e
       0.086970866 -0.26392052 0.17325398 0.18691343
000070 fe 95 09 3e 20 8f 2d 3d 6c a0 a8 3d 6e 3a 39 be
       0.13436124 0.042372823 0.08233723 -0.18088695
000080 ab ae e4 bd 20 09 a8 bd e0 75 0e be 34 16 3d be
       -0.11166128 -0.082048655 -0.13912153 -0.18465501
000090 1f c6 c7 3d b8 59 22 3e f9 3f 90 be ac ec a2 3d
       0.097545855 0.15854537 -0.28173807 0.07955298
0000a0 60 48 d0 3d 0d eb 37 3e 18 1c 14 3e 62 f9 4f 3e
       0.101700544 0.17960759 0.14463842 0.20309976
0000b0 62 ba fb bd 86 4c 33 3e 12 3b 50 3e 7c bf 71 be
       -0.12291409 0.1750966 0.20335034 -0.23608202
0000c0 61 8f 9e be e4 61 17 bd 22 c9 0b 3e 48 5e fe bd
       -0.30968764 -0.03695859 0.13650945 -0.124203265
0000d0 34 d0 95 bd b9 13 3c bc cd 46 24 bd be 8f 09 be
       -0.07315102 -0.011479312 -0.040106583 -0.1343374
0000e0 dc 64 10 3e 6b 3e b4 3d b2 a0 31 be a7 e4 c8 bc
       0.14100975 0.08800968 -0.17346457 -0.024523092
0000f0 00 4c 9d bd 48 69 a4 3d 52 7c 6e 3e a0 26 96 3d
       -0.076805115 0.08027893 0.23289612 0.07331586
000100 80 de c4 bd a2 9c 2d 3e 34 d5 c2 bd 9c ab 94 bd
       -0.09612751 0.16954282 -0.095133215 -0.072592944
000110 9e 4c d0 bc e5 53 4e be 51 79 81 bc 92 b0 2d be
       -0.025427159 -0.2014919 -0.015804918 -0.16961887
000120 a0 93 d2 3c b7 2d e0 bc 28 be 0d 3d 9c 68 73 be
       0.025705159 -0.027365549 0.034605175 -0.23770374
000130 b9 99 80 be 80 94 eb 3d 68 8b 5b 3e d6 2a 63 be
       -0.2511728 0.115029335 0.21439898 -0.2218431
000140 7c 0d f6 3d a1 d5 0d be 50 64 80 3c ec 2b 6e 3e
       0.12014291 -0.13851024 0.015672833 0.23258942
000150 08 f6 6c 3e 22 ca 2f be ee b8 42 3e 94 b6 05 3e
       0.23140728 -0.17166951 0.19015858 0.1305793
000160 00 0c c9 b9 26 9c 92 3e 8c 5a cb bd e5 6a 01 bd
       -0.00038346648 0.28634757 -0.0992938 -0.031596083
000170 82 99 cf bd b0 59 13 3d 20 92 87 3d 60 2f a3 3c
       -0.10136701 0.035974205 0.06619668 0.019920051
000180 d4 54 3c be 47 06 29 be 78 28 ae 3d b2 77 60 be
       -0.18391734 -0.16506301 0.085038126 -0.2192066
000190 5c 46 d1 bd f3 6c 88 bc 95 23 1a be 78 53 ba 3d
       -0.10218498 -0.016653514 -0.15052636 0.09097952
0001a0 50 00 84 3c cf a4 f9 3d d0 e2 b5 bc 01 f2 3c be
       0.01611343 0.12189638 -0.02220288 -0.18451692
0001b0 bd 5e 06 3e 18 00 0f 3d c8 a2 92 bd f6 ba 28 be
       0.13122077 0.0349122 -0.07159954 -0.1647757
0001c0 e7 7b aa 3d 96 50 6c be 74 d9 86 3d dc 27 fd 3d
       0.08324414 -0.23077616 0.06584445 0.12361118
0001d0 83 09 0d be e6 39 1c be 1a 6d 1c be 70 2b 57 3e
       -0.1377316 -0.15256462 -0.15275994 0.21012664
0001e0 82 a1 59 3e 0e f7 53 3d 94 55 70 3e 67 32 77 bd
       0.21253017 0.05174928 0.23470145 -0.0603508
0001f0 fd 0c 12 be c8 d6 b2 3d b0 62 b5 3d 56 fa 7a 3e
       -0.14262767 0.087323725 0.08856714 0.24509558
000200 5d 0c ad 3c 4b 1f 2f 3e 32 eb 1c 3e ea 48 39 3e
       0.02112406 0.17101781 0.15324095 0.18094221
000210 08 68 54 be 70 6d 47 3e 8e ac 49 be c0 81 65 3e
       -0.2074281 0.19475341 -0.1969473 0.22412777
000220 a0 bd 29 bc 1e 67 64 be 2c 62 8e 3d 77 f3 9c bd
       -0.0103601515 -0.22304961 0.069523185 -0.07663625
000230 92 37 1d be 9c 9e b9 bd d0 28 d3 3c 7e 62 47 3e
       -0.1535323 -0.090634555 0.025776297 0.19471166
000240 b5 c4 47 bd 85 d3 09 3e e8 3b 00 3d 40 11 0a 3c
       -0.04877158 0.13459595 0.03130713 0.008426964
000250 94 fa 52 3d f3 61 33 be dd 40 43 be 58 e0 a0 bd
       0.0515085 -0.17517833 -0.19067712 -0.0785529
000260 fc 8d 6e be 1e 1c 03 be a0 70 3c 3c 0f 1a 43 be
       -0.2329635 -0.12803695 0.011501461 -0.1905291
000270 1e 49 b1 bd b8 ff 37 bd c0 ef eb bc d4 50 0d be
       -0.08656524 -0.044921607 -0.028800845 -0.13800365
000280 46 1d 6d bd 9a 2f c6 bd 04 6e 92 3d 80 01 39 3c
       -0.057889245 -0.09677048 0.0714989 0.0112918615
000290 ac b5 43 be 8d 09 c7 bd a9 c3 92 bd 80 bd 1f be
       -0.19112271 -0.097186185 -0.071662255 -0.15599632
0002a0 e0 53 a0 3c 7a 4d 9b bd 20 a5 c6 3d e6 02 05 3d
       0.019571245 -0.07583137 0.09699464 0.032473467
0002b0 79 0f 0a 3e c0 06 07 bc e4 28 3d be 5c de e4 3d
       0.13482465 -0.008241355 -0.1847263 0.11175224
0002c0 ca 5d 88 be 47 2e e7 bd 78 c9 a5 bd 8c 46 c2 bd
       -0.26634055 -0.112881236 -0.08095068 -0.09486112
0002d0 c7 4d 3d be 73 dc 5f 3e 7e 36 4b 3d f4 e4 8d 3d
       -0.18486701 0.21861438 0.049612515 0.06928435
0002e0 76 5f 70 3e 6f d3 98 be 88 3d 25 3d 32 5b 08 3e
       0.23473915 -0.2984881 0.040341884 0.13316038
0002f0 e5 8a bd 3d 12 bd 4b be 28 37 b6 3d f0 d6 11 be
       0.09255008 -0.19896343 0.08897239 -0.14242148
000300 7f c8 a1 bd 72 22 de bd 3c c0 55 be bc 33 74 be
       -0.0789957 -0.10846414 -0.20874113 -0.2384786
000310 c1 2c 63 be 66 91 d1 3d 0b 71 44 3d d6 a8 5e be
       -0.22185041 0.10232811 0.04795937 -0.21744093
000320 14 47 c0 bd 22 62 47 bd 48 55 5d be de 2b ea 3d
       -0.09388557 -0.04867757 -0.21614563 0.11434148
000330 e9 6a 30 3e 40 1b 35 3d 38 36 3e be 68 c8 6e 3d
       0.17228283 0.04421544 -0.1857537 0.05829659
000340 43 a0 5e bd 98 df bc 3d bc 35 08 be 58 5a 65 be
       -0.054352056 0.092223346 -0.13301748 -0.22397745
000350 f7 52 b4 bc e3 bc 91 3b e9 a2 5d be 18 8a d6 bd
       -0.022012217 0.004447566 -0.21644177 -0.10475558
000360 66 ff 03 be f0 89 d8 3d 18 ae 30 bd 1c 12 1d 3e
       -0.12890396 0.105731845 -0.04313478 0.1533894
000370 9c 86 c6 3d 60 b7 01 3d 48 21 5a 3d 80 7a 8b bc
       0.096936435 0.03166902 0.053254396 -0.017026186
000380 34 e7 4e 3e d9 8c 39 be 1c 9d cb 3d d0 d6 26 bd
       0.20205384 -0.18120135 0.099420756 -0.040732205
000390 e2 e2 15 3e 47 dd 23 3c 46 1b 6e bd e0 14 dd bc
       0.1463733 0.010001487 -0.05813148 -0.026987493
0003a0 f8 3c 0a 3e e0 51 06 be 40 d1 21 be 8a 25 f2 bc
       0.1349982 -0.1311717 -0.15802479 -0.029558916
0003b0 ab 66 89 bd 38 22 c9 3d c0 47 2c 3e 80 56 db bc
       -0.067090355 0.0982098 0.16824245 -0.026774645
0003c0 2f 8d 52 3e 29 4c 16 be 24 a8 0f be 28 38 e5 bd
       0.2056167 -0.1467749 -0.14028984 -0.111923516
0003d0 79 f1 49 be e1 d1 3e be b3 59 83 be 32 e3 62 be
       -0.19721021 -0.1863475 -0.25654373 -0.2215698
0003e0 9c a1 85 3d bf d2 e7 3d 4c 58 70 3e b1 2c 3f 3e
       0.06524965 0.113194935 0.23471183 0.18669392
0003f0 cd a1 0b bd 28 b4 46 3d 7c 2b 19 be 18 e6 c5 3d
       -0.034089852 0.048511654 -0.14957994 0.096630275

bias f4 [16]
000000 d9 54 07 be 07 ca 5d 3d 75 42 7d bc 40 39 74 bc
       -0.1321596 0.054147746 -0.015457739 -0.014906228
000010 d6 be 25 3d 8a f2 8d bd 81 11 23 3e 46 40 12 3e
       0.0404652 -0.06931026 0.15924646 0.14282331
000020 30 63 24 3e fa 0e d3 3c 5b 4f be 3d d1 7f ad 3d
       0.16053462 0.025763977 0.092924796 0.08471645
000030 a3 03 60 3d d3 e4 9e 3d 99 8f 8b bb 71 9b 00 3e
       0.05469097 0.077584885 -0.0042590615 0.12559296
