Deep_model/saved_model/model_jacobian_truncated.pth (torch, 6258 bytes, 6 tensors)

weight f4 [9, 9]
000000 3e 96 24 3e d6 c5 40 bd 84 90 83 3e f6 ce 49 3d
       0.16072938 -0.04706367 0.25696194 0.04926964
000010 18 59 1f be b6 02 ae 3d c8 43 1d be d6 1d 20 bd
       -0.1556133 0.08496611 -0.15357888 -0.039090954
000020 a8 a2 0a be de 9c b0 3e a2 79 e5 bd 61 66 8f bd
       -0.13538611 0.3449468 -0.1120484 -0.07001949
000030 65 f2 9d bc 1c 34 13 be 68 e4 e5 3c f9 e0 44 be
       -0.019280622 -0.14375347 0.028063014 -0.19226445
000040 40 02 4d 3e 6d 44 06 be 1b 39 b3 3e 3d df bc bd
       0.2002039 -0.1311204 0.35004506 -0.09222267
000050 4c f6 89 bd ff 1e 73 3d 68 ad 03 3e 40 60 cc 3d
       -0.067364305 0.059355732 0.12859118 0.09979296
000060 c1 07 91 bd 18 64 66 be be 59 ab 3d 7c 5d 37 bd
       -0.07081557 -0.2249912 0.08366726 -0.044766888
000070 99 63 dc 3d 9a 23 a9 3e 1d 74 4e 3e 09 21 bf bd
       0.10761184 0.33034974 0.20161481 -0.09332473
000080 7f 13 17 3e 2f 0c 40 3c 3f da e9 3d e6 c6 18 be
       0.14753531 0.011721655 0.1141858 -0.14919624
000090 c3 f1 a8 be b3 e0 03 be be e7 82 be e4 09 8c 3e
       -0.3299695 -0.12878685 -0.2556743 0.27351296
0000a0 20 a1 c4 3d 88 62 0d 3e a6 e6 d7 3d ab 02 be bb
       0.09601045 0.13807118 0.105420396 -0.005798658
0000b0 ae 90 85 3e a0 85 72 be d6 ee ab 3c 46 f9 68 be
       0.26086944 -0.23683786 0.02098791 -0.2275134
0000c0 6b 80 d2 3d 2b 19 eb bd 20 2e d1 3d 50 3a 8e bd
       0.102784 -0.1147941 0.10213876 -0.06944716
0000d0 af 8c 8d 3e 16 4f 4a be 66 f9 8f be 49 d3 07 be
       0.27646396 -0.19756731 -0.28119963 -0.13264193
0000e0 a3 8d 71 3e 85 dd 0f 3d 74 6c 7f 3e e9 a6 54 be
       0.23589186 0.035123367 0.24943715 -0.20766796
0000f0 6f 0b 83 be ca ca 45 be ab 19 1f be b5 f7 8b 3e
       -0.2559466 -0.19315639 -0.15537135 0.27337423
000100 57 f5 87 bd 08 53 a1 3e d5 ea f8 bd 11 c6 e7 bd
       -0.06638592 0.3150866 -0.12154166 -0.11317075
000110 bb 43 09 bd ae 2e 7e be 4e 2a b7 3d 27 ed 1f bd
       -0.03351186 -0.24822494 0.08943616 -0.039044525
000120 23 42 43 3e 40 9a 84 be f8 40 2c be 06 21 d0 3d
       0.19068198 -0.25898933 -0.16821659 0.10162549
000130 26 52 90 3d 46 0d ae bd 58 75 4b 3e a3 0a 68 3e
       0.070469186 -0.084986255 0.19868982 0.22660308
000140 9e 86 77 be
       -0.24172446

bias f4 [9]
000000 1e 3a 36 be e1 6c 36 3e d2 21 a5 3c db a3 27 be
       -0.17795607 0.17814972 0.020157728 -0.163711
000010 db 22 a5 be b0 78 43 be 8e 30 f4 3a 33 cd ce 3d
       -0.32253155 -0.19089007 0.0018630193 0.100977324
000020 e3 c4 77 be
       -0.241962

weight f4 [14, 9]
000000 d6 1a 00 3c 93 28 69 be 04 cb 90 be a3 f5 3b be
       0.007818898 -0.22769384 -0.2827989 -0.18355422
000010 9a 5e 95 be 06 57 59 be 94 99 aa 3e 4b f0 80 3d
       -0.29173738 -0.21224603 0.33320296 0.06295832
000020 d0 5e d2 3d 9a 2d 9f be 58 c1 c3 bd 70 30 8f bd
       0.1027199 -0.3108948 -0.09558362 -0.069916606
000030 8b 5c ae 3d 5a 2c 96 be 43 12 13 be d0 ee 85 be
       0.08513745 -0.29330713 -0.14362435 -0.26158762
000040 26 f5 6c 3d c0 05 fe bd 40 39 bd bc d1 55 b4 bd
       0.05785098 -0.124034405 -0.023098588 -0.08805431
000050 1d 98 17 be 7c 40 11 be d0 ac e9 bd 36 b4 86 be
       -0.1480412 -0.14184755 -0.114099145 -0.26309365
000060 e2 5d 5b 3e 01 03 8f 3c 4f d7 92 3e eb b4 d4 3d
       0.21422532 0.017457487 0.28679892 0.1038607
000070 37 ca 12 be 37 21 86 3e aa 10 15 be 8b d7 02 be
       -0.14334951 0.26197216 -0.14557138 -0.12777536
000080 56 aa 8d be 1a e9 81 be dd 61 33 3e d6 1f 95 bd
       -0.27669019 -0.25373155 0.175178 -0.07281463
000090 93 e3 04 3e 2d a2 68 be d3 64 9f 3d d1 19 4a be
       0.12977438 -0.22718115 0.077829026 -0.1973641
0000a0 b6 c1 6b bd a0 96 8e 3d f0 d8 f0 3d b8 72 6a 3e
       -0.057557784 0.06962323 0.117601275 0.22895324
0000b0 6b 78 9b 3e 4c 53 87 be 4f e3 f8 3d bf a0 56 3d
       0.3036531 -0.26430738 0.12152731 0.052399393
0000c0 ab 52 9e bd 10 7c 7f be 06 74 9b 3e fb 58 2b be
       -0.077306114 -0.2494967 0.30361956 -0.16733162
0000d0 3d d1 d9 3d 86 ea ef 3d 2b d6 dd 3d 63 8a 38 be
       0.10635612 0.11714654 0.10831865 -0.1802154
0000e0 b3 20 9b 3e 2b 04 96 3d f6 a2 2f 3d 9c 66 96 be
       0.30298385 0.07325014 0.04288002 -0.2937516
0000f0 ae 49 0f 3e 00 d4 4c bd 83 5f 1c be f3 97 92 3e
       0.1399295 -0.050006866 -0.1527081 0.28631553
000100 20 33 98 3d 08 da 3c be 18 c3 2c be ab 67 82 bc
       0.07431626 -0.18442547 -0.16871297 -0.015918573
000110 5b 96 3e 3e c6 71 ae bd 98 c1 42 be 3b c6 e9 bd
       0.18612044 -0.08517794 -0.19019163 -0.114147626
000120 66 00 7f be 0b 76 f3 3d 56 1a 84 3e 28 ac a0 be
       -0.24902496 0.11887749 0.25801343 -0.31381345
000130 c0 8c 9e 3d 7b 54 30 3e 36 93 77 3d 4b 1d f3 bd
       0.0774169 0.17219727 0.060443126 -0.118708216
000140 00 28 32 3e 0b 60 33 3e 86 44 ff 3d 16 eb 6f bd
       0.17398071 0.17517106 0.12464242 -0.058573805
000150 60 c5 b4 bd 8b 10 12 3d 16 31 71 bd 76 6f cb bd
       -0.08826709 0.035660308 -0.058884703 -0.09933369
000160 c0 2e 5a 3e be ab 92 3e 16 2a 07 bd 6c fe 19 be
       0.21306896 0.28646654 -0.03299912 -0.1503846
000170 5a 6d 87 bd bb 54 9e bd eb 1e a4 3d 60 4e bf 3d
       -0.06612654 -0.07731005 0.0801371 0.09341121
000180 14 45 8e be e9 9e 4a be 33 b9 8f 3e d6 f7 04 3e
       -0.27787077 -0.19787182 0.28070983 0.12985167
000190 16 d1 87 bc b6 ca 4d be 58 d4 50 be a7 e0 98 be
       -0.016579192 -0.2009686 -0.20393503 -0.29858896
0001a0 10 86 de bd 16 8a e6 3d 3b a4 59 3e bb 97 1d 3e
       -0.10865414 0.112568066 0.21254055 0.15389912
0001b0 1b dc 96 be db 43 4d be eb 78 57 bd 26 18 a5 3e
       -0.29464802 -0.20045416 -0.05260555 0.32244986
0001c0 76 81 45 3d 6b ca b0 bd fe 36 0d 3e f0 01 02 be
       0.048219167 -0.08632358 0.13790509 -0.12696052
0001d0 10 ee 5c be 86 22 79 3e 73 34 1b be 1b da 88 bd
       -0.21575189 0.24329576 -0.15156727 -0.06682225
0001e0 aa c7 a9 be c3 71 64 3e 90 4d 81 3e f0 cb f8 3d
       -0.33160144 0.22309022 0.25254488 0.12148273
0001f0 c0 00 6e be 10 70 a8 be
       -0.23242474 -0.32897997

bias f4 [14]
000000 a4 9c 8a be 75 b6 2c 3e d3 8a 8e 3e c5 a0 d0 3e
       -0.27072632 0.16866477 0.2784029 0.40747657
000010 50 ee 51 3e bf 3e 67 3e ab ec 55 bb 04 cb 81 be
       0.20501065 0.2258253 -0.0032642286 -0.253502
000020 f3 38 92 be 02 a2 9f be 2a 00 63 3d 70 95 27 be
       -0.28559074 -0.3117829 0.05542008 -0.163656
000030 70 63 89 bd 6b 70 44 be
       -0.06708419 -0.19183509

weight f4 [14, 14]
000000 02 7b 47 bd 17 f3 86 bd c2 13 b7 bd 83 d5 8e 3e
       -0.048701294 -0.065893345 -0.089393154 0.27897272
000010 38 3f 8f 3d 5b 5b 9a 3e 52 98 af bd 67 c2 48 be
       0.0699448 0.30147824 -0.08573975 -0.19605409
000020 e7 25 41 bd db a9 04 be 74 72 28 be d9 44 82 be
       -0.047155287 -0.1295542 -0.1644991 -0.25443152
000030 74 1e 19 3e bd 88 3e be dd 8d 09 3e d7 2d 95 3d
       0.14953023 -0.18606849 0.13433023 0.07284134
000040 b8 58 fe 3d da 94 95 be 69 5b 33 3e 9c b2 52 be
       0.124192655 -0.29215127 0.17515339 -0.20575947
000050 e8 1a cb 3d a0 81 80 3e 4b 63 1a bd 14 74 07 bb
       0.09917241 0.25098896 -0.03769235 -0.0020668553
000060 1e ef fb bc cb 83 64 be 71 56 03 3e 5e d7 87 be
       -0.030753668 -0.223159 0.12825944 -0.265315
000070 d1 e5 29 3e ef eb f1 3d a4 b7 29 3e 6d 04 ea bd
       0.16591574 0.11812579 0.1657396 -0.114266254
000080 04 b9 63 be 07 24 62 bd 92 2f 17 3e 21 32 88 be
       -0.22238547 -0.05521014 0.1476424 -0.26600745
000090 bf 7a 78 bd 68 0e 24 be 11 f2 46 bc ef b4 06 be
       -0.060663935 -0.1602112 -0.012142674 -0.13154958
0000a0 46 bd df bd ed c2 ad bd 98 09 82 be 66 57 ea 3d
       -0.10924773 -0.08484445 -0.25397944 0.11442451
0000b0 90 ee f5 3d e0 3d 29 be ca 2f e4 bd 7b 77 7e be
       0.12008393 -0.1652751 -0.111419275 -0.24850266
0000c0 6c 25 77 be b3 29 85 be 79 6d cb 3d af 42 16 be
       -0.24135369 -0.26008376 0.099329896 -0.14673875
0000d0 47 6a 6c be 05 d3 aa bc 24 46 b6 bd 55 14 b1 bd
       -0.23087417 -0.020852575 -0.08900097 -0.08646456
0000e0 43 b2 0c 3c 61 36 2b be cc 96 7e be f9 08 80 be
       0.008587423 -0.16719963 -0.24862212 -0.25006846
0000f0 d8 3b a8 be b0 c7 c4 3d f7 0a db bd 6b 09 91 3d
       -0.32858157 0.096084 -0.10695451 0.070818745
000100 82 e9 bd bd ed e9 b1 3c d2 3d 41 3e 52 2d fc 3d
       -0.09273054 0.02171799 0.18871239 0.12313332
000110 c7 2a 6d be c2 3e d9 3d 6b e4 81 3e da 8f da 3d
       -0.2316085 0.10607673 0.25369582 0.10671969
000120 ab 8d 80 3e fc d7 92 3e 7a 6a cf bd 42 f0 02 3e
       0.25108084 0.28680408 -0.10127731 0.12786964
000130 ce 36 3e be d0 97 61 bd fd ad 4a 3e 72 4c 0c 3e
       -0.18575594 -0.05507642 0.19792934 0.13701037
000140 13 f9 1d be cf 74 5b be 18 05 3b be c9 0a 87 be
       -0.15427046 -0.21431278 -0.18263662 -0.26375416
000150 bf 2d 53 be 76 f3 61 3d b4 74 b2 3e 4e df 49 3e
       -0.2062292 0.055163823 0.34854662 0.1971409
000160 75 c7 4f bd a6 42 65 bd 94 25 08 3e 36 92 4b be
       -0.050727326 -0.055971764 0.13295585 -0.19879994
000170 b3 c9 06 bd a7 48 03 3e 42 51 80 bd 7f bb ee bc
       -0.0329072 0.12820683 -0.06265499 -0.02914214
000180 56 93 be bc 80 7e 81 bd 25 c3 0a be 48 8a 67 be
       -0.023263615 -0.06322956 -0.13551004 -0.22611344
000190 24 ee 54 be f1 db 24 be 48 ee 4b 3e 66 cf c3 bd
       -0.20793968 -0.16099526 0.19915116 -0.095610425
0001a0 e0 c7 37 be ba ac 84 3d 08 db 96 3d 11 f3 15 3e
       -0.1794734 0.064782575 0.07365996 0.14643504
0001b0 18 1d 6d 3e 1f 67 18 3e bd ac 87 be da 2c c2 3c
       0.2315563 0.14883088 -0.26498976 0.023703028
0001c0 9f c7 25 3e 19 14 b6 bd 0d e5 a2 bd 5b 4b 45 3e
       0.1618943 -0.08890552 -0.07953844 0.19267027
0001d0 a2 fe 2b be 5b a4 4d be c9 bb 76 be 10 98 43 3c
       -0.16796353 -0.20082228 -0.24095072 0.01193811
0001e0 a3 8c f2 3d 8b 53 72 3d a2 f9 14 bc 54 8d 4f be
       0.118432306 0.059161704 -0.00909272 -0.20268756
0001f0 02 95 7f be 4c 37 9a 3b f2 8b 79 3e 9e c6 76 3e
       -0.24959186 0.004706299 0.24369791 0.24099204
000200 5a 17 ad bd 9d 54 ad 3d 68 71 dd bd 0e 75 12 ba
       -0.084517196 0.08463404 -0.10812646 -0.00055869005
000210 ac 3f 46 3d e0 06 15 3e 52 b4 62 3e 5e 43 7b be
       0.048400566 0.14553404 0.22139099 -0.24537417
000220 38 4c b8 3d 6c 05 41 be 0c f7 cc 3d bb 98 67 3e
       0.089989126 -0.18849725 0.10008058 0.22616856
000230 9c f4 75 3b 74 e4 43 3e 7e 05 21 be ea 48 1f be
       0.0037529832 0.19130117 -0.15724751 -0.15555158
000240 e5 8f 3b 3e df 15 70 bd f4 15 60 bd a0 21 e4 bd
       0.1831661 -0.058614608 -0.054708436 -0.11139226
000250 6e a5 3c 3e 1c 3d 06 3e c4 08 ac 3c b3 cb 19 be
       0.18422481 0.13109249 0.021000274 -0.15019111
000260 ee 27 5e be aa ce ec 3c 24 2b a2 3d 8d 0e e8 bc
       -0.2169492 0.028907139 0.07918385 -0.02832725
000270 50 52 1c 3d d1 c5 8a 3e 23 42 9f 3d 5b 9e ef 3d
       0.038164437 0.27104047 0.077762865 0.11700126
000280 11 b4 86 bd 75 d6 77 be a8 a9 80 be 2e d2 02 be
       -0.06577314 -0.24202903 -0.25129437 -0.1277549
000290 27 58 92 bd 78 87 aa 3d fb 56 9f bd c5 22 d6 bd
       -0.0714572 0.0832662 -0.07780262 -0.104558505
0002a0 17 77 82 3e 39 ca 2a 3e 1e 59 36 3e fc 58 28 bd
       0.25481483 0.16678704 0.17807433 -0.041100487
0002b0 4c b5 aa bc fb 70 3a 3e db 57 36 be 1d e7 32 be
       -0.020838402 0.18207161 -0.17806952 -0.17470975
0002c0 b7 7e 53 bc 11 33 c8 bd d5 87 0a be 45 55 22 3e
       -0.012908629 -0.09775365 -0.13528378 0.1585284
0002d0 66 14 5c 3e 12 96 31 3d 27 9a 3e bd fb 94 1c be
       0.21492156 0.04335601 -0.04653373 -0.15291207
0002e0 4e 25 9e bd ab 30 f7 3c 1d 56 7c 3d 93 76 f6 bd
       -0.07721959 0.030174574 0.06160556 -0.12034335
0002f0 93 65 d8 bd c7 7f 18 3e 81 f4 59 be c4 f7 2c 3e
       -0.10566249 0.14892493 -0.21284677 0.1689139
000300 26 b4 8f bc f0 09 86 3b 9b 54 58 bd 74 b8 04 3d
       -0.017541956 0.00409054 -0.05281506 0.03240247

bias f4 [14]
000000 9d c9 12 3d 97 cd ca 3d 2a 69 cc bd ff 14 c1 3d
       0.035836805 0.099024944 -0.09980996 0.09427833
000010 30 d1 12 3e 37 9c 43 bd 35 88 7e bd 46 39 42 3e
       0.14337611 -0.0477564 -0.062141616 0.1896716
000020 29 52 20 3e 14 70 e3 bd d8 bf 9c 3d 40 1d 29 be
       0.15656342 -0.111053616 0.07653779 -0.16515064
000030 8b f6 09 be cc 68 49 bc
       -0.13472955 -0.012293052
