Deep_model/saved_model/model_without_jacobian.pth (torch, 6238 bytes, 6 tensors)

weight f4 [9, 9]
0	0x3e24963e	0.16072938
1	0xbd40c5d6	-0.04706367
2	0x3e839084	0.25696194
3	0x3d49cef6	0.04926964
4	0xbe1f5918	-0.1556133
5	0x3dae02b6	0.08496611
6	0xbe1d43c8	-0.15357888
7	0xbd201dd6	-0.039090954
8	0xbe0aa2a8	-0.13538611
9	0x3e016ab8	0.12638366
10	0xbeb78eff	-0.35851285
11	0xbe7eae50	-0.24871182
12	0xbe411ae7	-0.18857919
13	0xbe969d1b	-0.29416737
14	0xbd82f6b9	-0.06394715
15	0xbea308b8	-0.3184259
16	0x3e40af89	0.18816961
17	0xbeb9209a	-0.36157686
18	0x3ebd7265	0.3700134
19	0x3e2ce3f4	0.16883832
20	0x3b9af2c8	0.004728649
21	0x3ea30107	0.3183672
22	0x3e280478	0.16407955
23	0x3ec3ae2f	0.3821883
24	0xbc8cc055	-0.017181555
25	0xb8e71136	-0.00011018144
26	0x3e40268e	0.18764707
27	0xbdedaef8	-0.11605638
28	0x3dea3a06	0.11436848
29	0x3e8b565f	0.27214333
30	0x3e2b1b81	0.1670971
31	0xbe2edb68	-0.17075884
32	0x3e2b285c	0.16714615
33	0x3d147c2c	0.036251232
34	0x3e10a57a	0.14125624
35	0xbe437d40	-0.19090748
36	0xbea8f1c3	-0.3299695
37	0xbe03e0b3	-0.12878685
38	0xbe82e7be	-0.2556743
39	0x3e8c09e4	0.27351296
40	0x3dc4a120	0.09601045
41	0x3e0d6288	0.13807118
42	0x3dd7e6a6	0.105420396
43	0xbbbe02ab	-0.005798658
44	0x3e8590ae	0.26086944
45	0xbe7285a0	-0.23683786
46	0x3cabeed6	0.02098791
47	0xbe68f946	-0.2275134
48	0x3dd2806b	0.102784
49	0xbdeb192b	-0.1147941
50	0x3dd12e20	0.10213876
51	0xbd8e3a50	-0.06944716
52	0x3e8d8caf	0.27646396
53	0xbe4a4f16	-0.19756731
54	0xbe84e395	-0.2595488
55	0xbe84f37a	-0.25967008
56	0x3e749824	0.23886162
57	0x3d4d8de6	0.050184153
58	0x3e8491ab	0.25892386
59	0xbeabb6d1	-0.33537915
60	0xbe899ec4	-0.2687894
61	0xbe985e1a	-0.29759294
62	0xbe92a87c	-0.28644168
63	0x3e759dde	0.23986003
64	0x3e65d1b3	0.22443275
65	0x3ec38c2c	0.3819288
66	0xbd8a5984	-0.06755355
67	0xbdfae213	-0.122501515
68	0x3e9019a5	0.28144565
69	0xbe69f0f9	-0.2284583
70	0x3e9d4e36	0.30723733
71	0x3cae7545	0.021296153
72	0x3e434223	0.19068198
73	0xbe849a40	-0.25898933
74	0xbe2c40f8	-0.16821659
75	0x3dd02106	0.10162549
76	0x3d905226	0.070469186
77	0xbdae0d46	-0.084986255
78	0x3e4b7558	0.19868982
79	0x3e680aa3	0.22660308
80	0xbe77869e	-0.24172446

bias f4 [9]
0	0xbe363a1e	-0.17795607
1	0x3e56f835	0.20993121
2	0x3a174e8c	0.0005771897
3	0xbe13371b	-0.1437649
4	0xbea522db	-0.32253155
5	0xbe4378b0	-0.19089007
6	0x3cb8f86b	0.022579392
7	0x3d7946d7	0.060858574
8	0xbe77c4e3	-0.241962

weight f4 [14, 9]
0	0x3c001ad6	0.007818898
1	0xbe692893	-0.22769384
2	0xbe90cb04	-0.2827989
3	0xbe3bf5a3	-0.18355422
4	0xbe955e9a	-0.29173738
5	0xbe595706	-0.21224603
6	0x3eaa9994	0.33320296
7	0x3d80f04b	0.06295832
8	0x3dd25ed0	0.1027199
9	0xbe9f2d9a	-0.3108948
10	0xbe8da90e	-0.2766804
11	0xbe83e50b	-0.25760683
12	0x3be50136	0.0069886697
13	0xbe962c5a	-0.29330713
14	0xbe131243	-0.14362435
15	0xbe73d67f	-0.23812293
16	0xbddc99e4	-0.1077154
17	0xbdfe05c0	-0.124034405
18	0xbcbd3940	-0.023098588
19	0xbe265fa3	-0.1624742
20	0xbdd537ea	-0.104110554
21	0xbe35997e	-0.17734334
22	0xbde9acd0	-0.114099145
23	0xbe86b436	-0.26309365
24	0x3e8db0b5	0.2767388
25	0x3d42870b	0.04749207
26	0x3e92d74f	0.28679892
27	0x3dd4b4eb	0.1038607
28	0xbe4a5b35	-0.19761355
29	0x3eb753f9	0.35806254
30	0xbd33ab97	-0.043864813
31	0xbe02d78b	-0.12777536
32	0xbe8daa56	-0.27669019
33	0xbe927955	-0.28608194
34	0x3e5c684c	0.21524161
35	0xbd951fd6	-0.07281463
36	0x3e04e393	0.12977438
37	0xbe98ce5d	-0.29844943
38	0x3e5bfc9e	0.21483085
39	0xbe92fb44	-0.28707325
40	0xbd6bc1b6	-0.057557784
41	0x3d8e96a0	0.06962323
42	0x3e0be6ed	0.1366231
43	0x3e73b2d6	0.23798689
44	0x3e9b786b	0.3036531
45	0xbe87534c	-0.26430738
46	0x3e31e4e7	0.17372476
47	0xbd4bb2c5	-0.049731035
48	0x3c4116ff	0.011785268
49	0xbe7f7c10	-0.2494967
50	0x3e9b7406	0.30361956
51	0xbe42a85e	-0.1900954
52	0x3e8b477f	0.27202985
53	0x3defea86	0.11714654
54	0x3dddd62b	0.10831865
55	0xbdc4981a	-0.095993236
56	0x3ecafd75	0.39646497
57	0x3d96042b	0.07325014
58	0x3d2fa2f6	0.04288002
59	0xbe96669c	-0.2937516
60	0x3e0f49ae	0.1399295
61	0x3d34f32a	0.04417721
62	0xbe1c5f83	-0.1527081
63	0x3e9297f3	0.28631553
64	0x3d983320	0.07431626
65	0xbe3cda08	-0.18442547
66	0xbe2cc318	-0.16871297
67	0xbc8267ab	-0.015918573
68	0x3e3e965b	0.18612044
69	0xbdae71c6	-0.08517794
70	0xbe42c198	-0.19019163
71	0xbde9c63b	-0.114147626
72	0xbe7f0066	-0.24902496
73	0x3df3760b	0.11887749
74	0x3e841a56	0.25801343
75	0xbea0ac28	-0.31381345
76	0x3d9e8cc0	0.0774169
77	0x3e30547b	0.17219727
78	0x3d779336	0.060443126
79	0xbdf31d4b	-0.118708216
80	0x3e322800	0.17398071
81	0x3e33600b	0.17517106
82	0x3dff4486	0.12464242
83	0xbd6feb16	-0.058573805
84	0xbdb4c560	-0.08826709
85	0x3d12108b	0.035660308
86	0xbd713116	-0.058884703
87	0xbdcb6f76	-0.09933369
88	0x3e5a2ec0	0.21306896
89	0x3e92abbe	0.28646654
90	0xbd072a16	-0.03299912
91	0xbe0bbc25	-0.1364599
92	0xbdbe70d9	-0.09298868
93	0xbd8785af	-0.06617295
94	0x3da41eeb	0.0801371
95	0x3dbf4e60	0.09341121
96	0xbeb00390	-0.34377718
97	0xbe54365b	-0.2072386
98	0x3e8fb933	0.28070983
99	0x3e04f7d6	0.12985167
100	0xbc87d116	-0.016579192
101	0xbe4dcab6	-0.2009686
102	0xbe50d458	-0.20393503
103	0xbe98e0a7	-0.29858896
104	0xbdde8610	-0.10865414
105	0x3de68a16	0.112568066
106	0x3e59a43b	0.21254055
107	0x3e1d97bb	0.15389912
108	0xbe96dc1b	-0.29464802
109	0xbe4d43db	-0.20045416
110	0xbd5778eb	-0.05260555
111	0x3ea51826	0.32244986
112	0x3d458176	0.048219167
113	0xbdb0ca6b	-0.08632358
114	0x3e0d36fe	0.13790509
115	0xbe0201f0	-0.12696052
116	0xbe5cee10	-0.21575189
117	0x3e792286	0.24329576
118	0xbe1b3473	-0.15156727
119	0xbd88da1b	-0.06682225
120	0xbea9c7aa	-0.33160144
121	0x3e6471c3	0.22309022
122	0x3e814d90	0.25254488
123	0x3df8cbf0	0.12148273
124	0xbe6e00c0	-0.23242474
125	0xbea87010	-0.32897997

bias f4 [14]
0	0xbe8a9ca4	-0.27072632
1	0x3e356f74	0.17718297
2	0x3e7f4233	0.24927597
3	0x3ec26e51	0.3797479
4	0x3e1391b3	0.14411049
5	0x3e351d05	0.17686851
6	0x3db4b3c4	0.0882335
7	0xbe81cb04	-0.253502
8	0xbe9238f3	-0.28559074
9	0xbe9fa202	-0.3117829
10	0x3d8dab90	0.069174886
11	0xbe279570	-0.163656
12	0xbd896370	-0.06708419
13	0xbe44706b	-0.19183509

weight f4 [14, 14]
0	0xbd477b02	-0.048701294
1	0xbdc184f5	-0.09449188
2	0xbd5cc900	-0.053902626
3	0x3e5ea7c1	0.2174368
4	0x3d3c65fc	0.045995697
5	0x3e966ddd	0.29380694
6	0x3d56e609	0.052465472
7	0xbe48c267	-0.19605409
8	0xbd4125e7	-0.047155287
9	0xbe04a9db	-0.1295542
10	0xbc743537	-0.0149052655
11	0xbe8244d9	-0.25443152
12	0x3e191e74	0.14953023
13	0xbe3e88bd	-0.18606849
14	0x3e098ddd	0.13433023
15	0x3d4a2d00	0.04935932
16	0x3ded14b7	0.11576217
17	0xbe95b82a	-0.2924207
18	0x3de588af	0.11207711
19	0xbe5cb41b	-0.2155308
20	0x3d7e1753	0.062033962
21	0x3e8081a0	0.25098896
22	0xbd1a634b	-0.03769235
23	0xbb077414	-0.0020668553
24	0xbdfb2d73	-0.12264528
25	0xbe6483cb	-0.223159
26	0x3e035671	0.12825944
27	0xbe87d75e	-0.265315
28	0x3e29e5d1	0.16591574
29	0x3e06a1ce	0.13147661
30	0x3e391dd4	0.18077785
31	0xbe146716	-0.14492449
32	0xbe965a2d	-0.29365674
33	0xbcba8321	-0.022767605
34	0x3dedd2d9	0.116124816
35	0xbe883221	-0.26600745
36	0xbd787abf	-0.060663935
37	0xbe240e68	-0.1602112
38	0xbdac1baa	-0.08403714
39	0xbe06b4ef	-0.13154958
40	0xbddfbd46	-0.10924773
41	0xbdadc2ed	-0.08484445
42	0xbe820998	-0.25397944
43	0x3e112f85	0.14178284
44	0x3e16fa42	0.14743903
45	0xbe05cf34	-0.13067323
46	0xbde611e8	-0.11233884
47	0xbe4d2d59	-0.2003683
48	0xbe81b0cd	-0.253302
49	0xbe8529b3	-0.26008376
50	0x3dcb6d79	0.099329896
51	0xbe1642af	-0.14673875
52	0xbe73742f	-0.2377479
53	0xbcaad305	-0.020852575
54	0xbdb64624	-0.08900097
55	0xbdb11455	-0.08646456
56	0x3c0cb243	0.008587423
57	0xbe112f9c	-0.14178318
58	0xbe3d35d2	-0.18477562
59	0xbe6c2c3d	-0.2306375
60	0xbea17c8a	-0.31540328
61	0x3df48f74	0.11941424
62	0xbe22e95e	-0.15909335
63	0x3d91096b	0.070818745
64	0xbdbde982	-0.09273054
65	0x3cb1e9ed	0.02171799
66	0x3e3910b2	0.18072775
67	0x3dfc2d52	0.12313332
68	0xbe6d2ac7	-0.2316085
69	0x3dd93ec2	0.10607673
70	0x3e81e46b	0.25369582
71	0x3e0c663f	0.13710879
72	0x3e761ade	0.24033687
73	0x3eabda30	0.335649
74	0x3cc1a8f4	0.023640133
75	0x3e0498f7	0.12948976
76	0xbe539470	-0.20662093
77	0xbd6197d0	-0.05507642
78	0x3e4aadfd	0.19792934
79	0x3e0c4c72	0.13701037
80	0xbddba066	-0.10723953
81	0xbe5b74cf	-0.21431278
82	0xbe3b0518	-0.18263662
83	0xbe870ac9	-0.26375416
84	0xbe532dbf	-0.2062292
85	0x3d1286f2	0.035773225
86	0x3e9fa647	0.31181547
87	0x3e39da61	0.18149711
88	0xbd8ba91d	-0.06819365
89	0xbd9edb4d	-0.07756672
90	0x3e8838db	0.26605877
91	0xbe4b9236	-0.19879994
92	0xbd06c9b3	-0.0329072
93	0x3e0348a7	0.12820683
94	0xbd59d911	-0.053185526
95	0xbceebb7f	-0.02914214
96	0xbcbe9356	-0.023263615
97	0xbd817e80	-0.06322956
98	0xbe0ac325	-0.13551004
99	0xbe8920c1	-0.26782802
100	0xbe66d06e	-0.22540447
101	0xbe1c5120	-0.15265322
102	0x3e7f91c3	0.24957947
103	0xbe0d4571	-0.13796021
104	0xbdbd8fe9	-0.09255964
105	0x3d84acba	0.064782575
106	0x3d96db08	0.07365996
107	0x3e15f311	0.14643504
108	0x3e217dd2	0.15770653
109	0x3e18671f	0.14883088
110	0xbe87acbd	-0.26498976
111	0x3cc22cda	0.023703028
112	0x3e25c79f	0.1618943
113	0xbd927f31	-0.07153166
114	0xbe417c06	-0.18894967
115	0x3e5f0fcb	0.21783368
116	0xbe059325	-0.13044412
117	0xbe412d7c	-0.18865007
118	0xbe3eb302	-0.18622974
119	0x3c439810	0.01193811
120	0x3df28ca3	0.118432306
121	0x3d72538b	0.059161704
122	0xbb864b60	-0.004098341
123	0xbe4f8d54	-0.20268756
124	0xbe7f9502	-0.24959186
125	0x3b9a374c	0.004706299
126	0x3e798bf2	0.24369791
127	0x3e74764f	0.23873256
128	0xbd8114e0	-0.0630281
129	0x3d8e30e3	0.06942918
130	0xbdc9d05d	-0.09854195
131	0xbcb9ab34	-0.022664644
132	0x3dd63b68	0.104605496
133	0x3e1506e0	0.14553404
134	0x3e62b452	0.22139099
135	0xbe7b435e	-0.24537417
136	0x3e7b3f80	0.24535942
137	0xbe41056c	-0.18849725
138	0x3dccf70c	0.10008058
139	0x3e6798bb	0.22616856
140	0x3b75f49c	0.0037529832
141	0x3e8ec003	0.27880868
142	0xbe3d518a	-0.18488136
143	0xbd53bfc6	-0.05169656
144	0x3e4d3af8	0.20042026
145	0xbb966ea4	-0.004590826
146	0xbba7c457	-0.005119841
147	0xbde421a0	-0.11139226
148	0x3e3ca56e	0.18422481
149	0x3e063d1c	0.13109249
150	0x3debaecf	0.115079515
151	0xbe19cbb3	-0.15019111
152	0xbe5e27ee	-0.2169492
153	0x3cecceaa	0.028907139
154	0x3da22b24	0.07918385
155	0xbd3c7dd8	-0.04601845
156	0x3bd91c4a	0.006625687
157	0x3e8bee55	0.2733027
158	0x3ddc933f	0.107702725
159	0x3ddae03c	0.106873006
160	0xbcf8a281	-0.030350925
161	0xbe77d675	-0.24202903
162	0xbe80a9a8	-0.25129437
163	0xbe02d22e	-0.1277549
164	0xbd91d923	-0.07121494
165	0x3daa8778	0.0832662
166	0xbd9f56fb	-0.07780262
167	0xbdd622c5	-0.104558505
168	0x3e827717	0.25481483
169	0x3e33b57c	0.175497
170	0x3e90ca88	0.2827952
171	0xbcd92d9e	-0.02651101
172	0xbc37eb5e	-0.0112255495
173	0x3e4f94b1	0.20271565
174	0xbddb6c25	-0.10713986
175	0xbe32e71d	-0.17470975
176	0xbc537eb7	-0.012908629
177	0xbdc83311	-0.09775365
178	0xbe09ae18	-0.13445318
179	0x3e225545	0.1585284
180	0x3e5c1466	0.21492156
181	0x3d319612	0.04335601
182	0xbd3e9a27	-0.04653373
183	0xbe98e742	-0.29863936
184	0xbe111e67	-0.14171754
185	0x3c889673	0.016673302
186	0x3da1d155	0.07901255
187	0xbdaf39a6	-0.085559174
188	0xbd8555d5	-0.06510512
189	0x3e187fc7	0.14892493
190	0xbe59f481	-0.21284677
191	0x3e2cf7c4	0.1689139
192	0xbe203198	-0.15643919
193	0x3b8609f0	0.00409054
194	0xbd58549b	-0.05281506
195	0x3d04b874	0.03240247

bias f4 [14]
0	0x3cc99d88	0.02461125
1	0x3df0b177	0.11752599
2	0xbda3c147	-0.07995849
3	0x3e0275b5	0.12740214
4	0x3e2a0959	0.16605128
5	0xbd7b8d8b	-0.061414283
6	0xbda5668c	-0.080762
7	0x3e431587	0.19051181
8	0x3e290ec8	0.16509545
9	0xbde762eb	-0.11298164
10	0x3ca2954e	0.019846585
11	0xbe3989e2	-0.18119004
12	0xbe04f396	-0.12983546
13	0xb9108c56	-0.0001378519
