Deep_model/saved_model/model_jacobian_full.pth (torch, 6592 bytes, 6 tensors)

weight f4 [9, 9]
000000 33 8b a0 be 8e 9a 1c 3e 5b 0b 1b be 2b 09 31 be
       -0.313562 0.15293333 -0.1514105 -0.17288654
000010 80 19 a3 3d 00 21 32 be 20 c0 1d be 46 06 e6 bd
       0.07963848 -0.17395401 -0.15405321 -0.11231665
000020 36 3b 00 be b8 8d 0e be 06 1b b8 bd 96 68 b1 3d
       -0.12522587 -0.13921249 -0.08989529 0.08662526
000030 46 1b 8a be 33 9a 4e be ab 60 9f 3b d6 df 3d 3d
       -0.26973933 -0.2017601 0.0048638186 0.046356045
000040 0e 84 3c 3e 7e c4 6f be b6 e7 d9 3d a8 02 42 3e
       0.1840975 -0.234148 0.106398985 0.18946326
000050 60 87 3d 3e 6e f6 9e be 16 41 02 be ff b2 92 be
       0.18508673 -0.31047386 -0.12720141 -0.28652188
000060 e8 ff 57 be e8 1d 3e 3e cb de 4b bd d8 f7 10 3e
       -0.21093714 0.18566096 -0.04977302 0.14157045
000070 66 5d 48 be d6 79 4f 3d 4b 75 4e be 3b a1 2a 3e
       -0.19566879 0.0506533 -0.20161931 0.16663067
000080 c3 4a 15 be 56 2f ab bd 64 13 94 be 56 55 90 3a
       -0.145793 -0.08358638 -0.28921044 0.001101176
000090 99 1a c5 3e af 72 09 bf 91 32 ac 3e 3a ac e1 bd
       0.38496855 -0.5369062 0.3363233 -0.11019178
0000a0 03 6a 5d 3e 84 71 d4 bd 93 8b d6 3c 8d dd 90 bd
       0.21622472 -0.10373214 0.026189601 -0.070735075
0000b0 1a bf 83 3d 9c 5d 02 3d bf 31 83 3e da ba 72 3e
       0.06432934 0.031827554 0.2562389 0.2370409
0000c0 dd eb cb 3d b5 83 09 3d 52 db 24 3d 36 52 9d 3d
       0.09957097 0.03357287 0.040248223 0.07681696
0000d0 de e2 8d 3d bc 80 51 b9 f8 d5 bd bb 90 8a 9a 3e
       0.06928037 -0.0001997975 -0.0057933293 0.3018384
0000e0 a3 fb 42 be 38 72 73 3c 8e c9 12 be b6 f8 b4 bb
       -0.19041304 0.014858775 -0.143347 -0.0055228127
0000f0 06 57 47 be 84 53 4f bd d7 d4 b9 bd e5 9d cc 3e
       -0.1946679 -0.050616756 -0.09073799 0.39964214
000100 88 ac 41 bc 83 98 46 be 5a 58 d3 3c f6 80 d2 3d
       -0.01182092 -0.19394116 0.025798965 0.102785036
000110 1e 4d 15 3d 5f 8d e6 3c 83 6a 5d 3d fb 44 3e 3e
       0.036450498 0.028143583 0.054056656 0.18581001
000120 6e 87 55 3e 56 98 d4 3b 30 d6 1c 3e 00 3d f4 bd
       0.20852444 0.0064878864 0.15316081 -0.11925697
000130 e0 a0 14 3e 10 69 db bd 00 68 b7 bb 6f 8b 94 be
       0.14514494 -0.107133985 -0.0055971146 -0.2901263
000140 00 80 b2 bd
       -0.0871582

bias f4 [9]
000000 7b 7f 33 be 16 47 e6 bd 8b f8 59 be 52 81 99 be
       -0.17529099 -0.11244027 -0.21286218 -0.29981476
000010 32 33 5c bd 8b 01 a0 3e 8a 6e c2 3e 54 20 ce 3d
       -0.05375976 0.31251177 0.3797496 0.1006476
000020 03 ed 30 be
       -0.17277913

weight f4 [16, 9]
000000 7f ca a8 be f3 78 01 3e fb 40 3f 3e f7 84 92 be
       -0.32966992 0.12643795 0.18677132 -0.2861707
000010 62 a0 01 3f 0b 03 84 3e 24 d6 a1 3d 52 c4 e3 bd
       0.5063535 0.25783572 0.07902172 -0.111214295
000020 f2 ec 8b 3e 38 c1 11 3e 06 08 62 3e bb d6 66 be
       0.27329212 0.14233863 0.22073373 -0.2254285
000030 2e a3 46 3e 65 50 8a 3c 64 36 0e 3e 83 52 b1 bd
       0.19398186 0.016884038 0.13887936 -0.08658316
000040 25 f0 1a 3d c0 b2 88 3d f0 e9 b4 3d 76 61 51 bd
       0.037826676 0.06674719 0.088336825 -0.051118337
000050 9b 32 0c 3e 16 42 0e be eb dd a0 be 2e 24 03 be
       0.1369118 -0.13892397 -0.3141931 -0.1280677
000060 53 b9 85 3e b6 b9 b3 bd 20 93 d6 3d 60 66 fc bd
       0.26117954 -0.08775656 0.104772806 -0.12324214
000070 86 06 80 3e e0 48 4c 3e 9b fd f0 3d fe 79 2e be
       0.25004977 0.19949675 0.117671214 -0.17038724
000080 f3 74 8b be ab 9d 4d 3c f0 3e 48 be 32 52 8c 3e
       -0.27237663 0.012549798 -0.19555259 0.2740646
000090 ac 01 a4 be f3 87 18 3e d7 23 aa 3e 0e f3 2a 3e
       -0.32032526 0.1489561 0.3323047 0.1669428
0000a0 80 87 1f 3e 46 bb cc be 3a ab 42 3e 5d 74 6f 3d
       0.15579033 -0.39986628 0.1901063 0.058460582
0000b0 ee 78 9f be ce 79 a8 3e 26 e6 0a be 2b 30 c1 bc
       -0.3114695 0.3290543 -0.13564357 -0.023582539
0000c0 2c 35 9c 3e 62 3a 61 be 2a 1b 66 be 17 7d 30 3d
       0.30509317 -0.21994928 -0.224713 0.043088045
0000d0 9e 37 09 bd 26 3f 9d 3d 98 23 8f be 80 54 23 3c
       -0.033500306 0.0767806 -0.27956843 0.009968877
0000e0 b3 cf 17 be 70 cd 27 be 1e 8d b3 3d 0d 5f 3d 3e
       -0.14825325 -0.16386962 0.0876715 0.1849329
0000f0 9e dc 4d 3e 78 47 34 be d0 6e 87 3e 10 e8 cd 3d
       0.2010369 -0.17605388 0.2645173 0.10054028
000100 0b 5b 7d 3d c3 68 48 be 00 e6 4d 3d b7 71 a4 3e
       0.061854403 -0.19571213 0.050268173 0.32118008
000110 80 1d 6a 3e 5c ed 84 be c4 c9 9b 3e 40 a7 d3 3c
       0.22862816 -0.2596234 0.30427372 0.025836587
000120 60 2b 24 3e 82 8d 84 3e b2 7e 91 3e 66 0a 85 be
       0.16032171 0.25889212 0.28416973 -0.25984496
000130 57 72 95 3e 36 d3 67 be 16 b5 cc 3c e6 82 6e be
       0.29188797 -0.22639164 0.024988692 -0.23292121
000140 cb a9 95 bd 80 2d 78 bc 96 57 23 bd 96 b0 57 bd
       -0.07307776 -0.015147567 -0.03987845 -0.05265864
000150 80 5e d7 3c 6b e2 b7 3e 24 0f 02 3f 98 05 41 3e
       0.026290178 0.3591493 0.5080435 0.1884979
000160 93 72 da 3d 7e 20 84 3e 00 09 7c bc 16 1f d9 3c
       0.106663845 0.2580604 -0.015383005 0.02650408
000170 a6 7d 8c 3d f7 d7 94 be 52 7b 89 be 4b 64 27 3d
       0.06859903 -0.29071018 -0.26851898 0.04086713
000180 f8 8b 05 be ab 6d c8 bb d6 a4 9c bd 16 88 54 3d
       -0.13041675 -0.006116589 -0.076486275 0.051887594
000190 a8 13 5e 3e a0 66 e2 bd 23 ae 88 3e d1 65 7b 3e
       0.21687186 -0.110547304 0.26695356 0.24550559
0001a0 9e aa 96 be 01 a5 97 be e0 95 76 be be 0e 3b be
       -0.29427046 -0.29618075 -0.2408061 -0.18267342
0001b0 7b df 04 be 2b 89 cd bc eb 04 a6 bd 4b 75 2c be
       -0.12975876 -0.02508982 -0.08106407 -0.16841619
0001c0 bf c3 0a 3f ad b2 b1 3d 0e 08 80 3e 7b e9 ac bd
       0.54204935 0.08676658 0.25006145 -0.0844297
0001d0 1e 65 74 be 36 e4 0d 3e 40 ba 9d bc 00 a8 82 3e
       -0.23866698 0.13856587 -0.01925385 0.255188
0001e0 b6 46 55 3e e0 cb 9c 3e 8e fa 79 be 43 6e 5b 3e
       0.20827755 0.30624294 -0.24411985 0.2142878
0001f0 e7 3a 8f 3e a8 8f 28 be 96 df 9c 3e ce e0 7f 3e
       0.27974626 -0.1646105 0.30639333 0.249881
000200 56 3b 6f 3b 20 93 24 3e cb ac ee bd 4b da 94 be
       0.0036503873 0.16071749 -0.116540514 -0.29072794
000210 86 90 ac 3d 2b 85 cb 3d db 14 5f be eb 8b 25 3e
       0.08426003 0.09937509 -0.217853 0.16166656
000220 8f c9 91 be 3e e1 92 3e 9f 45 a5 3e 9b dc b9 3d
       -0.2847409 0.2868747 0.3227968 0.0907528
000230 90 29 56 be fb 1d 26 3e a0 ac 68 3d 40 a1 b9 3d
       -0.20914292 0.16222374 0.056805253 0.09063959

bias f4 [16]
000000 5f 5c 7b 3e e7 72 5f 3e a3 b7 12 be 00 90 99 bd
       0.24546956 0.21821176 -0.14327864 -0.07498169
000010 c5 e5 5e 3e b4 75 ce 3c 74 f4 bb 3e 0b 48 33 be
       0.21767338 0.02520261 0.3670994 -0.17507951
000020 2b e2 46 bc c1 3e 9c bd 0b 4f b5 bd 88 65 41 3e
       -0.012138884 -0.07629157 -0.08852967 0.18886387
000030 40 75 c3 bd 3a bc 9d be 20 ea 13 bd 68 d0 1a be
       -0.09543848 -0.30807668 -0.03611195 -0.15118563

weight f4 [16, 16]
000000 e6 af a5 3e 35 05 29 3c 66 ef 7d be 48 99 3a bd
       0.32360762 0.010316183 -0.24798355 -0.045556337
000010 a9 84 0c 3e 74 35 80 bd 90 71 99 3e 98 6f 5f bd
       0.13722481 -0.062601954 0.29969454 -0.054549783
000020 74 75 24 3e 4d 4f a2 3e 1c 19 58 be 96 75 c6 3d
       0.1606043 0.31701127 -0.21103328 0.096903965
000030 e5 8f 38 3f 24 73 27 be d4 78 25 be da 95 7a 3e
       0.72094566 -0.16352516 -0.16159374 0.24471226
000040 17 e5 bf 3e 00 08 7e be f6 0b 1a 3e a0 00 03 bd
       0.3747947 -0.2480774 0.15043625 -0.031983018
000050 c7 51 33 bf 00 39 fb 3b fb 00 25 3e 78 94 99 bd
       -0.7004666 0.007666707 0.16113655 -0.07499021
000060 c8 1d b2 3d cc 9d 0b bf 7e 69 31 3e 87 78 31 3e
       0.086970866 -0.54537654 0.17325398 0.17331134
000070 13 cb 15 3e 20 8f 2d 3d 6c a0 a8 3d 6e 3a 39 be
       0.14628248 0.042372823 0.08233723 -0.18088695
000080 ec 24 02 be 01 32 63 bd e0 75 0e be 34 16 3d be
       -0.12709397 -0.05546761 -0.13912153 -0.18465501
000090 7b 62 dd bd 17 1e 39 3e ba 3a 70 be ac ec a2 3d
       -0.10809799 0.18077885 -0.23459902 0.07955298
0000a0 60 48 d0 3d 69 5e 79 3e 18 1c 14 3e 75 d6 49 3e
       0.101700544 0.24352421 0.14463842 0.19710715
0000b0 a4 21 b4 bd 86 4c 33 3e 12 3b 50 3e 7c bf 71 be
       -0.08795479 0.1750966 0.20335034 -0.23608202
0000c0 33 00 ab be 6d 94 a9 bd 22 c9 0b 3e 48 5e fe bd
       -0.3339859 -0.08280263 0.13650945 -0.124203265
0000d0 eb dd 75 be 9c 18 3c bc 4f e0 57 3b be 8f 09 be
       -0.24010436 -0.011480477 0.0032940095 -0.1343374
0000e0 dc 64 10 3e 6f cc 7e 3e b2 a0 31 be 9a 8a 01 bd
       0.14100975 0.24882673 -0.17346457 -0.03162632
0000f0 45 68 63 3e 48 69 a4 3d 52 7c 6e 3e a0 26 96 3d
       0.22207744 0.08027893 0.23289612 0.07331586
000100 13 11 49 3d 3b 9d 9f 3d 34 d5 c2 bd 9c ab 94 bd
       0.04908855 0.07793661 -0.095133215 -0.072592944
000110 40 81 39 bd d8 8f 37 be 1e 89 bd bc 92 b0 2d be
       -0.045289278 -0.17925966 -0.023136672 -0.16961887
000120 a0 93 d2 3c f4 85 f4 bd 28 be 0d 3d 04 db 46 be
       0.025705159 -0.11939612 0.034605175 -0.19419485
000130 97 74 82 3d 80 94 eb 3d 68 8b 5b 3e d6 2a 63 be
       0.06369894 0.115029335 0.21439898 -0.2218431
000140 85 0a d3 3c 89 b0 2a be 50 64 80 3c ec 2b 6e 3e
       0.025761852 -0.16668905 0.015672833 0.23258942
000150 53 99 66 3e 97 c9 2f be ea 36 9b 3e 94 b6 05 3e
       0.22519426 -0.17166744 0.30315334 0.1305793
000160 00 0c c9 b9 4e 45 00 3e 8c 5a cb bd a9 00 f0 bc
       -0.00038346648 0.12526438 -0.0992938 -0.02929719
000170 74 35 6c be b0 59 13 3d 20 92 87 3d 60 2f a3 3c
       -0.23067266 0.035974205 0.06619668 0.019920051
000180 4b 52 6c bd 38 0d 2e be 78 28 ae 3d b2 77 60 be
       -0.05769567 -0.1699723 0.085038126 -0.2192066
000190 0a 8e 22 be 5b d5 b6 3b 75 06 21 be 78 53 ba 3d
       -0.15874496 0.005579633 -0.1572512 0.09097952
0001a0 50 00 84 3c 76 1f 11 3d d0 e2 b5 bc e4 a2 ee bd
       0.01611343 0.035430394 -0.02220288 -0.11652163
0001b0 4d 7a ef 3d 18 00 0f 3d c8 a2 92 bd f6 ba 28 be
       0.11693249 0.0349122 -0.07159954 -0.1647757
0001c0 fc cc be 3d b9 64 a3 be 74 d9 86 3d dc 27 fd 3d
       0.093164414 -0.31912783 0.06584445 0.12361118
0001d0 8b 36 53 bd 39 36 1c be 91 17 a5 bd 70 2b 57 3e
       -0.051565688 -0.1525506 -0.080611356 0.21012664
0001e0 82 a1 59 3e ef a1 09 3d 94 55 70 3e be 4e fe bd
       0.21253017 0.033601698 0.23470145 -0.12417363
0001f0 5c 90 97 bd c8 d6 b2 3d b0 62 b5 3d 56 fa 7a 3e
       -0.07400581 0.087323725 0.08856714 0.24509558
000200 0d d9 1e bd 8c 50 cf 3c 32 eb 1c 3e ea 48 39 3e
       -0.038781215 0.025306962 0.15324095 0.18094221
000210 4b 4f 02 bd 85 30 5e 3e 3b 28 9d bc c0 81 65 3e
       -0.0318139 0.21698196 -0.019184222 0.22412777
000220 a0 bd 29 bc 57 87 8d 3b 2c 62 8e 3d c5 78 b9 bd
       -0.0103601515 0.0043191123 0.069523185 -0.09056238
000230 20 b6 72 3d 9c 9e b9 bd d0 28 d3 3c 7e 62 47 3e
       0.05925572 -0.090634555 0.025776297 0.19471166
000240 a3 2b a2 bd 73 ed 9c 3d e8 3b 00 3d 40 11 0a 3c
       -0.07918479 0.07662477 0.03130713 0.008426964
000250 e7 a8 23 bd dd 9e 1c be a8 f3 b4 bc 58 e0 a0 bd
       -0.039956 -0.15294977 -0.02208884 -0.0785529
000260 fc 8d 6e be 36 8c 7e bc a0 70 3c 3c a1 da fc bd
       -0.2329635 -0.015536359 0.011501461 -0.12346388
000270 8c d3 d3 3d b8 ff 37 bd c0 ef eb bc d4 50 0d be
       0.10343084 -0.044921607 -0.028800845 -0.13800365
000280 b7 b2 ba bd 29 31 d3 bd 04 6e 92 3d 80 01 39 3c
       -0.091161184 -0.10312111 0.0714989 0.0112918615
000290 5e 3c ee bd b7 0a c7 bd 6e 6c aa bd 80 bd 1f be
       -0.11632608 -0.097188406 -0.083214626 -0.15599632
0002a0 e0 53 a0 3c 74 3f 69 bc 20 a5 c6 3d de 1a cc 3c
       0.019571245 -0.01423632 0.09699464 0.024915155
0002b0 2a 9d 0f 3e c0 06 07 bc e4 28 3d be 5c de e4 3d
       0.14024797 -0.008241355 -0.1847263 0.11175224
0002c0 b1 b2 c0 bd bc 8b ba bd 78 c9 a5 bd 8c 46 c2 bd
       -0.09409083 -0.091086835 -0.08095068 -0.09486112
0002d0 0b 60 00 be f9 db 5f 3e c7 43 e0 bd f4 e4 8d 3d
       -0.12536637 0.21861257 -0.109504275 0.06928435
0002e0 76 5f 70 3e 7b 54 80 bc 88 3d 25 3d 6a 92 fc 3d
       0.23473915 -0.015665283 0.040341884 0.12332614
0002f0 87 8f 1a 3e 12 bd 4b be 28 37 b6 3d f0 d6 11 be
       0.15093814 -0.19896343 0.08897239 -0.14242148
000300 8d 61 60 bd ae 85 8b bd 3c c0 55 be bc 33 74 be
       -0.05478053 -0.06812607 -0.20874113 -0.2384786
000310 ec 25 9b bd ce 8f d1 3d 13 1b 4e bd d6 a8 5e be
       -0.075755924 0.10232507 -0.05031879 -0.21744093
000320 14 47 c0 bd dd 1c 68 bc 48 55 5d be ef 3d d6 3d
       -0.09388557 -0.014167038 -0.21614563 0.10461032
000330 cb 82 bb 3d 40 1b 35 3d 38 36 3e be 68 c8 6e 3d
       0.09155806 0.04421544 -0.1857537 0.05829659
000340 83 27 d4 bd 18 20 3b 3c bc 35 08 be 58 5a 65 be
       -0.10359099 0.011421226 -0.13301748 -0.22397745
000350 30 5e bf bd ee 92 da 3c 3c 1d 84 bd 18 8a d6 bd
       -0.09344137 0.02668139 -0.064508885 -0.10475558
000360 66 ff 03 be 3c 74 88 bc 18 ae 30 bd e5 6a 1a 3e
       -0.12890396 -0.016656987 -0.04313478 0.1507984
000370 ed 31 07 3e 60 b7 01 3d 48 21 5a 3d 80 7a 8b bc
       0.13202639 0.03166902 0.053254396 -0.017026186
000380 0b 96 bb 3d 2c da 06 be 1c 9d cb 3d d0 d6 26 bd
       0.09159478 -0.13169163 0.099420756 -0.040732205
000390 06 02 9a 3c 3f 61 48 bc 56 df 83 3b e0 14 dd bc
       0.018799793 -0.0122302165 0.0040244265 -0.026987493
0003a0 f8 3c 0a 3e db 43 9c 3c 40 d1 21 be 6b 20 e9 bc
       0.1349982 0.019075325 -0.15802479 -0.02845784
0003b0 1c 8e d3 bd 38 22 c9 3d c0 47 2c 3e 80 56 db bc
       -0.103298396 0.0982098 0.16824245 -0.026774645
0003c0 01 f7 0f bc 59 b0 54 be 24 a8 0f be 28 38 e5 bd
       -0.008786918 -0.20770396 -0.14028984 -0.111923516
0003d0 50 4a 86 bd ff 0d 28 be c8 a3 8c bd 32 e3 62 be
       -0.06557143 -0.16411589 -0.06867176 -0.2215698
0003e0 9c a1 85 3d 8c 4a e6 3c 4c 58 70 3e 38 ba 32 3e
       0.06524965 0.028111719 0.23471183 0.1745385
0003f0 f9 7e e6 3c 28 b4 46 3d 7c 2b 19 be 18 e6 c5 3d
       0.028136717 0.048511654 -0.14957994 0.096630275

bias f4 [16]
000000 66 2b 2e be 51 cb 24 3d 90 56 91 bd 2c 37 a2 bd
       -0.17008743 0.04023296 -0.070965886 -0.079206795
000010 95 ce e1 bb e6 90 47 bd 78 0a 04 3e 08 11 a6 3d
       -0.0068910816 -0.04872217 0.12894619 0.08108717
000020 ff a0 b7 3c 4c e8 5a bd b4 fd b8 3d d2 a3 31 3d
       0.022415636 -0.05344419 0.09032765 0.04336912
000030 2f 6e 85 3d d5 d7 7f 3d d5 67 b5 3b 68 6f af 3d
       0.065151565 0.062461693 0.0055360594 0.08566171
