Deep_model/saved_model/model_jacobian_full.pth (torch, 62210 bytes, 28 tensors)

weight f4 [18, 9]
0	0x3d304eb5	0.04304381
1	0x3c76ffa8	0.015075602
2	0xbee9d194	-0.45667708
3	0xbde2572d	-0.11051784
4	0xbf7ae57f	-0.98006433
5	0x3e72f7be	0.23727319
6	0xbe8eb81d	-0.27874842
7	0x3fbc1b14	1.4695764
8	0x3e04fbd4	0.1298669
9	0xbe522475	-0.2052172
10	0x3f01a881	0.5064774
11	0xbf257454	-0.6463063
12	0x3eb8e4b4	0.36111987
13	0x3f06b17b	0.52614564
14	0xbe814788	-0.25249887
15	0xbef470fe	-0.47742456
16	0x3e18f138	0.14935768
17	0x3ed3db00	0.4137802
18	0x3e93ceb0	0.28868628
19	0xbf2b4b7d	-0.6691206
20	0xbe8db07a	-0.27673703
21	0xbf673bc2	-0.9032556
22	0x3f2eefe8	0.6833482
23	0x3e1df069	0.1542374
24	0x3dfd6d94	0.12374416
25	0xbe83b70f	-0.257256
26	0xbeb742f6	-0.35793275
27	0xbe92b2d0	-0.28652048
28	0x3cb9ab31	0.022664638
29	0x3dfe2bc5	0.12410692
30	0xbec64ebb	-0.38731942
31	0x3f676301	0.9038544
32	0xbecc37e8	-0.39886403
33	0x3e47885c	0.1948561
34	0xbf2b2d7f	-0.66866297
35	0x3f5e4c1d	0.8683489
36	0xbf0ec28e	-0.55765617
37	0x3f02f441	0.5115395
38	0xbe9b0cbc	-0.30283153
39	0xbe02d34c	-0.12775916
40	0xbe919ef1	-0.28441575
41	0x3e421b20	0.1895566
42	0x3edceaad	0.43147793
43	0x3f1246cb	0.5713927
44	0xbe45e5a4	-0.19325882
45	0xbe1e8d16	-0.15483508
46	0xbcc619af	-0.024182169
47	0xbf5075ca	-0.8142973
48	0x3e441c75	0.1915148
49	0x3f1fad7c	0.6237409
50	0x3e3724ac	0.17885083
51	0xbf06591e	-0.5247973
52	0xbbe988a9	-0.007126887
53	0x3f24bc98	0.6435027
54	0x3df238fb	0.118272744
55	0x3dffec2c	0.12496218
56	0x3ecdd0f9	0.40198496
57	0xbf238976	-0.63881624
58	0x3f02243d	0.50836545
59	0xbf10853e	-0.5645331
60	0x3f17c582	0.5928575
61	0x3f5ca325	0.8618644
62	0xbd2b465b	-0.041815143
63	0xbea1e64a	-0.3162101
64	0xbed9b65a	-0.42521936
65	0x3f580fbf	0.84399027
66	0x3eb088a2	0.34479243
67	0xbc76d817	-0.015066168
68	0x3f479bb1	0.7797194
69	0xbf9ebc65	-1.2401243
70	0x3f3b7b51	0.7323504
71	0xbd0619f2	-0.032739587
72	0xbf0ac192	-0.54201615
73	0xbec102fe	-0.37697595
74	0x3f2cfc33	0.67572325
75	0x3ea182df	0.3154516
76	0x3efb2dbc	0.4905833
77	0xbf10749a	-0.5642792
78	0x3f189e29	0.59616333
79	0x3efcf73e	0.4940738
80	0xbd8948cf	-0.0670334
81	0x3ec14f6f	0.37755916
82	0xbef0c824	-0.47027695
83	0x3ec090e1	0.37610534
84	0xbf1c1260	-0.6096554
85	0x3c6ebf16	0.014571926
86	0xbf0fae21	-0.56125075
87	0xbeed278e	-0.4631924
88	0x3ec02ffe	0.37536615
89	0xbebc1bf1	-0.36740068
90	0x3eb37081	0.3504677
91	0xbf16c6c4	-0.5889704
92	0x3f1c7548	0.61116457
93	0xbf05fd0b	-0.5233924
94	0x3f1022f1	0.56303316
95	0x3dc4cf67	0.09609871
96	0x3d959888	0.07304484
97	0x3d7090f6	0.058731996
98	0xbdb69cb4	-0.089166075
99	0xbf7e8171	-0.9941626
100	0x3e3f255a	0.18666592
101	0xbe8bf8e8	-0.27338338
102	0x3f060a76	0.5235971
103	0xbd11ff66	-0.035643958
104	0xbc840c0a	-0.016119022
105	0xbe80e2f0	-0.2517314
106	0x3e7183c8	0.23585427
107	0xbf4b3597	-0.79378647
108	0x3d7ac958	0.061227173
109	0x3e8db0d6	0.27673978
110	0xbf0a11e2	-0.53933537
111	0xbf87fea7	-1.0624589
112	0xbd907356	-0.070532486
113	0x3ed95b84	0.42452633
114	0x3cc213c9	0.023691075
115	0x3e927717	0.28606483
116	0xbed17db9	-0.4091623
117	0xbf3efe0e	-0.74606407
118	0x3f2d6155	0.6772664
119	0x3d8854c7	0.06656795
120	0xbe9da826	-0.3079235
121	0x3cdab116	0.02669577
122	0x3ec883a4	0.39162934
123	0x3ebc46c6	0.36772746
124	0xbe82e151	-0.25562528
125	0xbf37343a	-0.71564066
126	0xbe6dd812	-0.23226956
127	0x3e46cb93	0.19413595
128	0x3f0b433d	0.5439947
129	0x3e648454	0.22316104
130	0xbe58e4d4	-0.21181041
131	0xbf770392	-0.9648982
132	0xbfb50368	-1.4141665
133	0x3f07dbc1	0.5306969
134	0x3e0691b5	0.1314152
135	0x3eebb89a	0.46039277
136	0xbf64f841	-0.89441305
137	0x3dc502a0	0.09619641
138	0x3ebbfe0d	0.36717263
139	0x3e0cb883	0.1374226
140	0x3decc675	0.1156129
141	0xbd243652	-0.040090866
142	0x3ef8f553	0.48624668
143	0xbf650f5b	-0.89476556
144	0xbf3dba0a	-0.74112
145	0xbdf5ddd4	-0.12005201
146	0x3b80d5fb	0.0039317585
147	0x3ce09e0f	0.027419118
148	0xbf182622	-0.59433186
149	0x3f04d2dc	0.51884246
150	0x3e8e8f69	0.27843788
151	0x3d9bb345	0.07602552
152	0x3ee57908	0.44818902
153	0x3eb61a3b	0.35566887
154	0x3f3e0419	0.74225
155	0xbee448cb	-0.44586787
156	0xbc81c66e	-0.015841689
157	0xbe45fd96	-0.19335017
158	0x3f404145	0.75099593
159	0xbea639a2	-0.32465845
160	0x3f376bf0	0.71649075
161	0xbf718ddb	-0.9435708

bias f4 [18]
0	0x3e41539c	0.1887955
1	0xba705982	-0.0009168611
2	0x3e30fec3	0.17284684
3	0x3cf9870c	0.030459903
4	0x3deab8f8	0.11461061
5	0x3dd83844	0.10557607
6	0xbdaa113f	-0.08304071
7	0xbe326fe2	-0.17425492
8	0x3ce6fa90	0.02819565
9	0x3d862a99	0.065510936
10	0xbdc29586	-0.095011756
11	0x3e42b45d	0.19014116
12	0x3e0c5e56	0.13707861
13	0xbbeda778	-0.00725263
14	0xbc967c67	-0.018369867
15	0x3b4e72dc	0.0031501567
16	0x3e68eefd	0.22747417
17	0xbe77bea8	-0.24193823

weight f4 [27, 18]
0	0xbed52aca	-0.41634208
1	0xbe8c24ae	-0.27371734
2	0x3d9fb3d3	0.077979706
3	0xbd8bca2d	-0.06825671
4	0xbea08018	-0.31347728
5	0xbe8d2574	-0.27567637
6	0x3cb5c899	0.022190379
7	0x3ed0fe85	0.40819183
8	0x3e458e3e	0.19292542
9	0xbce96f26	-0.028495383
10	0x3f17acb2	0.5924789
11	0xbedbe1a8	-0.429456
12	0xbe1ea04c	-0.15490836
13	0x3e8b5594	0.27213728
14	0x3d77b40f	0.06047445
15	0x3f3cefa6	0.73803174
16	0xbec805f5	-0.39067045
17	0x3ec056fa	0.37566358
18	0xbef0b0be	-0.47009844
19	0xbe65faec	-0.22459
20	0xbe4603c8	-0.1933738
21	0xbd5853d3	-0.052814316
22	0xbdc49500	-0.09598732
23	0xbf733247	-0.9499859
24	0xbe5e5ea2	-0.21715787
25	0xbf22510d	-0.63404924
26	0xbec99609	-0.3937228
27	0x3e234e7c	0.15947908
28	0xbe05adf9	-0.13054647
29	0xbee06725	-0.43828693
30	0x3de56774	0.11201373
31	0x3f0424f0	0.5161886
32	0xbe643eab	-0.22289531
33	0xbefee15a	-0.49781305
34	0xbe61d5a5	-0.22054155
35	0x3ee7ea82	0.45296103
36	0x3e580604	0.21096045
37	0xbf19cb27	-0.6007561
38	0xbe84d117	-0.25940773
39	0xbef0df8b	-0.4704555
40	0xbe7c4650	-0.24636197
41	0xbe991d47	-0.2990515
42	0xbf07a44d	-0.5298508
43	0x3eb7161e	0.35759062
44	0xbf4688b7	-0.7755236
45	0xbe00eaf2	-0.12589625
46	0x3ea45d84	0.32102597
47	0xbf89cc95	-1.0765558
48	0x3e0439de	0.129127
49	0xbc1622ee	-0.009163601
50	0xbeadc8c5	-0.33942237
51	0xbe8b284d	-0.27179185
52	0x3e8bf7ba	0.27337438
53	0x3e946f21	0.28991035
54	0x3d8ed250	0.06973708
55	0xbeda742e	-0.42666763
56	0xbef2eba4	-0.47445405
57	0xbdf210cb	-0.11819609
58	0x3eb2c47d	0.34915534
59	0xbf880167	-1.0625428
60	0x3f0af373	0.54277724
61	0x3ed08a83	0.40730676
62	0x3f04cb95	0.5187314
63	0xbd21ea74	-0.039530233
64	0x3f109702	0.5648042
65	0xbe2e8e95	-0.17046578
66	0xbdb949cc	-0.09047279
67	0x3f0f439d	0.55962545
68	0xbd840252	-0.06445755
69	0xbe36acfb	-0.17839424
70	0x3e0e6e76	0.13909325
71	0x3e5827aa	0.2110888
72	0xbc9d6d71	-0.019217225
73	0xbeb76bf0	-0.35824537
74	0x3db5c10d	0.08874712
75	0x3c3215a5	0.010869418
76	0xbe654489	-0.22389425
77	0xbefed57d	-0.49772254
78	0xbeb15e02	-0.34642035
79	0x3e787af3	0.24265651
80	0xbee5fd6b	-0.44919905
81	0x3e1d03f2	0.15333536
82	0x3e5e8b79	0.21732892
83	0xbe071554	-0.1319173
84	0x3e0ef244	0.13959605
85	0xbe57cba2	-0.21073774
86	0x3c1f6881	0.0097295055
87	0x3cbee417	0.023302121
88	0x3da294ce	0.079385385
89	0xbe809243	-0.2511159
90	0xbe287b4d	-0.16453286
91	0xbdbcc304	-0.09216884
92	0xbeb431d3	-0.35194263
93	0x3caa6494	0.020799913
94	0x3d409570	0.047017515
95	0x3e980101	0.29688266
96	0x3cf8f6b4	0.030391075
97	0xba748a75	-0.0009328493
98	0x3c945a73	0.018109536
99	0x3e6a255e	0.22865817
100	0x3e249cb3	0.16075401
101	0xbdbef291	-0.093236096
102	0x3db767cb	0.08955344
103	0x3bbed6a8	0.005823929
104	0xbd3a332b	-0.045458954
105	0x3d992c2d	0.07479129
106	0x3e0d4a4f	0.13797878
107	0x3e1c7cec	0.15282029
108	0x3ebac9e3	0.36482152
109	0x3ef288d3	0.47370014
110	0xbea966b0	-0.33086157
111	0x3e6beba9	0.23039116
112	0x3ecea8c4	0.40363133
113	0xbddcaa51	-0.10774673
114	0x3f41d88f	0.7572107
115	0xbecdf74b	-0.40227732
116	0x3f529e9e	0.8227328
117	0x3c1ba734	0.009500314
118	0x3e9e03de	0.30862325
119	0xbe407de7	-0.18798028
120	0x3de462a7	0.11151629
121	0xbe2a1fa5	-0.16613634
122	0x3e6b5ab2	0.22983816
123	0xbed2d67c	-0.41179264
124	0xbf07b47e	-0.53009784
125	0x3ec3fe92	0.3828016
126	0xbec9a027	-0.3938
127	0x3e56972a	0.20956102
128	0x3ed693b5	0.41909567
129	0x3d63c7cf	0.055610474
130	0x3e52cb7e	0.20585439
131	0x3e150122	0.14551213
132	0x3eddd749	0.43328312
133	0x3d2402c0	0.040041685
134	0xbdc17da1	-0.0944779
135	0x3daf2c90	0.085534215
136	0x3edd0c78	0.43173575
137	0xbe3091b0	-0.17243075
138	0x3edb40e2	0.4282294
139	0x3f0da0b5	0.55323344
140	0x3ceca277	0.028886063
141	0xbf6c5366	-0.92314756
142	0xbe5305a4	-0.2060762
143	0x3eefcbad	0.4683508
144	0x3ecb5ab4	0.39717638
145	0xbe9e634f	-0.3093514
146	0x3d91d8cb	0.07121428
147	0xbe43907f	-0.1909809
148	0xbe598f76	-0.21246132
149	0xbee0ae7e	-0.43883127
150	0xbe579248	-0.21051896
151	0x3f55b6fb	0.8348233
152	0xbe684aa1	-0.22684719
153	0x3e9ec46e	0.3100924
154	0x3f113b56	0.56731164
155	0xbf34d05e	-0.70630443
156	0x3e4ffd04	0.20311362
157	0xbebe9a51	-0.3722711
158	0x3e7733ee	0.24140903
159	0x3eeb4f26	0.45958823
160	0x3e79574c	0.24349707
161	0x3db37ca2	0.08764006
162	0x3ea86109	0.32886532
163	0x3d7f1872	0.062279172
164	0x3e3ca5cd	0.18422623
165	0x3e7aef6c	0.24505395
166	0x3e462139	0.19348611
167	0x3edee9e5	0.43537822
168	0x3e3675bc	0.1781835
169	0xbec52877	-0.38507435
170	0x3e2211d8	0.1582712
171	0x3e907fa8	0.28222394
172	0xbea00d7a	-0.31260282
173	0x3e767be1	0.24070694
174	0x3e8f5e62	0.28001696
175	0x3f0866c9	0.5328184
176	0x3e706e77	0.23479639
177	0xbf75327e	-0.9578017
178	0xbbe23fcb	-0.0069045774
179	0x3e4b2747	0.19839202
180	0xbe6c53f1	-0.23078896
181	0x3e8084dc	0.25101364
182	0xbf346411	-0.7046519
183	0xbe9be50c	-0.30448186
184	0xbea65b9f	-0.32491776
185	0x3dc474d7	0.09592598
186	0xbe27b800	-0.16378784
187	0xbf442a82	-0.7662736
188	0xbe462055	-0.19348271
189	0xbed77728	-0.42083097
190	0xbf1bb211	-0.6081858
191	0x3eb12d00	0.34604645
192	0xbefbd20a	-0.49183685
193	0xbe2c1325	-0.16804178
194	0xbedc9a4a	-0.43086463
195	0x3ef65a1f	0.48115632
196	0xbf3f3266	-0.74686277
197	0x3f0917c6	0.535519
198	0x3ed10446	0.40823573
199	0xbd6a0411	-0.057132784
200	0x3e77202d	0.24133368
201	0xbea8ac6e	-0.32944053
202	0x3dfc584a	0.12321527
203	0x3d015d7c	0.031583294
204	0xbcc624b5	-0.024187425
205	0x3e746842	0.23867896
206	0x3e017745	0.12643154
207	0x3e8d5b5e	0.2760877
208	0xbd47ff6e	-0.04882758
209	0x3f9311f1	1.148985
210	0x3e30e735	0.17275698
211	0x3e3c8b2c	0.18412465
212	0x3e7a3ece	0.2443802
213	0x3fbb98d0	1.465601
214	0xbd43473c	-0.047675356
215	0x3e66543d	0.22493072
216	0x3edc0079	0.4296911
217	0x3e142845	0.14468487
218	0x3f4a2365	0.7896026
219	0x3d67a995	0.05655821
220	0xbd951684	-0.07279685
221	0x3f0a82de	0.5410594
222	0x3d93ac16	0.07210557
223	0xbebbbbbb	-0.36666664
224	0xbf037d38	-0.51362944
225	0x3d25c319	0.040469263
226	0xbd815a9d	-0.06316111
227	0xbf2fd008	-0.68676805
228	0x3f0db5cb	0.5535552
229	0xbed3d119	-0.41370466
230	0xbf22a267	-0.63529056
231	0x3ec0661e	0.3757791
232	0xbd5bbbc2	-0.053645857
233	0x3f0ca60b	0.5494086
234	0x3d32b3a5	0.043628354
235	0x3ed0caef	0.40779826
236	0xbf478692	-0.77939713
237	0xbe05831a	-0.13038293
238	0xbe4513c5	-0.19245823
239	0x3f5f943e	0.87335575
240	0x3c701ea8	0.0146557465
241	0x3d882afc	0.066488236
242	0xbdd6b67b	-0.10484024
243	0xbea36ebc	-0.3192042
244	0xbeab272d	-0.33428326
245	0xbec50bf3	-0.3848568
246	0xbeee6b40	-0.465662
247	0xbf35b0a4	-0.7097266
248	0x3d5d5d3c	0.054043993
249	0x3e9aba20	0.30220127
250	0xbe8fc994	-0.2808348
251	0xbd2e779f	-0.04259455
252	0xbecd0393	-0.4004179
253	0x3e26d7ef	0.1629331
254	0x3ebf6449	0.373812
255	0x3eb9e70a	0.3630908

bias f4 [27]
0	0xbe02f6a1	-0.12789394
1	0xbc4d7d5f	-0.012542098
2	0xbcf6db13	-0.03013376
3	0xbdd20da7	-0.1025651
4	0xbc920a8e	-0.017827298
5	0xbb3a3176	-0.0028410829
6	0xbc37fba4	-0.011229429
7	0x3bfc18d9	0.0076933918
8	0xbe3e4b94	-0.18583518
9	0x3c96d510	0.018412143
10	0x3bbfad62	0.0058495263
11	0xbb4cd0eb	-0.0031252455
12	0x3d2fb658	0.042898506
13	0x3d3848f9	0.044991467
14	0xbda592bb	-0.08084627
15	0xbd16c8a7	-0.03681245
16	0x3c79fb19	0.01525762
17	0xbded1137	-0.11575549
18	0x3d178b38	0.036998004
19	0x3d05040b	0.03247456
20	0xbbdd8e09	-0.0067613167
21	0xbc8d1b0d	-0.017224813
22	0x3cd023f4	0.025407769
23	0x3d3a37ad	0.045463253
24	0x3c2c15d2	0.010503249
25	0x3b84fd6c	0.0040585306
26	0x3cd10741	0.025516154

weight f4 [30, 27]
0	0x3d8468c1	0.06465293
1	0x3f032b66	0.51238096
2	0xbea6eda7	-0.3260319
3	0x3e907457	0.2821376
4	0xbe512a05	-0.20426185
5	0xbd072ed1	-0.033003632
6	0x3e9657e2	0.29363924
7	0x3f0707fa	0.52746546
8	0xbdc99a09	-0.09843833
9	0x3e6ffa53	0.23435335
10	0x3e0e4022	0.13891652
11	0xbe8674b6	-0.26260918
12	0x3ee6ab67	0.45052645
13	0xbea1e450	-0.316195
14	0xbb8f436c	-0.004372051
15	0xbe6c18b0	-0.23056293
16	0xbed9e467	-0.4255707
17	0x3ced7a2a	0.028988916
18	0x3e087c76	0.13328728
19	0x3e827c26	0.25485343
20	0x3d946509	0.072458334
21	0xbd2da90c	-0.042397544
22	0xbe809006	-0.2510988
23	0xbefc5674	-0.49284708
24	0xbec8f899	-0.39252165
25	0xbd48b30a	-0.04899887
26	0x3e3e35fa	0.18575278
27	0x3dc2c25b	0.095097266
28	0x3ee1e723	0.44121656
29	0x3ecf5a21	0.4049845
30	0xbec23376	-0.37929887
31	0x3c9a7038	0.018852338
32	0x3d834473	0.0640954
33	0x3e081b11	0.13291575
34	0x3e4e6238	0.20154655
35	0xbd107357	-0.035266247
36	0xbe00814e	-0.12549326
37	0x3e019af2	0.12656763
38	0xbe8b1dae	-0.2717108
39	0x3f494013	0.78613394
40	0x3e80caea	0.2515481
41	0x3e70fd37	0.23534094
42	0x3bc4bd94	0.006004045
43	0x3d0e9fda	0.034820415
44	0x3e533809	0.20626844
45	0x3e3552ae	0.17707321
46	0xbe43c946	-0.19119748
47	0xbf4cce90	-0.8000269
48	0xbed9c741	-0.4253483
49	0x3e5570fe	0.20843884
50	0xbed0b12d	-0.40760174
51	0x3ee883ee	0.45413154
52	0xbdbc2727	-0.09187155
53	0xbef0f1a7	-0.47059366
54	0xbded087a	-0.115738824
55	0xbddbc30c	-0.107305616
56	0x3d649c3d	0.055813063
57	0xbc6a7ab4	-0.014311481
58	0xbed643e8	-0.41848683
59	0xbd96d876	-0.073655054
60	0x3e66960c	0.22518176
61	0x3f03ca81	0.5148087
62	0x3db11a3a	0.086475804
63	0x3f1ba43f	0.60797495
64	0x3e42ebf8	0.19035327
65	0xbe8d0d6a	-0.27549297
66	0x3e54c910	0.20779824
67	0x3e95fd1c	0.2929467
68	0xbe8cb356	-0.27480572
69	0xbf003f7c	-0.5009687
70	0xbe447c85	-0.19188125
71	0xbe6169fc	-0.22013086
72	0x3eb7c251	0.3589044
73	0x3e87ef4c	0.26549757
74	0xbe16c79e	-0.14724585
75	0xbe375a6d	-0.17905588
76	0x3ea7fa9f	0.32808396
77	0x3e591129	0.21197952
78	0x3df4e9e9	0.11958677
79	0xbd59813b	-0.05310176
80	0xbf0f079b	-0.5587098
81	0xbce76fa0	-0.02825147
82	0x3e9d8ba4	0.307706
83	0x3e49dbb2	0.19712713
84	0x3f320b29	0.6954828
85	0x3c02d510	0.007985368
86	0x3e119063	0.14215235
87	0x3e580148	0.21094239
88	0x3d2ccbf7	0.042186704
89	0xbe14cd78	-0.14531505
90	0xbd9c3c47	-0.076286845
91	0x3db96be4	0.09053782
92	0xbf3d5bed	-0.7396839
93	0xbd731027	-0.059341576
94	0xbd38dacf	-0.045130547
95	0xbe8c2b25	-0.27376667
96	0x3e404981	0.1877804
97	0xbe5842f8	-0.21119297
98	0x3d364ae7	0.044505026
99	0xbd2e4d84	-0.042554393
100	0x3e9fb520	0.31192875
101	0x3eb4f793	0.35345134
102	0x3e981165	0.2970077
103	0xbe574c47	-0.21025191
104	0x396a4d0c	0.00022344681
105	0x3da6afcc	0.08138999
106	0xbd802963	-0.06257894
107	0xbe16fe27	-0.14745389
108	0x3d78a067	0.060699847
109	0xbccdfdd5	-0.02514545
110	0x3eeeab8f	0.46615264
111	0x3ed31dd1	0.41233686
112	0x3e940cad	0.2891592
113	0xbce65d2b	-0.028120598
114	0xbdb51620	-0.08842111
115	0x3f013370	0.5046911
116	0x3eeff7d7	0.46868774
117	0x3dae95cb	0.085246645
118	0xbf42e5ff	-0.76132196
119	0x3f34bb8b	0.7059867
120	0x3ec3050c	0.38089788
121	0xbf2226dd	-0.6334055
122	0xbee68047	-0.45019743
123	0xbda263c5	-0.07929186
124	0x3e837c76	0.25680894
125	0x3c47e8bb	0.012201483
126	0x3f06db4d	0.52678376
127	0x3cdd65a9	0.027026014
128	0xbeb352dc	-0.35024154
129	0x3dc1207c	0.09430024
130	0x3e940e40	0.28917122
131	0x3d034c31	0.032055084
132	0xbdbb7d07	-0.091547064
133	0xbd4c64b3	-0.04990072
134	0xbefa7b9c	-0.4892243
135	0x3ece7dc4	0.40330327
136	0xbe798c7b	-0.24369995
137	0xbb43c151	-0.0029869864
138	0xbf250839	-0.6446567
139	0x3e0b0c4b	0.13578908
140	0x3e17f240	0.14838505
141	0xbeb02457	-0.34402725
142	0xbe80116a	-0.25013286
143	0x3f16558f	0.587243
144	0xbecc4a25	-0.39900318
145	0x3f012fa1	0.504633
146	0x3ec1d84d	0.37860337
147	0x3f25fef4	0.6484215
148	0x3da9d86d	0.08293233
149	0xbd65223e	-0.05594086
150	0xbecd2d96	-0.40073842
151	0x3eb7110b	0.3575519
152	0x3ee277ac	0.44231927
153	0x3e878b24	0.26473343
154	0xbdc5108e	-0.09622298
155	0x3ec17c85	0.37790313
156	0xbef01e5c	-0.46898162
157	0x3f213135	0.6296571
158	0xbeef7939	-0.46772173
159	0xbe8a3d06	-0.26999682
160	0x3ec24db2	0.37949902
161	0xbeeb9564	-0.46012414
162	0xbeb7d321	-0.35903266
163	0xbed2e7aa	-0.4119237
164	0xbf19c44d	-0.60065156
165	0xbec2a0e6	-0.3801338
166	0xbe930b87	-0.28719732
167	0x3e2380e7	0.15967141
168	0x3ca22120	0.019791186
169	0x3de40c84	0.111352
170	0xbf1a7ec0	-0.60349655
171	0x3e21e8d0	0.15811467
172	0xbe54a5dc	-0.20766395
173	0x3ea6a250	0.3254571
174	0x3cf7954b	0.030222556
175	0xbdf7cd5f	-0.12099718
176	0xbed5387f	-0.41644666
177	0xbf1824a7	-0.5943093
178	0xbe122370	-0.14271331
179	0xbf0a2f23	-0.53978175
180	0x3f3cfe12	0.7382518
181	0x3cc17189	0.023613708
182	0x3ed073d2	0.40713364
183	0xbdcddd67	-0.10051995
184	0x3e8165a1	0.2527285
185	0x3eddce24	0.43321335
186	0xbea17b18	-0.31539226
187	0xbba12c6d	-0.004918626
188	0x3e0f1453	0.13972597
189	0x3e11db23	0.1424375
190	0x3e951264	0.29115593
191	0xbefaf6e5	-0.4901649
192	0x3a5aa030	0.000833991
193	0xbe75889d	-0.23977895
194	0xbe9063b2	-0.2820106
195	0x3e959a1e	0.29219145
196	0x3e2b2a6d	0.16715403
197	0xbd988379	-0.074469514
198	0x3e25a072	0.16174486
199	0x3ebd47f4	0.36968958
200	0x3d5de09a	0.054169275
201	0x3e118bcf	0.14213489
202	0xbdabb1f4	-0.08383551
203	0x3f386a46	0.7203716
204	0xbd044f85	-0.0323024
205	0x3eef4633	0.46733245
206	0x3ee849c8	0.4536879
207	0xbef29cc8	-0.4738524
208	0xbeb369c1	-0.3504162
209	0xbee7a01c	-0.4523934
210	0xbef80329	-0.4843991
211	0x3da85f22	0.0822127
212	0xbe939a90	-0.2882886
213	0x3eaf56c5	0.34245887
214	0xbe6c865c	-0.23098129
215	0x3eb31a3e	0.3498096
216	0xbd23cc79	-0.039989922
217	0x3eb719ba	0.35761815
218	0x3e9d24ec	0.30692232
219	0x3eab6f07	0.33483145
220	0xbdb3e197	-0.08783262
221	0xbdaf5e30	-0.08562887
222	0xbbf517fb	-0.0074796653
223	0xbdba5efc	-0.09100148
224	0x3d4993e2	0.049213298
225	0x3ebc965f	0.36833474
226	0xbe5a4493	-0.21315221
227	0x3cd2fd01	0.025755407
228	0x3ec30d0a	0.38095886
229	0xbed1b9ab	-0.40961966
230	0xbee1a443	-0.44070634
231	0x3e9ebbbd	0.31002608
232	0x3e23ba0a	0.15988937
233	0xbde872b3	-0.11350002
234	0xbe5601b3	-0.20899086
235	0x3e235732	0.15951231
236	0xbe4b007f	-0.19824408
237	0x3e15d784	0.14632994
238	0xbd4cd10e	-0.050004058
239	0xbe3c35e0	-0.18379927
240	0xbe4c3ee3	-0.19945864
241	0x3e74d313	0.23908643
242	0xbe96ff04	-0.29491436
243	0x3e40af2e	0.18816826
244	0xbea5eb39	-0.32406023
245	0xbe6e0b07	-0.23246394
246	0x3e910f83	0.28332147
247	0xbdebd8dd	-0.11515973
248	0xbd26157e	-0.04054784
249	0xbe40b236	-0.18817982
250	0xbeaff1cb	-0.3436416
251	0x3ea50a2a	0.32234317
252	0xbeaae136	-0.33374947
253	0x3e32cfb9	0.17462052
254	0x3f22eeb8	0.63645506
255	0x3d2a669a	0.041601755

bias f4 [30]
0	0xbe217708	-0.15768063
1	0x3e9da7ff	0.30792233
2	0xbeeac11e	-0.45850462
3	0x3d344e75	0.044020135
4	0x3e8a11df	0.2696676
5	0xbf16dc83	-0.58930224
6	0x3e9d5fe9	0.30737236
7	0x3da74439	0.08167309
8	0x3c810b2e	0.015752401
9	0x3d9ef6f4	0.07761946
10	0x3daca5d8	0.0843007
11	0x3d66d7c9	0.056358133
12	0x3907f179	0.00012964559
13	0x3d58e235	0.052950103
14	0xbe75f876	-0.24020562
15	0xbdc82621	-0.097728975
16	0x3d44a877	0.048012223
17	0x3d996e59	0.0749175
18	0x3da2b265	0.07944182
19	0xbdc9b8bd	-0.09849689
20	0x3da7266d	0.08161626
21	0xbe949c8c	-0.29025686
22	0x3ca9ac71	0.02071211
23	0xbd6fa4ea	-0.058506884
24	0xbca6224c	-0.020280026
25	0x3cfede8b	0.031111976
26	0xbcf35d73	-0.029707646
27	0x3e16cd47	0.14726745
28	0xbb7e0fcc	-0.003876674
29	0x3d3b9fe5	0.045806784

weight f4 [30, 30]
0	0x3ec21110	0.37903643
1	0x3e9c1766	0.30486602
2	0xbcc17295	-0.023614207
3	0xbe45a4c3	-0.19301133
4	0x3f0cbf74	0.54979634
5	0x3c99ea23	0.018788403
6	0xbe2a4fad	-0.16631956
7	0xb9f135b6	-0.0004600712
8	0x3e7f2f9c	0.24920505
9	0xbe914221	-0.28370765
10	0x3d68b7e5	0.056816
11	0xbeb92911	-0.36164144
12	0x3e08a61c	0.13344616
13	0xbda7b0a4	-0.081879884
14	0x3d249fe5	0.04019155
15	0x3c3c98ba	0.011511022
16	0x3e9fe9d5	0.31233087
17	0x3ca59d54	0.020216621
18	0x3d357461	0.04430044
19	0xbdc6a516	-0.096994564
20	0x3e3d9fc4	0.18517977
21	0x3cfe72cb	0.031060597
22	0xbe42099f	-0.18948983
23	0xbef81aca	-0.48457938
24	0x3ebe91ee	0.3722071
25	0xbd9c2aa4	-0.076253206
26	0x3e8712cf	0.26381537
27	0xbb2d41a7	-0.0026436837
28	0x3e456f98	0.19280851
29	0xbefe1075	-0.4962193
30	0x3ea1f904	0.31635296
31	0x3e80ac7f	0.25131604
32	0x3e5e3e3f	0.21703433
33	0xbee3fcf7	-0.44528934
34	0xbe4438b2	-0.19162253
35	0x3f0d14c2	0.551098
36	0xbe19877d	-0.14993091
37	0x3e38853e	0.18019578
38	0xbe73e524	-0.23817879
39	0x3d354df9	0.044263814
40	0xbdc83ae1	-0.09776855
41	0xbf14b8ec	-0.5809467
42	0x3e880f7c	0.26574314
43	0xbf10e8ee	-0.5660542
44	0xbebd8c34	-0.3702103
45	0x3e4016bd	0.18758674
46	0xbecf902f	-0.4053969
47	0x3c104f77	0.008808008
48	0x3ddf0c90	0.10891068
49	0x3ccc7c8c	0.024961732
50	0x3eb56289	0.3542674
51	0x3e7adc43	0.24498086
52	0x3dc90775	0.098158754
53	0xbd9a5290	-0.07535279
54	0x3eeefa30	0.46675253
55	0x3d93a77a	0.07209678
56	0x3e82a67e	0.25517648
57	0xbeb2a872	-0.3489414
58	0x3e881751	0.2658029
59	0xbf0dc81a	-0.55383456
60	0x3e10dfa4	0.14147812
61	0x3e59b7e2	0.21261552
62	0x3deacbef	0.114646785
63	0xbe120e5f	-0.14263295
64	0xbeb98e10	-0.36241198
65	0x3ebf401a	0.37353593
66	0xbf4974e2	-0.78693974
67	0x3e90e1c0	0.28297234
68	0x3ddf31e5	0.108981885
69	0xbe00edcd	-0.12590714
70	0x3d1cf6d5	0.038321335
71	0xbcdf1091	-0.02722958
72	0xbebda725	-0.37041584
73	0xbec47bcb	-0.38375697
74	0xbed060a7	-0.4069874
75	0x3e36817e	0.17822835
76	0xbe7448ba	-0.23855868
77	0xbe8742f0	-0.26418257
78	0xbd7b0ba6	-0.061290406
79	0x3e49162d	0.19637366
80	0x3f08d9c4	0.53457284
81	0x3e88d9bd	0.2672862
82	0x3d919926	0.07109289
83	0x3dca2e28	0.09872085
84	0xbe77563d	-0.24153991
85	0x3e8f7777	0.28020832
86	0xbe88d2b3	-0.2672325
87	0x3e065534	0.1311844
88	0x3e013703	0.12618642
89	0xbd89bb4d	-0.06725178
90	0x3ebd22cc	0.3694061
91	0xbbcc792e	-0.0062400317
92	0xbe64b55d	-0.2233481
93	0x3d4dd3b7	0.050250735
94	0xbee5be82	-0.44871908
95	0xbe8b6de3	-0.27232274
96	0x3e3629d9	0.17789401
97	0x3eb60a54	0.35554755
98	0xbd73145a	-0.05934558
99	0xbf07e405	-0.53082305
100	0xbe3dd040	-0.18536472
101	0xbec9b23a	-0.3939379
102	0x3e0cbf7f	0.13744925
103	0xbe97bb2d	-0.2963499
104	0xbe6262c4	-0.22107989
105	0x3e5edb4b	0.21763341
106	0xbe2f0c82	-0.17094615
107	0xbe0a99dc	-0.13535255
108	0xbe99a87c	-0.30011356
109	0xbc5cbc2e	-0.0134726
110	0xbe390cb3	-0.1807125
111	0xbe927e48	-0.2861197
112	0x3dd0748a	0.10178478
113	0xbe6a3a32	-0.22873762
114	0x3d2faef5	0.04289146
115	0x3e87e456	0.26541394
116	0x3efc3bbd	0.49264327
117	0x3e987959	0.2978008
118	0x3e06c421	0.13160755
119	0xbe3c26de	-0.18374202
120	0x3e0d1e7a	0.13781157
121	0xbdffed48	-0.1249643
122	0x3f008ce4	0.5021498
123	0x3e008a89	0.12552847
124	0xbdb82d2b	-0.0899299
125	0x3e71ac89	0.23600973
126	0x3ed1fc6d	0.41012898
127	0xbeaa372a	-0.33245212
128	0xbcf59b16	-0.029981177
129	0xbe69ef5f	-0.22845219
130	0x3e1b57b6	0.15170178
131	0xbc8a940f	-0.016916303
132	0xbdd0ec77	-0.10201352
133	0xbeff8226	-0.49903983
134	0x3f127007	0.5720219
135	0x3e61404b	0.21997182
136	0x3e56eb39	0.20988168
137	0xbe08fd02	-0.13377765
138	0xbd8e1d88	-0.069392264
139	0x3ec12047	0.37719938
140	0xbeacb7cb	-0.33733973
141	0xbd136e16	-0.035993658
142	0xbd343d17	-0.044003572
143	0x3ed23e3f	0.41063115
144	0x3e1bf95e	0.15231845
145	0x3cfb2dc8	0.030661479
146	0x3e6cfeb3	0.23144035
147	0x3dbdabd5	0.0926129
148	0x3e019ba0	0.12657022
149	0xbe0bcf1e	-0.13653228
150	0x3e1bfe10	0.15233636
151	0x3e3a876c	0.18215722
152	0xbeb9a6f3	-0.36260185
153	0x3eb0ec34	0.3455521
154	0x3f51644a	0.81793654
155	0xbed17332	-0.409082
156	0x3e7536cf	0.23946689
157	0xbe80a4af	-0.25125644
158	0x3f0c7bc8	0.54876375
159	0x3ec42933	0.38312683
160	0x3eafb7c5	0.34319893
161	0xbf423d27	-0.7587456
162	0x3d0bd874	0.034141973
163	0xbeaf3e36	-0.3422715
164	0xbeb63e2f	-0.35594317
165	0x3ee980a6	0.45605963
166	0xbecafea8	-0.39647412
167	0x3cd83f74	0.026397444
168	0x3bf9d6a0	0.0076244622
169	0xbf274abc	-0.6534841
170	0xbe2ffb93	-0.17185812
171	0xbedaf3d1	-0.42764142
172	0xbe98e03f	-0.29858586
173	0xbbf5c1f3	-0.007499927
174	0x3ea2fb44	0.31832325
175	0xbdf3e6a5	-0.11909226
176	0x3e74615e	0.23865268
177	0x3fa475a6	1.2848403
178	0xbda57fe2	-0.08081032
179	0x3e6a8274	0.22901326
180	0x3e98e0f6	0.29859132
181	0xbe45de2b	-0.19323032
182	0xbe1b0937	-0.15140234
183	0x3d244f27	0.040114548
184	0x3eb05ad2	0.3444429
185	0x3e52dfe1	0.20593216
186	0x3dadca04	0.08485797
187	0x3e7f2169	0.24915089
188	0x3e99420b	0.299332
189	0xbe3e97d9	-0.18612613
190	0x3d9febfe	0.07808684
191	0xbe12440c	-0.1428377
192	0x3dd7c361	0.105353124
193	0xbe894bda	-0.26815683
194	0x3e9e175f	0.30877206
195	0x3ea1cc3d	0.31601134
196	0xbe245960	-0.16049719
197	0x3e860d2a	0.26181918
198	0x3e078165	0.13232954
199	0xbc9be963	-0.019032186
200	0xbe6e29ef	-0.23258184
201	0xbcc835c7	-0.024439706
202	0xbdacde39	-0.08440823
203	0xbe907e74	-0.28221476
204	0xbe48fde3	-0.196281
205	0x3cd41c94	0.025892533
206	0x3e602465	0.21888883
207	0x3eb2b7e4	0.34905922
208	0xbe19c4fa	-0.15016547
209	0x3dc366eb	0.095411144
210	0x3e315c71	0.1732042
211	0xbeb5544c	-0.35415876
212	0x3ebc0d74	0.36729014
213	0x3e5db9da	0.21652928
214	0x3f1cc615	0.6123975
215	0x3ef36442	0.47537428
216	0xbf026b97	-0.5094542
217	0xbde8385e	-0.11338876
218	0x3f61bfd1	0.88183314
219	0x3f069484	0.52570367
220	0x3ef79821	0.48358253
221	0x3d88ee99	0.06686134
222	0xbd8b23d4	-0.06793943
223	0x3d15ad06	0.03654196
224	0x3e741cf8	0.23839176
225	0x3f55e28f	0.83548826
226	0x3d9a31d2	0.07529034
227	0x3e00b90a	0.12570587
228	0x3f13fcd9	0.5780769
229	0x3d9cf1e6	0.07663326
230	0xbed214f3	-0.41031608
231	0x3e72a93a	0.23697367
232	0x3ee23abb	0.44185433
233	0x3d583969	0.052789126
234	0xbe5884b2	-0.21144369
235	0x3cacba62	0.021084968
236	0xbf262bdb	-0.6491067
237	0x3e55646f	0.20839094
238	0x3ca3bb8a	0.019986887
239	0x3eecda71	0.46260408
240	0x3d54b04c	0.051925942
241	0x3f190634	0.5977509
242	0xbeea8e0d	-0.458115
243	0xbd0af2cb	-0.03392295
244	0x3eb34d27	0.350198
245	0xbe096b3e	-0.13419816
246	0xbe826a73	-0.2547184
247	0x3eaf15fd	0.34196463
248	0xbd0bed3d	-0.034161795
249	0xbc565dc3	-0.013083878
250	0xbe2096d1	-0.15682532
251	0xbe6c291a	-0.23062554
252	0x3d881154	0.0664393
253	0x3e887600	0.26652527
254	0xbf3b875f	-0.73253435
255	0xbeb312a0	-0.34975147

bias f4 [30]
0	0xbc99faa4	-0.018796273
1	0xbeba9bf9	-0.36447123
2	0xbe664497	-0.22487102
3	0x3e832d93	0.25620708
4	0xbf13bf98	-0.57714224
5	0x3efe8da1	0.4971743
6	0x3df6c111	0.12048543
7	0xbef56895	-0.47931352
8	0x3f0e8bbc	0.5568197
9	0xbed4ed99	-0.41587523
10	0x3dcd10fe	0.10013007
11	0xbdcd3839	-0.10020489
12	0x3e63bb3c	0.22239393
13	0xbe3a1c9b	-0.18174975
14	0x3dea483f	0.11439561
15	0xbdc7c4e6	-0.09754352
16	0xbd968c2c	-0.073509544
17	0xbdf4b6f4	-0.11948958
18	0x3d9080da	0.070558265
19	0x3ec141f2	0.37745625
20	0x3e270154	0.163091
21	0x3dbb6466	0.09150009
22	0xbeb5ee2f	-0.35533282
23	0x3d53e748	0.05173424
24	0x3e57b0e4	0.21063572
25	0x3e6f7781	0.23385431
26	0xbe86d0ea	-0.26331264
27	0xbecc090b	-0.3985065
28	0x3dc74e1e	0.097316965
29	0xbe3bf561	-0.18355323

weight f4 [30, 30]
0	0xbbd6824b	-0.006546294
1	0x3d386a31	0.045023147
2	0x3e4e0295	0.20118172
3	0x3d8397b2	0.06425418
4	0xbda75b3e	-0.081717
5	0x3d508332	0.050906368
6	0xbe1c03b7	-0.15235792
7	0xbc200db0	-0.009768888
8	0xbdb9c7c2	-0.09071304
9	0xbe635715	-0.22201188
10	0xbd8f16fe	-0.06986807
11	0xbdd629f8	-0.10457224
12	0x3c0e4b56	0.008684954
13	0xbddf3bb2	-0.10900058
14	0x3dfeb86a	0.12437518
15	0xbe9304b2	-0.2871452
16	0xbddccdf0	-0.10781467
17	0xbe0da9ae	-0.13834259
18	0xbe952fbf	-0.2913799
19	0xbd168580	-0.03674841
20	0xbef6a1d0	-0.48170328
21	0x3d1fa4f0	0.038975656
22	0xbd187842	-0.03722406
23	0xbd479b32	-0.04873199
24	0xbe3cc922	-0.18436101
25	0xbbf1f112	-0.007383474
26	0x3da32762	0.07966496
27	0x3d1df74d	0.038565923
28	0xbe8de5a1	-0.27714255
29	0xbe3b16b4	-0.1827038
30	0xbf1f1fe3	-0.6215803
31	0x3e2eccff	0.17070387
32	0xbeaae655	-0.33378854
33	0xbf1d17ce	-0.6136445
34	0xbd217453	-0.039417576
35	0x3dd01ffb	0.1016235
36	0xbeb5ea01	-0.35530093
37	0xbf7c0f4f	-0.9846086
38	0x3dbc71ba	0.09201379
39	0xbf66ae3c	-0.9010961
40	0xbf321c5b	-0.69574517
41	0x3dc03d54	0.093866974
42	0xbd540a8d	-0.051767875
43	0xbe7b6b95	-0.24552758
44	0x3e975ddd	0.295638
45	0xbeac127b	-0.3360785
46	0xbe081004	-0.1328736
47	0xbe2b3db9	-0.16722764
48	0xbf46d85a	-0.77673876
49	0x3ee01f4a	0.43773872
50	0x3e01e35a	0.12684384
51	0x3e7b3bb8	0.245345
52	0xbf0c26c9	-0.5474668
53	0xbde6e4c2	-0.11274101
54	0x3e2f6516	0.17128405
55	0x3e057443	0.13032632
56	0x3e36ae8b	0.1784002
57	0xbf2fb2c7	-0.6863217
58	0xbebf4ae7	-0.37361833
59	0xbda995f9	-0.08280558
60	0xbee482b0	-0.44630957
61	0x3dd7b1f6	0.1053199
62	0xbe9a3c6f	-0.30124232
63	0xbceff13c	-0.029289834
64	0x3ea35a54	0.31904852
65	0xbe7e6972	-0.24844912
66	0xbe42f207	-0.19037639
67	0x3e861691	0.26189092
68	0xbf51b178	-0.8191142
69	0x3e2f9f87	0.17150699
70	0x3b844568	0.004036594
71	0x3ede5cf0	0.4343028
72	0xbd9c2e40	-0.07626009
73	0x3ead5c51	0.33859494
74	0xbe8a131a	-0.26967698
75	0xbd349e4a	-0.04409627
76	0x3e53adaa	0.20671716
77	0x3db2a9f2	0.08723821
78	0x3d32554a	0.04353837
79	0x3e01fd6b	0.12694328
80	0x3d9e1f90	0.07720864
81	0xbea3c95e	-0.31989568
82	0x3ef48495	0.47757402
83	0x3e992a46	0.29915065
84	0x3f2ef697	0.68345016
85	0xbe347c59	-0.1762556
86	0x3e949275	0.29017988
87	0x3e9b9ebd	0.30394545
88	0xbe900750	-0.2813058
89	0xbcec87d6	-0.028873365
90	0x3e376102	0.179081
91	0x3d621bc2	0.055202253
92	0x3f26e49e	0.6519259
93	0x3c732c61	0.014842124
94	0x3d5500ca	0.052002706
95	0x3d837607	0.06418996
96	0x3cee7038	0.029106244
97	0xbdc60051	-0.09668029
98	0x3e6fd26a	0.2342011
99	0x3ed3d351	0.4137216
100	0x3de10bc7	0.109885745
101	0x3cde05e0	0.02710241
102	0xbd38aad0	-0.045084774
103	0x3e8a4297	0.2700393
104	0xbd0b00a9	-0.033936176
105	0xbeff4de5	-0.49864116
106	0xbef84bd1	-0.48495343
107	0x3e9ac380	0.3022728
108	0xbdd61b95	-0.104544796
109	0x3dff83b9	0.12476296
110	0xbe2cc7b4	-0.16873056
111	0xbedc822e	-0.4306807
112	0xbeecff86	-0.462887
113	0x3dc00da9	0.093776055
114	0xbe67652c	-0.22597188
115	0x3e3d7896	0.18503031
116	0xbea4769b	-0.3212174
117	0xbd333fc2	-0.043761976
118	0xbeaba379	-0.33523157
119	0x3ea25850	0.31708002
120	0xbe1160b8	-0.14197052
121	0x3d7fd829	0.062462006
122	0xbb92f8ce	-0.0044852262
123	0xbe45d0c0	-0.19317913
124	0xbe00ebe7	-0.1258999
125	0xbec3b517	-0.38224098
126	0xbe1ed685	-0.1551152
127	0x3ca12607	0.019671453
128	0xbdcfd59d	-0.101481654
129	0x3d434055	0.047668774
130	0xbe628d53	-0.22124223
131	0x3e3aeef5	0.18255217
132	0x3e06000c	0.13085955
133	0xbc1e79e6	-0.009672618
134	0x3d47db4d	0.048793126
135	0x3eab7716	0.33489293
136	0xbdde1026	-0.10842924
137	0x3d68ea08	0.056863815
138	0xbeab9460	-0.3351164
139	0xba4d6018	-0.00078344485
140	0xbe24ce73	-0.16094379
141	0x39bc9fa4	0.00035977096
142	0x3e0a31e9	0.13495602
143	0x3ec102e4	0.37697518
144	0xbf07b033	-0.53003234
145	0xbec6b02a	-0.38806278
146	0x3cff03bf	0.031129716
147	0xbb8b4e56	-0.0042512817
148	0x3ea35f5e	0.31908697
149	0xbcb7d784	-0.022441633
150	0xbe9bc1a3	-0.3042117
151	0xbe36f2dc	-0.17866081
152	0xbdf2498e	-0.11830436
153	0xbc3f690d	-0.011682761
154	0x3ebae88a	0.36505538
155	0x3db29e5f	0.08721613
156	0x3de741cd	0.112918474
157	0x3ccf4d7c	0.025305502
158	0xbebdd1d3	-0.37074146
159	0x3dc551fa	0.096347764
160	0xbe74cbeb	-0.23905914
161	0x3e513425	0.20430048
162	0xbea31a72	-0.31856114
163	0x3da01cda	0.07818003
164	0xbd661a1d	-0.056177247
165	0x3e85ec7e	0.26156992
166	0x3f09e26f	0.53861135
167	0xbc96d3dd	-0.018411571
168	0x3dd7a049	0.10528619
169	0x3e515063	0.20440821
170	0xbdeae409	-0.114692755
171	0xbdf44acf	-0.11928331
172	0xbe14b370	-0.14521575
173	0xbe225bda	-0.15855351
174	0xbd7d70c5	-0.061875124
175	0xbdfaadcf	-0.122401826
176	0x3adaad0c	0.0016683652
177	0x3e3e81c5	0.1860419
178	0xbdecd17b	-0.11563393
179	0x3f0e8a59	0.5567985
180	0xbdba86bf	-0.09107732
181	0x3c868604	0.016421326
182	0x3ddae09d	0.10687373
183	0x3be313eb	0.0069298646
184	0xbe0da396	-0.13831934
185	0xbe2b410c	-0.16724032
186	0x3d87dee5	0.06634311
187	0x3e137a82	0.14402202
188	0xbddc71f5	-0.10763923
189	0xbe446053	-0.1917737
190	0xbd88f929	-0.066881485
191	0x3e7cde5b	0.24694197
192	0xbd0f75fc	-0.035024628
193	0x3e68abc7	0.22721778
194	0xbede7da5	-0.43455234
195	0x3e3550d9	0.17706622
196	0xbd9e8446	-0.07740073
197	0x3d03eb0e	0.032206587
198	0x3e51592d	0.20444174
199	0x3e92797a	0.28608304
200	0x3d06ec85	0.032940406
201	0xbbdc2761	-0.0067185615
202	0x3ea86069	0.32886055
203	0xbd856f30	-0.06515348
204	0xbf878751	-1.058817
205	0x3d15886f	0.036507066
206	0x3e006e8f	0.12542175
207	0x3d43a838	0.047767848
208	0xbe4b4328	-0.19849837
209	0xbe052172	-0.1300104
210	0xbe84469a	-0.25835115
211	0x3db618b1	0.08891428
212	0xbc8b63d1	-0.01701537
213	0xbea87974	-0.3290516
214	0xbd7762ff	-0.060397144
215	0x3e4ad44c	0.19807547
216	0xbef62ced	-0.4808115
217	0x3e10b183	0.14130215
218	0x3e3ff06f	0.18744062
219	0xbdb37c98	-0.08763999
220	0xbe8d0e90	-0.27550173
221	0x3d73763a	0.05943892
222	0x3f01bade	0.5067576
223	0xbc6781d8	-0.014130078
224	0xbe41f1cd	-0.18939896
225	0xbdd0d35b	-0.10196563
226	0xbe8baa6c	-0.2727846
227	0xbe9e2e76	-0.30894822
228	0xbdf2e091	-0.11859239
229	0x3e5302e8	0.20606577
230	0x3e254725	0.1614042
231	0xbee4669f	-0.44609544
232	0xbf143b02	-0.5790254
233	0x3dc0bd09	0.094110556
234	0x3e78f232	0.2431114
235	0x3ee6bbe9	0.4506524
236	0x3e22f018	0.15911901
237	0xbd71ffd9	-0.059081886
238	0xbd90818a	-0.070559576
239	0xbdd48f07	-0.10378843
240	0xbda301c5	-0.07959322
241	0x3e84c01c	0.25927818
242	0xbe9e66e8	-0.30937886
243	0xbb0e8be6	-0.0021750866
244	0x3e033880	0.12814522
245	0xbe6850e4	-0.22687107
246	0xbe8fb567	-0.28068087
247	0x3ea44e52	0.32091004
248	0xbda4bb89	-0.08043582
249	0x3f14c83f	0.5811805
250	0xbed2559c	-0.4108094
251	0xbd539717	-0.051657762
252	0xbe8316c6	-0.25603312
253	0x3f27fb01	0.65617377
254	0xbebb95ba	-0.3663767
255	0xbe4df361	-0.20112373

bias f4 [30]
0	0xbe74f18e	-0.23920271
1	0x3e05da03	0.13071446
2	0xbe31ced3	-0.17364053
3	0x3d8db963	0.06920125
4	0xbe10029e	-0.14063498
5	0xbe935762	-0.28777605
6	0x3e172706	0.1476098
7	0xbe2aca55	-0.16678746
8	0xbe4580c0	-0.19287395
9	0x3e9311d0	0.28724527
10	0xbd9c3145	-0.07626585
11	0x3dc49582	0.09598829
12	0x3e054fb9	0.13018693
13	0xbc160565	-0.00915656
14	0x3eac0d80	0.3360405
15	0xbf0d238e	-0.5513238
16	0x3ea2a32b	0.31765112
17	0xbe70d04a	-0.23516956
18	0xbd6024be	-0.05472254
19	0x3b5ea2c1	0.003397152
20	0xbe8be298	-0.27321315
21	0x3ea006f9	0.3125532
22	0x3c1cb54a	0.009564707
23	0x3e73761e	0.23775527
24	0xbf15e8b0	-0.5855818
25	0xbd844901	-0.06459237
26	0x3e567495	0.2094291
27	0x3e9711a4	0.29505646
28	0xbe34ca24	-0.17655236
29	0x3e9ab0ea	0.302131

weight f4 [30, 30]
0	0xbc4a5095	-0.012348314
1	0xbe0e3de3	-0.13890795
2	0xbe29cef6	-0.16582856
3	0xbd66976f	-0.056296762
4	0xbef17f3a	-0.4716738
5	0xbda42ecb	-0.080167376
6	0xbdc66689	-0.09687526
7	0x3e402392	0.18763569
8	0x3e868aa3	0.26277646
9	0xbdf767dc	-0.120803565
10	0xbcd43f00	-0.025908947
11	0xbdfcce24	-0.12344006
12	0x3d2263db	0.03964601
13	0x3e277b15	0.16355546
14	0x3db095af	0.086223
15	0x3e495d43	0.19664483
16	0x3e65125f	0.2237029
17	0xbe37f5e3	-0.17964892
18	0xbf0e209b	-0.555185
19	0x3c8e6c22	0.017385546
20	0x3e9cc3ad	0.3061804
21	0x3e8ea2d3	0.278586
22	0xbd9a3d9d	-0.07531283
23	0xbde33347	-0.11093765
24	0x3e53c92b	0.20682208
25	0x3de0191e	0.10942291
26	0x3de1736e	0.110083446
27	0xbd96e47d	-0.073677994
28	0x3dddee97	0.10836523
29	0x3e703d2f	0.2346084
30	0xbf1d70cf	-0.6150026
31	0x3d3bcf27	0.045851853
32	0xbc8e941d	-0.01740461
33	0xbeb96b34	-0.36214602
34	0x3e65002f	0.22363351
35	0x3e1e4106	0.15454492
36	0xbe8201bd	-0.2539195
37	0xbc1d8e93	-0.009616512
38	0x3d4d083c	0.05005668
39	0xbd6a2176	-0.057160817
40	0xbd744b64	-0.05964221
41	0x3d3f4866	0.046699904
42	0x3d1d72ef	0.038439687
43	0xbd970028	-0.07373077
44	0xbd8af0ab	-0.06784185
45	0xbda29bfc	-0.07939908
46	0xbc2e900f	-0.010654463
47	0x3c150da3	0.0090974895
48	0xbccab711	-0.024745496
49	0x3ce33dd9	0.027739452
50	0xbe0f03fd	-0.13966365
51	0xbe19c8e3	-0.15018038
52	0x3dab9cb2	0.08379497
53	0x3e6aa0df	0.2291293
54	0xbd5d0280	-0.053957462
55	0xbd6896ce	-0.056784444
56	0x3d1316b3	0.03591032
57	0x3d6dc7d8	0.058051914
58	0x3d381635	0.044943053
59	0x3e8e3a3c	0.27778804
60	0x3d1d9e69	0.03848115
61	0x3e93a941	0.28840068
62	0xbca0b4d1	-0.01961747
63	0x3ee4989c	0.44647682
64	0xbe792f82	-0.24334529
65	0x3ed3dc1b	0.41378865
66	0xbefe9d51	-0.49729398
67	0x3ec0c1cc	0.37647855
68	0x3e1409b1	0.14456822
69	0xbde88d5a	-0.11355086
70	0xbeb373b3	-0.3504921
71	0xbe99188a	-0.29901534
72	0x3ed8d2cb	0.42348322
73	0x3df226c9	0.11823804
74	0x3f06d4f7	0.5266871
75	0x3e7842b4	0.24244195
76	0x3e4e6713	0.20156507
77	0xbbe9127a	-0.0071127983
78	0x3f3f39b6	0.74697435
79	0x3e0eb02a	0.13934389
80	0xbedd14da	-0.4317997
81	0xbe2a7510	-0.16646218
82	0x3edc5454	0.43033087
83	0x3f05b966	0.5223602
84	0x3cf20b04	0.029546268
85	0x3ef6fced	0.48239842
86	0x3e43bf1f	0.19115876
87	0x3ef5698b	0.47932085
88	0x3f2ad0ea	0.6672503
89	0x3e9cb864	0.3060943
90	0x3e44e9e1	0.19229843
91	0x3e84910c	0.25891912
92	0xbde72142	-0.1128564
93	0x3c8efc4a	0.017454285
94	0x3f0b2c94	0.54364896
95	0xbdcf56e7	-0.10123997
96	0xbf0f593f	-0.55995554
97	0x3e33c611	0.17556025
98	0x3e9b1101	0.3028641
99	0x3f62ade6	0.885466
100	0x3da97bb3	0.08275547
101	0xbe160ca1	-0.14653255
102	0x3f48c1cb	0.78420705
103	0x3ebf3c72	0.37350804
104	0xbea5a6bf	-0.3235378
105	0xbce36f15	-0.027762929
106	0x3e467973	0.19382267
107	0xbde9a9a4	-0.114093095
108	0x3f16ee85	0.589577
109	0xbd80adac	-0.06283125
110	0x3e80f862	0.251895
111	0x3e951b53	0.2912241
112	0x3f1ef72d	0.6209591
113	0x3d4562a5	0.048189778
114	0xbe16a65b	-0.14711897
115	0x3da6ccdc	0.081445426
116	0x3dda2107	0.10650831
117	0x3e442418	0.19154394
118	0x3eb85dec	0.36009157
119	0x3def289f	0.1167767
120	0xbd5ce404	-0.05392839
121	0x3d41d273	0.04731984
122	0x3eeac523	0.45853528
123	0x3e70945f	0.23494099
124	0x3dc7383a	0.09727521
125	0xbe346db3	-0.17619972
126	0x3e53f256	0.20697913
127	0x3c8b3f14	0.016997851
128	0x3d06982e	0.032859974
129	0x3e8abf23	0.2709895
130	0xbbe54112	-0.0069962824
131	0x3d575603	0.05257226
132	0x3de62e97	0.11239355
133	0xbedf237f	-0.4358177
134	0x3e0e6200	0.13904572
135	0x3cfb7feb	0.030700644
136	0x3ee5461a	0.44780046
137	0xbe17dbd2	-0.14829949
138	0x3e9ccb3d	0.30623809
139	0xbd21b645	-0.039480466
140	0x3c73f8a7	0.014890826
141	0xbe10881b	-0.1411442
142	0xbe3deb98	-0.18546903
143	0x3eaf8bfa	0.3428648
144	0xbdd746b2	-0.10511531
145	0x3e6f0352	0.2334111
146	0xbe4b63a0	-0.19862223
147	0x3dcb0b48	0.09914261
148	0x3ef61921	0.48066047
149	0xbe5366bd	-0.2064466
150	0xbe0f5537	-0.1399735
151	0x3ed23149	0.41053227
152	0xbde406b2	-0.111340895
153	0xbcd9d802	-0.026592258
154	0x3f150b0d	0.5821999
155	0xbdc4877b	-0.09596153
156	0x3eb46d3e	0.35239595
157	0x3e05d764	0.13070446
158	0x3ec81b22	0.390832
159	0x3ebfd09a	0.37463838
160	0x3cb56c6a	0.022146422
161	0xbd57fdd3	-0.0527323
162	0x3e5c6a88	0.21525013
163	0x3e66d951	0.22543837
164	0xbe38606a	-0.18005529
165	0x3ec35d56	0.38157147
166	0x3ee3371d	0.44377986
167	0x3e402964	0.1876579
168	0x3e8b7071	0.27234223
169	0xbe0c99b8	-0.13730514
170	0x3ed6be4a	0.41942054
171	0x3f056db7	0.52120537
172	0xbd820f99	-0.06350631
173	0x3d65a301	0.056063656
174	0x3e9d52fb	0.30727372
175	0x3e10a8f1	0.14126946
176	0x3ed5f7e6	0.41790694
177	0x3eb63e0b	0.3559421
178	0xbecd4a1c	-0.40095603
179	0xbd221d5c	-0.03957878
180	0x3db7b6de	0.08970426
181	0xbdd792e0	-0.10526061
182	0xbda47b16	-0.08031289
183	0x3dd1ecc2	0.10250236
184	0xbe1c950d	-0.15291233
185	0x3dbfa5be	0.09357785
186	0x3e8d25c6	0.2756788
187	0xbd266d94	-0.040631846
188	0x3cff8533	0.031191444
189	0x3d8adb9e	0.0678017
190	0xbc589097	-0.013218067
191	0x3d0e4dad	0.034742046
192	0xbc818f99	-0.015815543
193	0xbc8167cb	-0.015796563
194	0xbcaf1725	-0.02137334
195	0x3d89764a	0.06712015
196	0xbc88c3bb	-0.016694894
197	0x3d008f41	0.031386618
198	0x3e8d1d82	0.27561575
199	0xbdac75d0	-0.084209085
200	0x3d9427c2	0.07234146
201	0x3d941ee1	0.07232452
202	0x3ca8ccff	0.020605562
203	0xbf1b3883	-0.60633105
204	0x3ebdefdb	0.37097058
205	0xbd74974a	-0.059714593
206	0xbd09fd9c	-0.033689126
207	0xbe8849a5	-0.26618686
208	0x3d410234	0.04712124
209	0x3eeaf17b	0.4588736
210	0xbe4cc57d	-0.19997211
211	0xbd80238a	-0.062567785
212	0xbecab9dd	-0.39594927
213	0xbe8494c1	-0.2589474
214	0xbe198c18	-0.14994848
215	0xbe1b19b0	-0.15146518
216	0x3ef34d6b	0.47520003
217	0x3e72aeba	0.23699465
218	0x3e7f55a6	0.24935016
219	0x3ef6ede2	0.48228365
220	0x3c8eabdf	0.017415939
221	0x3dcae383	0.09906676
222	0x3f9e7a6a	1.2381108
223	0x3e2cc12e	0.16870567
224	0x3eafd2b4	0.3434044
225	0xbd40ab21	-0.0470382
226	0x3eda8301	0.42678073
227	0xbe513adc	-0.2043261
228	0x3d8d1841	0.06889392
229	0x3de002e5	0.10938052
230	0x3f1d597e	0.6146468
231	0x3d6d8885	0.057991523
232	0x3d801309	0.06253631
233	0x3e5f26c2	0.21792129
234	0xbcb6f6b5	-0.022334436
235	0xbe2b8ce8	-0.1675297
236	0xbd0e850c	-0.034794852
237	0x3eae6ee6	0.34068984
238	0x3e8c2782	0.27373892
239	0x3ec16fa2	0.37780482
240	0x3e092b50	0.13395429
241	0xbd4d59bb	-0.0501344
242	0xbea1b599	-0.3158386
243	0xbeebab0d	-0.4602894
244	0xbd52e286	-0.05148556
245	0xbeb14c27	-0.34628412
246	0xbc23033a	-0.0099495
247	0xbe465f62	-0.19372323
248	0x3defd9b2	0.11711444
249	0xbe1993f8	-0.14997852
250	0x3e0ead46	0.13933286
251	0xbe23ff72	-0.16015413
252	0xbe00cb0f	-0.1257746
253	0x3f07784d	0.5291794
254	0xbec7a3c7	-0.3899214
255	0x3e6f6072	0.23376635

bias f4 [30]
0	0xbe624d11	-0.22099711
1	0x3ced2b29	0.028951244
2	0x3e05a121	0.13049747
3	0x3e622006	0.22082528
4	0x3d80326f	0.062596194
5	0xbe9ceba1	-0.3064852
6	0xbe2413ad	-0.1602313
7	0xbe643670	-0.22286391
8	0x3bb73b06	0.005591753
9	0x3e13d2c2	0.14435866
10	0xbdd56e01	-0.10421372
11	0xbf1ec064	-0.62012315
12	0x3994d5b5	0.00028387984
13	0x3e1207e7	0.14260827
14	0x3eaf1318	0.34194255
15	0x3e004c79	0.12529172
16	0x3eb0a4a0	0.345006
17	0xbefc5961	-0.4928694
18	0x3ea1ca21	0.31599525
19	0x3d22de16	0.03976258
20	0xbe15232d	-0.145642
21	0x3ee2b393	0.4427763
22	0x3d7d6459	0.061863277
23	0xbeb7d181	-0.35902026
24	0xbefaeefe	-0.49010462
25	0x3e6ba015	0.23010285
26	0xbe60745e	-0.2191939
27	0xbeaa2120	-0.33228397
28	0x3e2e3bf6	0.17015061
29	0xbeb1a717	-0.34697792

weight f4 [30, 30]
0	0xbdefeba5	-0.117148675
1	0xbe472827	-0.1944891
2	0x3ef14cb2	0.47128826
3	0xbedc73f2	-0.4305721
4	0xbe290e66	-0.16509399
5	0xbb9f29e5	-0.004857289
6	0x3e9f9fae	0.31176513
7	0xbf0b00d2	-0.54298127
8	0xbe2f1690	-0.1709845
9	0xbf30840f	-0.68951505
10	0xbd39d6b6	-0.04537078
11	0xbe9d335d	-0.3070325
12	0xbf1771fd	-0.5915831
13	0x3e05a2ee	0.13050434
14	0x3e6f4d12	0.23369244
15	0x3b9c6a22	0.004773394
16	0x3e11e08c	0.14245814
17	0xbcc24200	-0.023713112
18	0xbea22690	-0.31670046
19	0x3f9df8bc	1.2341533
20	0x3c9944fb	0.01870965
21	0x3e5b3192	0.21405628
22	0x3e8a0d08	0.26963067
23	0xbd86c1f8	-0.06579965
24	0x3e413ab3	0.18870048
25	0xbea514bd	-0.32242385
26	0xbde4b9bf	-0.11168241
27	0x3d73890b	0.059456866
28	0x3e093d1c	0.13402218
29	0xbe8bf356	-0.27334088
30	0xbecd03ca	-0.40041953
31	0x3dda9a73	0.1067399
32	0x3f0b0748	0.54307985
33	0xbd9d6787	-0.07685762
34	0x3cd8d076	0.02646659
35	0xbedbdc35	-0.42941442
36	0x3fa4020e	1.2813127
37	0x3dce8f2b	0.10085901
38	0xbf994aae	-1.1975915
39	0xbe0e2fcf	-0.13885425
40	0x3e7ae415	0.24501069
41	0xbf85069a	-1.039264
42	0xbde2c11f	-0.11071991
43	0x3ea71729	0.32634857
44	0x3ec28670	0.37993193
45	0xb7d4d550	-2.53717e-05
46	0xbedfda05	-0.43721023
47	0x3e1f6333	0.15565185
48	0xbeb3d4bb	-0.35123238
49	0xbf064bcb	-0.524594
50	0x3e6800fb	0.22656624
51	0x3ddcda48	0.10783821
52	0xbf1fc91a	-0.6241623
53	0x3f67ee32	0.9059783
54	0x3e1561c6	0.14588079
55	0x3f029102	0.51002514
56	0x3d5c9138	0.05384943
57	0x3ea757c9	0.32684162
58	0x3bcce040	0.0062523186
59	0x3dc460c3	0.09588768
60	0xbdb8f12f	-0.09030377
61	0x3df407e3	0.11915567
62	0xbb82d9b6	-0.0039932383
63	0x3ebffce2	0.37497622
64	0x3e6166c4	0.22011858
65	0xbdd7e0a0	-0.10540891
66	0xbdd34cfc	-0.10317418
67	0xbd9bcf55	-0.07607905
68	0xbd5792e5	-0.052630324
69	0x3e636bb5	0.22209056
70	0xbd6a20fc	-0.057160363
71	0x3dd4e171	0.10394562
72	0xbd2b668a	-0.041845836
73	0x3d3261c1	0.043550257
74	0xbd9370e1	-0.07199264
75	0x3d279f85	0.040923614
76	0x3a266cfa	0.0006348636
77	0x3dc492ab	0.09598287
78	0x3e52f938	0.20602882
79	0xbe6e271a	-0.23257104
80	0x3f13dbd8	0.5775733
81	0xbe8a59a3	-0.27021512
82	0x3e44c635	0.19216235
83	0x3e6f224b	0.23352925
84	0xbd0a2146	-0.03372314
85	0xbe032028	-0.12805235
86	0xbe0a9668	-0.13533938
87	0x3d900411	0.070320256
88	0xbe31f62c	-0.17379063
89	0xbd587ac8	-0.05285147
90	0xbe23753d	-0.15962692
91	0x3e7bec1b	0.24601786
92	0xbdc45e4c	-0.09588298
93	0x3da8ed8c	0.082484335
94	0x3e46b8dc	0.19406456
95	0xbd8bb2c7	-0.068212084
96	0x3ee00b26	0.43758506
97	0xbe0fd7c4	-0.14047152
98	0x3f16c71d	0.5889757
99	0xbc216e86	-0.009853011
100	0x3e7e84ee	0.24855396
101	0xbeccf58d	-0.4003109
102	0xbb9da5d1	-0.0048110266
103	0x3a4fe02a	0.00079298264
104	0x3f12f8c2	0.57410824
105	0xbebf77b6	-0.3739602
106	0xbe863749	-0.26214054
107	0x3e0de539	0.13856973
108	0xbec9534e	-0.3932137
109	0x3fdb22af	1.711996
110	0x3e8a596f	0.27021357
111	0xbeb2ebf7	-0.34945652
112	0xbe122e48	-0.14275467
113	0xbf0af609	-0.5428167
114	0x3e39357e	0.18086812
115	0x3da2a2cd	0.07941208
116	0x3da9c1ea	0.08288939
117	0x3e8705e3	0.2637168
118	0xbf128e1b	-0.57248086
119	0x3e7dff69	0.24804462
120	0x3dad748f	0.084694974
121	0x3ead71a0	0.33875751
122	0x3e2a4445	0.16627605
123	0x3e9529e7	0.2913353
124	0xbcb9e95c	-0.022694282
125	0x3ef3a5c4	0.47587407
126	0x3cc5d25f	0.024148164
127	0xbe945bc9	-0.28976277
128	0x3dad28eb	0.0845507
129	0x3ee9a283	0.456318
130	0xbd68511b	-0.056717973
131	0xbe3a8461	-0.18214561
132	0x3da509e8	0.0805853
133	0xbe639980	-0.22226524
134	0xbe45cbef	-0.19316076
135	0xbcad962e	-0.021189775
136	0x3d5f4298	0.054506868
137	0x3cd12faf	0.025535433
138	0x3f1c21eb	0.60989255
139	0xbd4384bb	-0.047734004
140	0x3d6e101c	0.05812083
141	0xbd6c0b6f	-0.05762809
142	0x3d9ee387	0.07758241
143	0x3e065054	0.1311658
144	0x3e4044bc	0.1877622
145	0xbc8f7341	-0.017511012
146	0x3e7579a9	0.23972191
147	0x3de94bfc	0.11391446
148	0x3db3e0ca	0.087831095
149	0xbc85df66	-0.016341876
150	0xbe20ff95	-0.15722497
151	0xbe7d3395	-0.24726708
152	0xbd391f61	-0.04519594
153	0x3d2d952b	0.042378586
154	0xbcd0bc55	-0.025480429
155	0x3e451651	0.19246794
156	0xbcbd7a67	-0.023129655
157	0x3d76a357	0.060214367
158	0xbd917495	-0.071023144
159	0x3eb12e99	0.34605864
160	0x3e627112	0.22113445
161	0x3eb0e0e7	0.34546587
162	0x3d4b6584	0.04965736
163	0xbe0113ea	-0.12605253
164	0xbee56412	-0.4480291
165	0xbd1ee7b2	-0.03879518
166	0xbde8f737	-0.113752775
167	0x3e1f242b	0.1554114
168	0x3e3fb06a	0.1871964
169	0xbe79822a	-0.2436606
170	0xbe074877	-0.13211237
171	0x3d14bf1b	0.036315065
172	0x3d0f0ec5	0.034926195
173	0x3f12a474	0.57282186
174	0x3e28fbb0	0.16502261
175	0xbe0143b5	-0.12623484
176	0x3c19a6aa	0.009378115
177	0x3d03ce0d	0.032178927
178	0xbc8f9c71	-0.017530652
179	0x3dd2f055	0.10299746
180	0xbf11f8e8	-0.57020426
181	0x3e0e631a	0.13904992
182	0x3f2d88eb	0.67787045
183	0x3edeca67	0.43513796
184	0x3f0cb0ec	0.5495746
185	0x3ae55115	0.0017495478
186	0xbf0ee70b	-0.55821294
187	0xbe258a15	-0.16165955
188	0x3ee4379e	0.44573683
189	0xbd7e7a45	-0.062128324
190	0xbe4e59b6	-0.2015141
191	0x3de02c75	0.109459795
192	0xbe9fc567	-0.31205294
193	0xbe6c1b69	-0.23057331
194	0x3e60a633	0.219384
195	0x3d98583d	0.07438705
196	0xbe3b28e0	-0.18277311
197	0xbdb43070	-0.08798301
198	0x3ea1bb02	0.31587988
199	0xbf87f39d	-1.062122
200	0xbf0c0c28	-0.5470605
201	0xbdbf47e6	-0.093398854
202	0x3f173d74	0.59078145
203	0x3f037f28	0.513659
204	0xbddb1c0b	-0.10698708
205	0xbe8d5de5	-0.27610698
206	0xbec30e78	-0.38096976
207	0xbe0d5b63	-0.13804393
208	0x3f2469a0	0.6422367
209	0xbe759acd	-0.23984833
210	0xbf5eac79	-0.8698192
211	0x3e98f206	0.2987215
212	0x3daf257b	0.08552071
213	0x3e4efe8a	0.20214286
214	0x3f7f9670	0.99838924
215	0xbe0384f0	-0.1284368
216	0x3edc5cc9	0.4303954
217	0x3c63b928	0.013899125
218	0x3f416abb	0.7555348
219	0xbcdeaef2	-0.02718303
220	0x3d1065b2	0.035253234
221	0x3e05f40d	0.13081379
222	0xbe28f008	-0.16497815
223	0x3d498d90	0.04920727
224	0xbe2c15b9	-0.16805162
225	0xbe4902f8	-0.19630039
226	0x3c855024	0.016273566
227	0x3e2a82ac	0.1665141
228	0xbdddc89f	-0.10829281
229	0xbd5162b6	-0.05111953
230	0xbdb6cc56	-0.08925693
231	0x3b873e95	0.0041273334
232	0xbe37a5bc	-0.17934316
233	0xbe042805	-0.12905891
234	0x3ea66a8f	0.32503173
235	0x3e38622a	0.18006197
236	0xbe8c1e6a	-0.27366954
237	0x3d69ec2f	0.057110008
238	0x3d1dac37	0.038494315
239	0x3db7ddda	0.08977862
240	0xbe57e8f8	-0.21084964
241	0x3e3ce028	0.18444884
242	0xbe46b3e3	-0.19404559
243	0xbf3278c8	-0.6971555
244	0x3f03ca6f	0.51480764
245	0xbea0df1c	-0.3142022
246	0xbe253054	-0.16131717
247	0x3efa96fd	0.4894332
248	0x3eda706a	0.4266389
249	0x3d312d90	0.043256342
250	0x3e94703d	0.2899188
251	0xbea9d3dc	-0.33169448
252	0x3c0dae9d	0.008647588
253	0xbe9512de	-0.29115957
254	0xbe1f7738	-0.15572822
255	0xbebeafad	-0.37243405

bias f4 [30]
0	0x3c1a525f	0.009419053
1	0xbd1ae6a6	-0.03781762
2	0xbcb002f9	-0.021485792
3	0xbe783597	-0.24239193
4	0xbdd993f0	-0.1062392
5	0xbc96876f	-0.018375127
6	0x3dbfb873	0.09361353
7	0xbea329fd	-0.31867972
8	0xbe10e2a1	-0.14148952
9	0x3eb132a3	0.34608945
10	0x3e0abf45	0.13549526
11	0x3e54a6c4	0.20766741
12	0x3e9841c2	0.2973767
13	0x3eaa0303	0.33205423
14	0x3e2e4628	0.1701895
15	0x3db60631	0.088879
16	0xbc802fe8	-0.015647843
17	0x3dc29cd3	0.09502568
18	0x3cbaa7f4	0.022785164
19	0x3ea4f0ef	0.32215068
20	0xbe444e1a	-0.19170418
21	0x3eba76ab	0.3641866
22	0x3f1bd71b	0.608751
23	0xbe602471	-0.21888901
24	0xbed88aba	-0.4229334
25	0xbc9ee03a	-0.019394029
26	0xbe9b9792	-0.30389076
27	0x3d744196	0.05963286
28	0x3d88d9bd	0.06682155
29	0xbe7de11a	-0.247929
