Deep_model/saved_model/model_without_jacobian.pth (torch, 62370 bytes, 28 tensors)

weight f4 [18, 9]
00000000: a94b 2dbf 8c4f dd3c 9620 ddbe 214f 28be
00000010: 9768 373e fca4 583f 9826 1c3f 0a43 54bf
00000020: c012 06bf 0649 8f3e 75ab ac3e 3d4a 02be
00000030: 063f 8fbf 6ec6 193d 8547 a1be e72b e63e
00000040: 86d2 0cbd baf6 013f df3e 583e bffd 0fbf
00000050: 2576 42bf 05a4 1ebd c387 ab3d c5fc a13e
00000060: e4a6 1e3f edd9 f53e 2f4b 7cbf 6b70 87be
00000070: aa59 0bbf 15c0 503f 5d34 febd 708f eb3e
00000080: 7e08 f53e 7acc 12bf 69de f33e f8be b93d
00000090: d705 0a3f 6b2b a03e d0c0 d5be 01e3 67be
000000a0: 8d73 e23d 0580 d5bd b651 11bf 728a 6ebf
000000b0: 4e68 babe 58c4 b53d 153e c3be 5644 cdbe
000000c0: 0aa5 ccbe 17ed 10be 554d 583c dd5c ba3f
000000d0: 527b 87bf 8e2f 913f 1cd0 52bf f965 8c3e
000000e0: f923 6fbe 465f afbc c144 21bf 3f51 a4bd
000000f0: db90 e1be b555 543f 52d0 67bf b887 31bf
00000100: a71d 803e eb02 1fbf 5733 523c 1f66 c93e
00000110: 3103 6bbe 03d8 aabd 003c c1be 413a 113f
00000120: 4f33 1bbf ebbd 90be 73bb 383f 3210 a13d
00000130: f7c4 6ebe 2267 a8be 580a e6be ecdc 0b3f
00000140: c6fe c9be ee77 c4bd 5313 20bd b476 36bf
00000150: c189 543f 4817 d53e fe3c ef3e 0f15 1bbf
00000160: f802 0a3f f6ea 183f 68ae 5e3f f452 c6bc
00000170: ba3c 04bf 7acf 2ebf 1427 0f3d 67b5 3a3f
00000180: 0e52 233d 9334 033f 05ed 34bf 1262 d83e
00000190: f3b0 60bf df27 5fbc c826 12be b9f8 173f
000001a0: 8725 2dbf 8fbc 01be c7a3 04be 4607 d23d
000001b0: b081 57be 4547 653e b505 f83e 72a9 46bf
000001c0: ce18 b23e b63d b5be 15df 783f fcb9 013f
000001d0: 21bc 0dbe ad7b a7be 18ed 953e 48f1 95be
000001e0: 1c60 303f 0893 5bbe 553f 133e 3916 f23e
000001f0: 478a 79bd 22d7 71bf dc21 4ebe 22f5 7e3f
00000200: 5f32 43bf 3586 0fbd 7cc0 08be caa5 99bc
00000210: 2a5b 12be 2ae3 bc3d e150 353e 3105 bdbd
00000220: 6c37 3f3c 9a52 043f 7e3a d7be 6441 813f
00000230: a66c 9bbe 3790 483f 07e6 3dbf 3ba4 96be
00000240: 976a 853e 4e9f dd3e afd5 7d3e c91e 2b3f
00000250: 038b f1bd aa8c 9cbe b428 713e 44a6 ecbe
00000260: 24b2 99be 0250 033f 9964 2ebf 0034 833e
00000270: 887b c9be 8274 023e 458c 843e 6ff3 e0be
00000280: 7118 f3be 45d5 663e
-0.67693573 0.02701547 -0.43188924 -0.16436435 0.17910992 0.84626746 0.6099639 -0.82914793
-0.5237236 0.279854 0.3372456 -0.12723632 -1.1191108 0.037542753 -0.31499878 0.4495537
-0.03438046 0.507671 0.21117733 -0.5624656 -0.75961524 -0.03873064 0.08375504 0.3163816
0.61973405 0.48017827 -0.9855222 -0.26452956 -0.5443369 0.81543094 -0.12412331 0.46007872
0.47858042 -0.57343256 0.47630623 0.090696275 0.5391516 0.31283125 -0.41748667 -0.22645189
0.11057196 -0.104248084 -0.56765306 -0.9318 -0.36407703 0.0887534 -0.38133302 -0.400912
-0.39969665 -0.14152943 0.013202031 1.455959 -1.0584509 1.1342638 -0.823488 0.2742155
-0.23353566 -0.021407735 -0.62995535 -0.08023309 -0.44055828 0.8294328 -0.90552247 -0.69347715
0.25022623 -0.6211383 0.012829623 0.39335725 -0.22950436 -0.08341982 -0.3774109 0.56729513
-0.60625166 -0.28269896 0.72161025 0.07864417 -0.23317324 -0.32891184 -0.44929767 0.54633975
-0.3945219 -0.09593187 -0.03908093 -0.71274877 0.83022696 0.41619325 0.4672622 -0.6057901
0.5391078 0.5973352 0.8698487 -0.024209477 -0.5165516 -0.68285334 0.034949377 0.7293305
0.039873175 0.51252097 -0.70674163 0.42262322 -0.87770003 -0.013620346 -0.14272606 0.59363896
-0.6763539 -0.12669586 -0.12953101 0.102552935 -0.21045566 0.22390468 0.48441854 -0.77602303
0.3478455 -0.35398644 0.97215396 0.50674415 -0.13841297 -0.32711545 0.2928245 -0.29285645
0.6889665 -0.21442807 0.14379628 0.4728258 -0.060922887 -0.9446889 -0.20130104 0.99592793
-0.76248735 -0.0350401 -0.13354677 -0.018755812 -0.14292589 0.092230156 0.17706634 -0.09229506
0.011670928 0.5168854 -0.42036813 1.0098081 -0.3035633 0.78345054 -0.7417912 -0.29422173
0.26057884 0.43285602 0.24788545 0.6684385 -0.117940925 -0.30576068 0.23550683 -0.462206
-0.30018723 0.5129396 -0.6812225 0.2562561 -0.3935206 0.12739757 0.25888267 -0.43935725
-0.47479585 0.22542293

bias f4 [18]
00000000: e697 303e aed2 5c3d 9b1c 6d3e eb91 e7bd
00000010: 711c aebd 44d4 833e a75c 8f3e 9938 7e3e
00000020: cfb5 c53d 465e 3d3b 59fa c9bd 2d4b 113e
00000030: 6104 dabc 8e7e 103c 7cda 033c ec21 02be
00000040: f814 87be 7ce7 f7bc
0.17245445 0.053911857 0.23155443 -0.113071285 -0.085015185 0.25747883 0.28000376 0.24826278
0.09653818 0.0028895303 -0.09862203 0.14188834 -0.026613416 0.0088192355 0.008047696 -0.12708253
-0.26383185 -0.030261748

weight f4 [27, 18]
00000000: 21ad e8bd 1eab 1e3e 9874 f93d b47d 32be
00000010: 5e17 683e ade5 b9bb 889e 383e 2d36 3ebf
00000020: 5a2d 0ebc d4d9 0abf bd4a 203f 159b 723e
00000030: 3766 dd3d 1e15 923e 861a 16be 2255 db3e
00000040: 08ae c43e 7850 dfbe 503e 0bbf ad0d 84be
00000050: e3ce 033d fee5 edbe b585 b23e e4d7 44bf
00000060: 5d3e fdbe 0612 813e 34fe aebe 6b3a 113f
00000070: 593b 00bd 31dd 893f 97e0 26be 9f82 623e
00000080: 8133 5d3f 15c3 453f 6735 c83e 40b8 81be
00000090: ae05 bc3e 592a 88be c8b9 32bd f1ac f6bd
000000a0: a628 23be 7cfc 943e 43e1 02bd 7870 923f
000000b0: 031a 2cbe c901 b23e 585e b0be 1b30 20bf
000000c0: dd77 74be 0102 203e 486a 2e3f fccc d1bd
000000d0: f064 a43d caa5 55be a81b 183e 4288 99be
000000e0: 6426 4d3e b651 bbbc 5c71 03bf 4120 803d
000000f0: ceb4 a8bd 0256 b03e adb1 c5bc 29cb 27bd
00000100: 68cf 37bf e148 8f3e a6eb 243e 63b5 6f3e
00000110: fb0f 63bf 05a2 543f a3ce 933d e7bf 00be
00000120: 8820 ec3d 8ebe 7ebe 38b9 07bb 9cdb b73d
00000130: 4250 30bd a2b3 68be 6a12 3f3f 0d41 5f3f
00000140: c4ed a23e 0f1a 583e 5e4a 4ebf 4adc ccbe
00000150: feca 083d af2a 943d c9f2 d43e 1234 c6be
00000160: b551 46be 0fbc adbe 4720 573e f4f0 9cbd
00000170: 8c85 0e3f 354c 2cbd 611b 6abf dbc8 de3d
00000180: d01d 653f 6988 7dbf 85d7 8a3e 2641 93be
00000190: 06bf 003f 1a2e 99bf 1990 663e 37e8 ec3c
000001a0: bf0b d4be 7916 bdbd 2db0 3d3d 1109 84be
000001b0: 1755 28bd 6b5b 133f 0eeb cfbe 44d2 dcbe
000001c0: 9d9d adbe b88d cd3e 51cf 073f 21da 203f
000001d0: 33cd 163e 514a d9be ffd0 5cbf b0c1 93be
000001e0: 1dec 163d bd4c 90be 943f 0d3f 9d15 9a3d
000001f0: c081 8f3c 6488 47be aabb 583f cff3 49bf
00000200: bf6f db3d 4617 6abe 92f2 503f f729 013f
00000210: 32e1 b1be 6e96 d0bc d0d8 88be 576d 403d
00000220: bd76 7ebe 2bd5 b03e 448d 49bf 725d 403e
00000230: 28b9 8fbf f1e7 06bf 7a6e 0c3f fa7d d83e
00000240: 084e 223e fd7d 3fbd ab23 14bf eb0c cd3e
00000250: 1b2b 3f3e 25ab 30be 45bc cb3c 5cd3 d4b8
00000260: 00b7 b73e 16a6 14bf 38d5 22bf 1ce4 cbbe
00000270: 3fb6 c83e 3814 47bd d58b dfbe e9fd f33e
00000280: e183 d03d 59dd 4abe e525 173f c756 8fbe
00000290: ca33 82be b8c8 60be a9ca 073f 6b26 a4bb
000002a0: fa19 98bd f075 09bf 73a3 ee3d ac82 f9be
000002b0: 0bc6 9bbe 63ab 69bf cac9 f3bd 0b6c 553c
000002c0: fbb0 14bf 1398 033f 858c 29bd 901d 923e
000002d0: 9312 3dbe cb9a 9fbd c5e6 a9be 5cb7 53be
000002e0: 222c 053f 2714 e6be 61fb 1cbe ed4d 62bd
000002f0: 1d13 7ebe a3e1 0a3d 026f 993e cb5c 98bf
00000300: f2bd a23d 2004 6ebc aed2 a13f 702f 7cbe
00000310: 893d a53e f5cf a2be a6e7 7d3e 2236 7f3e
00000320: d629 9ebd a97e c6be 1e05 ad3e eaa8 fa3e
00000330: 7ece fb3e ffec 793f faf1 42bd 6a89 b8be
00000340: 0020 96be afe7 61be 48c1 de3c 5185 813c
00000350: 745c 423f b540 7cbe efc4 92be 545c ebbd
00000360: d0d7 12bf 6db0 5e3e 359a 3cbf bc03 f03e
00000370: e850 823e 2c54 62be 83cc f6be d761 5ebf
00000380: f21f 4c3e 2924 acbe 795b bdbd e531 923e
00000390: 078b 3f3e b04f 77be e934 febe 9cd2 c23e
000003a0: dc7b 95be d48a dd3e 0fc9 90bd 28bf 0b3d
000003b0: fff6 233f f6d3 ffbd fdba 6dbd dce0 0a3f
000003c0: b861 f4be 84c0 6b3e 0e71 30bd f087 b33e
000003d0: 47d5 7b3f 02cf 903f fed6 943d 8ac6 4cbe
000003e0: d6e2 19bf 9e00 be3d 1542 c6bd 7be0 873e
000003f0: 8adf d8bd 4c89 9e3d fbda 37bf 5b0c a2bd
-0.11361147 0.15494964 0.121804416 -0.17430764 0.22665164 -0.0056731314 0.18029225 -0.74301416
-0.008677805 -0.5423863 0.6261404 0.23691972 0.108105116 0.28531736 -0.14658555 0.4283839
0.38414025 -0.4361608 -0.54391956 -0.25791684 0.032179724 -0.46464533 0.34867635 -0.7689192
-0.49461642 0.25209063 -0.34178317 0.56729764 -0.0313066 1.0770627 -0.16296612 0.2212014
0.86406714 0.77250797 0.39103243 -0.25335884 0.36723083 -0.2659481 -0.043634206 -0.12044705
-0.15933475 0.2909888 -0.031953108 1.1440573 -0.16806798 0.34766987 -0.3444698 -0.62573403
-0.23873849 0.15625764 0.6813092 -0.10244176 0.08027065 -0.20864025 0.148543 -0.2998677
0.20034176 -0.022866111 -0.5134485 0.06256152 -0.08237611 0.3444062 -0.024132574 -0.040965233
-0.7180085 0.2798529 0.16105518 0.23409037 -0.8869626 0.8305972 0.07217147 -0.12573205
0.11529642 -0.24877378 -0.0020709764 0.08977434 -0.04304529 -0.22724774 0.7463747 0.87208635
0.31822026 0.2110369 -0.80582225 -0.40011817 0.033396713 0.07234704 0.4159148 -0.38711601
-0.19367106 -0.3393254 0.21008407 -0.07663146 0.55672526 -0.042064864 -0.91448027 0.10878154
0.89498615 -0.9903627 0.27117553 -0.28760642 0.5029148 -1.1967194 0.22515906 0.028919322
-0.41415212 -0.09232802 0.046310592 -0.25788167 -0.041096773 0.5756137 -0.4060902 -0.4312917
-0.33909312 0.40147185 0.53050715 0.6283284 0.14726715 -0.4243951 -0.862564 -0.2885871
0.03684627 -0.28183547 0.5517514 0.07523654 0.017517924 -0.19485623 0.8466135 -0.7888765
0.10714673 -0.2286044 0.8162013 0.5045466 -0.34742123 -0.025462355 -0.26727915 0.046979275
-0.24849983 0.34537634 -0.7873118 0.18785647 -1.122838 -0.52697664 0.54856074 0.42283612
0.15850079 -0.04675101 -0.57866925 0.40048918 0.18668787 -0.17252786 0.024870047 -0.000101483165
0.35881805 -0.5806593 -0.63606596 -0.3982247 0.39201543 -0.048603266 -0.4366137 0.47654656
0.10181404 -0.19811 0.590422 -0.27995893 -0.25430137 -0.21951568 0.5304361 -0.0050094626
-0.0742683 -0.53695583 0.11652269 -0.48732507 -0.30424532 -0.9127714 -0.119037226 0.013026248
-0.5808255 0.5140392 -0.041393775 0.2853818 -0.18464117 -0.07793196 -0.33183876 -0.20675415
0.52020466 -0.4493725 -0.15330268 -0.055250097 -0.24811979 0.03390659 0.29967505 -1.1903318
0.079463854 -0.014527351 1.2642419 -0.24627471 0.3227351 -0.31799284 0.24795398 0.24922994
-0.07722823 -0.3876851 0.33792967 0.48956996 0.4918098 0.9762725 -0.047594048 -0.3604234
-0.2932129 -0.22061037 0.027191773 0.01581064 0.7592232 -0.24634059 -0.28665873 -0.114922196
-0.57360554 0.21746989 -0.736728 0.4687785 0.25452352 -0.22102422 -0.48202905 -0.8686804
0.19934061 -0.33621338 -0.09245963 0.28553692 0.18705378 -0.24151492 -0.49649742 0.38051307
-0.2919606 0.4326998 -0.07069599 0.034117848 0.6404876 -0.124916 -0.058039654 0.5424936
-0.47730803 0.23022658 -0.043076567 0.3506465 0.9837231 1.1313174 0.07267569 -0.19997612
-0.6011175 0.092774615 -0.09680573 0.26538453 -0.10589512 0.07741031 -0.7181851 -0.07912513

bias f4 [27]
00000000: 12c3 65bc 8e0a f43c 7f28 093e 2dc0 2dbd
00000010: 9c4c 893d deae 753b 13a5 82bc e4d4 a6bb
00000020: 1152 50bd d859 01bd 9c64 783d d997 d53d
00000030: 51ba 8fbd aa74 3b3d 1dbb 53bd ab34 2e3d
00000040: 9442 0f3d da4b eabc b590 393d 7f99 0e3e
00000050: ed8b 0fba b096 abbc 97e2 8aba fcc4 9fbb
00000060: 1cbe d8bb 098f 28bd 54f1 d53c
-0.014023559 0.02979019 0.13394354 -0.0424196 0.06704065 0.0037488262 -0.015947854 -0.0050912965
-0.050859515 -0.031579822 0.060642824 0.10429353 -0.07017959 0.045765556 -0.051692117 0.042530697
0.034975603 -0.028600622 0.04530402 0.13925742 -0.00054758677 -0.020945877 -0.0010596093 -0.0048757773
-0.0066144597 -0.041152034 0.02611605

weight f4 [30, 27]
00000000: 9c6a 903e 194d 88bd ca76 2abf 1056 ec3a
00000010: 7685 5bbf bd94 ce3c 58ae e7be e3c0 0c3f
00000020: c07f 34bd 5b64 4c3e 0275 debe 73b9 44bf
00000030: 5f3b f03e 02e8 853e b158 3abe 5642 543d
00000040: 773b c4be 507e bd3e 96f3 0abf 1db7 6d3e
00000050: 84f9 033e e759 733d 87b3 9c3e e80b d43e
00000060: 7be4 dbbe c6d0 173f 6a16 f3be 0e16 95be
00000070: f099 783e 5c6f ae3d a629 e5bc 38c9 e23e
00000080: 2f94 9bbe e2b8 94bd 9964 f0be 2dda 44bd
00000090: acdd 0cbf 15a7 023e 435e 6ebe 5eda 843e
000000a0: 35d3 233e 2342 b2bc 3c83 d6be bb5d 43bb
000000b0: ca5a 223e cff7 043e 1893 d93e 6876 063c
000000c0: 724e e0be e2e3 70bd 1892 8abe c443 02be
000000d0: f64d 2ebd 6268 4a3e 1586 4c3e 75b5 ef3d
000000e0: 1e85 36bd b50b 1abd 8ad0 5bbc 26bc 3ebd
000000f0: 7866 bcbd 32ad 883e c394 573e bde5 343e
00000100: cfc9 48be 1435 3abe 6fed 5b3e bd1d 31be
00000110: 8ee2 093c 0307 babe 08c1 01bf 5aff f83e
00000120: 73ed 9a3e 3dfc b23e 6afa 66be d3cf 01bd
00000130: 6319 d43e f495 953e 6a40 49bf 0116 1cbe
00000140: 594e 1bbf f067 2a3e 8f5c 9c3d 1985 4fbc
00000150: 701f c9be bb8e 1bbf 51c7 043e 447d 1fbf
00000160: 6371 b43d af86 03bf 7ce7 293c fe11 f0bc
00000170: 78fa e8bd 553c 54be 1339 293f 3f32 30bf
00000180: 5968 283f 3466 9ebd 867d 9bbe 0302 73be
00000190: a556 af3e eb67 ca3e 3ca5 63be 7343 83bd
000001a0: 65f7 51be ea87 ef3e e13a ad3e 1524 8f3e
000001b0: 4ab8 01bd 3b16 85be 5b5e b43d 9a00 94bd
000001c0: 7089 b13d abcc 20bf 22c4 0e3f ecd8 833e
000001d0: 3993 c03e 17cf 513e 4889 fbbe d386 ad3e
000001e0: 1951 093e 4926 f7bd c225 173e 03f5 a5be
000001f0: 1d58 8a3e a9ce d3be 8f2b f7bc 5c01 d73b
00000200: 1fcf 02be 16dd a33e 29ad 57be 3620 983e
00000210: 2e48 ac3e 30a2 103e 8d31 f23d 6beb 193e
00000220: 34ec 59bf 5d0f 813e 04bf 313e 972b 32bd
00000230: cd16 303f 3985 c63e 4517 6b3e f33d a63e
00000240: afa5 bd3e 3757 8abd d9fb 943e 6fcf 6ebe
00000250: 7877 b6be 7b25 7f3e 2050 aa3c 87f2 143e
00000260: ea3f ce3e 130f 8bbe eed5 633e 0a19 f43d
00000270: f724 75bd dfd8 843d 440e 08be abf6 0c3e
00000280: a9e7 cfbd 83f2 f7be 513e 37bf a64c 8bbf
00000290: 091a 433e cd76 fa3c 4382 de3d a85d 9d3e
000002a0: 9518 f43c 1b35 613f ef6a a93c 1d46 9a3e
000002b0: 6af3 aebe 5c09 1a3e 547a 2d3e b90d 67be
000002c0: 0427 bb3e f5b6 c5bd 79a6 c83d 2c9a d03d
000002d0: 2abc 133e d395 ba3e bf2e 053f 4a7f 60bf
000002e0: f810 ab3c 8409 b13c e4e5 c33e c823 a0be
000002f0: 1fbd a5be e190 d1be 4072 ba3d e126 883d
00000300: 5089 97be 9bfd 393f c340 bc3e 4dbb 42be
00000310: 7859 4d3e 9c61 b0be 398d 97be 7fc6 28be
00000320: 8d1e 48be 55b0 febd 4945 16be 724d f3be
00000330: d738 01bf d242 13bf 31e8 593c 5187 c03e
00000340: d15b ddbd d6a6 f7be efe7 11bf 191b 403e
00000350: bf96 9f3e 58db 62bf 6ddd c43d 5417 d7be
00000360: f2da bfbe 2c27 f73c 452f 863e d506 0a3e
00000370: 0826 1fbd 410a 21bf 7710 4a3d e78c a63e
00000380: 21f2 77bd 2f42 04be 2649 99be e9a2 6d3d
00000390: 1d51 a4be 23fc 0d3f 489f 923e e503 f4bc
000003a0: f229 133f 9d47 3ebc d069 d0be 3be7 663d
000003b0: 0cab 84be 9e9b ea3d cf52 80bd 2efa 2cbd
000003c0: 13c9 88be 8240 55bd 817a 91be 3d65 703e
000003d0: e6c0 b2bb 4853 27be 8870 6dbe d5bb f63d
000003e0: 4813 193f d540 40bf 3cbc 283d 4d05 fc3d
000003f0: 11d4 d23d 6123 543e 14cb 48be 7ede 4ebe
0.28206336 -0.0665533 -0.6658751 0.001803102 -0.8575052 0.025217408 -0.452502 0.5498182
-0.044067144 0.19960158 -0.43448645 -0.76845473 0.46920297 0.2615357 -0.18197896 0.051821075
-0.38326618 0.3701043 -0.5427793 0.23214383 0.12888151 0.05941191 0.30605718 0.41415334
-0.42947754 0.5930294 -0.47478038 -0.2911839 0.24277472 0.08517334 -0.027973961 0.44294143
-0.30386493 -0.07261826 -0.4695175 -0.04805963 -0.55025744 0.12759049 -0.23278145 0.2594785
0.15998538 -0.021760052 -0.41897 -0.0029810506 0.15854946 0.12985156 0.42495036 0.008206941
-0.4380985 -0.058811076 -0.27064586 -0.12721163 -0.042554818 0.19766381 0.19973023 0.11704532
-0.044560544 -0.03760882 -0.013416419 -0.04656615 -0.09199232 0.26694638 0.21052842 0.17665763
-0.19608234 -0.1818431 0.21477292 -0.172965 0.008415831 -0.36333475 -0.5068517 0.48632318
0.30259284 0.34958068 -0.22556463 -0.031692337 0.4142562 0.29215968 -0.78613913 -0.15242769
-0.60666424 0.16641212 0.07634842 -0.01266601 -0.39281797 -0.60764664 0.12966658 -0.62300515
0.08810689 -0.51377386 0.010370132 -0.029305454 -0.11375898 -0.2072614 0.66102713 -0.6882667
0.6578422 -0.077343374 -0.30369204 -0.23731236 0.34245792 0.39532408 -0.22231 -0.06409349
-0.2050453 0.46783382 0.33833984 0.27957216 -0.031669892 -0.25993523 0.088070594 -0.07226677
0.08668792 -0.628123 0.55768025 0.25751436 0.37612322 0.20489155 -0.49128175 0.33891925
0.13409843 -0.12067849 0.14760497 -0.32413492 0.2702035 -0.41368607 -0.030172138 0.0065614413
-0.12774323 0.32004613 -0.21062149 0.29712075 0.3364882 0.1412437 0.11825857 0.15031211
-0.8512604 0.25207034 0.17358023 -0.0434986 0.6878479 0.38773516 0.22958095 0.32469139
0.3704047 -0.06754916 0.29098395 -0.23321317 -0.35638022 0.24916641 0.02079016 0.14545642
0.40283138 -0.27159938 0.22249576 0.11918838 -0.059849706 0.064866774 -0.13286692 0.13765971
-0.101516075 -0.4842721 -0.7157946 -1.0882766 0.190529 0.030574227 0.10864689 0.30735517
0.029796878 0.8797166 0.020680873 0.30131617 -0.34170085 0.15042633 0.16941196 -0.22563829
0.36553204 -0.09654037 0.09797377 0.10185656 0.14427248 0.36442432 0.52024454 -0.8769423
0.020882115 0.021610983 0.3826133 -0.312773 -0.3237085 -0.40930846 0.09103823 0.066480406
-0.2959695 0.72652596 0.3676816 -0.19016762 0.20053661 -0.3444947 -0.29599932 -0.1648197
-0.19542904 -0.124359764 -0.14674868 -0.47520024 -0.50477356 -0.57523835 0.013299988 0.37603238
-0.10808528 -0.48369473 -0.5699453 0.18760337 0.31169698 -0.8861594 0.09612546 -0.42009985
-0.3747173 0.030170046 0.2620794 0.13479169 -0.03885463 -0.6290627 0.04933211 0.32529375
-0.060533646 -0.12915872 -0.2993862 0.05801669 -0.32093135 0.55462855 0.28637147 -0.029787013
0.5748588 -0.011613754 -0.4070573 0.056372862 -0.25911748 0.11455463 -0.062657945 -0.042230777
-0.26715907 -0.052063473 -0.28413776 0.2347612 -0.005455124 -0.16340363 -0.23187459 0.12047545
0.59795046 -0.75098926 0.04119514 0.123056985 0.10294355 0.20716621 -0.19608718 -0.20202062

bias f4 [30]
00000000: 36fa f2be ddc8 f5bd 053e 463e 7eb1 dd3e
00000010: e4f5 a63c 4987 3f3e 47ed 303c c89f 003e
00000020: 0336 16be 9569 0e3e e23b 403d f9b4 fc3e
00000030: d1b3 60be b528 8d3d 1294 8b3b d58f 6dbd
00000040: 903c d43e 0131 b73d 4e4d 16be d173 5ebd
00000050: e236 473d ae83 a13e 29d7 f93e 45cb 34be
00000060: ce1f bebd 470d 813d 99ca e83e 90bc 423e
00000070: 3f8a 7a3e 9339 f23e
-0.4745652 -0.12001202 0.19359596 0.43299478 0.020380922 0.18703951 0.010798759 0.12560952
-0.14669041 0.13907464 0.04693211 0.4935682 -0.21943595 0.0689253 0.0042595947 -0.057998497
0.41452456 0.08944894 -0.14677927 -0.05430967 0.048636325 0.31545776 0.48796967 -0.17655666
-0.0928341 0.063013606 0.4546707 0.19017243 0.24466799 0.4730955

weight f4 [30, 30]
00000000: ecbe e13d 9ed4 3e3e bb2d dd3d 5f21 1b3f
00000010: 2c26 83be a7de c1be b2e6 3bbe b2ac 1abf
00000020: c0fe 7ebe 87d2 763e 63e4 5bbe 70eb 933e
00000030: 5e1a e03e 683c 44be bc0e 86be b7d3 963e
00000040: 3182 c7be 1a10 74be d1e8 dbbe fbae 55bc
00000050: 8604 0fbe 07d0 6bbe ef84 0b3f aa65 fcbd
00000060: 361e 3dbe b565 cfbe c4f1 dd3e d9cc 893e
00000070: ac8d 343f bae4 443f b0f9 2e3f 688c b63e
00000080: dbc2 f23e 34f7 b8be 93cf 8c3e cb8d dc3d
00000090: 4ed6 353f cf90 7d3e 3cff fdbd 3e97 443e
000000a0: 83d7 58bd 2cda c73e 61d7 2e3e 0716 37be
000000b0: ecb5 8ebe 6f10 453e ae35 51bf 1adb 92be
000000c0: 702f 563e a944 89be e74c 29be 9dd7 36bf
000000d0: 768d 26be 5280 1f3e 6145 4a3e 69ef c0be
000000e0: f967 2c3d bb22 0ebe 0f42 a7be effa 10be
000000f0: f499 c8bd 401d cabd cf40 00bf f457 183f
00000100: 85b5 ab3d 0871 72be 5d18 04bf 96db 26bf
00000110: 9e70 34bc e57a 583e e7ac 30bd 19ae c73e
00000120: 15b2 ac3e 333c 043e 2332 a9bc babb bb3e
00000130: deeb 223c 9ab7 4abd e442 5b3d 76c3 fb3d
00000140: 4011 ffbd 3816 3abe 17a7 a73e 7cbb 25be
00000150: 68bf 0ebf f416 5f3e c429 293e cf07 65be
00000160: 1646 003e f97c 8e3d d937 26be 0678 1d3e
00000170: 6827 fabd 00fe 413f b3ab 23be 7031 83be
00000180: 522d 75be 0256 8f3d 4e0e 3f3e 3b41 bbbe
00000190: 30f6 a73b 4095 91be 2dce 413e b871 9abd
000001a0: 56cd b7bd 4733 633c 7f8d db3e be8d 14be
000001b0: 9d6f bb3c 2a52 8ebd 0292 4ebe c0c9 c03d
000001c0: 308f 7e3e 8d46 4f3b 3476 9abb a3dd 8a3e
000001d0: a9b4 98bd 9d7f b3be bfe6 fe3e ea88 373e
000001e0: 4b48 963c 3f92 e13c b4c4 333f 1c40 df3d
000001f0: 4fc5 e93d ce5a a53d 1e0a 023f bc34 313e
00000200: 892b b6be a240 ca3c e046 47bd 708f 5c3f
00000210: 776c 813d fea8 b9bd e983 02be 1bc0 fdbd
00000220: 2478 05be 5c9d 9bbe f705 a93a bad4 a5be
00000230: 7f06 f6be 2eac 9bbe 8457 363f 9ac8 4c3c
00000240: e533 30be 90af 68be 645f 5f3f f5bc 553d
00000250: 8f28 383e b8de 143f 3066 0c3e cc21 a2be
00000260: 3645 a73d 8408 073e ae68 93bd d838 1d3e
00000270: 4e65 143e 1a86 50be d1aa 89be 3189 173f
00000280: b15c b8bd 3813 6ebd 289f c4bd d1cf 373e
00000290: ebd8 4b3e 78c7 893d f141 6fbe 34c0 5bbe
000002a0: f498 8fbe 6cf6 46be 4b73 863e 4d1c 9a3d
000002b0: d51b 57bd 4118 9dbe a543 60be b44e 8b3d
000002c0: 6fe5 9b3e 161d 7a3e 14fc 7dbe 8df0 d7bd
000002d0: bc21 5d3f 057f bfbe 33d0 c0be 252f 0f3f
000002e0: af02 a6be 56e8 cbbc fbb6 bc3d 009e 21be
000002f0: 55d7 07be fd73 b33e 4268 6ebe 767e 18bf
00000300: e0a9 363e 49e1 923d 180f 613e c473 5dbd
00000310: 749f 7cbe f55f 4bbe fe7a 0b3e 6f39 193d
00000320: c855 7c3d 92f5 f03d ebdf 8fbd 3569 343e
00000330: 575f 403e 887c 243e 4bfb 56be c94f 8cbe
00000340: 8790 ec3e 18e0 21bf 5247 efbd ae1c d73e
00000350: 5db4 163e 4d10 25bf 9b07 23be 907f 8cbe
00000360: f1fe 0bbf 078c 9bbc c7d2 6a3e 7b29 7cbe
00000370: 77bf 48bd b460 d13e d7f1 eb3d 9436 9f3e
00000380: 70aa 14be 2ab5 233d be55 953d 7df1 2c3d
00000390: b306 aa3e 9880 a23e 9915 6dbe 6d06 92be
000003a0: daa1 253e 9162 a83d aa89 e13e c576 113f
000003b0: bd57 073e cdf9 023e 9a5d 60be eb2b 99be
000003c0: 0492 983d 77c1 263e 3cde a2bd 2172 ecbd
000003d0: c128 acbe 9d21 8fbd 6092 d2bd 828c cdbe
000003e0: 5b05 35be c9f4 c5bd 317a d2bd 6548 de3d
000003f0: 84e2 cbbd 967f 433e c05a 7abe 5fdd 433d
0.110227436 0.18635795 0.10799738 0.60597795 -0.2561506 -0.37865183 -0.18349722 -0.6041976
-0.24901867 0.24103747 -0.21473841 0.28890562 0.43770117 -0.19163668 -0.26183116 0.294584
-0.38966516 -0.23834267 -0.42951062 -0.013042207 -0.1396657 -0.23028575 0.54499716 -0.123240784
-0.18468556 -0.40507284 0.43348515 0.269141 0.70528674 0.7691151 0.6834974 0.35653996
0.47414288 -0.361261 0.27502117 0.10769232 0.7103013 0.24762271 -0.12402198 0.1919832
-0.052939903 0.3903364 0.17074348 -0.17879497 -0.2787317 0.1924455 -0.81722534 -0.28682786
0.20916533 -0.26810196 -0.16533242 -0.7142275 -0.162649 0.15576294 0.19753028 -0.37682655
0.042091344 -0.13880436 -0.32667586 -0.14158224 -0.09794989 -0.0986886 -0.5009889 0.59509206
0.083842315 -0.2367593 -0.51599675 -0.6517881 -0.011013178 0.2114063 -0.043133643 0.39000013
0.33729616 0.12913589 -0.02065379 0.36666662 0.00994393 -0.049491502 0.05353059 0.122931406
-0.12454462 -0.18172538 0.32744667 -0.16184801 -0.5576081 0.217861 0.16519839 -0.2236626
0.12526736 0.069574304 -0.16232242 0.15377817 -0.122145474 0.757782 -0.15983467 -0.25623655
-0.2394307 0.069988266 0.186578 -0.36573204 0.0051257834 -0.2843418 0.18926306 -0.075412214
-0.089747116 0.013867206 0.4288139 -0.14507195 0.02288037 -0.06949265 -0.20172885 0.09413481
0.24859309 0.0031627745 -0.004713798 0.2712222 -0.07456333 -0.350583 0.4978542 0.17923322
0.018345019 0.027535556 0.7022202 0.109009 0.11414587 0.0807396 0.5079669 0.17305273
-0.3558009 0.024689022 -0.048651576 0.8615637 0.06319516 -0.09065436 -0.12745632 -0.12390157
-0.13034111 -0.30393493 0.0012895454 -0.3238886 -0.4805183 -0.304048 0.7122729 0.012498999
-0.17207296 -0.22723222 0.8725493 0.052182157 0.17984222 0.5815234 0.13710856 -0.3166641
0.08167498 0.13186842 -0.071977004 0.15353715 0.1449177 -0.20363656 -0.26888135 0.5919371
-0.090020545 -0.058123797 -0.09600669 0.1795037 0.19906966 0.06727499 -0.23364998 -0.21460038
-0.2804638 -0.1942994 0.26259837 0.07524929 -0.052516777 -0.30682567 -0.21900804 0.06802121
0.3044848 0.24425158 -0.24803191 -0.10543928 0.863796 -0.37401596 -0.37658843 0.5593131
-0.32423922 -0.02489106 0.09214588 -0.15782928 -0.13265736 0.3504943 -0.23281959 -0.59567964
0.1783824 0.07171876 0.21978414 -0.05406548 -0.24670202 -0.19860823 0.13621137 0.03740829
0.061605245 0.11765589 -0.07025131 0.17618258 0.1878637 0.1606313 -0.20994298 -0.2740462
0.46204016 -0.63232565 -0.11683525 0.42014068 0.1471724 -0.64478 -0.1592087 -0.27441072
-0.54685885 -0.018987669 0.22931968 -0.24625199 -0.04901072 0.4089409 0.11520737 0.31096327
-0.14518142 0.039967693 0.07291745 0.04222249 0.33208236 0.31738734 -0.2315277 -0.28520527
0.16175023 0.08221925 0.44050342 0.5682185 0.13217063 0.12790604 -0.21910706 -0.2991632
0.07449725 0.16284738 -0.07952544 -0.11545206 -0.33624843 -0.06988833 -0.10281825 -0.4014626
-0.17677824 -0.0966583 -0.102772124 0.10853652 -0.09955314 0.19091639 -0.24448681 0.047818538

bias f4 [30]
00000000: 3f98 543e c4d2 bcbe d2eb 233e bbf0 bd3b
00000010: 3ae2 883e b0c4 12bd 7557 b9be fe44 5cbd
00000020: 0b72 203e 9de5 3ebd a278 cfbe ee64 05bf
00000030: 9852 cb3d f461 97bd 33e1 2bbe 7ce4 39be
00000040: 3840 d53d 140e d7be 8566 35be 300d 85be
00000050: af44 aa3e e7ad b3be 25c3 973e bca8 c4bd
00000060: cfec ecbe 4775 2b3a d548 483d 6af1 103e
00000070: e433 dc3c 5d3a bdbd
0.20761202 -0.3687955 0.16007927 0.0057965196 0.26735097 -0.035832107 -0.36199537 -0.053776734
0.15668504 -0.046605695 -0.40521723 -0.5210713 0.09927863 -0.0739173 -0.16785125 -0.18153566
0.104126394 -0.42002928 -0.1771489 -0.25986624 0.33255526 -0.35093614 0.2964107 -0.09602496
-0.4627442 0.0006540608 0.048897583 0.14154592 0.026880212 -0.092396475

weight f4 [30, 30]
00000000: 16bf 0e3e a9e1 543d 3bdb a33e ee62 5d3e
00000010: 767a 21be 7053 5a3e 1d18 df3e 0b9a e2bd
00000020: 3959 963d d952 033f f1b9 833e efe6 be3e
00000030: aeb8 cfbe b47d 24bf d62d 2dbe 08ed 00be
00000040: 0802 b93e a7d5 553e 7aae 0d3e c618 ef3e
00000050: 3b52 98be 67ac 903e 7a80 82bf 4d99 b23e
00000060: 828b 203e a75f a9be 1eb0 47be c469 0abe
00000070: 3620 a6be ab50 ce3e b48c 94be a949 00bf
00000080: d864 6a3e 37a7 803e a5b9 033f 32e1 0ebe
00000090: cce5 763d 2118 c4bb d9be 13bf 275d 0dbf
000000a0: 6391 8ebe fb88 07bd 0f67 01be 0922 a6be
000000b0: 48db 053f d8fe ff3e 8eea db3d ff9f f4be
000000c0: 945e 063f e841 3d3d 584c 773e bfc4 b4be
000000d0: 4991 b03e 503e 873d 7d6d 53be 11b2 ed3e
000000e0: 5ede 4f3e e2ca a53d f2fb fc3d 5d6a f3bc
000000f0: 90d2 6bbd b76a 673e 288f b13d d4af 39bb
00000100: 7433 d4be cbaf 91be 82ea a5be 53e1 0b3c
00000110: e98e 703d fe3b c53e aa88 b5be 37de 89bb
00000120: c3ef 96be 1c5c 71be 20e4 873e 88e5 16be
00000130: b56f ab3d 61cc 253d b278 1e3f 91d2 9e3e
00000140: 7549 053f 9dc0 d13d 1c24 7a3e ce91 4ebb
00000150: 1b5b 713d f1fa a03e 0145 203d 3e31 97be
00000160: 4838 32bd 3231 263e ba5c 113e e2b9 39be
00000170: db2c 12be d535 213c df8f 39be c3db 75bd
00000180: 9070 2b3e a031 413e 432c 9b3e e16d 483e
00000190: a267 883d 4584 5ebd 26ee 22be 7225 7c3e
000001a0: 089b e0bd e781 cb3d 67bd 1b3d a89e 6cbd
000001b0: ccae adbe 1160 2b3e d7c9 40be 0e32 ab3e
000001c0: b439 a8bd e825 0c3d 7976 d83e 170c 6fbe
000001d0: 2ae5 aa3d a73c cdbe cbd3 383f 5d39 783e
000001e0: 2572 353d 25c9 4b3e 85f3 e53d d2c7 8abe
000001f0: f782 a73e f85a 09be 06ee eebd c839 41be
00000200: 1664 90bd 6e96 64be 5ae1 193d 27ad 0f3e
00000210: 0e79 dc3d 1649 6dbe 7420 e03d dd86 17be
00000220: b117 29bd d52d 9f3e b6f2 603e c44d 913e
00000230: 8726 8f3c d42c d8bd 374b 743c 6448 ebbc
00000240: 4325 28bd 980e c93e 6298 323e 592f ad3e
00000250: 2674 5cbf ecea c4be 9461 803c 5f55 2b3e
00000260: 4004 eb3d b568 e1bb b2fc 51bd 9015 263e
00000270: f0d9 ac3d 2516 ccbd 1173 a6be 8a1d a1be
00000280: b70c d1be 2d51 5e3e 7e09 babe f68e 213e
00000290: 181e 263d 751d 053d 2a1e 9b3e 59ea c5be
000002a0: 8097 57bf 5539 143b 0e96 eb3e 1c5e 843e
000002b0: eb03 993e 98b8 72be ee09 0c3e 66d5 093d
000002c0: 3279 16be af59 81be fd50 c4bd 5ec1 bbbe
000002d0: 400f c8be 8d07 073f e9ea d4bd 6382 78be
000002e0: dfd3 28bf 9ae1 c4bc 96c2 9fbe 356c 823c
000002f0: 2074 523e ba7a d2be 8388 a73d f06c 2abe
00000300: 1358 683e 9bfb 8dbe 45e2 463e 8950 cc3c
00000310: 80e8 be3e 7269 8b3e c338 4f3e a587 e4bd
00000320: 9f2a 4f3e 604f a13e 2ada 16bd e5bb fabd
00000330: 8932 5cbe 5a27 acbe 2ebb 553e b257 7b3e
00000340: 0e25 e8be 4d86 cd3c 251f 43be b977 993e
00000350: 77b2 72bf 9fd4 12bf 431d a6bd 859a 083f
00000360: 0512 e63e de49 e73c 60e2 f1be e248 8c3c
00000370: 2f39 b3be cbf2 6c3e eaa6 0bbf 72d7 17be
00000380: bd98 bb3d 62bc 6cbe 5ce8 0abf 4d89 033e
00000390: b179 3a3f 272c 813e b959 74bf 7d1f 083f
000003a0: da5f 023f 0a28 a7be b745 453e 3ddb 893e
000003b0: 1765 93bd 76db 6ebe 6acc bd3c d82f 0e3e
000003c0: 92b0 eb3e 3f2e e43e b2d5 573e 1271 683d
000003d0: ccf8 073c 29f1 4f3e d799 98ba 42b6 07be
000003e0: bbb9 1fbe eb11 e33e 532e fdbd 4def 293f
000003f0: c974 ad3c 7104 033e 1ec9 853d df8b a43e
0.13940081 0.05197302 0.32003197 0.2161977 -0.15769371 0.21320891 0.43573084 -0.110645376
0.073412366 0.5129829 0.257278 0.37285563 -0.40570587 -0.6425431 -0.16912016 -0.1259042
0.36134362 0.20882283 0.13836089 0.46698588 -0.29750237 0.28256533 -1.0195458 0.34882584
0.15678218 -0.3308079 -0.19500777 -0.13516909 -0.3244645 0.4029592 -0.29013598 -0.50112396
0.22890031 0.25127575 0.51455146 -0.13953093 0.060277745 -0.0059843217 -0.57713085 -0.55220264
-0.27845296 -0.03308962 -0.1263697 -0.32447842 0.5228772 0.49999118 0.10738097 -0.47778317
0.52488065 0.04620543 0.24150217 -0.35306355 0.34485844 0.06603682 -0.20647235 0.46424916
0.2029967 0.080953375 0.12352742 -0.029713804 -0.057573855 0.22599302 0.08669883 -0.0028333561
-0.41445506 -0.28454432 -0.32405478 0.008537608 0.05873004 0.38522333 -0.3545583 -0.0042073983
-0.294798 -0.23570293 0.26541233 -0.14735997 0.08370916 0.040478114 0.61902916 0.31020024
0.5206521 0.10241816 0.24427837 -0.0031520012 0.058924776 0.31441453 0.039128307 -0.29529756
-0.043510705 0.16229704 0.14195529 -0.18137315 -0.14274924 0.009839495 -0.18121289 -0.060024034
0.16742158 0.18866587 0.30307207 0.19573165 0.066603914 -0.05432536 -0.15911159 0.24623659
-0.1096707 0.09936886 0.038022425 -0.057768494 -0.33922422 0.16735865 -0.18826996 0.33436626
-0.08214131 0.034215838 0.42277887 -0.23344456 0.08344491 -0.40085337 0.7219817 0.24240632
0.04429831 0.1990095 0.11228088 -0.27105576 0.32717106 -0.13413608 -0.11666493 -0.18869698
-0.0705034 -0.2232301 0.037568428 0.14030896 0.10765277 -0.23172411 0.1094369 -0.1479754
-0.04128236 0.31089655 0.21967587 0.28379643 0.017474426 -0.10555425 0.014910511 -0.028721042
-0.04105116 0.39268947 0.17440942 0.33825186 -0.8611473 -0.3846048 0.015671529 0.16731785
0.1147542 -0.006878937 -0.05126638 0.16219163 0.08440006 -0.09965161 -0.32509664 -0.3146785
-0.40830013 0.21710654 -0.36335367 0.15777192 0.040556043 0.032498796 0.3029645 -0.38655356
-0.84215546 0.002261718 0.4601292 0.2585305 0.29885802 -0.2370323 0.13675663 0.03365078
-0.1469467 -0.25263736 -0.0958576 -0.36670965 -0.39074135 0.52745897 -0.10396368 -0.24268489
-0.6594829 -0.024033356 -0.31203145 0.015920738 0.2055211 -0.41109258 0.081803344 -0.16643119
0.22689848 -0.27731022 0.19422252 0.024940746 0.37286758 0.27228886 0.20236497 -0.11158685
0.20231102 0.3150587 -0.03682915 -0.12242869 -0.21503653 -0.33623773 0.20872185 0.24545172
-0.4534077 0.025088454 -0.1905485 0.29974154 -0.94803566 -0.57355684 -0.0811105 0.5336078
0.44935623 0.028233465 -0.47243023 0.017124597 -0.35004565 0.23139493 -0.54551566 -0.1482828
0.09159992 -0.23118737 -0.542608 0.12845345 0.72841936 0.25228998 -0.95449406 0.5317305
0.5092751 -0.32647735 0.19264875 0.26925078 -0.07197016 -0.23325905 0.023168761 0.13885438
0.4603315 0.44566533 0.21077612 0.056748457 0.008299064 0.20306839 -0.0011642528 -0.1325312
-0.15598194 0.44349608 -0.12362351 0.6638077 0.021173852 0.12794663 0.06532501 0.32137963

bias f4 [30]
00000000: 4ae2 7fbe 7588 1abe 622d b8bd 6f02 283e
00000010: e14c 20bf f090 873d 187c d23d 2510 5fbd
00000020: 7cc2 4b3e d14f bf3b a3cd 26be 1d57 483e
00000030: 3f99 a63e 1304 efbc cba8 8ebc b418 04ba
00000040: 8565 65be ff6f 093c b484 10bf 4184 773e
00000050: 9e91 8d3d d2da 88be 597d 8b3e 8fbe 023e
00000060: fb3c 02be 270a 70be e723 d53c 9381 6fbc
00000070: 2b77 ddbe cfdc 693e
-0.24988666 -0.15091117 -0.08993031 0.16407178 -0.6261731 0.066194415 0.10277575 -0.054458756
0.19898409 0.0058383723 -0.16289382 0.19564481 0.32538792 -0.029176747 -0.017414471 -0.00050390814
-0.22402008 0.008388518 -0.5645249 0.24171545 0.0691254 -0.26729447 0.2724407 0.12768005
-0.12718575 -0.23441373 0.026018096 -0.014618295 -0.4325498 0.22838138

weight f4 [30, 30]
00000000: f6c8 ecbd a058 0ebe 38ce e1be 8874 5dbe
00000010: 30e3 c2bd a3bc a2bd 2162 633d bdce 5e3e
00000020: 54e6 ba3e 46c1 6d3e 47d8 ecbe 5eb8 813e
00000030: 7beb 913e 9342 c23d 0869 ad3e 8cf8 b5be
00000040: 871c 493e 4755 01bf dc4a a53e 4204 123f
00000050: de1c 01bf 68d0 95be 2d7c b1bd 1882 bbbe
00000060: 14a2 933e 86ba d43e 53cf febd a199 60bf
00000070: 81d4 91be 8926 f0be ee85 803d c40d 51bf
00000080: 79af cdbd 822a d1be f456 413f a150 09be
00000090: 6d39 e83e a4d6 d83e e3d3 d33e 0614 7a3e
000000a0: e9f6 4ebe d1fd 033f c9b4 21bf 1e3d 97be
000000b0: cd29 a93e 5058 d5be 80c0 97be eb75 013f
000000c0: b2a9 ccbe f64b 8b3d 024f 45be 2da5 edbe
000000d0: cf64 ddbb b503 b0bc 9cd8 14be ccb5 723f
000000e0: fd90 7c3d a386 eabe f20e c4be 781b 283f
000000f0: cfc1 bc3c bd2f d13d 4fc6 e4bd c8e0 54be
00000100: 8728 183e 5c90 ccbd 3ed7 0dbe 953e cd3b
00000110: b3b7 c2be 3827 c93d e9e5 8abe 3bad 01be
00000120: 617c a0be d17b 813d 08d1 11bf 48ae 3c3c
00000130: f679 593d 8002 8abc 5c1d d03d d08f 07be
00000140: 5ea2 533d 9f79 483e ec6b 51be 50ca 4abd
00000150: 1d65 7e3e 2b43 9d3e b77b 5a3d 9ebf 73bd
00000160: 6a78 ac3d d09a 9dbe 4488 d63b 8284 fd3c
00000170: a61b cdbe 0d9a 2ebc ed7b 66be 88fa 8e3e
00000180: 9105 6ebe 0ed4 93be d163 83be ebf9 4d3e
00000190: d4a9 833e 3414 cbbe a4df 6e3d 5756 70bc
000001a0: 90a6 ad3e 4a08 eebd ac55 efbc 3d84 d4bd
000001b0: d132 a13d bc10 9c3e c2d7 163e 2c30 853e
000001c0: d035 57be 734c 793e 7384 0ebe 23ab 533e
000001d0: 95be 99be d4f8 85bc 6f6b 6bbe 6e55 593e
000001e0: 89cd 033e e83c 793d 9f97 08bd d732 aa3e
000001f0: 567e 56bd e772 853d fc4d 833e c5e8 0bbe
00000200: 6e27 aa3d 520d 8cbe b442 e1be d028 93bd
00000210: 1f61 b4be 2b49 07be 6b66 b83e e670 903e
00000220: 11a2 15bd 33a9 67be 00fe 193f 4a06 e4be
00000230: f42b 4f3e 1cbb 24bd 6dfe 08bf b8ba a7be
00000240: 003e 5dbe 7cad e43e 661c b73d 2d4e 0c3d
00000250: ee82 c73e 0c2a 8dbe 51ab a9be fd62 9c3c
00000260: 4335 083f ad14 8abe ab03 94bd 8985 b0bd
00000270: 7a72 083e b372 983d bc3e eabd fac2 37be
00000280: 3463 073e 2a7f a0be ffda 93be 3c19 90bc
00000290: c2dd 223e 1d68 48be 3434 9d3e 5b24 733e
000002a0: 8032 983e f1e3 94be fe24 b6bd b7ae 203d
000002b0: ecea cb3e 1e4d 4abd d8a8 94be c461 1eba
000002c0: 3413 bdbe c8f1 223e 7e37 d33d 4242 623d
000002d0: d172 f7be bae0 b1be c02a 89be 55e7 18bd
000002e0: ef26 5fbe 4294 053e f2d1 a8be de0e 1cbf
000002f0: 1a5e 39be b90b 563e 73ec cbbe 0740 0b3f
00000300: fc2f 7e3d cd14 13bf 97b1 763e aeec b63e
00000310: 2f0e 1b3e 8662 0bbf 404b 9b3e 31d6 183f
00000320: 12b3 05be a6db 1dbe b2df db3d 0ee8 493e
00000330: 8021 0fbe 9f4f 58be 0f6c 22bc 8288 e6be
00000340: beda d83d f32f 8e3e 3529 643e b90f e63c
00000350: 22b3 48be 11b9 c0be 8c68 aa3d e537 63bd
00000360: 8de1 b5bd 42e4 c4bd 5919 b43e 6827 023e
00000370: dacd 7bbc 0d31 6bbd 0189 163e 1350 aa3d
00000380: 102f 25bc 43a2 e13e 2d33 103e dd23 d4bb
00000390: 8bdd d73e aa43 8dbe 8f34 23be bbfd c4bb
000003a0: 4d19 8ebe 6a79 ea3c 1501 73bd 1c6c 3fbe
000003b0: 3f2f 00be ffcd 2d3e 09d0 9abd 4d5e ccbd
000003c0: 4754 75be 41ea d33e 7c24 dabd 1549 1abd
000003d0: 9f7a 83bc 2667 9e3e 6f57 e1bd 10a0 46be
000003e0: 4b27 04bd c58e 473e 42bf 4d3e 1aed 893d
000003f0: f6ce c43e a29e 09be a4cc 50bf a475 1fbd
-0.11561768 -0.13900995 -0.44102645 -0.21626484 -0.09515989 -0.07946136 0.055513505 0.21758552
0.3650385 0.23218259 -0.46258757 0.25335974 0.2849997 0.09485354 0.33869195 -0.3554119
0.19639789 -0.5052075 0.32283676 0.57037747 -0.5043467 -0.29260564 -0.08666263 -0.3662269
0.28834593 0.41548556 -0.12441888 -0.8773442 -0.2848244 -0.469044 0.06275545 -0.8166163
-0.100432344 -0.40852743 0.75523305 -0.13409664 0.45356312 0.42351258 0.41372594 0.24421701
-0.20211376 0.5155917 -0.6316648 -0.29538816 0.33039704 -0.4166894 -0.29639053 0.50570554
-0.39973217 0.06801598 -0.1926842 -0.46415082 -0.006756402 -0.021486143 -0.14535755 0.9480865
0.06166171 -0.45805845 -0.38292652 0.65666914 0.023041634 0.102141835 -0.11170637 -0.20788872
0.1485921 -0.09988472 -0.1385164 0.006263564 -0.38030776 0.098219335 -0.27128533 -0.12663738
-0.31344894 0.06322444 -0.5695958 0.011516161 0.053094827 -0.016846895 0.1016185 -0.13238454
0.051668517 0.19577645 -0.20451325 -0.049509346 0.24843259 0.30715308 0.05334064 -0.059508912
0.08421405 -0.30782175 0.006547006 0.030946974 -0.40060157 -0.010656846 -0.22508211 0.27925515
-0.23244311 -0.28872722 -0.2566209 0.20114867 0.25715506 -0.3966385 0.05831875 -0.0146690225
0.3391614 -0.11622675 -0.029215656 -0.10376785 0.078710206 0.30481517 0.14730743 0.26013315
-0.21016622 0.2434557 -0.13917713 0.20670752 -0.30028215 -0.016354002 -0.22990201 0.21223995
0.12871374 0.0608491 -0.033347722 0.33241913 -0.052366577 0.065160565 0.25645435 -0.13663013
0.08308302 -0.27353913 -0.43996203 -0.07185519 -0.35230348 -0.13211505 0.3601564 0.28211135
-0.03653151 -0.22623138 0.601532 -0.44536048 0.2023161 -0.040217504 -0.5351322 -0.32759643
-0.21605682 0.44663608 0.089409634 0.03425424 0.3896708 -0.27571142 -0.33138517 0.01909017
0.5320627 -0.269689 -0.07227262 -0.0861922 0.1332492 0.07443752 -0.11437747 -0.17945471
0.13221437 -0.31347018 -0.28878018 -0.017590158 0.15904906 -0.19570966 0.3070389 0.23744337
0.29726028 -0.29080155 -0.088937744 0.03922912 0.3982767 -0.04938995 -0.29035068 -0.000604179
-0.36928713 0.15912545 0.10313319 0.05523897 -0.48329785 -0.34741765 -0.26790428 -0.03732999
-0.21792196 0.13044837 -0.32972676 -0.60960186 -0.18102303 0.2090291 -0.39828834 0.5439457
0.06205748 -0.57453614 0.24091183 0.35727447 0.1514213 -0.5444721 0.3033085 0.5970183
-0.13056591 -0.1541582 0.10736026 0.19717428 -0.13977623 -0.21124123 -0.0099134585 -0.45026022
0.10588597 0.27770957 0.22281344 0.028083669 -0.19599584 -0.37641194 0.08320722 -0.055473227
-0.08880911 -0.09613849 0.3517559 0.12710345 -0.015368903 -0.057419825 0.147007 0.08316054
-0.010082021 0.44069108 0.14082022 -0.006474002 0.4216121 -0.27590686 -0.15938018 -0.0060116923
-0.27753678 0.028622348 -0.059327204 -0.18693584 -0.12518023 0.16973113 -0.07559211 -0.09978924
-0.2395793 0.4138966 -0.1065149 -0.037667353 -0.016049681 0.3093807 -0.11003005 -0.19396996
-0.032264035 0.19488056 0.2009249 0.06734677 0.3843915 -0.1343942 -0.81562257 -0.03893055

bias f4 [30]
00000000: 2b75 ca3e 2d9d 743d e9f4 26bf 7825 0d3e
00000010: 8e61 0cbe 8f49 a73e 7f2b 72bc 6926 f5be
00000020: a9cd 9fbe c2e2 d3be b248 19be 515a 11be
00000030: 0147 0dbd 610f ba3c 39aa 2c3e 1349 47be
00000040: d414 a23e 0a5b 00bf c646 bd3d 2599 ae3c
00000050: 1be0 713c e0a7 d2be 30dc 293d fa9c b83d
00000060: 57e6 b93e 8fe1 12be ed07 893e dd41 a3be
00000070: 1682 9c3e 1e24 a5be
0.39542517 0.059720207 -0.65217453 0.13783824 -0.13709089 0.32673308 -0.014780878 -0.47880867
-0.31211594 -0.4138394 -0.14969137 -0.14194609 -0.034491543 0.022712411 0.1686181 -0.1946147
0.31656516 -0.50138915 0.092420146 0.02131326 0.014762904 -0.41143703 0.041469753 0.09014316
0.36308548 -0.14343856 0.2676386 -0.31886187 0.30567998 -0.32254118

weight f4 [30, 30]
00000000: e6e7 6fbd d566 81bd 7785 003f 7b6c 77be
00000010: 54c2 68be fea6 65bd bacb fc3d 4406 a33e
00000020: 8ac7 e33e d348 b63d c5c0 d23d 68a6 8d3e
00000030: a172 22bd d49b 28be f391 7dbd 24a4 72bd
00000040: 45fa bf3e 4eb9 0f3e 857f 363d 1fdf adbd
00000050: c945 99bc 25ba a13d 7934 00bd 0b59 2cbe
00000060: 6786 44be f19c 1bbd 5313 2dbe 23a4 963e
00000070: 9bbc eaba 7a69 2fbe 31d6 debd 20fc 8ebd
00000080: acb4 6abe d93d 043d ea6f 9dbd be50 f73c
00000090: 7b71 c5bc c0e6 9b3d 2025 993e 65a0 043f
000000a0: ad1c dabd b642 fe3d c96a d83d 75b0 4ebe
000000b0: 62ba 843e 788c eb3e bf63 a53d 9f15 ff3d
000000c0: 47a9 f0bd c587 6f3c aa2d b13d 424d 6bbd
000000d0: 6014 b03e 3892 8a3d 38ef 93bd b78e 853e
000000e0: 8f4d 2ebd bed3 21be 18b3 c23d 4325 8ebd
000000f0: ab61 ef3d be63 0d3d 5759 23be 1a7b 87be
00000100: c2cf d4bd 292c e4bd ff18 25bd 1734 46be
00000110: 559e 6d3e ecc2 633d 4a40 0d3d d524 6bbe
00000120: d2c4 563d 1d7c 813e 4363 1fbd 18f9 a13e
00000130: 2bad 673d 50ab f8bd 12f9 c4bc b166 bf3d
00000140: 128c 9bbe 7508 5d3d 6606 abbe 2c8f 9bbd
00000150: 4af8 b2bc 69bb 94bc c725 c2be 540e 45be
00000160: bb4f 4a3d c0d8 343e ece7 67be 2aac 12bd
00000170: 8243 a0bd c607 5bbe ffa5 38bd f325 db3e
00000180: 7afc d0bd 1a38 aebd 71d3 4e3e 315e 093e
00000190: 0bad ef3e 4767 6f3e 5f7d 8e3d c453 b8be
000001a0: c553 58be 4e0d d13c 0cd3 92bd 20ba b63e
000001b0: 41fe eabd 5112 4f3d 377a 94be ee2f c03d
000001c0: 962c bcbd f48a 4e3e ff70 d4be 948c b7be
000001d0: 1389 b6bd 9d81 053d 562e 92be 893c 02be
000001e0: 8472 113e 8da2 ed3e 4157 a5bb ea81 56bf
000001f0: 4e64 383d 05d1 f53d 1b6c 02bf 46a7 333e
00000200: 83e7 01bf d510 c43b d94d 0ebe 434e 8fbe
00000210: f9dc 453e 9ffa 183e 6366 9a3e 4efe c93d
00000220: a8b7 32be fee5 e33e 6027 c53c a9ec 25be
00000230: 743a d43d 5836 b83e 9c1f d7be b0fa af3e
00000240: 57ba df3e cf61 31be 1e50 72be 04b6 cfbd
00000250: 7cb6 f1bd 7729 343e 0693 f43d eae8 af3d
00000260: fe7d 12bd cbb7 24bd 5cce 21bf 90ac 533e
00000270: c080 80bd 5fc0 4d3c 140a ddbd 3d57 373e
00000280: 279d 333e d119 17be 3004 74bd 5441 98bc
00000290: 43c1 6dbe 4324 8b3e aedb 15be 51e4 193f
000002a0: 01be 703e 1414 c9bd 45e0 213f 4c1c d2bd
000002b0: f612 0abd be1d 5e3d ce42 2d3e 83ed 22be
000002c0: 6385 e1be 5fe5 ca3e ba1d 123c 30ca 2cbe
000002d0: c738 be3a 6eca 3b3d a452 8ebe c843 c13d
000002e0: a071 89be 7ea6 833a a4ea 1cbe 23f1 88bd
000002f0: 6f2d 21be 9446 75be 6ce7 8c3d 8339 9abe
00000300: e004 fd3d 67b2 7bbe 9831 cfbd 4a0a b63d
00000310: dc3b d4bd e2ee 1b3e 5952 213d 8b87 ba3e
00000320: 6f2f cebd 93d4 dfbd 38e4 e5be ca8e f2bb
00000330: c90d 0bbe 584e 823e 551b 573e f764 4d3e
00000340: edfc 363e 68de aabd 4d42 a0be 086f 103e
00000350: 5403 8cbd 41a4 08be 5613 eb3e 1335 2b3e
00000360: 84fd a3ba b7b9 f23c 1a76 13be 36a2 fe3d
00000370: 2627 1d3f 0aa0 163e a24e 8f3e 6941 a63d
00000380: a185 89bd 87f6 e83d 1bed 3cbe 421b c5be
00000390: 67fb 233e 2908 233d 5464 a7bd e087 693e
000003a0: 965d 7e3e 186a ec3d 634f e9bc 2bd2 3b3d
000003b0: b33a a5bd 9615 89be 8194 03bc dc4f 67be
000003c0: d549 2dbe 9e8b ddbe e2dc 253e f448 b6bb
000003d0: 574d f33c c8e5 de3d 6561 943e 64f0 a7be
000003e0: 6dd5 803e 6aff 3b3e 1eed abbe 6350 1d3f
000003f0: 5e52 89be 7d48 cc3e 3ae5 07bd 5130 b8be
-0.058570765 -0.06318442 0.5020365 -0.24162476 -0.2273038 -0.05606746 0.12343545 0.31840718
0.44488174 0.08900609 0.10290674 0.2766602 -0.0396601 -0.16465694 -0.061906766 -0.059238568
0.37495628 0.14035532 0.044555206 -0.084898226 -0.018710034 0.078968324 -0.03130004 -0.16830842
-0.19191895 -0.037991468 -0.16901903 0.294221 -0.0017908992 -0.1713008 -0.108806975 -0.06981683
-0.22920483 0.032285545 -0.076873615 0.030189868 -0.024101963 0.076123714 0.29911137 0.5180724
-0.10650001 0.12415068 0.10567243 -0.201845 0.2592345 0.46005607 0.08075666 0.12455296
-0.11751037 0.014619772 0.08651288 -0.057446726 0.34390545 0.0676617 -0.07223362 0.26085445
-0.042554434 -0.1580343 0.09506816 -0.06940701 0.116885506 0.03451895 -0.15952049 -0.26461107
-0.10391189 -0.111412354 -0.04030704 -0.19355808 0.2320493 0.055605814 0.03448514 -0.22963269
0.052433796 0.25290003 -0.038913023 0.31635356 0.05656163 -0.1214205 -0.024044547 0.09345759
-0.30380303 0.053963143 -0.3340332 -0.07595667 -0.02184691 -0.01815577 -0.37919447 -0.19243747
0.049392443 0.17660809 -0.22647065 -0.03580872 -0.07825376 -0.21389684 -0.04508018 0.4280239
-0.10204406 -0.08506794 0.20197846 0.13414837 0.4681171 0.23379241 0.069575064 -0.36001408
-0.21125706 0.02551904 -0.0716916 0.35688877 -0.11474276 0.050554577 -0.28999493 0.09384142
-0.091881916 0.20170194 -0.4149246 -0.3584944 -0.089128636 0.032594312 -0.28550977 -0.12718405
0.1420384 0.4641308 -0.005045802 -0.83791983 0.045017533 0.12002758 -0.50946206 0.17544279
-0.50743884 0.005983452 -0.13896884 -0.27989396 0.19322576 0.14939354 0.3015624 0.09862958
-0.17452872 0.44511408 0.024066627 -0.1620356 0.103627115 0.3597896 -0.42016304 0.34370947
0.43696854 -0.17322467 -0.23663375 -0.101421386 -0.11802384 0.17593943 0.11942105 0.08589347
-0.035764687 -0.04021434 -0.63205504 0.20671296 -0.06274557 0.012558072 -0.10792938 0.17904373
0.17540418 -0.14755942 -0.059574306 -0.018585838 -0.23218255 0.27176103 -0.14634582 0.6011401
0.2350998 -0.09818283 0.63232833 -0.102593035 -0.03370949 0.054227583 0.16920015 -0.15910916
-0.44047078 0.3962812 0.00891822 -0.16874003 0.001451277 0.04584735 -0.27797425 0.09436756
-0.26844501 0.0010044125 -0.15323883 -0.06686618 -0.15739988 -0.23952705 0.06880078 -0.30122003
0.123544455 -0.24579774 -0.10116881 0.08888681 -0.1036298 0.15227845 0.039385173 0.36431536
-0.10067641 -0.10929217 -0.4490068 -0.0074022757 -0.13579477 0.25450397 0.2100652 0.20058046
0.17869921 -0.08343202 -0.31300583 0.14104855 -0.06836572 -0.13343908 0.4591319 0.16719465
-0.0012511467 0.029629571 -0.14400521 0.12433283 0.6138786 0.14709488 0.2798968 0.08117945
-0.06714941 0.11375146 -0.18449824 -0.3849736 0.16013871 0.039802704 -0.08173433 0.22805738
0.24840388 0.11543673 -0.028480237 0.04585473 -0.080678366 -0.2677428 -0.008031012 -0.22589058
-0.16922696 -0.43270582 0.16197541 -0.005562896 0.029699964 0.10883671 0.28980556 -0.3280059
0.2516283 0.18359151 -0.33579344 0.61450785 -0.26820654 0.39899054 -0.03317759 -0.35974362

bias f4 [30]
00000000: 0300 91be 8149 37be b100 d83c 31df ccbe
00000010: a74e 4d3e 151e f2be 4f4f c93e 8993 673d
00000020: 6182 20be 6016 14b9 1147 213e 2700 f73e
00000030: 7f71 873e d7fd a53e f635 0bbf ebff 93be
00000040: f93c 6a3e 09f6 5abc 71f1 583d f35a 38be
00000050: 351a 973e 8866 f7be 1aec a43e 400d ee3e
00000060: 43b8 20be 89f8 dabe 2334 793e 1ac3 49bd
00000070: 0179 b6bd 55ed 2e3e
-0.2832032 -0.17899133 0.026367517 -0.40014032 0.20049535 -0.47288576 0.3931832 0.056537185
-0.15674736 -0.00014122715 0.15749766 0.48242304 0.26453778 0.32420227 -0.5437921 -0.28906187
0.22874822 -0.013364323 0.05296463 -0.18003444 0.29512182 -0.48320413 0.3221138 0.46494484
-0.1569529 -0.42767742 0.24336295 -0.04925833 -0.089097984 0.17082722
