Deep_model/saved_model/model_jacobian_full.pth (torch, 6144 bytes, 6 tensors)

weight f4 [9, 9]
0	0x3e24963e	0.16072938
1	0xbd40c5d6	-0.04706367
2	0x3e839084	0.25696194
3	0x3d49cef6	0.04926964
4	0xbe1f5918	-0.1556133
5	0x3dae02b6	0.08496611
6	0xbe1d43c8	-0.15357888
7	0xbd201dd6	-0.039090954
8	0xbe0aa2a8	-0.13538611
9	0x3eb28d50	0.34873438
10	0xbdb6bc76	-0.08922665
11	0xbd94672c	-0.07246241
12	0xbc79eb34	-0.015253831
13	0xbe10253a	-0.14076701
14	0x3d067f16	0.032836042
15	0xbe3f1a4d	-0.18662377
16	0x3e493717	0.19649921
17	0xbdffe55f	-0.12494921
18	0x3ebf3e36	0.3735215
19	0xbdcd7078	-0.10031217
20	0xbd7fdfdc	-0.06246935
21	0x3d7d5bc1	0.06185508
22	0x3e051018	0.1299442
23	0x3dc0e29c	0.09418222
24	0xbd92a4fe	-0.07160376
25	0xbe72a4da	-0.23695698
26	0x3dbdec39	0.092735715
27	0xbd3d0f05	-0.046156902
28	0x3dc16d72	0.09444703
29	0x3ea93635	0.3304917
30	0x3e4e3cac	0.20140332
31	0xbdc36bf5	-0.095420755
32	0x3e161b66	0.14658889
33	0x3c68e08e	0.014213694
34	0x3dee7366	0.11643104
35	0xbe105b19	-0.14097251
36	0xbea8f1c3	-0.3299695
37	0xbe03e0b3	-0.12878685
38	0xbe82e7be	-0.2556743
39	0x3e8c09e4	0.27351296
40	0x3dc4a120	0.09601045
41	0x3e0d6288	0.13807118
42	0x3dd7e6a6	0.105420396
43	0xbbbe02ab	-0.005798658
44	0x3e8590ae	0.26086944
45	0xbe7285a0	-0.23683786
46	0x3cabeed6	0.02098791
47	0xbe68f946	-0.2275134
48	0x3dd2806b	0.102784
49	0xbdeb192b	-0.1147941
50	0x3dd12e20	0.10213876
51	0xbd8e3a50	-0.06944716
52	0x3e8d8caf	0.27646396
53	0xbe4a4f16	-0.19756731
54	0xbe928038	-0.28613448
55	0xbe0753c0	-0.13215542
56	0x3e72586b	0.23666541
57	0x3d1a1edf	0.037627097
58	0x3e80bb90	0.251431
59	0xbe56cceb	-0.20976608
60	0xbe840514	-0.25785124
61	0xbe48117b	-0.19537918
62	0xbe154d18	-0.1458019
63	0x3e95934a	0.29213935
64	0xbdaf21ac	-0.08551344
65	0x3ea57c63	0.32321462
66	0xbdd6fa1e	-0.10496925
67	0xbdc7bb3a	-0.097525075
68	0xbd577c8e	-0.05260902
69	0xbe7dd235	-0.24787219
70	0x3d24ce33	0.04023571
71	0x3d1c71cc	0.038194463
72	0x3e434223	0.19068198
73	0xbe849a40	-0.25898933
74	0xbe2c40f8	-0.16821659
75	0x3dd02106	0.10162549
76	0x3d905226	0.070469186
77	0xbdae0d46	-0.084986255
78	0x3e4b7558	0.19868982
79	0x3e680aa3	0.22660308
80	0xbe77869e	-0.24172446

bias f4 [9]
0	0xbe363a1e	-0.17795607
1	0x3e36958c	0.17830485
2	0x3c89fedf	0.016845165
3	0xbe243f44	-0.16039759
4	0xbea522db	-0.32253155
5	0xbe4378b0	-0.19089007
6	0x3b87081e	0.0041208407
7	0x3dcb1462	0.09915997
8	0xbe77c4e3	-0.241962

weight f4 [14, 9]
0	0x3c001ad6	0.007818898
1	0xbe692893	-0.22769384
2	0xbe90cb04	-0.2827989
3	0xbe3bf5a3	-0.18355422
4	0xbe955e9a	-0.29173738
5	0xbe595706	-0.21224603
6	0x3eaa9994	0.33320296
7	0x3d80f04b	0.06295832
8	0x3dd25ed0	0.1027199
9	0xbe9f2d9a	-0.3108948
10	0xbda9e270	-0.08295143
11	0xbda15015	-0.078766026
12	0x3db84e2a	0.089992836
13	0xbe962c5a	-0.29330713
14	0xbe131243	-0.14362435
15	0xbe85d836	-0.26141518
16	0x3cc01cf2	0.023451302
17	0xbdfe05c0	-0.124034405
18	0xbcbd3940	-0.023098588
19	0xbdaaba68	-0.083363354
20	0xbe1b10bc	-0.15143102
21	0xbe133f14	-0.14379531
22	0xbde9acd0	-0.114099145
23	0xbe86b436	-0.26309365
24	0x3e5cb588	0.21553624
25	0x3c7028de	0.014658181
26	0x3e92d74f	0.28679892
27	0x3dd4b4eb	0.1038607
28	0xbe1658ce	-0.14682314
29	0x3e84c33a	0.25930196
30	0xbe16c652	-0.1472409
31	0xbe02d78b	-0.12777536
32	0xbe8daa56	-0.27669019
33	0xbe822650	-0.25419855
34	0x3e45c893	0.19314794
35	0xbd951fd6	-0.07281463
36	0x3e04e393	0.12977438
37	0xbe69a20e	-0.22815725
38	0x3d9f0e19	0.07766361
39	0xbe44b215	-0.19208558
40	0xbd6bc1b6	-0.057557784
41	0x3d8e96a0	0.06962323
42	0x3deb8170	0.114992976
43	0x3e8588ca	0.26080924
44	0x3e9b786b	0.3036531
45	0xbe87534c	-0.26430738
46	0x3df188c8	0.11793667
47	0x3d6adeed	0.057341505
48	0xbdb0276a	-0.08601268
49	0xbe7f7c10	-0.2494967
50	0x3e9b7406	0.30361956
51	0xbe28647f	-0.16444586
52	0x3e1c3bf4	0.15257245
53	0x3defea86	0.11714654
54	0x3dddd62b	0.10831865
55	0xbe388a63	-0.1802154
56	0x3e9b20b3	0.30298385
57	0x3d96042b	0.07325014
58	0x3d2fa2f6	0.04288002
59	0xbe96669c	-0.2937516
60	0x3e0f49ae	0.1399295
61	0xbd4cd400	-0.050006866
62	0xbe1c5f83	-0.1527081
63	0x3e9297f3	0.28631553
64	0x3d983320	0.07431626
65	0xbe3cda08	-0.18442547
66	0xbe2cc318	-0.16871297
67	0xbc8267ab	-0.015918573
68	0x3e3e965b	0.18612044
69	0xbdae71c6	-0.08517794
70	0xbe42c198	-0.19019163
71	0xbde9c63b	-0.114147626
72	0xbe7f0066	-0.24902496
73	0x3df3760b	0.11887749
74	0x3e841a56	0.25801343
75	0xbea0ac28	-0.31381345
76	0x3d9e8cc0	0.0774169
77	0x3e30547b	0.17219727
78	0x3d779336	0.060443126
79	0xbdf31d4b	-0.118708216
80	0x3e322800	0.17398071
81	0x3e33600b	0.17517106
82	0x3dff4486	0.12464242
83	0xbd6feb16	-0.058573805
84	0xbdb4c560	-0.08826709
85	0x3d12108b	0.035660308
86	0xbd713116	-0.058884703
87	0xbdcb6f76	-0.09933369
88	0x3e5a2ec0	0.21306896
89	0x3e92abbe	0.28646654
90	0xbd072a16	-0.03299912
91	0xbe1b8a6f	-0.15189527
92	0xbd920a03	-0.07130816
93	0xbd97d89e	-0.07414363
94	0x3da41eeb	0.0801371
95	0x3dbf4e60	0.09341121
96	0xbe9188a2	-0.28424555
97	0xbe4d0c47	-0.20024215
98	0x3e8fb933	0.28070983
99	0x3e04f7d6	0.12985167
100	0xbc87d116	-0.016579192
101	0xbe4dcab6	-0.2009686
102	0xbe50d458	-0.20393503
103	0xbe98e0a7	-0.29858896
104	0xbdde8610	-0.10865414
105	0x3de68a16	0.112568066
106	0x3e59a43b	0.21254055
107	0x3e1d97bb	0.15389912
108	0xbe96dc1b	-0.29464802
109	0xbe4d43db	-0.20045416
110	0xbd5778eb	-0.05260555
111	0x3ea51826	0.32244986
112	0x3d458176	0.048219167
113	0xbdb0ca6b	-0.08632358
114	0x3e0d36fe	0.13790509
115	0xbe0201f0	-0.12696052
116	0xbe5cee10	-0.21575189
117	0x3e792286	0.24329576
118	0xbe1b3473	-0.15156727
119	0xbd88da1b	-0.06682225
120	0xbea9c7aa	-0.33160144
121	0x3e6471c3	0.22309022
122	0x3e814d90	0.25254488
123	0x3df8cbf0	0.12148273
124	0xbe6e00c0	-0.23242474
125	0xbea87010	-0.32897997

bias f4 [14]
0	0xbe8a9ca4	-0.27072632
1	0x3e2d8aaa	0.16947427
2	0x3e8f428c	0.2798046
3	0x3ecfcbeb	0.40585265
4	0x3e51b384	0.20478636
5	0x3e61708e	0.22015592
6	0xbb55ecab	-0.0032642286
7	0xbe81cb04	-0.253502
8	0xbe9238f3	-0.28559074
9	0xbe9fa202	-0.3117829
10	0x3d5ffa89	0.05468229
11	0xbe279570	-0.163656
12	0xbd896370	-0.06708419
13	0xbe44706b	-0.19183509

weight f4 [14, 14]
0	0xbd477b02	-0.048701294
1	0xbd8f2ead	-0.069913246
2	0xbdbb7cf2	-0.09154691
3	0x3e920180	0.2851677
4	0x3d9c9a7c	0.07646653
5	0x3ea2f773	0.31829414
6	0xbdaf9852	-0.08573975
7	0xbe48c267	-0.19605409
8	0xbd4125e7	-0.047155287
9	0xbe04a9db	-0.1295542
10	0xbe376b4b	-0.17912023
11	0xbe8244d9	-0.25443152
12	0x3e191e74	0.14953023
13	0xbe3e88bd	-0.18606849
14	0x3e098ddd	0.13433023
15	0x3d6462fd	0.055758465
16	0x3dfe7b52	0.12425865
17	0xbe93c8f6	-0.2886426
18	0x3e37daf2	0.17954615
19	0xbe4d1210	-0.20026422
20	0x3dcb1ae8	0.09917241
21	0x3e8081a0	0.25098896
22	0xbd1a634b	-0.03769235
23	0xbb077414	-0.0020668553
24	0x3bdcb29f	0.0067351605
25	0xbe6483cb	-0.223159
26	0x3e035671	0.12825944
27	0xbe87d75e	-0.265315
28	0x3e29e5d1	0.16591574
29	0x3df0ed23	0.1176398
30	0x3e2780d3	0.16357736
31	0xbde5c980	-0.11220074
32	0xbe601451	-0.2188275
33	0xbd6f1fc0	-0.05837989
34	0x3e172f92	0.1476424
35	0xbe883221	-0.26600745
36	0xbd787abf	-0.060663935
37	0xbe240e68	-0.1602112
38	0xbb0853e0	-0.0020801947
39	0xbe06b4ef	-0.13154958
40	0xbddfbd46	-0.10924773
41	0xbdadc2ed	-0.08484445
42	0xbe820998	-0.25397944
43	0x3de507d0	0.11183131
44	0x3df497ed	0.1194304
45	0xbe2745eb	-0.16335265
46	0xbddcb73a	-0.10777135
47	0xbe79c2db	-0.24390738
48	0xbe77256c	-0.24135369
49	0xbe8529b3	-0.26008376
50	0x3dcb6d79	0.099329896
51	0xbe1642af	-0.14673875
52	0xbe6f5117	-0.23370777
53	0xbcaad305	-0.020852575
54	0xbdb64624	-0.08900097
55	0xbdb11455	-0.08646456
56	0x3c0cb243	0.008587423
57	0xbe2a9a88	-0.16660511
58	0xbe82e24b	-0.25563273
59	0xbe7dc955	-0.24783833
60	0xbea84ecc	-0.32872617
61	0x3dc7d518	0.09757441
62	0xbddb0af7	-0.10695451
63	0x3d91096b	0.070818745
64	0xbdbde982	-0.09273054
65	0x3cb1e9ed	0.02171799
66	0x3e448bc3	0.1919394
67	0x3dfc2d52	0.12313332
68	0xbe6d2ac7	-0.2316085
69	0x3dd93ec2	0.10607673
70	0x3e81e46b	0.25369582
71	0x3ded1e70	0.11578071
72	0x3e813ed9	0.2524326
73	0x3e934fc8	0.28771806
74	0xbdd695e0	-0.10477805
75	0x3e001616	0.12508425
76	0xbe3e36ce	-0.18575594
77	0xbd6197d0	-0.05507642
78	0x3e4aadfd	0.19792934
79	0x3e0c4c72	0.13701037
80	0xbe1ee63e	-0.15517518
81	0xbe5b74cf	-0.21431278
82	0xbe3b0518	-0.18263662
83	0xbe870ac9	-0.26375416
84	0xbe532dbf	-0.2062292
85	0x3d5d039e	0.053958528
86	0x3eb7961e	0.35856718
87	0x3e49635b	0.19666807
88	0xbd4b73ac	-0.04967086
89	0xbd68a4c7	-0.05679777
90	0x3e082594	0.13295585
91	0xbe4b9236	-0.19879994
92	0xbd06c9b3	-0.0329072
93	0x3e0348a7	0.12820683
94	0xbd829c4c	-0.063774675
95	0xbceebb7f	-0.02914214
96	0xbcbe9356	-0.023263615
97	0xbd817e80	-0.06322956
98	0xbe0ac325	-0.13551004
99	0xbe66d431	-0.22541882
100	0xbe577dac	-0.21044034
101	0xbe2445a7	-0.16042195
102	0x3e4e4ccb	0.20146482
103	0xbdc7c1a7	-0.09753733
104	0xbe37c7e0	-0.1794734
105	0x3d84acba	0.064782575
106	0x3d96db08	0.07365996
107	0x3e15f311	0.14643504
108	0x3e6c2d13	0.2306407
109	0x3e18671f	0.14883088
110	0xbe87acbd	-0.26498976
111	0x3cc22cda	0.023703028
112	0x3e25c79f	0.1618943
113	0xbdb5b904	-0.088731796
114	0xbd9c05e9	-0.07618315
115	0x3e45cd81	0.19316675
116	0xbe2c6e42	-0.16838935
117	0xbe4d3699	-0.20040359
118	0xbe76bbc9	-0.24095072
119	0x3c439810	0.01193811
120	0x3df28ca3	0.118432306
121	0x3d72538b	0.059161704
122	0xbc26c04b	-0.010177682
123	0xbe4f8d54	-0.20268756
124	0xbe7f9502	-0.24959186
125	0x3b9a374c	0.004706299
126	0x3e798bf2	0.24369791
127	0x3e7317f7	0.2373961
128	0xbdad5f5e	-0.084654555
129	0x3db39eba	0.08770509
130	0xbde2db96	-0.11077039
131	0x3c67f0ef	0.014156564
132	0x3d463fac	0.048400566
133	0x3e1506e0	0.14553404
134	0x3e62b452	0.22139099
135	0xbe7b435e	-0.24537417
136	0x3d9eade2	0.07748009
137	0xbe41056c	-0.18849725
138	0x3dccf70c	0.10008058
139	0x3e6798bb	0.22616856
140	0x3b75f49c	0.0037529832
141	0x3e3db936	0.18527684
142	0xbe249842	-0.16073707
143	0xbe1c88fd	-0.15286632
144	0x3e4a9a50	0.19785428
145	0xbd54e980	-0.051980495
146	0xbd6015f4	-0.054708436
147	0xbde421a0	-0.11139226
148	0x3e3ca56e	0.18422481
149	0x3e063d1c	0.13109249
150	0x3c98367e	0.018580671
151	0xbe19cbb3	-0.15019111
152	0xbe5e27ee	-0.2169492
153	0x3cecceaa	0.028907139
154	0x3da22b24	0.07918385
155	0xbcd4a2e6	-0.025956582
156	0x3d20c42d	0.039249588
157	0x3e892eb5	0.26793447
158	0x3d93f1c5	0.07223848
159	0x3de7b6fd	0.11314199
160	0xbd86b411	-0.06577314
161	0xbe77d675	-0.24202903
162	0xbe80a9a8	-0.25129437
163	0xbe02d22e	-0.1277549
164	0xbd8c712d	-0.06857524
165	0x3daa8778	0.0832662
166	0xbd9f56fb	-0.07780262
167	0xbdd622c5	-0.104558505
168	0x3e827717	0.25481483
169	0x3e2bc1e0	0.16773176
170	0x3e365432	0.17805555
171	0xbd29d52e	-0.04146307
172	0xbcac2ebf	-0.021018384
173	0x3e3a3217	0.1818317
174	0xbe3657db	-0.17806952
175	0xbe32e71d	-0.17470975
176	0xbc537eb7	-0.012908629
177	0xbdc83311	-0.09775365
178	0xbe0a2693	-0.13491277
179	0x3e225545	0.1585284
180	0x3e5c1466	0.21492156
181	0x3d319612	0.04335601
182	0xbd3e9a27	-0.04653373
183	0xbe09c4cd	-0.1345398
184	0xbd8dea6d	-0.06929479
185	0x3bbbeb25	0.0057348185
186	0x3d82b2c4	0.06381753
187	0xbe02814e	-0.12744638
188	0xbdd86593	-0.10566249
189	0x3e187fc7	0.14892493
190	0xbe59f481	-0.21284677
191	0x3e2cf7c4	0.1689139
192	0xbba14bda	-0.0049223723
193	0x3b8609f0	0.00409054
194	0xbd58549b	-0.05281506
195	0x3d04b874	0.03240247

bias f4 [14]
0	0x3d081e00	0.033231735
1	0x3dcf2f89	0.101164885
2	0xbdc70c0c	-0.09719095
3	0x3dc25d3b	0.094904386
4	0x3e1305f7	0.14357744
5	0xbd46abfa	-0.048503853
6	0xbd806e91	-0.06271089
7	0x3e413b56	0.18870291
8	0x3e204f44	0.15655237
9	0xbdea1851	-0.11430419
10	0x3d961dae	0.0732988
11	0xbe292557	-0.1651815
12	0xbe0a20c1	-0.13489057
13	0xbbb5569d	-0.0055340067
