Deep_model/saved_model/model_jacobian_truncated.pth (torch, 21272 bytes, 4 tensors)

weight f4 [61, 9]
00000000: db22 a5be b078 43be 5b88 aa3d f636 34bd
00000010: e3c4 77be d61a 003c 9328 69be 04cb 90be
00000020: a3f5 3bbe 9a5e 95be 0657 59be 9499 aa3e
00000030: 4bf0 803d d05e d23d 9a2d 9fbe c62d 60be
00000040: c63a e3bd ab7f 553d cbb0 5bbe e2d5 f2bd
00000050: 4ad0 51be 542f 133c 9e40 83bd eb66 9cbd
00000060: 7ba8 3abe cc07 38be b2b4 18be d0ac e9bd
00000070: 36b4 86be 4f19 8f3e 1b7c 87bd 4fd7 923e
00000080: ebb4 d43d 2085 90be f636 6c3e 0bd5 bbbd
00000090: d5eb c7bd dbea 5bbe 313b 9dbe 58a1 2a3e
000000a0: 639c 04be 0299 be3d b163 4abe b729 443e
000000b0: e9fb 55be d363 aebb 72ad 5d3d 1b5d cd3d
000000c0: 6f5e 503e d928 7b3e 58d3 6bbe e38d 3a3d
000000d0: 9ad3 96bd ccd0 2bbd 4ee2 50be cfcd 843e
000000e0: 6712 41be 3fba 3d3e f5fb cf3d 77ae 383d
000000f0: ef1f 1abe 7c4a 853e 8b17 9d3c aeb4 5a3d
00000100: 867a 63be 21d4 b33d c43b f6bd 917c 19be
00000110: 8771 563e ed00 fe3d 4f8f 03be f6d7 57be
00000120: ab67 82bc 5b96 3e3e c671 aebd 98c1 42be
00000130: 3bc6 e9bd 6600 7fbe 0b76 f33d 561a 843e
00000140: 28ac a0be c08c 9e3d 7b54 303e 3693 773d
00000150: 4b1d f3bd 0028 323e 0b60 333e 8644 ff3d
00000160: 16eb 6fbd 60c5 b4bd 8b10 123d 1631 71bd
00000170: 766f cbbd c02e 5a3e beab 923e 162a 07bd
00000180: d0d8 98bd 0063 9f3b 160b a3bc 9a60 303d
00000190: 93e9 ac3d cd5a 8bbe e34f c8bd cef1 533e
000001a0: c2be a03d b6fb b43c 5522 0bbe 590d 18be
000001b0: a7e0 98be 1086 debd 168a e63d 3ba4 593e
000001c0: bb97 1d3e 1bdc 96be db43 4dbe eb78 57bd
000001d0: 2618 a53e 86c7 8d3d 3a5c 64be 9922 d73d
000001e0: 5972 37be 693d fbbd 6bd8 5c3e 0237 37bd
000001f0: 685a cdbc 378e 88be c371 643e 904d 813e
00000200: f0cb f83d c000 6ebe 1070 a8be a49c 8abe
00000210: 4888 7e3e 48e0 233e e49d 8f3e bb17 e13d
00000220: 0401 6e3c babc 793d 44c2 3cbe 5fa0 79be
00000230: 3648 6fbe 27b2 043e 2f7e 1ebe bf1d 58bc
00000240: a891 34be 49bc 32bd 4f7c 65be 6685 4dbe
00000250: d8e0 c03d abea a7bd 6a5c 413e 8723 fdbd
00000260: 9b27 69be e0e5 70bd e075 25be 2bdb d0bd
00000270: 5379 a2be 10f9 3e3e 48a3 6dbe 688f 2b3e
00000280: 46e4 1a3e 16dc 733e df12 8bbe 0432 333e
00000290: 0495 60be 904a 383e 8a07 7b3e b688 c33c
000002a0: 2a83 4a3d c02b 89bc 9775 5abe 7fb1 bc3d
000002b0: 8486 72be 7a36 043e 64f3 133e 71a6 5d3e
000002c0: 969c 7ebd d598 2dbe a10e 18bd 7f3c ce3d
000002d0: 67c7 5ebe 8dc9 64bc 992f fbbd fa10 a63d
000002e0: 44b5 c1bd 4ec6 93bd e7ab 1dbc 6ef9 6abe
000002f0: 2512 453e 4013 8f3e b62d 56bd ab7c 1bbd
00000300: 104e 0bbe 6b1f 9abe 5415 a6be 06b8 fd3d
00000310: 6368 3bbe 736f 5bbe 2b0e d5bc eb55 e3bd
00000320: 5bdb dcbd ab7a 2f3c 56cd 90bd f60c ebbd
00000330: b36e 23be aae4 8abe f01a 8f3e 21c5 cebd
00000340: 60af 0d3e 8d07 65bd 3769 3a3d ee40 883e
00000350: f07b af3d 3289 5ebe 3163 403e 0fe9 713e
00000360: 9501 f43d c5d9 2d3e fa60 8e3e 77e0 8ebd
00000370: fb1a e13d 2edd 1bbe d9f5 46bd 5e63 403e
00000380: c867 6f3e f3fd 57be e4da 88be 3b41 69be
00000390: 586d a8be 6cb1 83be 5bd2 a8bd ab5b 663e
000003a0: 5688 643d 5ccf 81be b3e9 88be 0ece 293e
000003b0: d8e5 7dbe 2b1c 28bd 5bbd 233e 23f9 1dbe
000003c0: 36e0 14bd 80b0 edbc f081 a1bd 80b3 18be
000003d0: e158 71be dfbc 5ebe 46f7 d2bd a712 863e
000003e0: 4a88 bdbd 0133 28be 7767 283d 4c03 813d
000003f0: 89d9 4c3e 062c 513e 85ef 623e 843c 8abe
-0.32253155 -0.19089007 0.08326789 -0.043997727 -0.241962 0.007818898 -0.22769384 -0.2827989
-0.18355422 -0.29173738 -0.21224603 0.33320296 0.06295832 0.1027199 -0.3108948 -0.21892461
-0.110951945 0.052123707 -0.2145416 -0.11857201 -0.20489612 0.008983452 -0.06408809 -0.076368175
-0.18228333 -0.17971724 -0.1491268 -0.114099145 -0.26309365 0.27948996 -0.06615468 0.28679892
0.1038607 -0.28226566 0.23067841 -0.09171494 -0.09761778 -0.21476309 -0.30709222 0.1666311
-0.12950282 0.09306528 -0.19764592 0.19156538 -0.20896877 -0.0053219586 0.05412049 0.10027524
0.20348524 0.24527301 -0.2302984 0.04554547 -0.073645785 -0.04194717 -0.20398828 0.2593827
-0.18854676 0.18528078 0.10155479 0.045088258 -0.15051244 0.2603339 0.019176265 0.053394966
-0.22214708 0.08780695 -0.12023118 -0.14988925 0.20941745 0.1240252 -0.12847637 -0.21078476
-0.015918573 0.18612044 -0.08517794 -0.19019163 -0.114147626 -0.24902496 0.11887749 0.25801343
-0.31381345 0.0774169 0.17219727 0.060443126 -0.118708216 0.17398071 0.17517106 0.12464242
-0.058573805 -0.08826709 0.035660308 -0.058884703 -0.09933369 0.21306896 0.28646654 -0.03299912
-0.07463229 0.0048640966 -0.019902747 0.043060876 0.08442988 -0.27217713 -0.09780862 0.2069771
0.07848884 0.022092681 -0.13587315 -0.14848842 -0.29858896 -0.10865414 0.112568066 0.21254055
0.15389912 -0.29464802 -0.20045416 -0.05260555 0.32244986 0.06922822 -0.22300807 0.10504646
-0.17914714 -0.122675724 0.21566932 -0.044730194 -0.025067523 -0.26671 0.22309022 0.25254488
0.12148273 -0.23242474 -0.32897997 -0.27072632 0.24856675 0.16003525 0.28050148 0.10990854
0.014526609 0.060971 -0.18433481 -0.24377583 -0.2336739 0.12958585 -0.15477823 -0.013190686
-0.17633688 -0.043636594 -0.22410701 -0.20070419 0.094178855 -0.08199056 0.1888291 -0.12360292
-0.22769015 -0.058812976 -0.16158247 -0.10198053 -0.31733188 0.18649697 -0.23206818 0.16753924
0.15126142 0.23814425 -0.27162835 0.17499548 -0.21931845 0.17997193 0.24514595 0.0238689
0.049441494 -0.016744494 -0.2133392 0.09213542 -0.23684126 0.12911406 0.14448315 0.21645524
-0.06216105 -0.16952832 -0.037123326 0.100701325 -0.21755753 -0.013964069 -0.12264938 0.08108707
-0.09458402 -0.07215558 -0.009623504 -0.22946712 0.19245203 0.27944374 -0.052289687 -0.03796069
-0.13603997 -0.30102095 -0.32438147 0.12388615 -0.18301539 -0.21429233 -0.026007732 -0.11100372
-0.10784026 0.010710399 -0.07070415 -0.114770815 -0.15960197 -0.27127582 0.2795024 -0.10096193
0.13836432 -0.055915404 0.045510497 0.26612037 0.08568561 -0.21732023 0.18787839 0.23624061
0.11914364 0.16977604 0.27808362 -0.06976407 0.10991474 -0.15221092 -0.048574302 0.18787906
0.23379433 -0.21092968 -0.267295 -0.2277879 -0.32895923 -0.257213 -0.08243247 0.22495906
0.055794083 -0.25353515 -0.26740798 0.1658251 -0.2479471 -0.041042488 0.15990202 -0.1542707
-0.036346637 -0.029014826 -0.07886112 -0.14912224 -0.23569061 -0.21751736 -0.1030107 0.26186106
-0.09254511 -0.16425706 0.041114297 0.06299457 0.20004858 0.2042695 0.22161682 -0.26999295

bias f4 [61]
00000000: 0bca 14bd 0b1e 1abe 17eb 733e 03ce 3ebe
00000010: 673d 6c3e 31e4 c3bc 2fa4 db3d 7aca 4f3e
00000020: c0f5 60bd fb55 42be 36d2 5cbd 530a 763e
00000030: d843 7dbe a51f 3e3d d0ba a7be fc6e 683e
00000040: d887 d93d ab84 673c 1773 ec3d 6b60 32bd
00000050: 910c 093e 6e1a 87be ab80 48bd 43d9 413e
00000060: f3e4 9c3e 4edf 2d3e 7835 78be 147f 9e3e
00000070: bf7e 85ba 5bc2 91bd df1e 9bbe 1c90 a5bd
00000080: 9d4b 8d3e 6ba2 753c 9bcf 46be 6b04 163e
00000090: abe4 dabd a025 993e 8421 94be 40a3 d7bd
000000a0: 8eca a4be 0a47 30be 694a 9b3d ec1e 8f3e
000000b0: ce92 0d3d 3d87 bd3e b090 853d e7df 083e
000000c0: 9316 5b3e 3c90 7c3e 680d 3fbe eb2e 893e
000000d0: 98c4 4e3e ae99 1fbe abe2 22be 6225 8fbe
000000e0: 6b71 ab3d 7055 8abe da0f e83d a929 7a3d
000000f0: 8c46 94be
-0.036325496 -0.15050523 0.23820148 -0.18633275 0.23070298 -0.023912521 0.10724675 0.20292082
-0.054921865 -0.18978111 -0.05391141 0.24027376 -0.24732912 0.046416897 -0.32759714 0.22698587
0.10621613 0.014130752 0.11545389 -0.043548983 0.133837 -0.26387352 -0.048950832 0.18930535
0.30643424 0.16979715 -0.24239147 0.30956328 -0.0010184868 -0.071171485 -0.3029699 -0.08084127
0.2759675 0.014992337 -0.19415133 0.14650123 -0.10688146 0.29911518 -0.2893182 -0.10529184
-0.32185787 -0.17214599 0.07582552 0.2795328 0.034563832 0.3701724 0.065217376 0.13366662
0.2139533 0.24664396 -0.18657458 0.26793608 0.20192182 -0.15585968 -0.1590678 -0.27958208
0.08371242 -0.2701831 0.113311484 0.061074886 -0.28960073

weight f4 [61, 61]
00000000: fde8 0e3d 959c 2abc d471 20bd 7775 963d
00000010: 0a80 00be 2ce2 3f3e c4c3 6c3d 1529 773d
00000020: 90a8 efbd 2d57 3bbd b3fc 17bd 9795 673d
00000030: 25df 933d c094 9f3e 8fb9 cf3d 7b49 b8bd
00000040: ed5b 763d c797 3a3d 7fea 06be 616b ca3d
00000050: dd01 573d 7480 b33d 7fde f6bd e894 3dbd
00000060: 48f2 083e 9c79 8d3d bfa5 d73d 65d0 9fbc
00000070: ea03 76bd df83 863d b708 e43d e4e9 0b3e
00000080: 55ee 62bd 33c1 ed3c 2ce1 f83d 009c f8bc
00000090: fe19 6ebd 3539 d63c c76b b3bd 5697 90bd
000000a0: fd6a bf3d b820 003e a27f 9c3d a3c9 2cbc
000000b0: 948e e83c 1892 1e3e b263 9dbd f36b 113d
000000c0: bf91 9a3d 042d 6fbd 5ca9 fe3d bcc2 6fbc
000000d0: 9adf fbbc cbe5 0dbd b1e0 aabd 44a7 00be
000000e0: 58da 933d 7454 0b3d 39f7 c2bd aebc 26bd
000000f0: af95 013e 8175 483d aa6d 523d 3465 8cb9
00000100: 7ce9 65bd b8ff afbd b01b 4bbd c606 50bd
00000110: 6658 d6bb e87d 503c 5dcf 84bc 6c68 913c
00000120: 3529 70bd 7b7c 083d a2e5 573c 0b1f 8abd
00000130: 750f 4cbd 14c6 a63d 2a32 fa3c cf64 513c
00000140: 3941 1e3d 7427 ed3b ab31 b13d 0d08 853d
00000150: ef1b 1fbe 5b9b 1d3d 911a f1bd 0346 91bd
00000160: 7666 93bc ecfc d0bd 1a15 003e 3462 d2bc
00000170: 4f23 f13b 8a32 3dbd 4f53 d43d b5fc 22bd
00000180: 4ee3 4cbe bc5e 993c d426 cb3d 8dec e23d
00000190: 6a29 a0bd 140a 81bd 39cd 37bd 799a ba3d
000001a0: d8d2 81bb 8b83 203d 6701 9cbd 64ae 913d
000001b0: b750 aa3d 14dc d7bc b470 813d 771d 803d
000001c0: 5c86 943d 3503 95bd 837c 81bd c0a2 17bd
000001d0: a4d2 d43b 4862 9d3d fcb0 95bd 7170 b23d
000001e0: 1a8a fc3c c568 9e3d ff30 c7bb 25ba e5bd
000001f0: 6561 cabd 2cc8 bdbd 40c0 723d 90b6 91bd
00000200: 10f1 453c 7dbc ac3c c0cc 8fbd f348 173d
00000210: c604 00be dc88 f2bd 709a edbd 5942 0abc
00000220: 420d 3fbd e802 82bd fab0 17bd 8787 763d
00000230: a5dd b13d 5437 23bb 81f3 fc3c e389 f5bd
00000240: eef3 3d3d f6d9 3e3a 8495 bd3c 314a af3d
00000250: 7249 4a3d 70c6 8a3d 2f9d 0b3e e016 de3c
00000260: 1310 bfbd b554 9b3d bf0d 7bbd 99bf 07bd
00000270: 726b db3d 2e2f 193e c075 1e3d 2997 193d
00000280: f591 dcbd 78c1 59bc 6e80 fb3d d362 dd3c
00000290: b186 f23a 8b59 b03c a69f a6bd 222e 0d3e
000002a0: 935d 013c 585b 423c e21e 513b 852d a83d
000002b0: 0179 583d 8c03 c8bb 8dc5 a43d 9d51 a43d
000002c0: b20e f33d 8c96 c93d ea18 06bd 1800 debd
000002d0: b9cd 313d ace7 08bd 7bc9 08bd bda3 afbc
000002e0: ac53 c53b b5e4 ad3d 427d 233d 9635 babd
000002f0: be76 8fbb 9b7c 74bc bb59 c33a 37cb eb3d
00000300: 24e2 8a3d 22c7 ec3d 0694 83bc 3787 d33c
00000310: 2e4c 3cba 6934 f8bd 8088 a5bd 311f d1bc
00000320: b303 93bd 1dd9 a0bd 7a17 7c3d 4656 e63c
00000330: a30f 733d 1239 fa3d d0d7 af3b 9111 853c
00000340: f98f 463d 744d adbc 1120 353d f7e8 4ebd
00000350: 7fe5 0c3d 6677 9ebd ab47 30bd 1b6b 9d3d
00000360: 49b6 21bc 834c 25bd 77e3 c73c cecf 40bd
00000370: 6173 7fbc 30d8 f43d 9a01 57bd 3498 bbbd
00000380: 9301 14bd 5eaf f73b 281e e1ba 8b68 2ebc
00000390: d022 803c 753e b23c c64e 72bb 3584 1fbd
000003a0: ea1a d23b 7655 5dbd af4d f0bb e58d ecbd
000003b0: 77f5 e13c aca8 c0bd 6437 ccbd f83d d6bd
000003c0: 6fe4 5a3d 4d70 a7bd 4008 c03c d189 cd3d
000003d0: ad3a 8b3d b95a 963d cf9a 4fbd 9f09 bcbd
000003e0: 1565 7ebc aec8 113d 6345 513d 26dc 0fbd
000003f0: 2c2c 523a 84a8 cbbd f7ce e5bc 5110 9dbb
0.034890164 -0.010413309 -0.039171055 0.073466234 -0.12548843 0.18738621 0.057803884 0.060341913
-0.117020726 -0.045737434 -0.037106227 0.056539144 0.07220296 0.31168175 0.10142814 -0.0899839
0.06014626 0.045554902 -0.1317539 0.09883762 0.05249201 0.08764735 -0.120541565 -0.046284586
0.13373673 0.06907961 0.105296604 -0.01950855 -0.060062326 0.06568121 0.11134475 0.13663441
-0.055403072 0.029022789 0.12152323 -0.030347824 -0.058130257 0.026150325 -0.08760791 -0.07060115
0.09346578 0.12512481 0.076415315 -0.010546121 0.028388299 0.15485418 -0.07685031 0.03550334
0.0754733 -0.05839254 0.124346465 -0.014633831 -0.03074627 -0.034642976 -0.08343638 -0.12563807
0.0721938 0.034016088 -0.0951981 -0.040707283 0.12654756 0.048940185 0.051374115 -0.00026778283
-0.05613087 -0.08593696 -0.04958695 -0.05078771 -0.0065412996 0.012725331 -0.01621216 0.017749988
-0.058633048 0.03332184 0.013177307 -0.06744202 -0.04981943 0.08143249 0.030541498 0.012780382
0.03863642 0.007237369 0.086520515 0.06495676 -0.15538 0.038478237 -0.11772645 -0.07093432
-0.017993193 -0.10204491 0.1250805 -0.025681593 0.0073589454 -0.046190776 0.10367452 -0.03979178
-0.20008585 0.01872193 0.09919515 0.11080275 -0.07820399 -0.063007504 -0.04487345 0.091114946
-0.003961902 0.03918795 -0.07617455 0.071133405 0.083161764 -0.026350059 0.063203245 0.0625562
0.072521895 -0.07276002 -0.06322577 -0.037020445 0.006494837 0.07684761 -0.07309148 0.08712853
0.03082757 0.07734827 -0.006078839 -0.11217145 -0.09881858 -0.092666954 0.059265375 -0.07114899
0.0120814 0.021085972 -0.07021475 0.036934804 -0.12501821 -0.1184251 -0.11601722 -0.00843867
-0.046643503 -0.063482106 -0.037034012 0.060187843 0.086848535 -0.0024904804 0.03087783 -0.119891904
0.046375208 0.00072804035 0.023142584 0.08559073 0.04938645 0.0677613 0.1363418 0.027110517
-0.09329238 0.07584516 -0.061292406 -0.033141706 0.10713853 0.14959404 0.038686514 0.037497673
-0.107700266 -0.013290755 0.122803554 0.027024662 0.0018503276 0.021527072 -0.08135919 0.1378713
0.007895845 0.011862598 0.0031909277 0.08211807 0.052849773 -0.0061039384 0.08045492 0.08023379
0.11868037 0.09843168 -0.032738604 -0.10839862 0.043409083 -0.033424065 -0.03339527 -0.021440381
0.0060219374 0.08490888 0.039914377 -0.09092252 -0.004378169 -0.014922286 0.0014904061 0.115133695
0.06781414 0.11561419 -0.016061794 0.025821311 -0.00071829825 -0.121193714 -0.08082676 -0.025527569
-0.0717844 -0.07853911 0.061545826 0.02811731 0.059341084 0.122179165 0.005366303 0.016243728
0.048477147 -0.021155097 0.044220034 -0.05051514 0.034398552 -0.07737617 -0.043037098 0.07686444
-0.00987012 -0.04035617 0.024400456 -0.047073178 -0.015591473 0.11955297 -0.05249176 -0.0915989
-0.036134314 0.007558747 -0.0017175125 -0.010645042 0.0156416 0.021758297 -0.0036973222 -0.03894444
0.0064119 -0.05403658 -0.0073334794 -0.11550502 0.027582867 -0.094071716 -0.099715024 -0.10461038
0.053440508 -0.081757165 0.023441434 0.10036052 0.06798301 0.07341523 -0.050684746 -0.091815226
-0.0155270295 0.035591774 0.051091563 -0.03512206 0.00080174464 -0.09944251 -0.02805279 -0.004793205

bias f4 [61]
00000000: f033 c5bd 2197 423d c52d b9bd 8aaa f73b
00000010: 68e9 5bbd e5e2 dbbc 6b7d 1dbd 7c0e 14bd
00000020: 4f9b 633d b605 6b3d 47ee 41bd 42e5 a33d
00000030: 88ee de3a c7c4 9fbb acea 503d 34e6 adbc
00000040: 491c 803d 968b 693d 93bb 23bd c123 4ebd
00000050: 8591 9bbd 170c 8c3d 902c 28bd 12e7 e0bd
00000060: c348 3abd abfb 79bd de7a 57bd 06f0 d03d
00000070: ef00 e03c c7e0 c23d 2c73 bfbd fcbd c7bc
00000080: af61 5bbc 6746 413d a5e6 0abd 47f2 67bc
00000090: e7ad cdbd 8d6a 893d c04c af3d dea2 053c
000000a0: 8185 0f3d c0b4 44bd 2ece db3c 3464 97bc
000000b0: 6104 753d 83a3 6cbc 6ad8 81bc 5d8d b1bd
000000c0: 7ba0 0ebd f770 e4bc 83ee 7d3c 0a90 8abd
000000d0: b116 f33c 3a5d 663d 0b0f fbbc 251a a0bc
000000e0: 8598 dc3d b1a1 99bd 340a 81bd 4f9e 423d
000000f0: d4d0 8e3c
-0.09629047 0.04750741 -0.09041933 0.0075581716 -0.05368939 -0.02684159 -0.038449686 -0.036146626
0.055568036 0.057378493 -0.04734638 0.08002712 0.0017008344 -0.0048757526 0.05100505 -0.021227933
0.06255395 0.057017885 -0.039973807 -0.050327066 -0.07596115 0.068382435 -0.041058123 -0.10981573
-0.045479547 -0.061031025 -0.05260741 0.10202031 0.027344195 0.09515529 -0.09348139 -0.024382584
-0.013389989 0.04718628 -0.033911366 -0.0141568845 -0.10042935 0.06709776 0.08559561 0.008156506
0.03503943 -0.04802394 0.026831713 -0.018480398 0.05981863 -0.014443281 -0.015850265 -0.08669541
-0.034821015 -0.027885897 0.01549876 -0.067657545 0.029673906 0.05624125 -0.030646821 -0.019543717
0.10771278 -0.07501543 -0.06300774 0.047514256 0.017433561
