Results/Nodes_16384/model_weights.pth (torch, 127624 bytes, 8 tensors)

weight f4 [100, 2]
00000000: 4848 2abf 731a a63e 0a73 a4be 5bc6 bbbe
00000010: 46fe 2c3e 2aef bcbe d551 a7be 52fa 73be
00000020: bf5c 80bf 3b4f 66bf ff45 43be 8f2b 3c3e
00000030: ed7b 12bf 8722 dbbe 7fb9 a7be 4369 73be
00000040: 6d5c 503d 7674 8fbe a559 54be dcd9 33be
00000050: d50b e5be 65f2 a7bf 95c4 86bf 9aab aebf
00000060: 2a1a e5be 3ba6 c93e 0ffc e1be 40ee cebe
00000070: 2665 66bf 1b00 fcbe 61fb dabe f0fa b43e
00000080: bd45 76bf 1f86 8abf 8eb7 14c0 db99 e33f
00000090: 6cfb a43e 17f5 62bb 500f 39bf e897 aabe
000000a0: b6c9 9ebd e7bb 11bf 87ef 0d3f 06c3 3a3c
000000b0: 092c b7bd f5a2 05bf 0886 29bf eba2 5bbe
000000c0: 83d9 853e bb68 223e 1c96 6bc0 c984 3e40
000000d0: bc2c d5bd cbb7 ddbe aca1 58bf 300b 063f
000000e0: 5256 47bf a25d 4bbf 1110 09bf 6f79 d9be
000000f0: ab75 18bf 63da 0fbf 06f1 123c d37c 643e
00000100: 926a c73e 90ae b1bf 525c 103e b7e0 3fbf
00000110: 43d9 ac3d a502 353e 4656 ae3d 766b 823b
00000120: 527b e23e b97d 613c b459 a63e e386 81be
00000130: 5c18 b63d 5284 04bf 15af b2be 7b78 d1be
00000140: f27c 5cbf a556 7bbf 113f 74be 6931 e7be
00000150: 19d1 22bf fc98 3c3d ddcc f23d 17d3 9c3e
00000160: e844 d33e 7ea8 bbbe fe4d 84bf 3892 c83e
00000170: 57df 263e 2fc1 56bf 70d2 813e 380c 193f
00000180: ce72 2f3d 071d dabe d969 143f a598 9a3e
00000190: 788d 653e df60 38bf 8dae a83d 3ed0 82be
000001a0: 1b1e 333f 4c65 99be 794d 4d3e bc29 adbd
000001b0: 88ef 973e 4a70 9d3c bcb3 943e 36e3 96be
000001c0: c8e5 a4bf 3483 91bf e9ef 813e ff03 f9be
000001d0: 2ff9 dabe 43c0 69bf f266 483e 8fca b93d
000001e0: f39b 7f3e 6f0f b9be 3463 4dbf 65fe 4abe
000001f0: 4366 79bf 0e6c 7d3f 87f4 2dbf 9ac8 a13e
00000200: f175 343f ba51 b53e b5bf d4be 96dd a3bf
00000210: e281 643d 7df3 16bf 6025 29bf 10b2 323f
00000220: ba34 bebf a7b6 a9bf 2241 d03e f918 54bf
00000230: c211 00bf bb7e eb3d 19ef a8be 7594 92bd
00000240: d8ed 55bf 33ca 60be 2d05 a1be 3efb b1be
00000250: ebda 7bbf 427a 0e3e d57b 0b3e a50a 19bf
00000260: 5a81 563d 91ae 74be 068d 19bf 88d4 84bf
00000270: 5312 91be f99d a83e 757b 193e 9811 62bf
00000280: cab6 763f 25b0 e5bf c320 ae3e eb97 0c3f
00000290: 4c3a 303f 2e0c 8cc0 c8aa 943e 18df 4ebf
000002a0: fc1f 593d bdfa fcbe eabd 1ebe ba9d 03bd
000002b0: c97f 25bf b493 37bf 972e c2be 1d1d 993e
000002c0: 4159 d23e bc8c ca3e 574d 4fbd a587 5c3e
000002d0: 3393 bbbe 02f6 8cbe 2404 1fbf 5101 acbf
000002e0: 09cb d9bf 9c8d 463f 8d3f 63bf db34 69bf
000002f0: 5b25 26be 7c6c e13d 4093 88bd 9538 23bf
00000300: 7504 8f3d e288 3bbc 98ee 0abf b2c9 0bbf
00000310: 4c75 12bf 8e67 c6be c093 1abf 7a70 c3be
-0.6651654 0.32442054 -0.32119018 -0.3667477 0.16893873 -0.36901218 -0.3267962 -0.23825958
-1.0028304 -0.89964646 -0.1906967 0.18375991 -0.57220346 -0.4279978 -0.3275871 -0.23770623
0.050869394 -0.2801854 -0.20737322 -0.17563576 -0.4473559 -1.3120848 -1.0528742 -1.3646119
-0.44746524 0.39384636 -0.44137618 -0.40416145 -0.8999809 -0.4921883 -0.42769912 0.353477
-0.9620016 -1.082218 -2.3237033 1.7781328 0.3222307 -0.0034630948 -0.7228899 -0.3331902
-0.07753317 -0.5692734 0.55443615 0.011399036 -0.08943946 -0.5220178 -0.6622014 -0.21448867
0.2614251 0.15860264 -3.681037 2.9768546 -0.10408923 -0.43304285 -0.8462169 0.5236082
-0.7786609 -0.7943975 -0.5354014 -0.4247546 -0.5955455 -0.56192607 0.008968597 0.22313242
0.38948494 -1.3881397 0.14097717 -0.7495226 0.08439877 0.1767679 0.08512549 0.0039800955
0.4423471 0.013762885 0.32490313 -0.25298223 0.08891365 -0.51764405 -0.34899202 -0.40912232
-0.8612815 -0.98179084 -0.23852183 -0.45154884 -0.6360031 0.046044335 0.11855481 0.306298
0.4126351 -0.36651987 -1.0336301 0.39174056 0.16296135 -0.83888525 0.25355864 0.5978427
0.042834096 -0.4260027 0.5797401 0.30194584 0.22417247 -0.72022814 0.08236418 -0.255495
0.6996781 -0.29960096 0.20049085 -0.08455226 0.29674935 0.019218583 0.29043376 -0.29470223
-1.2882624 -1.1368165 0.2537835 -0.4863586 -0.42768237 -0.91308993 0.1957052 0.09071838
0.24961834 -0.36144587 -0.80229497 -0.19823606 -0.97421664 0.98993003 -0.67951244 0.3159836
0.70492464 0.35413915 -0.4155251 -1.2801998 0.05578793 -0.58965284 -0.66072655 0.6980295
-1.4859841 -1.3258866 0.40674692 -0.82850605 -0.50027096 0.11498781 -0.32994917 -0.07157222
-0.83566046 -0.21952133 -0.3144926 -0.34761995 -0.9838092 0.13913825 0.13621457 -0.5978187
0.052369453 -0.23894717 -0.5998081 -1.0377359 -0.28334293 0.32933024 0.14988501 -0.88308096
0.96372664 -1.794438 0.3400937 0.5491931 0.68838954 -4.376487 0.29036546 -0.80809164
0.05300902 -0.49410048 -0.15502134 -0.03213284 -0.6464811 -0.7170975 -0.3792617 0.29905024
0.4108372 0.39560497 -0.050610866 0.2153612 -0.36635742 -0.2753144 -0.62115693 -1.3437902
-1.7015086 0.7755983 -0.88768846 -0.91096276 -0.16225187 0.1100702 -0.06668711 -0.6375821
0.06983272 -0.01144621 -0.54270315 -0.5460464 -0.5721023 -0.3875088 -0.603817 -0.3817175

bias f4 [100]
00000000: 0717 30be 65eb b6be e408 66be 2bf7 82be
00000010: 55b9 e33e 952e 86be 299c 01bf cae8 34bd
00000020: cc5f c4be 0ee6 a83d 0ca7 013e 51a0 043f
00000030: 3c92 04bf 9fde bd3d 08e6 ca3e 3ec9 b2be
00000040: e794 e13e 3537 273e f3be adbe 8176 d1bb
00000050: 2d27 7dbe d3e1 1dbf c055 73bd a020 f7bd
00000060: 169d ecbe 43ac 133e 7da1 1abf cb19 7b3e
00000070: 7bf4 aa3e ec8f 45bd 4a27 e3be a570 6dbd
00000080: c028 6ebe db88 e5bd 0a06 dabd 4945 543c
00000090: 029e 9bbe ace0 22be 487e aabd 09ac 87be
000000a0: 79fc cd3e 1a28 bebe a1f2 d2bc 7de3 54be
000000b0: 964e 40be 6eff 6f3e 9464 1fbe b24d 27bf
000000c0: 17e3 9cbd 8434 a4be 0676 32be 61d0 d2be
000000d0: 2c8f 33bf 0dcb b5be ccc6 0abe cc83 55be
000000e0: 2378 0d3f 46bc e8be 2bcf 1c3e fe85 23be
000000f0: eecd 18bf d0e2 6fbd 1f23 843e 4acf ecbe
00000100: 4203 eabe 1bca 853e be86 b33c adfa c9be
00000110: dd55 883d 15bd a8be e778 32bf 09f4 39be
00000120: cf53 65bc e231 59be d658 b9bd 30ca 1abf
00000130: 98ef fb3b d730 ac3e b46c 903d 2de3 5bbe
00000140: b9b7 02bd e5f9 02bf 921d 19bf 5a32 cbbe
00000150: 3178 c9be 5bb4 05bf 6970 973e f6cd aa3c
00000160: 4e66 24bf 1a48 debd 663e 3fbd ac71 8a3e
00000170: 1677 20be bd91 c93e 330e 6dbe aeb5 be3d
00000180: bf77 80bc 0ff1 2abf 314e 11bf bd42 3ebe
-0.17196284 -0.35726467 -0.22464329 -0.255792 0.44477335 -0.26207414 -0.50628906 -0.044167317
-0.38354337 0.082470044 0.1266138 0.51807123 -0.51785636 0.09270977 0.39628625 -0.3491916
0.44058916 0.16329654 -0.33934745 -0.0063923006 -0.24721976 -0.61672705 -0.05940795 -0.120667696
-0.46213597 0.14421181 -0.6040266 0.24521558 0.3338965 -0.048232958 -0.44365913 -0.057968754
-0.23257732 -0.11207744 -0.10645683 0.012955972 -0.30393988 -0.15906018 -0.083248675 -0.2649844
0.40231684 -0.3713997 -0.02575046 -0.20789905 -0.18779978 0.23437282 -0.15565711 -0.6535293
-0.076605015 -0.32071316 -0.17427835 -0.41174605 -0.7014034 -0.35506478 -0.13552397 -0.20851058
0.5526144 -0.4545614 0.15313403 -0.15969083 -0.59689224 -0.058565915 0.25808045 -0.462519
-0.4570561 0.26130757 0.021914836 -0.39449063 0.06657002 -0.32956758 -0.6971573 -0.18159498
-0.013997032 -0.21210435 -0.09050147 -0.60464764 0.007688474 0.33631012 0.070519835 -0.2147338
-0.031913493 -0.5116256 -0.59810746 -0.39686853 -0.3934951 -0.52228326 0.2957795 0.020850163
-0.64218605 -0.10853596 -0.046690367 0.2703985 -0.15670428 0.39369002 -0.23149948 0.093119964
-0.0156821 -0.66774076 -0.56759936 -0.18580146

weight f4 [100, 100]
00000000: 37a8 5f3d a07e 4bbd c071 343c 9a39 18b9
00000010: 15f3 60be 3019 5cbd c707 673d 5a26 34be
00000020: 9637 95be c59d 79be 8f00 7abe 3f47 59be
00000030: dbc9 be3d a86b 5cbe 54e3 88be 08f0 b73d
00000040: a594 90be 824c 8bbe eaa9 6ebe f663 a2be
00000050: 4d49 323c a8f3 8abd 1b76 6ebe 187e 66be
00000060: dac9 623c 5e02 a8be 0d84 c2bd b411 4bbe
00000070: bbdf 22be 26e3 a8be a7b6 173d c4c5 a2be
00000080: e994 73be ab89 1abe 5ab4 2bbe 6e10 a3be
00000090: f75d 7d3d edf0 553d d0dd 79be ad3b f6bd
000000a0: 5a52 91be 0da4 bebc 8304 4fbd 27a1 69be
000000b0: cde9 d83c a07b 71be acd1 98be 6063 38bd
000000c0: 9353 0b3d f592 b3bd 743c 84be 3dd5 65be
000000d0: 83f4 25bd 9b5a 4abe a71f a5be 68c8 8f3d
000000e0: 2052 81be f9fc 713e 6c4a 32be d6c4 6abe
000000f0: 0d9e eabc 7d3c 9bbe c2f0 61be 1a54 c3bd
00000100: 53c2 d73c e89d 48be 3b74 aabe b013 86bd
00000110: 2c2c a1be ccb6 1dbe cf1a ae3d 27b6 6dbe
00000120: 1aea 15be 50ee 08bd 8c28 aabe 3a12 0f3d
00000130: 428b 56be 6a30 16be 129c 7abe 24ad 26be
00000140: 01ec 3bbe 553a 943d d284 d2be cd5f 11be
00000150: 1595 aebd 009b b73d 20f3 7dbe 747a aabe
00000160: 47d0 e33c 6adb 86be dce9 a9be 0023 90be
00000170: d9c7 6ebe 6a85 2abe add8 fbbc 5f4b 3ebe
00000180: e932 6ebe 67e8 5c3b f3bf 9c3c ee0f 96be
00000190: ba3a aabd 7ab3 00bd fdd7 bebd 6704 3fbd
000001a0: 3e04 87be 18e2 86bd 83e6 29bd fa32 93bc
000001b0: cdbf 3cbc b750 a2be a8a5 9bbe 3d39 a5be
000001c0: a049 ea3c 63a4 85be ee6e a2be ca04 0dbd
000001d0: d03a 8dbe bd0d bebe 1a43 003c 675c e7bb
000001e0: 80ea 1e3d 67e0 c13c da44 993d cd0a 58bb
000001f0: ea53 97bd d35d 58be 5f69 8abd ae5e 8dbe
00000200: 3098 99be a36b 1bbd a08b 17bd 49a4 1ebe
00000210: f8c0 80be d2cf 8fbe 5f4c c03d 99dc b2be
00000220: 3a31 843c af1b 833d f6e6 76be a8fd a2bd
00000230: 8e84 8bbe e757 69bd 8009 80bb 53f1 aabc
00000240: 3000 abbd 5b62 bdbe cdbc 86bd 4add 393d
00000250: 975d 3b3d ab20 b2bd 77d2 19bd 3319 d63a
00000260: 0711 b1bd 7dca 663d 34ab 2dbe 9ae2 903c
00000270: 6626 c4be ba06 bf3c 2ca9 70be 622b a23d
00000280: 93ef 59bd 7a7b b7bd 80bc 62be 6700 cc3b
00000290: 6075 05bd 1778 9ebe 4da0 a1be f5c8 a53d
000002a0: 5bee a6be 05b4 933d 8dd0 b63d cd8b 4f3c
000002b0: 0781 ae3c 672a dfbb e8a8 8c3d f58a b8bd
000002c0: 852e 63be 1361 94be c781 57be cd84 e9b9
000002d0: 5d91 97be 80dd 30bc 1cb8 55be 5f3d 8ebd
000002e0: 3374 81bd 737f b7bc 93ad b0be b9b5 5fbe
000002f0: 00d3 893d 6778 2fbc 4da7 c13d 5dc7 9ebe
00000300: 6dd6 babe 94e8 a1be ff19 8dbd 1c8f abbe
00000310: ae14 b2be 8f82 b5bd 60cf d53c d3cb 793d
00000320: a346 c03d b772 ae3d 1ab9 bcbb 87f6 9e3c
00000330: e95f b8be ad51 1e3d e35e c4bd 3897 81be
00000340: 8855 90be b801 8abe 67fe 86be 2f3f b1be
00000350: 7dbd af3d 224e 81be 1037 70be c065 583c
00000360: e32c 73be cb90 6ebe c588 82be ae79 65be
00000370: b395 94bc d5a9 863d 8af1 8dbe a0dd 75be
00000380: 9379 c73d 9a25 8ebe ad07 18bd bbd5 9ebe
00000390: 9353 8bbe 461b 91be edc7 dfbc b03f 63be
000003a0: 0ff5 75be 108b b9be 8fe9 9dbe d4a7 9ebe
000003b0: bf5a 80bd 00f8 6e3c 4c75 a9be 0e2a b4be
000003c0: 2d34 aabe d30a 12bd 7deb c33d f819 86be
000003d0: e08b c93d 9fb3 8bbe 4a25 8ebe 4a62 283d
000003e0: f399 8c3c a0b8 a0bd 4004 b8be 6f18 a6be
000003f0: 330b c53a 8f60 86be 3db7 1d3d 7878 a23d
0.05460378 -0.049681306 0.011013448 -0.00014517308 -0.21967728 -0.05373496 0.0564039 -0.17592755
-0.2914397 -0.2437659 -0.24414276 -0.21218584 0.093158446 -0.21525443 -0.26735938 0.08981329
-0.28238407 -0.27206808 -0.23307005 -0.3171689 0.010881734 -0.06784755 -0.23287241 -0.22509038
0.0138420705 -0.32814306 -0.09497843 -0.19830972 -0.15905659 -0.329858 0.037039425 -0.31791508
-0.23787273 -0.15091579 -0.16768017 -0.31848472 0.06185719 0.052231718 -0.24401021 -0.12023101
-0.28383142 -0.023271585 -0.050541412 -0.22815381 0.026478672 -0.23582315 -0.29847467 -0.045016646
0.03401525 -0.08768264 -0.25827372 -0.22444625 -0.040516388 -0.19761126 -0.3225071 0.07020646
-0.2525797 0.23631658 -0.17411202 -0.2292665 -0.028639818 -0.30319586 -0.22064498 -0.095375255
0.026337778 -0.19591486 -0.33291802 -0.06546724 -0.31479013 -0.15401763 0.08501207 -0.23214017
-0.14640084 -0.033430398 -0.3323406 0.03492949 -0.2095156 -0.14666906 -0.24473599 -0.16276985
-0.18351747 0.072376885 -0.4111696 -0.14196701 -0.08524529 0.08965111 -0.24799776 -0.3329655
0.027809275 -0.26339275 -0.33186233 -0.28151703 -0.23318423 -0.16652456 -0.030742968 -0.1858344
-0.23261608 0.0033707859 0.019134497 -0.29309028 -0.083119825 -0.031421162 -0.0931854 -0.046635058
-0.26370424 -0.06586093 -0.0414796 -0.017968643 -0.011520338 -0.31702206 -0.30399823 -0.32270232
0.02859956 -0.2610198 -0.31725258 -0.034428395 -0.27583933 -0.37119856 0.007828498 -0.0070605758
0.038797855 0.023666574 0.074838355 -0.0032965422 -0.07389052 -0.21129541 -0.06758379 -0.27611297
-0.29998922 -0.037944447 -0.03699839 -0.15492357 -0.25147223 -0.28088242 0.09389567 -0.34933928
0.016136754 0.064017646 -0.24111542 -0.07958537 -0.2724957 -0.056968596 -0.0039073825 -0.020867025
-0.08349645 -0.36989102 -0.0657898 0.045377053 0.04574355 -0.08697637 -0.03755423 0.0016334414
-0.08645826 0.05634545 -0.1695984 0.017686177 -0.38310546 0.023318637 -0.23502034 0.07918431
-0.05320699 -0.08959098 -0.2214222 0.006225634 -0.03258264 -0.30950996 -0.31567612 0.0809497
-0.32603726 0.072120704 0.08926497 0.012667608 0.02130176 -0.0068104747 0.06868154 -0.09010879
-0.22185715 -0.28980312 -0.210456 -0.00044540167 -0.2960309 -0.010794997 -0.20871013 -0.06945299
-0.06320991 -0.02239964 -0.34507427 -0.21846665 0.06729698 -0.0107098585 0.09455738 -0.31011477
-0.3649172 -0.31622756 -0.06889724 -0.3350762 -0.34781402 -0.08862793 0.02609986 0.060985398
0.09388473 0.08517974 -0.0057593705 0.019404663 -0.36010674 0.03865211 -0.09588411 -0.25310683
-0.28190255 -0.26954436 -0.2636597 -0.34618518 0.08581064 -0.25254923 -0.23458505 0.013207853
-0.23747592 -0.23297422 -0.25494972 -0.22409698 -0.018137788 0.06575362 -0.27723342 -0.24010324
0.09739985 -0.27763063 -0.037116695 -0.31022438 -0.272122 -0.2834112 -0.027317012 -0.22192264
-0.24019264 -0.3623891 -0.30842254 -0.30987418 -0.062673084 0.014585495 -0.33097303 -0.35188335
-0.33242932 -0.035654854 0.095664 -0.26191688 0.09841132 -0.27285478 -0.27762824 0.04110936
0.017163252 -0.078477144 -0.35940742 -0.32440516 0.0015033245 -0.26245543 0.038504828 0.07933134

bias f4 [100]
00000000: 7cf3 9cbe 9f59 40be ca5d 6abe 8796 7dbf
00000010: 8094 2dbf 6218 54be 1bdc afbf 6041 57bf
00000020: 902e 68be a7a6 6cbf dc8d ccbd d735 52bd
00000030: 9775 2dbd 2dfd 95be 9f51 8bbe 98c7 42be
00000040: c4e9 cbbd d109 87be 1fa2 72be 7665 6abe
00000050: e36d 2fbd af93 97bd d223 2cbe 12c2 b9bd
00000060: 6d12 9ebd 91bd c3be a89e 97be a095 8abd
00000070: 5e30 98be 236f 33bd 03ac 64be 988f b6bd
00000080: 7294 9abd 27f3 c8be 1879 b4bd 8a3a 58be
00000090: 3f2f bdbe 39ed a4be a0dc b3be 70aa babf
000000a0: 21be a3be 4382 a0be 9c69 b0be 2792 9cbe
000000b0: b752 52bf 4266 56be e821 60be 9f5e a1be
000000c0: c4ad 75be 9a81 54bd aec0 9ebe c5f5 93be
000000d0: 2108 99be 0d38 a1be e643 81be e71e 6dbe
000000e0: 465c 0ebe 7777 a3bf d255 9cbe f05d c1bd
000000f0: 1f7d 54be db31 a3be 3241 adbf ba54 7abe
00000100: 401c 1dbd fcb0 b8be 9704 0dbd 9aad 76bd
00000110: cd2c 80be b759 5cbe e769 73be 606c 25bd
00000120: 3334 55be eb08 cdbe 33a9 60be f172 b6bf
00000130: 4618 b5be dde1 af3d 5dd6 56be 2554 a8be
00000140: 06b4 68be 5fd4 6bbe b79e 93bd 1b47 97bd
00000150: 1744 5cbe 42b2 55be 5b3b 76be b981 50be
00000160: 3355 87bd a068 58bd 17ea 19bd fa64 63bd
00000170: 5d9c 91be 9c3b 87be 43bf c4bf 7dab 3fbe
00000180: ce59 a9be 430d 5cbe 88d6 83be e0d1 72be
-0.30654514 -0.18784188 -0.2288734 -0.9905781 -0.6780472 -0.20712426 -1.3739046 -0.8408413
-0.22674012 -0.9244179 -0.09987995 -0.051320877 -0.04234847 -0.2929472 -0.2721071 -0.19021451
-0.09956697 -0.26374677 -0.23694657 -0.22890267 -0.042829406 -0.07401215 -0.1681054 -0.09070219
-0.07718358 -0.38230565 -0.29613233 -0.0676682 -0.297244 -0.04380716 -0.22331242 -0.08914107
-0.07547845 -0.3924801 -0.08812159 -0.21116081 -0.36950108 -0.32212237 -0.3512926 -1.4583263
-0.31980994 -0.31349382 -0.34455574 -0.30580255 -0.8215746 -0.20937446 -0.21887934 -0.31517503
-0.23992068 -0.05188141 -0.31006378 -0.28898445 -0.29889014 -0.31488076 -0.25247115 -0.2315632
-0.13902387 -1.2770833 -0.30534226 -0.09441745 -0.20750855 -0.31873974 -1.3535521 -0.24446383
-0.03835702 -0.36072528 -0.034428205 -0.060224153 -0.2503418 -0.21518598 -0.23770867 -0.040386558
-0.20820694 -0.40045866 -0.21939544 -1.4253827 -0.35370082 0.08588002 -0.2098021 -0.32876697
-0.22724923 -0.23030232 -0.07208007 -0.07386609 -0.21510349 -0.20868781 -0.2404608 -0.20361985
-0.06608047 -0.052834153 -0.03757676 -0.05551622 -0.28439608 -0.26412666 -1.5370868 -0.18717761
-0.33076328 -0.21489434 -0.25749612 -0.23712873

weight f4 [100, 100]
00000000: 9b3c 9e3d 678f afbb da01 c13d 838c 583d
00000010: fdb0 7abd cd7b ec3b ba40 47bd da07 9b3c
00000020: 2059 77bd fa2f 18bd 779d 28bd 2a73 c6bd
00000030: 1a0d bc3d 620d d1be 00fc fabc 331f 08bb
00000040: 67ac e63a b702 acbd 6de6 e33c e759 7fbd
00000050: 37a7 a2bd bae0 75bd cfb3 9fbd d270 a03d
00000060: 0a9d 1c3d 4f76 b33d 47cf a4bd 6295 a2bd
00000070: 307d 223d aabf 3fbd 4d11 fbbc 67a6 70bd
00000080: 0852 acbd 1d4c 71bd 63c9 80bd fdda 513d
00000090: 33fa 2cbb 10f7 7f3d 050d b23d f33f 873d
000000a0: 77b0 a6bd e715 703d 6347 693d 7d82 39bd
000000b0: c08a acbc 9aad 093d 3356 27bc d084 7abd
000000c0: 8d2b 91bc 470c e2bc e395 7a3d 206e 323d
000000d0: 1307 803d b3a7 8abb fa70 babd 53f4 c73d
000000e0: 67ad 4a3b d7ae 2e3d f74b 68bd 4d49 a2bb
000000f0: e0aa da3c 5a97 26bd cad3 62bd 073e e63c
00000100: b26f a43d a7ca 9f3d d071 0b3d 0d81 0b3c
00000110: 6a1a 383d e7e5 ffbc 9ff0 9d3d 631e 583d
00000120: 8834 ccbd 70bd ba3d cd37 9a3b 5dd9 9abd
00000130: 73bc 1cbd a0cb 8dbe 3ffc aabd 4df5 cc3c
00000140: 00c3 09bd 8237 a8bd 5742 1e3d faa1 6e3d
00000150: b754 c93d c012 a7bd c752 483d afbf 913d
00000160: 9a29 21bb a000 9e3d 68f6 ba3d 48db a5bd
00000170: fdce 4d3d 2039 c33c a760 393c f7f9 963d
00000180: 00f0 af3b 938b 18bd f5e5 ae3d ad57 6d3d
00000190: cc01 7c3e 408d dcbc b0d3 aabd a768 64bc
000001a0: 87d9 433f 8815 80be f7bf 933f a7bc 4abf
000001b0: b4f3 313e 3850 4ebf 7f4f 83bd e89b cabd
000001c0: 3dab 623d b5f9 9bbd 53e6 1b3e b1e6 133e
000001d0: 359e f73d aa01 b1bd 5546 babd 80a1 13bc
000001e0: a791 743d 80b7 a1bd e0d1 fd3d 1d0e 043d
000001f0: 02f3 c6bd a813 883d 929c 6d3e 33e4 473d
00000200: a053 ae3d 7aeb b13d b02e 3dbd b361 673d
00000210: cdab 5f3d 0072 393d 539a dfbc 9f44 fe3d
00000220: 7ff5 84bd 00cd af3c 678d 33bb 323d b73f
00000230: 7829 bc3e 3a67 a6bd d382 bd3c 08b0 433e
00000240: 9a3d 91bb 1794 873d a2f5 843d 75e2 89bd
00000250: a0aa 913c 0d7e 76bd d37b 62bd a01a abbd
00000260: 0c84 6b3e 8d95 27bc e514 82bd 33a8 a2bc
00000270: f091 173e 23c2 1a3d d747 ae3d 82fb 87bd
00000280: ec57 413e 5cd7 9e3e 5ca3 99bf 361f 703e
00000290: fa89 f6bc 53ce 8e3c 3a93 8cbd 9a7f c03a
000002a0: 08a7 853d 7387 0bbd 2dea c9bc 1bbe 8e3d
000002b0: e255 5a3e 9d71 c2bd eda5 a0bc f529 8a3d
000002c0: 9734 783d ffad 8d3e e708 70bd 9206 99bd
000002d0: 8dd2 023d c9d6 873e f06b a73d 5d5f 1d3d
000002e0: cdca 713d 6f5f 8dbd ade7 c43c cdd7 28bc
000002f0: 9a63 92ba 8a70 413d 326c 99bd c00b 1e3c
00000300: 8882 233e 7791 4d3d 2585 983f 32f0 f03d
00000310: 5349 92bd a75d 993d 289c 653e 65d3 a93d
00000320: 24bc 6abe ed8f f93c 539a 92be 53da e43c
00000330: 3a69 833c 3831 88be 0793 9abd d090 9d3d
00000340: b197 cabe f3dd 8e3d 8de9 3b3d ba60 d43c
00000350: b371 193d 6ab0 9cbe 17d4 8dbe e1ee 8fbe
00000360: c72c 50bd 3d94 76bd d7a0 3a3d cceb 95be
00000370: 00ec 86ba 4d50 db3c 39cd 0abe 1ae2 fdbb
00000380: c7aa 44bd 7533 693e e3ce 14be 27f7 b4bd
00000390: 39b9 b23e 603c b33d 0111 b53e 6746 4aba
000003a0: 40c4 54bc 8c77 72be 6dcc 59bd 33ce 95be
000003b0: 95e9 893e 9e85 7dbe ad5f 8e3e 18ad 88bd
000003c0: bbdb a1be 5de1 703d a36b ac3e 0710 ccbe
000003d0: 252c 85bd 0135 a4be bad8 943e 5255 8b3e
000003e0: f2b1 893d 6777 e33b f90e 8c3e 0dcb 963e
000003f0: f483 3abe 8aa4 bdbe fbd7 4e3e f785 a4bd
0.07726403 -0.005357671 0.09424181 0.052868377 -0.061203945 0.0072169066 -0.048645712 0.018924642
-0.06038773 -0.03715513 -0.041165795 -0.096899346 0.091821864 -0.40830523 -0.030637741 -0.002077055
0.0017598987 -0.08398955 0.027819837 -0.062341597 -0.0794205 -0.06002877 -0.07797968 0.07834019
0.0382357 0.087628 -0.080473475 -0.07938649 0.03967017 -0.046813644 -0.030647898 -0.058752444
-0.08414084 -0.058910478 -0.062884115 0.051234234 -0.0026394248 0.062491477 0.086938895 0.06603994
-0.08139127 0.058614638 0.056952845 -0.04529046 -0.021062255 0.033612825 -0.010213423 -0.061161816
-0.017720962 -0.027593745 0.0611781 0.043562055 0.06251349 -0.004231417 -0.0910358 0.09763398
0.003092611 0.04264721 -0.05671307 -0.004952586 0.026692808 -0.040671684 -0.05537776 0.028105749
0.08029117 0.07802325 0.034044087 0.008514655 0.044947065 -0.031237556 0.077119105 0.052763354
-0.09970957 0.091181636 0.004706359 -0.0756099 -0.038265657 -0.27694416 -0.083488934 0.025019312
-0.033633232 -0.08213712 0.038637485 0.05825994 0.09830611 -0.08157873 0.048907068 0.07116639
-0.0024591447 0.07714963 0.091290295 -0.08098465 0.050246228 0.02383095 0.011314548 0.07371896
0.0053691864 -0.037242483 0.085399546 0.057944942 0.2461006 -0.026922822 -0.083411574 -0.013940967
0.76503795 -0.25016427 1.1542958 -0.7919411 0.17378122 -0.80591154 -0.06411647 -0.09893018
0.055339087 -0.07615987 0.1522458 0.1444347 0.120907225 -0.086428955 -0.09095446 -0.009010673
0.059709217 -0.07896328 0.12393546 0.032240022 -0.09714319 0.06644374 0.23204258 0.048801612
0.08512044 0.08687492 -0.046187103 0.056489658 0.0546072 0.045274734 -0.027295267 0.12415432
-0.06492137 0.021460056 -0.0027397515 1.431555 0.36750388 -0.08125158 0.02313367 0.1911012
-0.0044323923 0.06620043 0.06492163 -0.067326464 0.017781556 -0.060178805 -0.05529387 -0.08354688
0.2299959 -0.010228527 -0.063516416 -0.019855594 0.14801764 0.0377828 0.08509796 -0.06639768
0.18881196 0.3102368 -1.2002978 0.23449406 -0.03009509 0.017432367 -0.06864019 0.0014686466
0.06525999 -0.03406472 -0.024647797 0.069698535 0.21321824 -0.09494326 -0.01961037 0.06746284
0.06059703 0.2767181 -0.05860224 -0.07471956 0.031939078 0.26531056 0.08174884 0.038421024
0.059031297 -0.06902968 0.024036253 -0.010305357 -0.00111686 0.047226466 -0.0749134 0.009646356
0.15967762 0.050187554 1.1915632 0.117645636 -0.07142892 0.07488566 0.2242285 0.082922734
-0.22923332 0.030464137 -0.28633365 0.027936136 0.016041387 -0.2660005 -0.075475745 0.076936364
-0.39568856 0.06975927 0.04587703 0.02592503 0.037461948 -0.30603343 -0.27700874 -0.28111938
-0.050823953 -0.060199965 0.045563545 -0.2928146 -0.0010293722 0.026771689 -0.13554849 -0.0077479007
-0.04801443 0.22773536 -0.14532046 -0.08836203 0.3490694 0.0875175 0.35364535 -0.0007716179
-0.012986243 -0.23678416 -0.05317347 -0.2925888 0.2693602 -0.24758002 0.2780737 -0.0667364
-0.31612954 0.058808673 0.3367587 -0.39855978 -0.065025605 -0.3207169 0.290716 0.27213532
0.067233935 0.006941724 0.27355173 0.2945179 -0.18214399 -0.37039596 0.20199578 -0.08033364

bias f4 [100]
00000000: d8d8 edbe 71cb 5bbe 94cf 90be 69eb 8fbe
00000010: 8e0e 80be f251 87be 26c3 85be be79 7cbe
00000020: b442 8bbe 80ed 66be 1854 b4be c9ed 11be
00000030: f3b9 52be 3426 d4be ff6a 8abe 064f 80be
00000040: 4678 87be 7619 88be f5da fdbe 83ee 80be
00000050: b4a7 44be 120f cdbe 49cc 5ebf 1b09 97be
00000060: cb09 5abe 11ca 86be 598d 65be ae41 b8be
00000070: 4322 6abe a783 54be ab4a b7be 0899 82be
00000080: b86c f4be b44a 4ebe 21c0 a9bf d882 34be
00000090: fb53 a7bd ffa8 6abe 37d7 4fbe 50e2 bdbe
000000a0: 7801 afbe 24f3 1ebe 5f8a a8be 33c5 8bbd
000000b0: 7d49 c3be 98b8 adbe 17b6 97be 2c1f b0be
000000c0: 7d36 62be 5267 53be 0a38 0bbe 5460 cabe
000000d0: be6c 5abd 1ee4 a8be 3f4d aabe 143a 69be
000000e0: 306a b2be dde7 abbe 4503 eebd ab5b a2be
000000f0: 7ed9 debd 80d1 62bd 6f95 a3be 1876 acbe
00000100: e53d 90be f854 43be 20ee 74bd d11a afbe
00000110: c2c9 dabe fcae 2dbe 9cb1 04be 60e7 80be
00000120: 3d93 7abe 16c9 85be 7c7a 5ebe 3f9e 97be
00000130: 35dd 37be 8cb2 813e 18d0 52be a44f 54be
00000140: 194f 263f 4cac 84be 9243 b1bd 17a7 56be
00000150: eb65 a5be 1e61 8dbe bd4a 95be 1ddc 71be
00000160: efc1 a1be 84ec 8fbe ff62 74be f250 73be
00000170: 2cb2 82be a84b 5dbe c396 54be 333d f0be
00000180: 1be5 82be c112 4bbd 7cc4 53be c6a5 5abe
-0.464545 -0.21464325 -0.2828337 -0.2810929 -0.25011104 -0.26429707 -0.2612545 -0.24655816
-0.27199328 -0.22551537 -0.35220408 -0.14250864 -0.20578746 -0.41435397 -0.27034757 -0.2506029
-0.2645895 -0.26581925 -0.49581113 -0.2518197 -0.19204599 -0.4005056 -0.87030464 -0.29499134
-0.21292798 -0.2632604 -0.22417201 -0.3598761 -0.22864632 -0.20753346 -0.35799155 -0.2550738
-0.47739196 -0.20145684 -1.3261758 -0.17628038 -0.08170315 -0.2291603 -0.20296942 -0.37086725
-0.34180808 -0.15522438 -0.3291807 -0.06824722 -0.38142005 -0.33929896 -0.2963111 -0.34398782
-0.22091098 -0.20644882 -0.13595596 -0.39526618 -0.05332636 -0.3298654 -0.3326206 -0.22776061
-0.3484664 -0.33575335 -0.11621717 -0.31710562 -0.10881327 -0.055375576 -0.31949946 -0.33683848
-0.28172222 -0.19075382 -0.059797406 -0.34200147 -0.42732054 -0.16961282 -0.12958378 -0.25176525
-0.2447023 -0.2612998 -0.21726412 -0.2961292 -0.17955478 0.25331533 -0.20587194 -0.20733505
0.64964443 -0.25912702 -0.08655466 -0.20962177 -0.3230432 -0.27613157 -0.29158583 -0.23619123
-0.31593272 -0.28110135 -0.23865889 -0.23761347 -0.2552656 -0.21610892 -0.20760636 -0.4692169
-0.2556542 -0.049578432 -0.20680422 -0.213523

weight f4 [100, 100]
00000000: 633e 92be 6be0 07bf 278f febd 4fa8 723e
00000010: 04c0 813e f0c4 30be e9d9 853e 998c 36be
00000020: 6aff 5bbe 744e 81be d4d4 9fbe f3a9 a2be
00000030: 3138 013e 91cf acbe 9378 8bbe 8a8d 683e
00000040: c9e6 47be a367 293c 5a3b cbbe a19f b13e
00000050: 40ab 54be 2fe3 34bf 53b2 62bf f2be 903e
00000060: 5054 5b3e e698 983e ba0a 8d3e e56e b9be
00000070: a736 a03e 2c50 a33e ae32 75be 4165 90be
00000080: 3b4c fcbe 671e 913e 9e01 dbbf 89d2 63be
00000090: 10e4 5a3d 4284 9a3e aaa2 5ebe dd4e 46be
000000a0: e480 af3e 6f2e 09be 5216 49be ddb7 5b3d
000000b0: 5ce4 aebe bd7c 523e 52b8 eb3c b79b b63e
000000c0: 9e95 5bbe 3da0 32be 53d9 95be 0d47 983e
000000d0: f783 d43d 2755 563e acc9 95be c4ae 9c3e
000000e0: ab8c 513e e2d6 853e 2099 893d 5aaf 58be
000000f0: 9251 683e cd12 483b a6f6 c23e 0e85 82be
00000100: aa47 883e 4aba 8ebe 4da6 2abd 1601 5bbe
00000110: 0c3f e2be 1b15 86bd 1acf 6ebe 8481 b53e
00000120: 5609 76be 5313 873e d585 46be c5cf 803e
00000130: 887e d2bd 5503 45bf 4706 c03e a52a 713e
00000140: 2e60 1340 d661 80be 641b 173e 8426 b53e
00000150: ad31 973e 7a48 b33e 3c7c 593e 2c84 953e
00000160: 6098 b63e a9aa a5be 7ae6 503e fbc4 89be
00000170: 9502 c23e b697 a0be e745 a63e 072a 0ebf
00000180: a96f b33e 6cc0 96bf 32ad cc3e 9c76 ba3e
00000190: b232 933e 52f1 023f f3f5 203e 2bee e8be
000001a0: 3286 91be e7e0 173e ff61 88be 835e 333e
000001b0: ae8b 8c3e 8611 713e 9c14 a53e 7d93 803e
000001c0: ea35 4dbe cd07 ce3e bfc0 8d3e 3bae aabe
000001d0: 1071 093e 886a 043d e9e9 a33e 6ee0 93be
000001e0: f98f 983e a1fd 593f df90 893f deff c43e
000001f0: 1cfd b4be 1731 b8be 4f19 92be bdfc 733e
00000200: 6382 babe 568a 8bbe 3b34 b83e 7af9 ac3e
00000210: 52b8 cebe 6ab9 7bbe 1941 97bf 908f 0a3e
00000220: 870d a23d afe5 8bbe a823 ca3e e73f 393e
00000230: 16df 73be 3818 603e 901f 8d3e 4b36 95bd
00000240: a7e8 a73e 604a a5be b404 233e 1154 5ebe
00000250: ef31 f93d 0351 733e e307 833e f8ef 8fbe
00000260: 64fb a9bd cf67 93be 9f40 ae3e 3882 5bbe
00000270: 41c0 bbbe d8bf c5be 3bf2 9abe a43a 613e
00000280: 0d9e 15bc edf9 b23c e099 633e 24f5 513e
00000290: a75c abbe ccc9 083e 9354 80bd f809 a5be
000002a0: 43cc d53e 892e 073e 0e16 6f3e 44e6 a3be
000002b0: a0c3 893e c2ad b9be 01a1 4b3d 3075 71be
000002c0: 7e02 2f3e 2ec5 1840 ea27 8dbe b209 89be
000002d0: 33cf b43d 5006 913e 4f53 7fbd 014f 88be
000002e0: 5b4f 93be 8d2c a7be b3e3 73be 3b07 8bbe
000002f0: 094c 52be ea79 ca3e 7251 1fbe 6969 9f3e
00000300: 4659 66be 175d 503e 8f00 adbe dce0 acbe
00000310: bd98 73be 8312 8bbd 2055 8abe 014e 82be
00000320: 9715 d8be 7aaa 223f cdfb 2f3e 6425 a6be
00000330: dde8 9abe d64c 2b3e 5d84 59be 144a 223e
00000340: 11e9 cabe 7672 933e c359 adbe e1e5 6d3e
00000350: 0fc7 f5bc 07d3 cdbe 5adb 893e b282 a2be
00000360: ef13 8f3e dcb5 313e 81f2 cabe 2224 bcbe
00000370: 1ff9 3a3e 7212 36bf 4d51 0abc d995 5dbe
00000380: e236 85be 7cc2 86be 8a9a b1be fd21 9f3e
00000390: a997 84be 8db9 53be ab28 493e 7bed 5e3e
000003a0: 5752 01bf f0df 60be a24e a13f 595f ac3e
000003b0: 6a00 18bd ed4b a1be 8ab3 773e 41ad 803e
000003c0: 9457 3dbe c8d7 973e ecbb 4a3e 378a 38bd
000003d0: 1fc1 8bbe 83ae 72be 08b0 babd d74e 60be
000003e0: adf3 6c3e 9ee1 053e 0ccb 423e d714 6bbe
000003f0: 46bd 85be 83a8 bfbe 1fa6 823e 9a3f a4be
-0.28563222 -0.5307681 -0.12429648 0.23697017 0.2534181 -0.17262626 0.26142815 -0.17827071
-0.21484151 -0.25255167 -0.31217062 -0.31770286 0.12619092 -0.3375211 -0.27240428 0.22710243
-0.19521631 0.01033965 -0.3969372 0.346921 -0.20768452 -0.70659155 -0.8855335 0.2827068
0.21418881 0.29804152 0.27547246 -0.36217418 0.31291696 0.31897104 -0.23945114 -0.2820225
-0.4927691 0.28343508 -1.7109869 -0.22248282 0.053440154 0.3017903 -0.21741739 -0.19366021
0.34278023 -0.1339662 -0.19637421 0.053642143 -0.341586 0.20555396 0.028774414 0.35665676
-0.21443793 -0.17443939 -0.29267368 0.29741707 0.10376733 0.2093092 -0.29255426 0.30602086
0.20463817 0.26140505 0.067186594 -0.21160641 0.22687367 0.0030528784 0.38078803 -0.25492138
0.26617175 -0.27876502 -0.041662503 -0.21387133 -0.44188726 -0.06546994 -0.2332119 0.35450375
-0.24026999 0.2638193 -0.1938699 0.25158516 -0.1027804 -0.7695821 0.3750479 0.23551424
2.3027453 -0.25074643 0.14756542 0.35380948 0.29530087 0.35016233 0.21238798 0.29202402
0.35663128 -0.32356766 0.2040042 -0.26908097 0.37892595 -0.31365746 0.32475206 -0.5553288
0.35046127 -1.1777472 0.39975888 0.36418617 0.28749615 0.51149476 0.15718822 -0.45494208
-0.28422695 0.14831887 -0.26637265 0.17516522 0.27450317 0.23541841 0.32242286 0.25112525
-0.20040098 0.40240327 0.27686116 -0.33336052 0.13422036 0.03232816 0.32014397 -0.28882164
0.29797342 0.8515263 1.0747336 0.3847646 -0.35349357 -0.35974953 -0.28534934 0.23826881
-0.36427602 -0.2725398 0.3597735 0.33784086 -0.40375 -0.24582449 -1.1816741 0.13531327
0.079127364 -0.27323672 0.3948033 0.18090783 -0.2381557 0.21884239 0.27563143 -0.07285746
0.32794687 -0.32283306 0.15919763 -0.21711756 0.12167727 0.23761372 0.25591955 -0.2811277
-0.08299902 -0.28790137 0.34033677 -0.21436393 -0.36670116 -0.38622928 -0.30262932 0.21995026
-0.0091319205 0.02184769 0.22226667 0.2050367 -0.33469126 0.1335823 -0.06266131 -0.32234168
0.41757402 0.13201346 0.23348257 -0.32011616 0.26907063 -0.3626538 0.049714092 -0.2357986
0.17090794 2.387035 -0.27569515 -0.2676521 0.088285826 0.2832513 -0.06233531 -0.26622775
-0.2877148 -0.32651177 -0.23817329 -0.27153954 -0.20536818 0.39546138 -0.15558413 0.3113511
-0.22494993 0.20348011 -0.3378949 -0.33765304 -0.23788734 -0.0679064 -0.2701807 -0.25450137
-0.42203972 0.63541377 0.17185898 -0.32450402 -0.30255786 0.1672853 -0.21241899 0.15848571
-0.3963094 0.28798264 -0.33857545 0.23232223 -0.030002145 -0.40200064 0.26925164 -0.31740338
0.27944896 0.1735453 -0.3963814 -0.36746317 0.18259095 -0.71121895 -0.008442235 -0.21639194
-0.26018435 -0.26320255 -0.34688216 0.31080619 -0.25896958 -0.20676251 0.1964442 0.21770279
-0.50516266 -0.21960425 1.2602122 0.33666494 -0.03710977 -0.3150324 0.24189582 0.25132182
-0.1849044 0.29656816 0.19798249 -0.045053687 -0.27295777 -0.23699383 -0.091156065 -0.21905075
0.2313983 0.13074347 0.19022769 -0.22957169 -0.26120967 -0.37433252 0.25517365 -0.32079774

bias f4 [100]
00000000: dd88 8ebe 8995 3bbd 6f23 563e d216 dbbd
00000010: 279d 83bc e46c 51bd 0fe3 a5bc f61c 37bd
00000020: 5559 31bd 5132 4fbb 9cba 21bd ead0 94bd
00000030: d55a 95bd f763 a9bc 1f98 27bc d16a 9b3c
00000040: 5550 84bc 680b 673c 1a9b cabc 3bba 65bc
00000050: d6fb 253d fdbc 323d ea54 02bd 4a8e 493c
00000060: b8b8 91bb f40c b0bc 3b1e 873b 3ea2 783c
00000070: faaa 02ba 11e9 633d 44f4 45bd 71ca 9d3b
00000080: afce e439 0b3c 78bb 56b8 44bd fbb7 eb3b
00000090: e04d 86bc 59ed d03a c95a 34bb 9f80 bfbc
000000a0: 5e0e 26bc 5b3b 7d3b 2031 983c 23da 29bc
000000b0: d558 47bc 5bc6 213d 17fe 503c 3f90 643c
000000c0: 1544 b03a 6d84 2e3c 99f3 023d 6ff1 84bc
000000d0: c7e4 823c 83d9 883b fc4b 6ebc 1d92 88bc
000000e0: 8d23 893c 9f90 1ebb 7e6b 69bd 149c 6fbc
000000f0: 104f 1e3b 78e7 7939 f52a be3b 2a96 813c
00000100: 8910 16bc 32c6 873b 549f 613b 3881 77bc
00000110: fb8c 983c 5c24 2c3b a2b6 cc3b 230a 443d
00000120: 415f f1bc 4e64 6bbb b8eb 0cbb c9fd 0f3d
00000130: 2b51 8fbc cfad 9dbc 86c1 bc3b 94ed 673d
00000140: 4e9b 4a3a 0838 e2bb 5097 8b3c de2e 0c3c
00000150: da73 2fbd 63e4 fe3b 634f 48bc ca70 b2bc
00000160: 6de8 423d 8b0d 8f3b 5701 003c 4a71 543d
00000170: 9a31 573c a28d 093d e192 973c 9bf3 99bc
00000180: 9d73 21bd bacd 8abb d667 b13b c869 7fbc
-0.27838793 -0.045796905 0.20911954 -0.10697712 -0.016066147 -0.051129237 -0.020249872 -0.044705354
-0.043298084 -0.0031615684 -0.039484605 -0.0726641 -0.072927155 -0.02067755 -0.01022914 0.018971832
-0.016151587 0.014101841 -0.024732161 -0.014021452 0.040523373 0.043637265 -0.03181926 0.012301991
-0.004447069 -0.021490552 0.004123477 0.0151754 -0.0004984584 0.05564219 -0.048328653 0.0048153927
0.0004364154 -0.0037877585 -0.04802736 0.007193563 -0.016394556 0.0015939876 -0.0027519932 -0.023376761
-0.010135261 0.0038640115 0.018578112 -0.010366949 -0.012167175 0.039495807 0.012755892 0.013950407
0.0013448024 0.01065169 0.031970594 -0.016228406 0.01597823 0.00417632 -0.014544483 -0.016671235
0.016740585 -0.0024195088 -0.05698728 -0.014624614 0.0024156012 0.0002383272 0.0058034607 0.015818674
-0.009159216 0.0041435 0.0034427242 -0.015106492 0.018621912 0.002626679 0.0062473575 0.04786123
-0.029464366 -0.003591794 -0.0021502804 0.035154138 -0.017494759 -0.019247917 0.0057603745 0.056623057
0.00077288307 -0.006903652 0.017039925 0.008556096 -0.042835094 0.0077786907 -0.0122259585 -0.021782298
0.04758494 0.004365628 0.007812819 0.051865853 0.0131343845 0.033582337 0.018502655 -0.018792918
-0.039416898 -0.0042359503 0.0054139895 -0.015589185
