Results/Nodes_16384/model_weights_with_Jacobian.pth (torch, 127856 bytes, 8 tensors)

weight f4 [100, 2]
000000 4d be 0b bf ad 27 8d be 40 1b 2a 3f 85 5f 4a bf
       -0.5458725 -0.27569333 0.6644783 -0.79052
000010 ef e3 18 3f 9c c7 f1 3e 11 25 98 be 78 76 5e bd
       0.597228 0.47222602 -0.2971578 -0.0543122
000020 46 22 bf be 1d 85 0d 3f 70 5b 24 be fd b5 83 3e
       -0.37330836 0.5528124 -0.16050506 0.25724784
000030 14 69 21 bf 34 82 8e 3f 96 7e ae bc 9f a3 02 3f
       -0.6305096 1.1133485 -0.021300595 0.51030916
000040 4b 17 52 3e 3f 15 80 3b 5e 84 26 3f 3e 2e 3f be
       0.20516698 0.0039087827 0.65045726 -0.18669984
000050 ec cd 39 3d ae 66 8c be 37 ff 18 bf 9c 15 b6 be
       0.045362398 -0.27422088 -0.59764427 -0.35563362
000060 ba 12 3d bf d5 1a 3d 3f 36 44 41 3f b9 2c 1e bf
       -0.738567 0.7386907 0.75494707 -0.6178699
000070 ad 30 1b 3f d9 be 49 bf 6e 1c 39 bf e3 87 4a 3f
       0.6062115 -0.78806835 -0.72309005 0.79113597
000080 a8 45 26 3e a2 01 0b 3c 2b 2b 15 bf 8f a6 90 3f
       0.16237509 0.008484276 -0.58268994 1.130083
000090 ab ae 19 3e bc 8d 67 bd 00 b1 48 3f bc f1 e7 bd
       0.15008037 -0.056531653 0.7839508 -0.11325404
0000a0 f3 28 2d bf 87 00 9e 3e 16 fa 1f 3f 21 09 2f bf
       -0.6764061 0.30859777 0.62490976 -0.68373305
0000b0 b3 26 fb 3d 23 a7 a5 3c c7 93 dc bd 1a 6d d9 bd
       0.12263241 0.020221299 -0.10770374 -0.106165126
0000c0 47 6e d0 3e 1f f0 ed 3d dd d7 78 bf e8 af 82 3f
       0.40709135 0.11618065 -0.9720438 1.0209932
0000d0 57 6e a6 3e d2 1f 3c bf 79 f9 57 3f 5c bf 56 bf
       0.32506058 -0.73486054 0.8436504 -0.8388574
0000e0 03 c9 21 be 5e 9a 68 be e3 5e 74 be 19 84 e7 3d
       -0.15799336 -0.22715136 -0.23864321 0.113044925
0000f0 f8 a7 03 3e 43 99 96 3e 4e 96 1e 3e 18 b4 25 bf
       0.12857044 0.29413804 0.15487024 -0.64727926
000100 46 e4 99 3e ab 61 37 be 43 71 32 be e7 4d 1c bf
       0.3005697 -0.17908351 -0.17426018 -0.6105637
000110 cd 1f 27 bf 73 2e fa 3e 26 3f ba be 32 8f c7 3e
       -0.652829 0.48863563 -0.36376303 0.38976437
000120 f9 d6 f6 3e a9 9c 7e 3e 5b a6 7b be 83 c9 af be
       0.48210886 0.24864449 -0.24575178 -0.3433343
000130 a6 34 36 3f 9e aa 01 3f de e9 22 3f 07 35 4b 3f
       0.71174085 0.50650966 0.63638103 0.7937779
000140 09 3d 34 bf d4 c6 f6 3d c6 f2 3b bf 49 c3 8c 3e
       -0.7040563 0.12049642 -0.7341732 0.2749274
000150 64 8f 8a 3d b0 71 47 bf f9 65 32 be 75 49 38 bd
       0.06765631 -0.7790785 -0.17421712 -0.04499193
000160 ee e5 74 be 76 bf 05 3f eb c4 21 bf fa 7d e9 be
       -0.23915836 0.5224527 -0.631911 -0.45603925
000170 24 d0 2b be 30 9c e2 3e 89 4e 16 bf 6b e3 e0 3e
       -0.16778618 0.44259787 -0.58713585 0.43923506
000180 91 6d 8f 3e 72 d2 09 3f 09 2b aa be e5 ae f3 be
       0.2801328 0.5383674 -0.33235958 -0.4759437
000190 3c f7 61 3e db 64 41 3e ee a3 3d 3f 92 7f 3d bd
       0.22066969 0.1888613 0.7407826 -0.04626424
0001a0 42 86 a9 3e c7 6e 49 be 80 61 c2 bd 89 d6 00 bf
       0.33110243 -0.19671164 -0.09491253 -0.50327355
0001b0 22 e5 fb 3e 52 09 4b 3e 42 d4 2f bf 86 f5 eb 3e
       0.49198252 0.19827774 -0.68683255 0.46085757
0001c0 aa bd 05 3f ac 7f bd 3e e8 87 b1 3e c8 0d 2b bf
       0.5224253 0.37011468 0.34674 -0.66817904
0001d0 f8 03 02 3f 7c 33 18 3f 9c e1 ad be 49 15 39 be
       0.50787306 0.5945356 -0.3396119 -0.18074526
0001e0 e3 b3 79 be 3b d2 1b 3f 49 73 f0 be 35 09 17 3e
       -0.24385028 0.6086766 -0.46962956 0.14749606
0001f0 87 88 3d 3f f3 b3 1a 3f cd 54 95 3e df f1 05 3f
       0.7403645 0.6043083 0.2916626 0.5232219
000200 13 e7 09 bf 51 5a 73 3d 33 91 0b bf 00 94 7e be
       -0.53868216 0.059412304 -0.5451843 -0.24861145
000210 8b 31 26 3f 7b 11 0f 3f c3 b6 21 3f 48 64 13 bf
       0.64919347 0.5588605 0.631695 -0.5757489
000220 b8 75 21 be e6 50 36 3f 70 04 b0 3e 0e f1 e8 be
       -0.15767562 0.7121719 0.34378386 -0.4549641
000230 a3 b5 07 3f 97 9f 86 be 32 2e 25 3f f3 e6 bd be
       0.5301153 -0.26293632 0.64523613 -0.37090263
000240 a5 1d 80 3d 77 a0 94 be 5d dc df be 96 45 28 be
       0.06255654 -0.29028675 -0.4372281 -0.16432795
000250 0c d0 45 3e 43 a6 6b be 5c 0f 3f 3f 50 fd f9 be
       0.19317645 -0.23012643 0.7463281 -0.48826075
000260 1f d3 88 be aa d6 eb be 85 b6 0a bf 23 ee 40 3f
       -0.26723573 -0.46062213 -0.5418475 0.7536337
000270 f3 24 2d 3f 39 f8 0b bf 68 2c 82 3e 81 03 d2 3e
       0.67634505 -0.5467563 0.25424504 0.41018298
000280 62 10 c3 be fc 05 31 bf 6d ab 2e 3e 4c b5 3e bf
       -0.38098437 -0.69149756 0.17057581 -0.7449539
000290 27 53 7d be 97 e0 5f 3f 56 05 1e 3d e2 39 18 3f
       -0.24738751 0.8745207 0.038579307 0.5946332
0002a0 b5 6b 13 3f c7 ab ba 3e 1f a4 8d be 9c e1 8e be
       0.5758622 0.3645918 -0.27664277 -0.279065
0002b0 9e 1e 25 bf 4e 32 d4 be d3 e6 c2 3e 01 63 9e 3e
       -0.64499843 -0.4144463 0.3806673 0.3093491
0002c0 f8 cc cd be fa f1 d0 3d dd 0d 20 be a9 58 e5 3e
       -0.4019544 0.10202403 -0.15630288 0.44794205
0002d0 fc 86 c5 be 39 41 e9 bc f4 c2 9a 3e f1 98 84 3d
       -0.38579547 -0.028473483 0.30226862 0.06474484
0002e0 38 c4 42 be c9 d0 d0 3e 91 db 1c bf 11 e4 a8 3b
       -0.19020164 0.4078429 -0.6127253 0.0051541408
0002f0 ea 41 4c bf e0 c5 09 3f 7f db b2 be bf 3c b5 3e
       -0.79788077 0.5381756 -0.34933087 0.35397908
000300 19 05 87 bd 4d b8 b3 be 7b 2d 4b 3f 32 a7 2c bf
       -0.06592769 -0.35101548 0.7936627 -0.6744262
000310 f0 ca d5 3e f1 96 23 3f 9e ae 28 bf 6d 45 92 3e
       0.41756392 0.63902193 -0.65891445 0.28568593

bias f4 [100]
000000 a2 e8 1e bf dd 44 b1 3e d2 94 e4 be df 89 55 be
       -0.6207372 0.3462285 -0.4464479 -0.20853375
000010 db 20 b3 be f1 d2 9c 3e 64 70 b6 bd f6 2d 11 bf
       -0.34986004 0.30629686 -0.089081556 -0.56710756
000020 1a 36 07 bf aa c6 b6 bd 9f 43 e0 be bd fc 20 3e
       -0.5281693 -0.08924611 -0.4380159 0.15721412
000030 c4 55 04 3f c0 2b 6a 3e 76 ca 21 3e c1 9b 2f 3f
       0.5169337 0.22868252 0.15799889 0.68597037
000040 a3 06 20 3e 22 46 d3 bd 39 73 07 bf 75 65 f5 3b
       0.15627532 -0.10316111 -0.5291019 0.0074889013
000050 51 08 06 bf ef c2 3e bd 42 7a 0f bf 96 2a b0 be
       -0.5235644 -0.046572622 -0.56045926 -0.3440749
000060 43 06 96 be e3 5b 38 3d 8e f1 0d 3e fd 2b 4a bd
       -0.29301652 0.045009505 0.13861677 -0.049358357
000070 88 89 b3 be b8 95 29 bf 55 38 3d 3e ea 2d 2d 3f
       -0.35065866 -0.6624408 0.1847852 0.67648184
000080 32 2a b6 3e b6 14 f3 be 88 14 1c bf c2 c2 1c bf
       0.35579067 -0.4747674 -0.6096883 -0.61234677
000090 c4 53 fd be e7 3d ee be e0 31 11 3f ef 2a 64 be
       -0.4947797 -0.46531603 0.5671673 -0.22282003
0000a0 07 4f e9 3e fe 99 b3 3e f2 bd 88 3e 48 ca 30 bf
       0.45568106 0.35078424 0.26707417 -0.69058657
0000b0 7e 25 30 3f 61 75 f9 3e b6 b7 28 bf 00 fa ed be
       0.6880721 0.48722365 -0.6590532 -0.46479797
0000c0 5b 37 85 3e e8 16 15 be 91 a5 fe be 3a bf a0 3d
       0.26018795 -0.1455952 -0.49735692 0.078489736
0000d0 7a 11 2a bf 4e dd 11 3f fe c5 fc 3e be ed ff 3e
       -0.6643292 0.5697831 0.49369806 0.4998607
0000e0 d0 63 6e 3e 9c f8 e0 be be 72 77 be ad 15 d0 3e
       0.23280263 -0.43939674 -0.24164864 0.40641537
0000f0 1b 70 18 3e 19 3f 24 3f 1b 76 dd 3d 9f 27 10 bf
       0.14886515 0.6415878 0.108135425 -0.56310457
000100 97 5f e6 be 34 18 11 3f 5d 11 b4 3e 89 dc 06 3e
       -0.44994804 0.56677556 0.35169497 0.13170065
000110 dc b0 cd 3d b3 b0 c3 3e ee 10 31 bf 31 52 2e bf
       0.10043499 0.38220748 -0.6916646 -0.68094164
000120 67 09 b3 be c3 dc ac be bc 4c a6 bd d3 12 58 3e
       -0.3496811 -0.33762178 -0.08120105 0.21100931
000130 d2 a8 42 be c8 75 91 3c e5 39 0b bf d2 6f 96 be
       -0.19009712 0.017756358 -0.54385215 -0.29382187
000140 f7 d9 19 3f da e9 14 3f c4 e8 b5 bc 5e d9 56 3e
       0.6009821 0.5816933 -0.022205718 0.20981357
000150 fd 99 f3 3e 61 a6 0c 3f 96 fb 6e bc 33 bb e9 be
       0.4757842 0.54941374 -0.01458635 -0.45650634
000160 fd f8 57 be 84 cb bf 3e 0a 76 a5 be e8 24 90 3e
       -0.21091075 0.37459958 -0.3231662 0.28153157
000170 92 72 02 bf ff 07 c2 3e dd 1e 11 3f b4 ab ff bd
       -0.5095607 0.37896726 0.5668772 -0.12483922
000180 fb 91 34 3f 8a 4c a7 3e 14 ec 09 bd a8 65 1e be
       0.7053525 0.32675582 -0.033672407 -0.15468466

weight f4 [100, 100]
000000 b3 a1 f6 3b 67 21 65 bd 40 76 6e bc 78 3e bd bd
       0.0075266003 -0.055940058 -0.01455456 -0.092404306
000010 ad b1 09 3d cd 2a 40 3c 93 da 9f bd 07 bf b8 bc
       0.03361671 0.0117289545 -0.078053616 -0.022552026
000020 4a 95 0f 3d bd 7f 81 bd 4d 57 25 3d 4a 68 94 bd
       0.035054483 -0.06323192 0.04036646 -0.07246454
000030 33 78 ae 3b 33 e9 5a bc 43 d6 96 bd 0d 24 83 bc
       0.0053243875 -0.013361263 -0.07365086 -0.016008401
000040 6a c4 42 bd 20 ad 93 bc b3 94 3a 3c 33 99 81 bc
       -0.047550596 -0.018026888 0.011387992 -0.015820121
000050 a7 2d 3a bc 70 bd a3 3d f5 11 9e 3d f0 9e 53 bd
       -0.011363423 0.07995117 0.07718269 -0.051665246
000060 b3 81 58 3c f7 d9 19 3d b3 ac db 3b 33 7c 00 3c
       0.013214516 0.037561383 0.006703937 0.007842111
000070 93 4a 1d bd fa a8 95 3c c0 aa 6d bd 2d 74 ae bc
       -0.038401198 0.01826905 -0.058024168 -0.021295631
000080 4a ab 33 bd 10 28 0c 3d 6a f0 0e 3d 0f 7e af bd
       -0.043864526 0.034217894 0.034897245 -0.08568966
000090 cf 81 a1 bd 00 70 f6 3a 73 3c f6 3c ed 2f c4 bd
       -0.07886087 0.0018801689 0.030058121 -0.095794536
0000a0 67 b9 ff 3b 8a e3 74 bd f8 b8 b0 bd cf a2 b3 3d
       0.007804084 -0.05978731 -0.0862903 0.08771288
0000b0 3f 57 83 bd 50 5b 43 bd 6d f2 c5 3d 47 0a 75 bd
       -0.06413125 -0.047694504 0.0966538 -0.059824254
0000c0 7a 09 27 bd 83 80 77 bd 3d fa 56 bd 9a 78 40 3c
       -0.040780522 -0.060425293 -0.05248474 0.011747504
0000d0 f7 95 55 3d 7d b4 05 3d 40 7d ec bc 7a d7 d8 3c
       0.05214497 0.03264283 -0.028868318 0.026469935
0000e0 ca 99 96 bd 87 1c 9a 3d 10 60 92 bd 0d 14 3c 3d
       -0.07353552 0.075249724 -0.07147229 0.04591756
0000f0 92 fa 9d bd fd 0f 2e bd 5b 55 ba bd cd c1 73 3c
       -0.07713808 -0.042495716 -0.090983115 0.014877749
000100 aa a4 4b 3d b3 ef 8d bd 50 76 16 3d c7 40 bf bc
       0.049717583 -0.069304846 0.036733925 -0.023346318
000110 73 3b a9 3c c8 f3 8b bd 23 c9 97 bd 67 5c 6e bc
       0.02065823 -0.06833607 -0.07411411 -0.014548398
000120 10 6c 23 3d db 9c c7 bd 98 1c 86 bd 3f 61 9b bd
       0.03989798 -0.09746715 -0.065484226 -0.075869076
000130 40 fd 8b bc 93 00 93 bd 6a a8 5c bd aa 35 3c bd
       -0.017088532 -0.07177844 -0.05387155 -0.045949616
000140 55 fa 8a bd 73 83 70 bd 6a ec 32 bd 67 14 dd bc
       -0.06786028 -0.05871911 -0.043682493 -0.026987268
000150 9f 7d a5 3d b3 28 88 bb 67 f3 ad 3d 1a 82 16 3c
       0.08080601 -0.0041552423 0.08493691 0.009186292
000160 63 b1 3f 3d 53 01 12 3d 67 b2 be bb 9b f4 c0 3d
       0.04680003 0.035645794 -0.005819607 0.09421655
000170 20 ad 6c bd 5a c8 df bc ed eb 91 3c 40 df 01 3c
       -0.057782292 -0.027317215 0.017812693 0.007926762
000180 0d 78 1b bd d7 89 64 3d 5d 65 ba bd 57 77 bb 3d
       -0.037956286 0.055795517 -0.09101365 0.09153622
000190 9a 5a d0 3c 9f 4f d3 3d 2d 6f b8 3d 2d 19 1a bd
       0.025433827 0.10317921 0.0900558 -0.037621666
0001a0 10 d7 c8 bd 76 ce 65 be c0 54 da bd 6a 8f 5a bd
       -0.09806645 -0.2244204 -0.10660696 -0.053359427
0001b0 5a df ea 3c 48 4c f7 3d 8f 6b 83 3d 65 03 15 3e
       0.028670955 0.12075096 0.064169995 0.14552076
0001c0 57 c7 3a bd 2c 4b 6d 3e 72 ea 00 3e e6 10 51 be
       -0.04560026 0.23173207 0.12589434 -0.20416602
0001d0 4c 7f e2 3c 3e 8c 55 be 7d 67 97 bd 35 22 70 3d
       0.02764859 -0.2085428 -0.07392786 0.058626372
0001e0 d3 76 83 bc 9a 1a 04 3d 27 c8 50 bc 4d 25 8f 3c
       -0.01604787 0.03225193 -0.012743033 0.017473841
0001f0 0d 02 6d bc 70 cb 41 be ad 71 03 3e 5f 57 8f 3d
       -0.014465821 -0.18925261 0.12836333 0.069990866
000200 27 c7 9f 3d 4b d9 b4 bd cc 8f 22 be 82 34 69 3d
       0.07801657 -0.08830508 -0.15875167 0.05693484
000210 2f 38 08 3e 90 7f 3e bd 28 bc b8 3d 33 1e 96 bd
       0.13302682 -0.04650837 0.09020263 -0.07329979
000220 0a 84 8d bd a7 94 27 bc 94 75 8f bd fc 1e 79 3e
       -0.0690995 -0.010228313 -0.07004848 0.24328226
000230 22 f5 8f bd f0 96 1d bd 2e 80 19 3e aa 74 bc bd
       -0.07029177 -0.038474023 0.14990303 -0.092019394
000240 e6 f7 e1 bd 25 0f c5 3d f3 ce bc bc 3d d9 03 3d
       -0.11033611 0.09622029 -0.0230479 0.032189596
000250 ea 45 31 be e2 33 b9 3d 7a e5 8a bd 03 9a 21 3e
       -0.17311826 0.09043099 -0.067820504 0.15781407
000260 73 7e 95 3d 24 d7 3a 3e 09 5f ca bd b4 24 7f be
       0.07299509 0.18246132 -0.09881408 -0.24916345
000270 1b 88 9b bc 00 6c a6 bd 83 f1 aa 3d 0e 65 72 3d
       -0.018985799 -0.08126068 0.08346846 0.059178405
000280 37 38 52 be 07 1d cf bd 2d df 29 bc e0 b5 ab bc
       -0.20529257 -0.101129584 -0.010368151 -0.020960748
000290 ba e4 e9 bc 2b d7 4c 3b fa f5 7e bd 9c 76 1d 3e
       -0.028551448 0.003125618 -0.0622463 0.15377277
0002a0 a7 5e 97 bc 6a 2d bd 3c 2d c3 eb 3c 42 83 84 bd
       -0.018477751 0.023092944 0.02877959 -0.06470348
0002b0 17 13 64 3d 47 34 dd bc 43 a6 b5 3d ce b9 db 3d
       0.055682268 -0.027002467 0.088696025 0.10728799
0002c0 50 88 c8 bd b4 7d 9f bd 58 91 bf 3d 2a df 60 bd
       -0.097916245 -0.07787648 0.09353894 -0.054900326
0002d0 6b 06 f6 3d 90 37 af 3d de 0e 1d be 61 22 ae bd
       0.12012943 0.085555196 -0.15337703 -0.08502651
0002e0 da fc fb bd dc 76 a7 3c ad f2 bb 3d 48 a9 a1 bd
       -0.12304087 0.020442419 0.09177146 -0.07893616
0002f0 ed 09 87 bc bb 8e 19 bd f3 b5 35 bc 27 d2 93 3c
       -0.016484225 -0.037489634 -0.011090743 0.018044544
000300 cd 36 a2 3d cd 95 57 bd 12 2f 2c be 7a 1f 97 bc
       0.07920609 -0.052633096 -0.16814831 -0.018447626
000310 37 4d 11 3e e0 d8 d7 3d 0e cf 65 bc 67 86 a1 3a
       0.14189611 0.105394125 -0.014026416 0.001232338
000320 ef 5d a4 bd cd 67 13 3d ed 3b bf 3c 7a 5f f9 3c
       -0.08025729 0.035987664 0.023344005 0.030441035
000330 67 d8 dd 3a dc 09 bf 3d 76 b1 fc be a7 c4 be bc
       0.0016925455 0.093280524 -0.49354142 -0.02328713
000340 8b 92 c0 bd ea 77 26 3e 37 4b cc bd cb 69 0a 3e
       -0.09402951 0.16256681 -0.099752836 0.1351692
000350 a2 f3 3b bd 40 7b 22 bd 89 19 ce bd 0f f9 9d 3d
       -0.045886643 -0.03966832 -0.10063464 0.0771352
000360 ea 7d 08 bb cc dc ce be 1a 51 80 3d db 5f b7 3d
       -0.0020827004 -0.4040283 0.06265469 0.0895383
000370 82 d8 bf 3d 0b a9 28 3e 7a 57 39 bd 02 94 a9 3d
       0.093674675 0.16470735 -0.04524944 0.082801834
000380 da 6f 35 3d ae 09 1e 3e ca 4a be bd 6a c0 0e 3e
       0.044296123 0.1543338 -0.09291609 0.13940588
000390 ca 8d 6f 3d ba 87 91 3c df 13 8e 3d 4b 28 ae bc
       0.05848483 0.017764915 0.06937384 -0.021259448
0003a0 24 f2 69 3d 67 97 29 3c e7 a1 ac 3b 93 ae b6 3c
       0.05711569 0.010351039 0.0052683237 0.02230004
0003b0 ea 95 9f 3d 83 53 7c 3d 18 a2 a4 3d b8 d0 69 3b
       0.07792266 0.06160308 0.080387294 0.0035677385
0003c0 86 f5 30 3d 76 5b b5 3c 67 b5 5f 3d 2a 45 21 3d
       0.0432029 0.022138339 0.054616358 0.0393726
0003d0 ec dd 97 3c 98 21 c7 3c 33 b2 dd bb 27 f4 19 bd
       0.018538438 0.024308011 -0.006765628 -0.037586357
0003e0 a5 3d 84 bd 67 b2 0a bb 68 80 9c 3d 91 8b cf 3d
       -0.0645707 -0.0021163465 0.07641679 0.10134042
0003f0 ca 32 84 3d 63 ca 67 3d 02 8c 49 bd e9 34 bb 3c
       0.06455 0.056589495 -0.049205787 0.022852378

bias f4 [100]
000000 40 fe 89 3d 09 37 69 be c3 3a 18 be 8d b4 ea 3c
       0.067379475 -0.227749 -0.14866166 0.028650546
000010 6f ed 1a 3c 30 0e 98 bd 73 70 80 bd 30 19 78 bd
       0.009456023 -0.07424581 -0.06271448 -0.060570896
000020 cd f7 ba bc 8a 2f 2a 3e b6 43 85 3c 6a f4 3f 3c
       -0.022823239 0.16619697 0.016267639 0.011715988
000030 45 c3 5e be 02 93 56 3d 7d a3 b9 3d f9 4f 2c bd
       -0.21754177 0.05238629 0.09064386 -0.042068455
000040 43 03 96 3d a7 a3 1d bd 93 5b ca 3d 4d 5a 86 bb
       0.07324841 -0.03848615 0.09880748 -0.00410012
000050 dc 03 06 be 15 14 fa 3d 7c 2e a7 bd 29 30 91 bd
       -0.1308741 0.122108616 -0.08163163 -0.07089264
000060 a3 12 58 3c 52 87 4e 3d 25 fd 6d 3d f3 9e 92 bc
       0.013188037 0.05042202 0.058102746 -0.017898059
000070 4f 33 0b 3d 53 ac b7 bd 70 73 0e bd 2f ac 22 be
       0.03398448 -0.08968415 -0.03477806 -0.15885995
000080 10 3d 32 bd dc 11 39 3e 68 de a6 3d 0a 1e ba 3d
       -0.043515265 0.18073219 0.081478894 0.09087761
000090 d3 4f 8f bc f0 fa 4c bd ad 84 37 be ed 81 80 be
       -0.017494118 -0.050044 -0.17921706 -0.25099126
0000a0 bb b4 a7 bd fe e1 2d be d5 d1 bd bd 08 24 f7 bd
       -0.081887685 -0.1698074 -0.09268538 -0.12067419
0000b0 da da 40 bd 9a 8f af bb de af 9a bd 76 9a 2b be
       -0.047083713 -0.005357695 -0.07553075 -0.16758141
0000c0 49 5e 8e 3d d7 7c 98 bd c2 22 fb bb 68 04 a7 3d
       0.06951577 -0.07445686 -0.0076640556 0.08155137
0000d0 5d b5 90 bd 6a 8c 2d 3d c7 47 84 3d 06 1c 93 bd
       -0.07065842 0.042370237 0.06459003 -0.071830794
0000e0 a4 5b 18 bc 5a 64 72 bd 87 db 46 bd 82 cd 58 bc
       -0.009299193 -0.059177734 -0.0485492 -0.013232591
0000f0 82 3d 69 be 2a 0e 85 bc 35 ba e8 3d cd a1 0a bb
       -0.2277737 -0.016242106 0.11363641 -0.002115357
000100 a7 d7 6b 3c 3e 69 06 bd 8e d4 de 3c 78 bf 9a be
       0.014394677 -0.03281521 0.027200963 -0.30224204
000110 3d 67 d9 3c f3 fd b8 bc 4c 85 6e bd 81 93 21 3d
       0.026538486 -0.02258203 -0.05823259 0.03944731
000120 5f 3b 47 3e 08 44 a2 3b c4 70 1a be af 39 e7 3c
       0.19456242 0.0049519576 -0.15082079 0.028225748
000130 2b 88 4e bd 2e ba f0 3c 27 8d ae bd 4d 69 8e 3b
       -0.05042283 0.029385652 -0.085230164 0.004346049
000140 d5 d9 13 bd 82 bc 91 3c df c5 e0 bd 0f 2b da 3c
       -0.036096413 0.017790083 -0.10975241 0.02663186
000150 3b e3 bc bd 0d 19 17 3c 4f f4 33 3d 02 54 0f be
       -0.09223028 0.009222281 0.043934163 -0.1399689
000160 68 ed 92 3d ee d6 d5 bd 9a 78 fd 3d ed 2e 21 bd
       0.07174188 -0.10441385 0.123765185 -0.039351393
000170 7c c0 9b 3d a5 0f 60 bd 26 f9 37 bd 11 5c 91 3c
       0.07605073 -0.05470242 -0.04491534 0.017744096
000180 c6 25 55 3e e8 05 a9 3d 9a c0 2d 3d 53 00 d8 bc
       0.2081519 0.0825308 0.042420007 -0.026367342

weight f4 [100, 100]
000000 65 0b 8e 3d c6 b8 1a 3d 10 a8 cc 3c 87 66 32 3d
       0.06935767 0.03777387 0.024982482 0.04355481
000010 c2 bd e8 bc 5a 06 69 3d f7 ab 2e bd fa d5 af 3d
       -0.028410796 0.056890823 -0.042644467 0.08585735
000020 b0 8b 3f bd d5 fe 4e 3e 55 12 c8 bd f8 e1 b6 bd
       -0.046764076 0.20214398 -0.097691216 -0.08929819
000030 a7 74 c2 3c 34 da 95 bb 86 ae 51 bd ac a5 9f 3d
       0.023737265 -0.004573131 -0.05119183 0.07795271
000040 c0 a1 fd 3c c5 2a 05 be 40 06 d8 3c ca e0 0f bd
       0.030960917 -0.13004597 0.026370168 -0.035126485
000050 cb eb 17 3d 95 48 88 3e e4 bf 6e 3d 84 db 15 bd
       0.037090104 0.26617876 0.05828847 -0.0365863
000060 3d 33 04 3e e0 c5 51 3d 67 38 86 be fd 9f 68 3d
       0.12910171 0.0512141 -0.26214907 0.0567932
000070 ea 84 b5 bd 00 16 1b bc 38 1e 35 3d f0 44 01 3e
       -0.08863242 -0.009465694 0.044218272 0.12623954
000080 62 ed 95 3d 73 c7 a0 bc 37 0a b6 3d d6 7e d1 3d
       0.07320668 -0.019626355 0.08888667 0.1022927
000090 f3 38 35 bc 73 cd 7e 3d 83 32 c6 bd 99 ef 3d bd
       -0.011060941 0.06220765 -0.09677603 -0.046371076
0000a0 e6 65 3e be 28 b4 76 bc 1a ec ba bc f5 ca 73 3e
       -0.18593559 -0.015057601 -0.02281766 0.2380789
0000b0 58 56 91 3d 50 e3 bf bd e1 b9 b1 3d 23 d6 1f 3e
       0.07096547 -0.09369528 0.08678032 0.1560903
0000c0 a8 0e a2 bd 27 38 af bd a3 b6 8e 3d b1 9e 53 3e
       -0.07912952 -0.08555632 0.06968429 0.20666005
0000d0 99 74 00 be 00 f0 d0 39 cc 48 3a 3e 4d 2a 28 3e
       -0.12544478 0.00039851665 0.18191832 0.16422386
0000e0 98 3b 33 3d c0 00 57 3c 50 30 8a bc b6 79 a7 3c
       0.043758005 0.013122737 -0.01686874 0.020443778
0000f0 fe 34 24 3e 7b 56 f0 bc c5 59 3d 3d cd ce 1c 3d
       0.1603584 -0.029338112 0.04622819 0.038283158
000100 cd a9 88 bb c2 b6 09 3e 7c 5d 71 3d be 1e 64 bd
       -0.0041706325 0.13448623 0.058927044 -0.05569338
000110 bf 9b 10 3e a2 dc 88 3d f3 2e 95 3c 84 d6 85 bd
       0.14121912 0.06682707 0.018210864 -0.06535056
000120 75 4f a2 3a 62 ed f7 3d 75 52 ff bd 82 d1 35 3e
       0.0012383299 0.12105824 -0.12466899 0.17755702
000130 50 67 db bc ad 5b 0a 3e a7 fc 36 bc 18 e0 8c bd
       -0.026782662 0.13511534 -0.011168635 -0.0687868
000140 a5 b9 b6 3d fb 34 94 bc af e4 dc 3d 6d 7a 10 3e
       0.08922128 -0.01809167 0.107858054 0.14109202
000150 c3 1d a6 bc a0 91 f5 bc 9e 00 1a 3e 52 34 e8 bc
       -0.020277863 -0.029976666 0.15039298 -0.02834526
000160 db 82 45 be 42 16 3d 3e e9 5d 22 bd 7a f6 33 3d
       -0.19288199 0.18465522 -0.03964034 0.04393623
000170 5b 28 2c bd 80 88 34 bd 51 94 97 bc 95 ea 43 3d
       -0.042030673 -0.04407549 -0.01850334 0.047831137
000180 fe f7 d0 3c 66 a9 58 bd 00 e2 f1 3b 67 c4 56 bd
       0.025508877 -0.052895926 0.0073816776 -0.052433398
000190 28 58 95 bd 11 27 95 3e 77 ca 42 3e cf eb 90 bd
       -0.07292205 0.29131368 0.19022547 -0.07076227
0001a0 fa 17 5a be fa 0d a5 3c 2d eb b9 bd d3 22 ac bd
       -0.21298209 0.020148266 -0.09078059 -0.0840508
0001b0 d8 68 94 bd 12 d8 3b 3e 19 74 a2 3e 31 ef dd 3d
       -0.0724656 0.18344143 0.317292 0.10836638
0001c0 e6 4f 2d 3e 6d 46 58 3d 89 c4 b0 3e 3e c9 29 3e
       0.1692501 0.05280154 0.34524944 0.16580674
0001d0 fd 11 3c bd 88 cd 36 be 00 ee 8a 3a 87 4e 20 bd
       -0.045915592 -0.17851841 0.0010599494 -0.03913739
0001e0 8a 46 13 bd 7f 4c 28 3e eb 08 e4 bd 28 9b 4a 3e
       -0.035955943 0.16435431 -0.111345135 0.1978575
0001f0 3e 2a fb 3b bd 3d f1 3d a3 4f 9e 3e f8 6f c4 bd
       0.007664948 0.11779354 0.30920133 -0.09591669
000200 fc 3b c9 3b b3 c8 04 3d 54 1c 92 be 52 b6 12 bf
       0.006141184 0.032417964 -0.28537238 -0.5730945
000210 4d 20 18 3d b9 73 f0 3d a7 9a b3 3d 35 b9 12 b9
       0.03714018 0.11740822 0.08769732 -0.0001399264
000220 8a c4 21 3d 80 77 00 bc 01 43 85 3e 24 4f a8 3d
       0.039494075 -0.007840991 0.26027682 0.0821822
000230 55 7f c6 bd 3f d0 29 3e 60 f7 21 bd de 83 c3 3e
       -0.096922554 0.16583346 -0.039542556 0.38186544
000240 cd 10 65 3a 5a f0 9a bd 6e 73 7f 3e c4 ef de be
       0.000873816 -0.07565375 0.24946377 -0.43542302
000250 f5 78 ae 3b c0 61 39 bc 33 0f 01 3e a7 6d ae be
       0.005324478 -0.011314809 0.12603454 -0.34068033
000260 06 da e6 bd 87 ef 4a bd 13 c1 61 3e 80 2b 48 3d
       -0.112720534 -0.049544837 0.22046308 0.04886961
000270 03 ac f4 3c 73 25 8f bc 96 d8 1e 3e 16 33 00 bb
       0.029867178 -0.017473912 0.15512308 -0.00195617
000280 97 31 fa bb 13 ac d1 3d e8 31 14 3d 67 9b 70 bc
       -0.007635306 0.10237899 0.036180407 -0.014685488
000290 d2 60 a1 bd 21 0d 80 3e 72 18 43 be bf 73 ea 3d
       -0.07879795 0.25010017 -0.19052294 0.11447858
0002a0 90 00 d2 be 20 d6 88 bd 33 de 72 3e ac 6a 40 3d
       -0.41016054 -0.06681466 0.23717575 0.04697673
0002b0 5e c8 b7 be 7b 8a 59 be 03 7b e7 3e c5 e4 36 3e
       -0.35895056 -0.21244232 0.45211038 0.17860706
0002c0 d0 5a dd 3d d6 e5 b2 3e 00 7a a8 3c 58 06 59 be
       0.10808337 0.34940976 0.020565987 -0.21193826
0002d0 0a 84 8c 3e 17 03 31 3e 5c 74 98 3e f7 50 05 bd
       0.27444488 0.17286335 0.29776275 -0.032547917
0002e0 d3 d8 a7 bd 8d f1 bd bc 4d 1a 86 3d bc 76 40 3e
       -0.08195653 -0.02318647 0.06547985 0.18795294
0002f0 aa 43 1a bd 6e 4f c0 3d f0 2c 8a be 3b 5b ab bd
       -0.037662186 0.0939015 -0.2698741 -0.0836701
000300 6f 1f fe 3d e2 5c 8c 3e 3b 28 f9 bd 43 34 5b 3e
       0.12408339 0.27414614 -0.121658765 0.21406655
000310 ae 07 82 be f0 7c 38 3e ba 20 4f 3d c3 6f 06 bd
       -0.25396484 0.1801641 0.05056832 -0.032821428
000320 0d 4a 18 bd cd 2b 16 3e 73 ab 87 3a 53 f1 c8 3d
       -0.037179995 0.14665146 0.0010350778 0.09811654
000330 e0 98 87 3e e7 f3 7e bc 35 cc b9 3d f0 0e 33 3d
       0.26483822 -0.015561081 0.090721525 0.043715417
000340 cd cd cd bb f2 4b ef 3d 94 88 a5 3b b1 bb 28 3e
       -0.006280637 0.11684407 0.005051682 0.16477849
000350 8a 00 90 3d 74 a5 55 3c cc be bb bd 98 66 9d bd
       0.07031353 0.013039935 -0.09167251 -0.07685584
000360 cd 80 0b bc a2 f4 84 3c 00 49 5a 3b b3 f3 94 3b
       -0.008514595 0.016229931 0.0033307672 0.004545653
000370 6e 0c b0 bb 92 19 3f bc 7e 02 35 bd 17 db 4b be
       -0.0053725755 -0.011663811 -0.04419183 -0.19907795
000380 c7 26 9a bd f9 95 fc 3d 70 ba cb bd 90 3f 48 bd
       -0.075269274 0.123332925 -0.099476695 -0.048888743
000390 ea 31 62 3d 4d 48 32 bd 2b 3f a9 3e a6 a2 b6 3d
       0.055223383 -0.043525983 0.33056006 0.089177415
0003a0 5a 31 5c 3d 81 99 b1 bd d0 57 ae bd 22 e3 75 3d
       0.053758003 -0.08671857 -0.08512843 0.060031064
0003b0 f3 f1 17 3d b3 bd 85 bd a3 68 84 3d 98 f9 18 3e
       0.037095975 -0.06530323 0.0646527 0.14938962
0003c0 aa 9a d9 bc f8 95 01 bd 0d 8c 02 bd 91 b1 87 be
       -0.026563007 -0.031637162 -0.031871844 -0.2650266
0003d0 e7 81 fb 3b f3 35 d5 3c 57 53 8f be 25 5f 00 be
       0.0076753977 0.026026702 -0.2799327 -0.12536295
0003e0 8c 61 91 3c 73 d1 ac 3d fd 30 7f be 09 6b 4e bd
       0.01774671 0.08438387 -0.24921031 -0.050395045
0003f0 1c cc 0c 3e f3 b3 98 3c f3 3d 84 3d de f1 5c be
       0.13749737 0.018640494 0.064571284 -0.2157664

bias f4 [100]
000000 57 9c 88 bd 2f ba 43 be 6d 4e 8b 3d 30 5b 5d be
       -0.066704445 -0.19113992 0.06802068 -0.21616817
000010 e4 82 85 3d f5 a0 e8 3d dd fa 01 3d 0a e0 e9 bd
       0.06519106 0.11358825 0.031733382 -0.11419685
000020 95 67 88 be 15 9e 83 bd 8f d4 95 3c 95 dd 2f 3c
       -0.26641527 -0.06426636 0.018289832 0.010733982
000030 2e 45 ab bd 30 86 30 bd 81 b7 6a be 0a 75 c4 be
       -0.08362804 -0.04309672 -0.22921564 -0.38370544
000040 e9 24 1a 3d 96 dc 17 be b4 31 5d bd 9c 97 39 be
       0.037632857 -0.1483024 -0.05400248 -0.1812424
000050 67 22 ab bd 7f 7a dd bd ef cf 0c be c8 b5 a0 be
       -0.08356171 -0.1081438 -0.13751195 -0.31388688
000060 49 04 09 3e b5 90 89 be 3d 36 e1 bd 8a 51 21 be
       0.13380541 -0.26868215 -0.10996673 -0.15753761
000070 57 22 4a be fd 6e 7d be de 22 94 3d 10 4a 33 bd
       -0.19739662 -0.2474937 0.07233213 -0.043771803
000080 6f a6 b2 bd d1 d5 10 3d c4 2a 59 be d3 d6 cd bc
       -0.08723151 0.03536016 -0.2120772 -0.02512685
000090 15 aa 62 3e c7 6e 23 3c 0c c6 85 be 3e 2a ce bd
       0.22135194 0.009975142 -0.2612766 -0.10066651
0000a0 af 82 db bb 8d 98 d4 bc 4c fe 82 bd 06 de a1 bd
       -0.0066989283 -0.025951648 -0.063961595 -0.07903676
0000b0 c7 f6 a2 bd 3a f4 4b 3e 20 dc 8a bd 4d 51 e8 bd
       -0.07957225 0.19917384 -0.06780267 -0.11343632
0000c0 53 39 2b be 8d 59 b3 be b2 99 55 3d 91 92 bb bd
       -0.16721086 -0.3502926 0.05214853 -0.09158815
0000d0 b5 d8 80 be 3d c8 cf bd 76 ef 87 3d 08 b0 f4 3d
       -0.25165334 -0.10145614 0.066374704 0.11947638
0000e0 81 25 ba be 00 3c a3 bd e3 f5 76 bd 70 ee db b9
       -0.36356738 -0.079704285 -0.06029309 -0.00041948585
0000f0 ad 6a 61 3d cd a9 5d be 1e ab f8 bc 79 b8 4c be
       0.055033375 -0.21646805 -0.030355033 -0.19992246
000100 04 04 8b 3d 5d 99 87 3d 7a 92 a0 bd dd cb 8c 3c
       0.06787875 0.066210486 -0.07840438 0.017187053
000110 b0 c6 a2 3d cc 28 b4 bd 56 fa cd be 95 79 bc bd
       0.07948053 -0.08796844 -0.40230054 -0.092028774
000120 4d bf b0 bd cd b3 51 be d1 66 ad bd a5 56 f6 bd
       -0.08630238 -0.20478745 -0.08466876 -0.12028245
000130 75 59 e6 3c f1 e1 7c be 72 0e 03 bd 9f a1 77 bd
       0.028118828 -0.24695565 -0.031996198 -0.06045687
000140 3c 5d f9 bb 3d b1 1c bd b4 22 72 bc 83 07 29 bd
       -0.0076099914 -0.038254965 -0.014778782 -0.04126693
000150 c7 ce 0d bd b7 05 7e bd 34 32 9f 3d 4e b8 fe 3d
       -0.034621026 -0.06201717 0.07773247 0.12437497
000160 72 c3 b9 3d ba a9 bc 3c ab e7 88 be 29 fd 1c be
       0.09070481 0.02303015 -0.2673925 -0.15330948
000170 19 41 b7 bd d6 70 9b 3e e7 27 56 be 87 0a 6d be
       -0.08947963 0.30359524 -0.20913659 -0.23148547
000180 b8 1b 2b be c2 93 d0 3e 38 d7 86 3c b8 15 ca bc
       -0.16709793 0.4073773 0.016460046 -0.02466856

weight f4 [100, 100]
000000 85 b8 25 be c0 ba b7 be d1 c3 80 3e d8 d8 50 be
       -0.1618367 -0.35884666 0.25149396 -0.2039522
000010 a9 38 6b be 62 db a4 3e 40 96 55 be a5 83 d0 3d
       -0.22970833 0.32198626 -0.20858097 0.10181359
000020 bd b3 83 3d bb e9 92 bd 9a 45 db 3e ef 3d 99 bd
       0.06430767 -0.07173487 0.4282654 -0.07482516
000030 ff 87 82 3e fd 29 2c bd ce 6e 05 3f b5 44 0a bc
       0.25494382 -0.04203223 0.521222 -0.008439233
000040 7a 7e 47 be 87 1b 91 be 9b 71 88 3e 3a f5 e7 be
       -0.1948184 -0.28341314 0.26649174 -0.4530428
000050 9b 9a 61 bc 09 32 0b bb 6e 27 a5 3e 72 5e d0 bd
       -0.013769771 -0.002123954 0.32256645 -0.10174264
000060 8d 7c 60 be 12 ea 4a be 0e 7a 14 3e 6e 62 de bb
       -0.21922512 -0.19815853 0.14499685 -0.006786636
000070 65 e8 3e be 88 c8 13 be 51 aa 13 be d7 5a 5d bd
       -0.18643339 -0.14431965 -0.1442044 -0.05404171
000080 73 9f cb 3c f7 13 0a be 38 6e 74 be c8 c4 c7 bc
       0.024856305 -0.13484178 -0.2387017 -0.024385825
000090 ef c1 33 be 40 96 e8 3e 7c 75 6d be 03 92 de bc
       -0.17554449 0.45427132 -0.23189348 -0.027169233
0000a0 b6 1b 27 be 72 07 b5 bd 0e eb 8b be 75 49 9e 3e
       -0.16319165 -0.08839311 -0.2732777 0.30915418
0000b0 9a 38 3c 3d c4 61 96 be 10 2d 94 3d 8b e1 10 be
       0.045952417 -0.29371464 0.072351575 -0.14148538
0000c0 9b da 9e 3d 75 19 15 3f 05 f2 1c be 74 19 a8 3d
       0.077565394 0.5824197 -0.15326698 0.0820798
0000d0 4a 8d 57 be e2 ec 3c bd 43 4c 3f be 6a 39 8e 3e
       -0.21049991 -0.046124347 -0.18681435 0.27778178
0000e0 90 87 49 3d 9c 9e f5 bd 4a 26 d1 bd e3 95 3e 3e
       0.049201548 -0.11993143 -0.10212381 0.18611865
0000f0 bb 05 a0 3e 52 b6 c7 3e c2 17 35 3c 0b a2 db 3d
       0.31254372 0.39006287 0.011053028 0.107242666
000100 9f 6e 51 3e 7c f5 b6 3e 40 e2 ba 3c 58 da 4a be
       0.20452355 0.35734165 0.022812963 -0.19809854
000110 f9 6c 8c 3e 36 0e 9c 3e 39 47 55 3e fd 99 97 bb
       0.2742689 0.30479592 0.2082795 -0.004626511
000120 d9 68 4f 3d 76 a2 80 be 7a cd 95 bd 2e ab a9 3e
       0.0506371 -0.25123948 -0.07314582 0.33138412
000130 97 32 a4 3e 31 fc 8f be bb 44 60 3e fb 76 5e bd
       0.32069847 -0.28122094 0.21901219 -0.054312687
000140 80 2b aa 3e 2b 1e a3 3d 66 57 42 be 1e 07 b5 3d
       0.33236313 0.079647385 -0.18978652 0.08839248
000150 ac 6f 11 be b0 59 77 3d 0d cb 4a be ed 1e 21 be
       -0.14202756 0.060388267 -0.1980402 -0.15734453
000160 d1 62 e9 3e 04 89 38 be 0b 5d 20 3e f1 d8 df 3e
       0.45583203 -0.18021017 0.15660493 0.437202
000170 c1 0d cc 3c ec a7 83 be 61 77 7d be c1 82 83 3e
       0.024908902 -0.25714052 -0.2475257 0.25685695
000180 da 23 4d be 2c 5e 0e be da 87 5a 3d 43 d7 59 be
       -0.20033208 -0.13903111 0.053352214 -0.21273522
000190 44 24 dd 3d 6d 3b 05 3f ef 03 44 be dc 6c 21 be
       0.10797933 0.520438 -0.19142126 -0.15764183
0001a0 c3 d0 eb 3c ef 85 a1 bd da 9e 18 be b3 82 22 3e
       0.028786069 -0.07886874 -0.14904347 0.1587017
0001b0 c1 07 81 3e c2 a5 ba 3d 55 54 fb 3d b2 04 3b bc
       0.25201228 0.09113647 0.122719444 -0.011414694
0001c0 f0 af 24 3e b0 39 b5 bd 3a 2b 51 bd d8 6b d3 3c
       0.1608274 -0.08848894 -0.051066615 0.02580826
0001d0 f6 45 e2 3d 9f df c4 3e c5 92 4c 3e 0e 41 09 bb
       0.110485 0.3845186 0.19977863 -0.0020943317
0001e0 ed 1c cd bb bd e8 32 bd 99 dd 89 3e d3 5a 82 3e
       -0.0062595517 -0.043678988 0.26926878 0.25459918
0001f0 94 9b 5b 3d 41 bb 62 3e 78 32 92 3e 38 ef 8c 3d
       0.053615168 0.22141744 0.2855413 0.06881565
000200 0b 68 8d be a5 08 46 bd 4a 96 5d 3e 3f 51 a7 bd
       -0.2761844 -0.048348088 0.21639362 -0.08169793
000210 3a 93 c9 3c 08 e2 e4 3d 72 f4 01 3e a0 3e 76 3e
       0.024606336 0.111759245 0.12690905 0.24047327
000220 58 8f 09 3d 4c 22 e1 3d a8 92 21 be 1a 24 2e 3e
       0.03358397 0.1099287 -0.15778601 0.17005959
000230 13 70 15 3d e7 1e e5 3c 93 89 ba be 51 75 4b 3e
       0.036483835 0.027968837 -0.36433086 0.19868971
000240 22 df 35 bd 6c 6f 52 bd 4a e1 66 3d 69 f8 8f bc
       -0.04440225 -0.05137579 0.056367196 -0.017574506
000250 c5 d4 92 3e 13 33 24 3e 8c 04 61 3d 26 eb c4 3d
       0.28677955 0.16035108 0.054935977 0.096151635
000260 33 21 47 3e 1e 91 60 3d 73 61 47 3d a9 dd 33 be
       0.19446258 0.054825895 0.04867692 -0.17565025
000270 db cd 75 3e 6c 6d 4f 3d 01 cc 01 3e 67 5b 97 bd
       0.24004309 0.050641462 0.12675478 -0.073904805
000280 74 92 b1 bc 0b 72 78 3e ac 5a aa bd dc 61 b9 3d
       -0.02167628 0.24262254 -0.083180755 0.09051868
000290 30 fd 2b be e8 99 2c 3e ea bb a4 3d 69 60 88 3d
       -0.16795802 0.16855586 0.08043654 0.06659014
0002a0 41 f3 0e bd 63 2f cb 3d 71 ca 8e 3e 1d e4 f0 bc
       -0.034899954 0.09921148 0.27888826 -0.029405648
0002b0 d5 17 3a bc e0 8a c1 3e 6d d0 28 3e 62 ac 6e 3e
       -0.011358221 0.37801266 0.16485758 0.23307946
0002c0 5b 1e 17 3e bb 48 1a 3e 31 f3 9b 3d be 99 0d 3d
       0.14757673 0.15066807 0.076147445 0.034570448
0002d0 63 d8 0b 3e d1 95 a7 3d 48 5c 32 3e 2f d5 2c bc
       0.13656764 0.08182872 0.17418015 -0.010548874
0002e0 8b 83 44 3c f3 98 ee bc 9c 57 69 3d 42 5d 65 3d
       0.011994253 -0.029125666 0.056968316 0.05599714
0002f0 a3 96 a8 bb dd 94 a5 3d 4d 38 b5 3e 37 44 c6 3d
       -0.0051449104 0.08085034 0.35394517 0.0968098
000300 37 eb 41 bd 13 48 8d bd 00 6b 9c 3e b4 3b ab 3e
       -0.04734346 -0.06898513 0.30550385 0.33443987
000310 ad 41 85 3e be da f0 be a2 3f d1 3d 91 90 8b 3c
       0.2602667 -0.47041887 0.10217215 0.017036708
000320 0a 46 bb bd e9 cb 7e bc 60 53 4c bc fe 09 06 bd
       -0.09144218 -0.015551546 -0.01247105 -0.032724373
000330 94 93 e5 3c c8 1b 89 bd 51 43 d0 bd 57 77 a5 3d
       0.028024472 -0.06694752 -0.101690896 0.08079403
000340 86 1f 3a be 20 e9 c0 bc c0 54 f2 bc f4 ae 9d 3d
       -0.18176088 -0.023548663 -0.029581428 0.07699385
000350 e6 e5 d4 3d 7f 12 93 bd 11 c8 8d bd 39 f0 df 3e
       0.10395412 -0.07181262 -0.06922925 0.43737963
000360 88 ab 9b 3d 7c 47 57 3e 84 62 c8 3c 6a 69 a0 3d
       0.07601076 0.21023363 0.024461038 0.07832606
000370 5e 8d 31 3d 24 f0 e4 bd b9 47 f6 3b 41 b7 08 bd
       0.04334771 -0.11178616 0.007515874 -0.03337789
000380 b6 b5 80 3d 77 57 0d be ba 10 ee bd 6d 95 0d 3e
       0.062846586 -0.13802896 -0.11624284 0.13826533
000390 c3 3c cc 3c a3 e1 eb bc c1 02 1a be 27 25 7f 3d
       0.024931317 -0.028794115 -0.15040113 0.06229129
0003a0 b0 43 14 bd a8 7f 6b be 4d f8 6b be 78 13 42 bd
       -0.036197364 -0.22997916 -0.23043938 -0.047381848
0003b0 0b 8c 80 3d 66 a2 0f bc ce 8f c0 bd ea 7a 1d 3d
       0.06276711 -0.008766746 -0.094024286 0.038447298
0003c0 fb d5 cf 3c 73 e1 af 3d 19 cd 2a bd bc 82 71 3d
       0.025370589 0.08587923 -0.041699503 0.05896257
0003d0 b2 88 d5 bd f2 5a 07 3d fa 92 3e 3d 31 e5 13 be
       -0.10426463 0.033045717 0.046526887 -0.14442898
0003e0 15 df ad bb b6 2d 3b be 00 93 27 bd 3d d3 4a 3e
       -0.0053061345 -0.18279156 -0.040911674 0.19807144
0003f0 31 cb 1c 3e 52 b8 a1 bc 4b 47 85 3d f1 56 c5 3c
       0.15311886 -0.019741211 0.06507739 0.024089308

bias f4 [100]
000000 05 0a 11 be b5 5c 88 be d4 9e 1a 3d 4b b0 d7 3c
       -0.14163978 -0.2663323 0.037749127 0.02632918
000010 5d ec 54 bd d3 d8 fd 3b 37 bf 22 3d 8e d6 e0 3c
       -0.051983226 0.0077467947 0.039733138 0.027446058
000020 dd 44 b6 3c ef 9a ae bc 97 18 89 bb 93 bd 6b bc
       0.022249633 -0.021314112 -0.0041838395 -0.01438846
000030 8b 29 06 bb 12 9c 02 39 08 43 e6 3b 90 d9 4b bc
       -0.002047154 0.00012455907 0.0070270337 -0.012442008
000040 ee d9 50 bb 77 ac 60 ba 36 54 7a bb 78 4f 30 3b
       -0.0031868177 -0.0008570621 -0.0038197166 0.0026902836
000050 64 e5 ba bb 09 21 74 39 df 93 9e 3b d7 1f fa bb
       -0.005703615 0.0002328196 0.004839405 -0.00763319
000060 c7 ba 28 bb 4a 40 9a b9 be 04 94 3b e9 7f 73 ba
       -0.0025746094 -0.00029421068 0.004517167 -0.00092887745
000070 46 35 c8 b9 48 0b 1d bb f7 d4 e3 38 4f 46 61 3b
       -0.00038186664 -0.0023963023 0.00010863871 0.0034374183
000080 6b 62 33 bb cc 0e ba 3b de 14 41 3b 93 7c bb 3a
       -0.0027371894 0.0056780335 0.00294619 0.0014304094
000090 7b a6 a6 3a 28 77 89 3a 71 27 c7 ba 36 96 28 bb
       0.001271441 0.0010487782 -0.001519425 -0.0025724298
0000a0 dc a3 e2 39 39 35 91 39 a7 d4 62 b9 34 73 45 bb
       0.00043228164 0.0002769621 -0.00021632259 -0.003012848
0000b0 e2 3a 44 bb 76 67 c9 39 39 27 22 3a 2c 2a 22 3b
       -0.0029942323 0.00038414792 0.0006185654 0.0024744375
0000c0 31 80 90 b9 60 5a 75 3a 29 09 a3 b9 a3 8d dd ba
       -0.0002756133 0.0009359475 -0.00031096608 -0.0016903173
0000d0 0d 53 26 b9 92 04 22 b9 45 8c d3 ba 89 39 ea ba
       -0.00015861932 -0.00015451226 -0.0016139826 -0.001786993
0000e0 17 72 f3 b9 4a 74 8b 3a 68 b0 cb 3a 15 0c bf ba
       -0.00046433575 0.0010639515 0.0015540244 -0.0014575744
0000f0 c4 3c 47 bb 22 a0 4b 3b 07 ff ce 3a 9a 94 a2 3a
       -0.003040121 0.0031070788 0.0015792557 0.0012403906
000100 d6 65 0a 3a 57 57 8b b9 da 5f 13 3b a6 1c 5b bb
       0.0005279457 -0.0002657722 0.0022487552 -0.0033433824
000110 c3 40 d0 3a 77 36 15 bb 83 1b 0f 3a 24 14 86 3b
       0.0015888441 -0.002276806 0.00054591167 0.0040917564
000120 bd fd d5 ba 93 b5 2e bb 07 ca 89 b8 53 2c 24 bb
       -0.001632623 -0.002665852 -6.5702996e-05 -0.0025050833
000130 fd 15 26 3b 87 c9 5a ba a2 4a 06 ba f3 15 de b8
       0.0025342696 -0.000834607 -0.00051228155 -0.00010589873
000140 cf 2d 23 ba 10 87 d2 3a a6 83 82 ba 0e 7b 12 ba
       -0.00062247826 0.001606198 -0.0009957447 -0.00055877946
000150 6b a6 e9 39 f8 0c c5 3a 25 2e e0 b9 ce 7a e2 ba
       0.00044565214 0.0015033772 -0.0004275899 -0.001727903
000160 f3 ba 56 ba 87 f6 1f 3a d3 91 aa 3a 11 4a 41 39
       -0.000819131 0.0006102104 0.001301343 0.00018433506
000170 fa 24 81 3a a2 9a 2d 39 29 40 13 3a 53 ac 65 b9
       0.0009852939 0.00016556171 0.00056171656 -0.00021903338
000180 7f c0 4f 39 22 b0 cc 3a 60 f1 aa 39 0c 72 a0 ba
       0.00019812769 0.0015616457 0.00032604765 -0.001224102
