Results/Nodes_256/model_weights.pth (torch, 127560 bytes, 8 tensors)

weight f4 [100, 2]
0	0xbf2a4848	-0.6651654
1	0x3ea61a73	0.32442054
2	0xbea4730a	-0.32119018
3	0xbebbc65b	-0.3667477
4	0x3e2cfe46	0.16893873
5	0xbebcef2a	-0.36901218
6	0xbea751d5	-0.3267962
7	0xbe73fa52	-0.23825958
8	0xbf1d4958	-0.6144004
9	0xbf0f1082	-0.55884564
10	0xbe4345ff	-0.1906967
11	0x3e3c2b8f	0.18375991
12	0xbf127bed	-0.57220346
13	0xbedb2287	-0.4279978
14	0xbea4b2e9	-0.32167748
15	0xbe6ea779	-0.23306073
16	0x3d661ca6	0.056179665
17	0xbe8f0e46	-0.27940577
18	0xbe0f0d03	-0.13969807
19	0x3d10c7e8	0.035346895
20	0x3d71563c	0.05892013
21	0xbf7dd475	-0.9915231
22	0xbf198c20	-0.5997944
23	0xbf74b3ac	-0.9558666
24	0xbee51a2a	-0.44746524
25	0x3ec9a63b	0.39384636
26	0xbeb81812	-0.35955864
27	0xbd5290b2	-0.051407523
28	0xbf2bbba4	-0.6708319
29	0xbe1916da	-0.14950123
30	0xbedafb61	-0.42769912
31	0x3eb4faf0	0.353477
32	0xbf29131a	-0.6604477
33	0xbf0dfef7	-0.5546717
34	0xbf723084	-0.9460528
35	0xbeab43f0	-0.3345027
36	0x3eaad7f5	0.33367887
37	0x3be37114	0.00694097
38	0xbf365af0	-0.7123251
39	0xbea68f62	-0.32531267
40	0xbd9ec9b6	-0.07753317
41	0xbf11bbe7	-0.5692734
42	0x3f0def87	0.55443615
43	0x3c3ac306	0.011399036
44	0xbdada8fa	-0.08479495
45	0xbf04b7a1	-0.51842695
46	0xbf291189	-0.6604238
47	0xbe59ea5a	-0.21280804
48	0x3e85d983	0.2614251
49	0x3e2268bb	0.15860264
50	0xbf16e57d	-0.5894392
51	0x3ee4eca5	0.44711795
52	0xbdd52cbc	-0.10408923
53	0xbeddb7cb	-0.43304285
54	0xbf2fc15f	-0.68654436
55	0x3ead72b5	0.33876577
56	0xbebbe672	-0.36699253
57	0xbeef4654	-0.46733344
58	0xbf072434	-0.52789617
59	0xbed6218b	-0.41822466
60	0xbf1875ab	-0.5955455
61	0xbf0fda63	-0.56192607
62	0x3d7580f2	0.059937425
63	0x3e82a879	0.2551916
64	0x3ee42f0f	0.44567153
65	0xbf3da4ce	-0.74079597
66	0x3e159843	0.14608864
67	0xbf2cdb09	-0.6752172
68	0x3db1b614	0.08677307
69	0x3e340378	0.17579448
70	0x3e940419	0.28909376
71	0x3e871a33	0.26387176
72	0x3ee27b52	0.4423471
73	0x3c617db9	0.013762885
74	0x3ea659b4	0.32490313
75	0xbe8186e3	-0.25298223
76	0x3d9e116c	0.07718167
77	0xbeea6774	-0.45782053
78	0xbeb1e509	-0.34745052
79	0xbecfdf35	-0.4059998
80	0xbf001f4b	-0.5004775
81	0xbf368161	-0.71291167
82	0xbe743f11	-0.23852183
83	0xbee73169	-0.45154884
84	0xbf22d119	-0.6360031
85	0x3d3c98fc	0.046044335
86	0x3e02474f	0.12722515
87	0x3ea02ec2	0.31285673
88	0x3ed344e8	0.4126351
89	0xbebba87e	-0.36651987
90	0xbf71c756	-0.9444479
91	0x3ca78c86	0.020452749
92	0x3e2bb22d	0.16767187
93	0xbf55b63b	-0.83481187
94	0x3e81d270	0.25355864
95	0x3f190c38	0.5978427
96	0x3d2f72ce	0.042834096
97	0xbeda1d07	-0.4260027
98	0x3f1469d9	0.5797401
99	0x3e9a98a5	0.30194584
100	0x3e707953	0.23483782
101	0xbf361524	-0.7112601
102	0x3da745a8	0.08167583
103	0xbe836b34	-0.25667727
104	0x3f331e1b	0.6996781
105	0xbe99654c	-0.29960096
106	0x3e4a3cd9	0.19749774
107	0xbdb1af3d	-0.08676002
108	0x3d5a0431	0.053226653
109	0xbe4a83be	-0.19776818
110	0x3e94b3bc	0.29043376
111	0xbe96e336	-0.29470223
112	0xbf7e09ad	-0.99233514
113	0xbf1c743d	-0.61114866
114	0x3e81f065	0.2537872
115	0xbef90083	-0.48633203
116	0xbd0b6d1a	-0.034039594
117	0xbf03d938	-0.51503325
118	0x3e461e8c	0.1934759
119	0x3db331f4	0.08749762
120	0x3e7f9bf3	0.24961834
121	0xbeb90f6f	-0.36144587
122	0xbf4e160e	-0.805024
123	0xbe4d4acc	-0.20048064
124	0xbf44f0e6	-0.7693008
125	0x3e5ee65d	0.21767564
126	0xbf2df487	-0.67951244
127	0x3ea1c89a	0.3159836
128	0x3f3475f1	0.70492464
129	0x3eb551ba	0.35413915
130	0xbc66d37f	-0.014088511
131	0xbf6e6554	-0.93123364
132	0x3ea34dac	0.31895196
133	0xbef0caf6	-0.47029847
134	0xbf292560	-0.66072655
135	0x3f32b210	0.6980295
136	0xbf1f4593	-0.62215537
137	0xbec3ed49	-0.38266972
138	0x3ed46b8f	0.4148831
139	0xbf388308	-0.7207494
140	0xbf0011c2	-0.50027096
141	0x3deb7ebb	0.11498781
142	0xbea61bf5	-0.32443205
143	0xbd877d9c	-0.06615755
144	0xbf540bb1	-0.8283034
145	0xbe5a8dee	-0.21343204
146	0xbea1052d	-0.3144926
147	0xbeb1fb3e	-0.34761995
148	0xbf7a4ede	-0.9777659
149	0x3d371236	0.0446951
150	0x3e0b7bd5	0.13621457
151	0xbf190aa5	-0.5978187
152	0x3e5d6059	0.21618785
153	0xbe021848	-0.12704575
154	0xbe5c7ec1	-0.21532728
155	0xbf458cf0	-0.7716818
156	0xbe0f4f8e	-0.13995191
157	0x3ee43332	0.4457031
158	0x3e1f983f	0.15585421
159	0xbf60fb69	-0.8788362
160	0x3ec9f402	0.39443976
161	0xbe4495ae	-0.19197723
162	0x3eae20c3	0.3400937
163	0x3f0c97eb	0.5491931
164	0x3efb8c97	0.491307
165	0xbe79b4f6	-0.24385437
166	0x3e945051	0.28967527
167	0xbf50551c	-0.81379867
168	0x3d591ffc	0.05300902
169	0xbefcfabd	-0.49410048
170	0xbe1ebdea	-0.15502134
171	0xbd039dba	-0.03213284
172	0xbedc42e5	-0.43019786
173	0xbee87966	-0.4540512
174	0xbeb613a2	-0.35561854
175	0x3e9f5da9	0.31126145
176	0x3ed25941	0.4108372
177	0x3eca8cbc	0.39560497
178	0xbd4441ca	-0.047914304
179	0x3e5de0d3	0.21667795
180	0xbeb967e7	-0.36212084
181	0xbe8bd900	-0.27313995
182	0xbde593ef	-0.11209857
183	0xbf670c68	-0.90253305
184	0xbf5047e6	-0.8135971
185	0xbe25e61a	-0.16201058
186	0xbf1fe260	-0.62454796
187	0xbebc97b4	-0.3683449
188	0xbe26255b	-0.16225187
189	0x3de16c7c	0.1100702
190	0x3e5e6aac	0.2172038
191	0xbef73c87	-0.48288366
192	0x3e50fdd8	0.20409334
193	0x3e47d787	0.19515811
194	0xbf0aee98	-0.54270315
195	0xbf0bc9b2	-0.5460464
196	0xbf12754c	-0.5721023
197	0xbec6678e	-0.3875088
198	0xbf1a7cc9	-0.6034666
199	0xbec33954	-0.38129675

bias f4 [100]
0	0xbe301707	-0.17196284
1	0xbeb6eb65	-0.35726467
2	0xbe6608e4	-0.22464329
3	0xbe82f72b	-0.255792
4	0x3ee6058c	0.44926107
5	0xbe862e95	-0.26207414
6	0xbf019c29	-0.50628906
7	0xbd1ba244	-0.037996545
8	0xbec0de40	-0.37669563
9	0x3e33e705	0.17568596
10	0x3dde90d0	0.108674645
11	0x3ea3c88f	0.31988952
12	0xbf04923c	-0.51785636
13	0x3e4c2453	0.19935732
14	0x3eac4000	0.33642578
15	0xbeb2c93e	-0.3491916
16	0x3e9bbbfa	0.30416852
17	0x3e48f6a3	0.19625334
18	0xbea86f4e	-0.3289742
19	0x3bb66ad6	0.005566935
20	0xbe7d272d	-0.24721976
21	0xbf1de1d3	-0.61672705
22	0xbd60bac8	-0.05486563
23	0xbdf35170	-0.11880767
24	0xbeec9d16	-0.46213597
25	0x3dba02a9	0.09082539
26	0xbf1aa17d	-0.6040266
27	0x3e8153ff	0.25259396
28	0x3ea235a5	0.31681553
29	0xbd2757d1	-0.040855233
30	0xbee3274a	-0.44365913
31	0xbc435278	-0.011921518
32	0xbddffa88	-0.10936457
33	0xbd353f07	-0.04424956
34	0xbdd22572	-0.102610484
35	0x3e8d3363	0.27578267
36	0xbe9b9e02	-0.30393988
37	0xbe22e0ac	-0.15906018
38	0xbd19f2d0	-0.03758508
39	0xbe860637	-0.26176617
40	0x3e82a3a5	0.25515476
41	0xbebe281a	-0.3713997
42	0xbcd2f2a1	-0.02575046
43	0xbe4c09f2	-0.19925669
44	0xbe404e96	-0.18779978
45	0x3e6f576e	0.23373196
46	0xbe1a9a7b	-0.15097992
47	0xbf274db2	-0.6535293
48	0xbd9ce317	-0.076605015
49	0xbea43484	-0.32071316
50	0xbe2859ae	-0.1644046
51	0xbed328ed	-0.4124216
52	0xbf338f2c	-0.7014034
53	0xbeb6e84e	-0.3572411
54	0xbebfffcc	-0.37499845
55	0xbe5583cc	-0.20851058
56	0x3ea49dbd	0.32151595
57	0xbee8bc1d	-0.4545602
58	0x3e498afb	0.19681923
59	0xbe250e44	-0.16118723
60	0xbf18cdee	-0.59689224
61	0xbd79c1ea	-0.060975946
62	0x3e6ee1a4	0.23328263
63	0xbeeccf4a	-0.462519
64	0xbeea0342	-0.4570561
65	0x3ede49ea	0.43415767
66	0x3e5079a1	0.20358898
67	0xbec9faad	-0.39449063
68	0x3db67e47	0.08910804
69	0xbea4c607	-0.32182333
70	0xbf3278e7	-0.6971573
71	0xbe348844	-0.17630106
72	0xbbdd3549	-0.006750737
73	0xbe5931e2	-0.21210435
74	0xbdacb639	-0.08433194
75	0xbf1aca30	-0.60464764
76	0x3e14290c	0.14468783
77	0x3e853c99	0.26022795
78	0x3e0fb91d	0.14035459
79	0xbe55ed32	-0.20891264
80	0xbc8d07e8	-0.017215684
81	0xbf02f9e5	-0.5116256
82	0xbf09421b	-0.53616494
83	0xbecb82c1	-0.39748195
84	0xbec97831	-0.3934951
85	0xbf05b45b	-0.52228326
86	0x3e047961	0.12936927
87	0x3d5b6235	0.053560454
88	0xbf24664e	-0.64218605
89	0xbdd91b4c	-0.106009096
90	0xbd2bc004	-0.041931167
91	0x3ed70a28	0.41999936
92	0x3e251490	0.16121125
93	0x3e9bf096	0.3045699
94	0xbe6d0e33	-0.23149948
95	0x3e8250d3	0.2545229
96	0x3e5a7db0	0.21337008
97	0xbf2af10f	-0.66774076
98	0xbf114e31	-0.56759936
99	0xbe3db079	-0.1852435

weight f4 [100, 100]
0	0x3d5fa837	0.05460378
1	0xbd4b7ea0	-0.049681306
2	0x3c3471c0	0.011013448
3	0xb918399a	-0.00014517308
4	0xbe5783c6	-0.21046361
5	0xbd5c1930	-0.05373496
6	0x3d6707c7	0.0564039
7	0xbe2c1a14	-0.16806823
8	0xbe97818a	-0.29591018
9	0xbe704c08	-0.23466504
10	0xbe70e999	-0.2352661
11	0xbe504b15	-0.20341142
12	0x3dbec9db	0.093158446
13	0xbe533745	-0.20626552
14	0xbe84488a	-0.25836593
15	0x3db7f008	0.08981329
16	0xbe8c1087	-0.2735636
17	0xbe8725da	-0.26396066
18	0xbe67bf97	-0.2263168
19	0xbe9eca24	-0.31013596
20	0x3c32494d	0.010881734
21	0xbd8af3a8	-0.06784755
22	0xbe660f86	-0.22466859
23	0xbe62c863	-0.22146754
24	0x3c62c9da	0.0138420705
25	0xbea39aee	-0.3195414
26	0xbdc2840d	-0.09497843
27	0xbe41fca6	-0.18944034
28	0xbe198d9a	-0.14995423
29	0xbea546a6	-0.32280463
30	0x3d17b6a7	0.037039425
31	0xbe9e3564	-0.3090011
32	0xbe6a9bfb	-0.22911064
33	0xbe11b136	-0.14227757
34	0xbe22f794	-0.15914756
35	0xbe9e3adc	-0.3090428
36	0x3d7d5df7	0.06185719
37	0x3d55f0ed	0.052231718
38	0xbe710ea0	-0.23540735
39	0xbe03162b	-0.12801425
40	0xbe8cdec8	-0.2751372
41	0xbcbea40d	-0.023271585
42	0xbd4f0483	-0.050541412
43	0xbe615fd1	-0.22009207
44	0x3cd8e9cd	0.026478672
45	0xbe68bf74	-0.22729284
46	0xbe94e38e	-0.2907986
47	0xbd386360	-0.045016646
48	0x3d0b5393	0.03401525
49	0xbdb392f5	-0.08768264
50	0xbe8026f4	-0.2502972
51	0xbe6a9737	-0.22909246
52	0xbd25f483	-0.040516388
53	0xbe46cf4b	-0.19415013
54	0xbeb19634	-0.34684908
55	0x3d8fc868	0.07020646
56	0xbe79fe0f	-0.24413322
57	0x3e6f6522	0.23378423
58	0xbe2911a2	-0.16510633
59	0xbe622e2d	-0.22087927
60	0xbcea9e0d	-0.028639818
61	0xbe98b6b5	-0.29826894
62	0xbe58ff56	-0.21191153
63	0xbdc3541a	-0.095375255
64	0x3cd7c253	0.026337778
65	0xbe3f04fe	-0.18654248
66	0xbea5ac70	-0.32358122
67	0xbd8613b0	-0.06546724
68	0xbe9d0c37	-0.30673382
69	0xbe185559	-0.14876308
70	0x3dae1acf	0.08501207
71	0xbe67e109	-0.22644438
72	0xbe0f2c23	-0.1398168
73	0xbd08ee50	-0.033430398
74	0xbea7fc54	-0.328097
75	0x3d0f123a	0.03492949
76	0xbe4d1aac	-0.20029706
77	0xbe0cf071	-0.13763596
78	0xbe714c42	-0.23564246
79	0xbe2053ea	-0.1565701
80	0xbe328cd3	-0.17436533
81	0x3d943a55	0.072376885
82	0xbec95763	-0.39324483
83	0xbe13da75	-0.14438803
84	0xbdae9515	-0.08524529
85	0x3db79b00	0.08965111
86	0xbe752928	-0.23941481
87	0xbea5eb08	-0.32405877
88	0x3ce3d047	0.027809275
89	0xbe82a008	-0.2551272
90	0xbea60014	-0.32421935
91	0xbe8b5d7d	-0.27219763
92	0xbe6637be	-0.22482201
93	0xbe216eb0	-0.1576488
94	0xbcfbd8ad	-0.030742968
95	0xbe34bc5a	-0.17649975
96	0xbe64a4e4	-0.22328526
97	0x3b5ce867	0.0033707859
98	0x3c9cbff3	0.019134497
99	0xbe961c4a	-0.29318458
100	0xbdaa3aba	-0.083119825
101	0xbd00b37a	-0.031421162
102	0xbdbed7fd	-0.0931854
103	0xbd3f0467	-0.046635058
104	0xbf5e4f43	-0.86839694
105	0xbd86e218	-0.06586093
106	0xbd29e683	-0.0414796
107	0xbc9332fa	-0.017968643
108	0xbc3cbfcd	-0.011520338
109	0xbf6db840	-0.9285927
110	0x3b9d741a	0.0048051
111	0xbc65f773	-0.014036047
112	0x3cea49a0	0.02859956
113	0xbf5db8f7	-0.8661036
114	0xbf6c3514	-0.9226849
115	0xbd0d04ca	-0.034428395
116	0xbf5aab8a	-0.85418
117	0xbd7f959a	-0.06239853
118	0x3c00431a	0.007828498
119	0xbbe75c67	-0.0070605758
120	0x3d1eea80	0.038797855
121	0x3cc1e067	0.023666574
122	0x3d9944da	0.074838355
123	0xbb580acd	-0.0032965422
124	0xbd9753ea	-0.07389052
125	0xbf52324a	-0.82107985
126	0xbd8a695f	-0.06758379
127	0xbf632618	-0.8873
128	0xbf67b413	-0.90509146
129	0xbd1b6ba3	-0.037944447
130	0xbd178ba0	-0.03699839
131	0xbf46c991	-0.77651316
132	0x3d6a7a73	0.057245683
133	0x3ce307ed	0.02771374
134	0x3dc04c5f	0.09389567
135	0xbf7787fe	-0.9669188
136	0x3c84313a	0.016136754
137	0x3d831baf	0.064017646
138	0x3d880bed	0.066429
139	0xbda2fda8	-0.07958537
140	0x3d11c5ba	0.035588957
141	0xbd6957e7	-0.056968596
142	0xbb800980	-0.0039073825
143	0xbcaaf153	-0.020867025
144	0xbdab0030	-0.08349645
145	0xbf708497	-0.93952316
146	0xbd86bccd	-0.0657898
147	0x3d39dd4a	0.045377053
148	0x3d3b5d97	0.04574355
149	0xbdb220ab	-0.08697637
150	0xbd19d277	-0.03755423
151	0x3ad61933	0.0016334414
152	0xbdb11107	-0.08645826
153	0x3d66ca7d	0.05634545
154	0xbf48681a	-0.78283846
155	0x3c90e29a	0.017686177
156	0xbd982b60	-0.07430148
157	0x3cbf06ba	0.023318637
158	0xbf54e7fa	-0.8316647
159	0x3da22b62	0.07918431
160	0xbd59ef93	-0.05320699
161	0xbdb77b7a	-0.08959098
162	0xbf539cfc	-0.82661414
163	0x3bcc0067	0.006225634
164	0xbd057560	-0.03258264
165	0xbf6a9687	-0.91635936
166	0xbf6cdece	-0.9252747
167	0x3da5c8f5	0.0809497
168	0xbc8d5813	-0.017253911
169	0x3d93b405	0.072120704
170	0x3db6d08d	0.08926497
171	0x3c4f8bcd	0.012667608
172	0x3cae8107	0.02130176
173	0xbbdf2a67	-0.0068104747
174	0x3d8ca8e8	0.06868154
175	0xbdb88af5	-0.09010879
176	0xbf5551d8	-0.8332801
177	0xbf5cf8da	-0.8631722
178	0xbf5427fb	-0.82873505
179	0xb9e984cd	-0.00044540167
180	0xbf666fd0	-0.9001436
181	0xbc30dd80	-0.010794997
182	0xbf522239	-0.8208347
183	0xbd8e3d5f	-0.06945299
184	0xbd817433	-0.06320991
185	0xbcb77f73	-0.02239964
186	0xbd14926d	-0.036272455
187	0xbf553ffb	-0.8330075
188	0x3d89d300	0.06729698
189	0xbc2f7867	-0.0107098585
190	0x3dc1a74d	0.09455738
191	0xbf6a63bf	-0.9155845
192	0xbd65d9d3	-0.056115936
193	0xbf693a72	-0.91104805
194	0xbd8d19ff	-0.06889724
195	0xbf7197ff	-0.9437255
196	0xbf76f67f	-0.96469873
197	0xbdb5828f	-0.08862793
198	0x3cd5cf60	0.02609986
199	0x3d79cbd3	0.060985398
200	0x3dc046a3	0.09388473
201	0x3dae72b7	0.08517974
202	0xbbbcb91a	-0.0057593705
203	0x3c9ef687	0.019404663
204	0xbeb85fe7	-0.36010668
205	0x3d1e51ad	0.03865211
206	0xbdc45ee3	-0.09588411
207	0xbe819733	-0.25310668
208	0xbe904f7c	-0.28185642
209	0xbe8a01b5	-0.26954427
210	0xbe86fe64	-0.2636596
211	0xbeb13f2c	-0.3461851
212	0x3dafbd7d	0.08581064
213	0xbe814e20	-0.25254917
214	0xbe70370a	-0.23458496
215	0x3c5865c0	0.013207853
216	0xbe732cde	-0.23747584
217	0xbe6e90c3	-0.2329741
218	0xbe8288b6	-0.25494927
219	0xbe6579a2	-0.2240968
220	0xbc9495b3	-0.018137788
221	0x3d86a9d5	0.06575362
222	0xbe8df17a	-0.27723294
223	0xbe75dd92	-0.24010304
224	0x3dc77993	0.09739985
225	0xbe8e2595	-0.27763048
226	0xbd1807ad	-0.037116695
227	0xbe9ed5b9	-0.31022432
228	0xbe8b538f	-0.27212188
229	0xbe911b3d	-0.28341094
230	0xbcdfc7ed	-0.027317012
231	0xbe633fa4	-0.22192246
232	0xbe75f4fa	-0.24019232
233	0xbeb98b08	-0.36238885
234	0xbe9de989	-0.30842236
235	0xbe9ea7d1	-0.3098741
236	0xbd805abf	-0.062673084
237	0x3c6ef800	0.014585495
238	0xbea97545	-0.33097282
239	0xbeb4295a	-0.351878
240	0xbeaa342c	-0.3324293
241	0xbd120ad3	-0.035654854
242	0x3dc3eb7d	0.095664
243	0xbe8619f1	-0.26191667
244	0x3dc98be0	0.09841132
245	0xbe8bb39b	-0.27285466
246	0xbe8e252b	-0.27762732
247	0x3d28624a	0.04110936
248	0x3c8c99f3	0.017163252
249	0xbda0b8a0	-0.078477144
250	0xbeb80427	-0.35940668
251	0xbea5ef5e	-0.32409185
252	0x3ac50b33	0.0015033245
253	0xbe86266c	-0.2620119
254	0x3d1db73d	0.038504828
255	0x3da27878	0.07933134

bias f4 [100]
0	0xbe97e186	-0.29664248
1	0xbf4da1d0	-0.8032503
2	0xbe6a5dc6	-0.22887334
3	0x3d9315a0	0.07181859
4	0x3ce0a76d	0.027423585
5	0xbe7277ad	-0.23678465
6	0xbaf18933	-0.0018427729
7	0xbd58f790	-0.05297047
8	0xbe543b6f	-0.20725797
9	0xbe56dd53	-0.20982866
10	0xbe8ca9e6	-0.27473372
11	0xbd5235d7	-0.051320877
12	0xbd2d7597	-0.04234847
13	0xbeb8a347	-0.3606207
14	0xbe8744a6	-0.26419562
15	0xbe3956f7	-0.1809958
16	0x3cfeb0a7	0.031090094
17	0xbe870a24	-0.26374924
18	0xbe2babce	-0.16764757
19	0xbe6a656c	-0.22890252
20	0xbd2f6de3	-0.042829406
21	0xbd9793af	-0.07401215
22	0xbe23eb87	-0.16007815
23	0xbdb9c212	-0.09070219
24	0xbd9e126d	-0.07718358
25	0xbec3bd91	-0.38230565
26	0xbe9602d5	-0.29299036
27	0xbd8a95a0	-0.0676682
28	0xbe983061	-0.2972441
29	0xbd336f23	-0.04380716
30	0xbe27420a	-0.16333786
31	0xbdb68f98	-0.08914107
32	0xbd9a9472	-0.07547845
33	0xbec8f296	-0.39247578
34	0xbdb47918	-0.08812159
35	0xbe54f457	-0.20796333
36	0xbebd2f41	-0.36950114
37	0xbea4ed4b	-0.3221229
38	0xbeb3dca2	-0.35129267
39	0xbcdcb8b3	-0.02694354
40	0xbea3be22	-0.31980997
41	0x3d8260a3	0.06366088
42	0xbeb0699c	-0.34455574
43	0xbe95efce	-0.2928452
44	0x3d68dc3d	0.05685066
45	0xbe566647	-0.20937453
46	0xbe6021ed	-0.21887942
47	0xbe805afa	-0.2506941
48	0xbe7925f4	-0.24330884
49	0xbd54819a	-0.05188141
50	0xbe9ec0ae	-0.31006378
51	0xbe93f608	-0.28898644
52	0xbe961d9d	-0.29319468
53	0xbea13811	-0.31488088
54	0xbe8143e6	-0.25247115
55	0x3c469927	0.012121475
56	0xbe096e38	-0.13420951
57	0xbd0c990a	-0.034325637
58	0xbe7b19b3	-0.24521522
59	0xbdc15df0	-0.09441745
60	0xbe49e32d	-0.19715567
61	0xbe94ae65	-0.29039302
62	0xbdbee068	-0.09320146
63	0xbe63599f	-0.22202156
64	0xbd1d1c40	-0.03835702
65	0xbeb8b0f8	-0.36072516
66	0xbea1046e	-0.31448692
67	0xbd76ad9a	-0.060224153
68	0xbe802cd0	-0.2503419
69	0xbe5c59b7	-0.21518598
70	0xbe7369e7	-0.23770867
71	0xbd256c60	-0.040386558
72	0xbe4820bc	-0.19543737
73	0xbd8bd63b	-0.068279706
74	0xbe60a969	-0.21939625
75	0xbc88013a	-0.016602147
76	0xbf67195e	-0.9027308
77	0xbe6a81f2	-0.22901133
78	0xbe56d65a	-0.20980206
79	0xbea85426	-0.328767
80	0xbe68b40a	-0.2272493
81	0xbe63ea1d	-0.22257276
82	0xbd939eb7	-0.07208007
83	0xbd97471b	-0.07386609
84	0xbe5c4418	-0.2151035
85	0xbe55b24e	-0.20868799
86	0xbe763b62	-0.2404609
87	0xbe508214	-0.20362121
88	0xbd875533	-0.06608047
89	0xbd5868a0	-0.052834153
90	0xbd19ea17	-0.03757676
91	0xbd6364fa	-0.05551622
92	0xbe8e1275	-0.27748457
93	0xbe873b9e	-0.26412672
94	0xbe926740	-0.28594398
95	0xbe331a68	-0.17490542
96	0xbea959cc	-0.33076322
97	0xbe5c0d43	-0.21489434
98	0xbe820cf2	-0.254005
99	0xbe72d1e2	-0.23712876

weight f4 [100, 100]
0	0x3d9e3c9b	0.07726403
1	0xbbaf8f67	-0.005357671
2	0x3dc101da	0.09424181
3	0x3d588c83	0.052868377
4	0xbd7ab0fd	-0.061203945
5	0x3bec7bcd	0.0072169066
6	0xbd4740ba	-0.048645712
7	0x3c9b07da	0.018924642
8	0xbd775920	-0.06038773
9	0xbd182ffa	-0.03715513
10	0xbd289d77	-0.041165795
11	0xbdc6732a	-0.096899346
12	0x3dbc0d1a	0.091821864
13	0xbd0c394a	-0.034234323
14	0xbcfafc00	-0.030637741
15	0xbb081f33	-0.002077055
16	0x3ae6ac67	0.0017598987
17	0xbdac02b7	-0.08398955
18	0x3ce3e66d	0.027819837
19	0xbd7f59e7	-0.062341597
20	0xbda2a737	-0.0794205
21	0xbd75e0ba	-0.06002877
22	0xbd9fb3cf	-0.07797968
23	0x3da070d2	0.07834019
24	0x3d1c9d0a	0.0382357
25	0x3db3764f	0.087628
26	0xbda4cf47	-0.080473475
27	0xbda29562	-0.07938649
28	0x3d227d30	0.03967017
29	0xbd3fbfaa	-0.046813644
30	0xbcfb114d	-0.030647898
31	0xbd70a667	-0.058752444
32	0xbdac5208	-0.08414084
33	0xbd714c1d	-0.058910478
34	0xbd80c963	-0.062884115
35	0x3d51dafd	0.051234234
36	0xbb2cfa33	-0.0026394248
37	0x3d7ff710	0.062491477
38	0x3db20d05	0.086938895
39	0x3d873ff3	0.06603994
40	0xbda6b077	-0.08139127
41	0x3d7015e7	0.058614638
42	0x3d694763	0.056952845
43	0xbd39827d	-0.04529046
44	0xbcac8ac0	-0.021062255
45	0x3d09ad9a	0.033612825
46	0xbc275633	-0.010213423
47	0xbd7a84d0	-0.061161816
48	0xbc912b8d	-0.017720962
49	0xbce20c47	-0.027593745
50	0x3d7a95e3	0.0611781
51	0x3d326e20	0.043562055
52	0x3d800713	0.06251349
53	0xbb8aa7b3	-0.004231417
54	0xbdba70fa	-0.0910358
55	0x3dc7f453	0.09763398
56	0x3b4aad67	0.003092611
57	0x3d2eaed7	0.04264721
58	0xbd684bf7	-0.05671307
59	0xbba2494d	-0.004952586
60	0x3cdaaae0	0.026692808
61	0xbd26975a	-0.040671684
62	0xbd62d3ca	-0.05537776
63	0x3ce63e07	0.028105749
64	0x3da46fb2	0.08029117
65	0x3d9fcaa7	0.07802325
66	0x3d0b71d0	0.034044087
67	0x3c0b810d	0.008514655
68	0x3d381a6a	0.044947065
69	0xbcffe5e7	-0.031237556
70	0x3d9df09f	0.077119105
71	0x3d581e63	0.052763354
72	0xbdcc3488	-0.09970957
73	0x3dbabd70	0.091181636
74	0x3b9a37cd	0.004706359
75	0xbd9ad95d	-0.0756099
76	0xbd1cbc73	-0.038265657
77	0x3dc6eb88	0.09712893
78	0xbdaafc3f	-0.083488934
79	0x3cccf54d	0.025019312
80	0xbd09c300	-0.033633232
81	0xbda83782	-0.08213712
82	0x3d1e4257	0.038637485
83	0x3d6ea1fa	0.05825994
84	0x3dc954b7	0.09830611
85	0xbda712c0	-0.08157873
86	0x3d4852c7	0.048907068
87	0x3d91bfaf	0.07116639
88	0xbb21299a	-0.0024591447
89	0x3d9e00a0	0.07714963
90	0x3dbaf668	0.091290295
91	0xbda5db48	-0.08098465
92	0x3d4dcefd	0.050246228
93	0x3cc33920	0.02383095
94	0x3c3960a7	0.011314548
95	0x3d96f9f7	0.07371896
96	0x3baff000	0.0053691864
97	0xbd188b93	-0.037242483
98	0x3daee5f5	0.085399546
99	0x3d6d57ad	0.057944942
100	0x3d46b250	0.048509896
101	0xbcdc8d40	-0.026922822
102	0xbdaad3b0	-0.083411574
103	0xbc6468a7	-0.013940967
104	0xbc99732d	-0.018731678
105	0xbca4b9f3	-0.020108199
106	0xbd51091a	-0.05103407
107	0x3d930e1d	0.07180426
108	0xbc8849c0	-0.01663673
109	0xbdc89e93	-0.09795871
110	0xbd834f7f	-0.06411647
111	0xbdca9be8	-0.09893018
112	0x3d62ab3d	0.055339087
113	0xbc3bf90d	-0.011472953
114	0xbd50c60d	-0.050970126
115	0xbd9d10c3	-0.07669213
116	0x3d479cf7	0.048733678
117	0xbdb101aa	-0.086428955
118	0xbdba4655	-0.09095446
119	0xbc13a180	-0.009010673
120	0x3d7491a7	0.059709217
121	0xbda1b780	-0.07896328
122	0xbd849672	-0.06474008
123	0x3d040e1d	0.032240022
124	0xbdc6f302	-0.09714319
125	0x3d8813a8	0.06644374
126	0x3d5af553	0.053456616
127	0x3d47e433	0.048801612
128	0x3dae53a0	0.08512044
129	0x3db1eb7a	0.08687492
130	0xbd3d2eb0	-0.046187103
131	0x3d6761b3	0.056489658
132	0x3d5fabcd	0.0546072
133	0x3d397200	0.045274734
134	0xbcdf9a53	-0.027295267
135	0xbd61652a	-0.05502812
136	0xbd84f57f	-0.06492137
137	0x3cafcd00	0.021460056
138	0xbb338d67	-0.0027397515
139	0x3ba5df33	0.005062008
140	0x3db76cfa	0.089563325
141	0xbda6673a	-0.08125158
142	0x3cbd82d3	0.02313367
143	0x3c9371ed	0.01799866
144	0xbb913d9a	-0.0044323923
145	0x3d879417	0.06620043
146	0x3d84f5a2	0.06492163
147	0xbd89e275	-0.067326464
148	0x3c91aaa0	0.017781556
149	0xbd767e0d	-0.060178805
150	0xbd627bd3	-0.05529387
151	0xbdab1aa0	-0.08354688
152	0x3d18b670	0.03728336
153	0xbc27958d	-0.010228527
154	0xbd8214e5	-0.063516416
155	0xbca2a833	-0.019855594
156	0xbbf1a19a	-0.0073740007
157	0x3d1ac223	0.0377828
158	0x3dae47d7	0.08509796
159	0xbd87fb82	-0.06639768
160	0xbbccc567	-0.006249118
161	0x3dc63b48	0.09679276
162	0x3d870c03	0.06594088
163	0x3d3ccca0	0.046093583
164	0xbcf689fa	-0.03009509
165	0x3c8ece53	0.017432367
166	0x3bdebdb3	0.0067975163
167	0x3ac07f9a	0.0014686466
168	0x3d85a708	0.06525999
169	0xbd0b8773	-0.03406472
170	0xbcc9ea2d	-0.024647797
171	0x3d8ebe1b	0.069698535
172	0x3ccfe4a0	0.025377572
173	0xbdc2719d	-0.09494326
174	0xbca0a5ed	-0.01961037
175	0x3d8a29f5	0.06746284
176	0x3d783497	0.06059703
177	0x3d88ac8d	0.066735364
178	0xbd7008e7	-0.05860224
179	0xbd990692	-0.07471956
180	0x3d02d28d	0.031939078
181	0x3d9d2ad2	0.07674183
182	0x3da76bf0	0.08174884
183	0x3d1d5f5d	0.038421024
184	0x3d71cacd	0.059031297
185	0xbd8d5f6f	-0.06902968
186	0x3cc4e7ad	0.024036253
187	0xbc28d7cd	-0.010305357
188	0xba92639a	-0.00111686
189	0x3d41708a	0.047226466
190	0xbd996c32	-0.0749134
191	0x3c1e0bc0	0.009646356
192	0xbd0f818d	-0.03503566
193	0x3d4d9177	0.050187554
194	0xbdb6dc60	-0.08928752
195	0xbd61f46d	-0.055164743
196	0xbd924953	-0.07142892
197	0x3d995da7	0.07488566
198	0x3d7ee950	0.062234223
199	0x3da9d365	0.082922734
200	0xbe038939	-0.12845315
201	0x3cf98fed	0.030464137
202	0x3ea043d6	0.31301755
203	0x3ce4da53	0.027936136
204	0x3c83693a	0.016041387
205	0xbe88307b	-0.26599488
206	0xbd9a9307	-0.075475745
207	0x3d9d90d0	0.076936364
208	0xbe96ef18	-0.2947929
209	0x3d8eddf3	0.06975927
210	0xbe773621	-0.24141742
211	0x3cd460ba	0.02592503
212	0x3d1971b3	0.037461948
213	0xbe9c51cf	-0.30531165
214	0xbe8d71f0	-0.2762599
215	0xbe8fa487	-0.28055212
216	0xbd502cc7	-0.050823953
217	0xbd76943d	-0.060199965
218	0x3e3d0c1e	0.18461654
219	0x3e9d8b89	0.3077052
220	0xba86ec00	-0.0010293722
221	0x3cdb504d	0.026771689
222	0xbe09e9b4	-0.13468057
223	0xbbfde21a	-0.0077479007
224	0xbd44aac7	-0.04801443
225	0x3e692b24	0.22770363
226	0xbe13c6fe	-0.14431378
227	0xbdb4f727	-0.08836203
228	0x3eb2b91e	0.34906858
229	0x3db33c60	0.0875175
230	0xbe32a6d0	-0.17446446
231	0xba4a4667	-0.0007716179
232	0xbc54c440	-0.012986243
233	0xbe6ef82e	-0.2333686
234	0xbd59cc6d	-0.05317347
235	0xbe443493	-0.1916068
236	0x3e89e99d	0.26936045
237	0x3eb4b515	0.35294405
238	0x3e8e66bc	0.27812755
239	0xbd88ad18	-0.0667364
240	0xbea1dbbb	-0.31612954
241	0x3d70e15d	0.058808673
242	0x3eac6a3b	0.33674797
243	0xbe985042	-0.29748732
244	0xbd852c25	-0.065025605
245	0x3e8f1d6d	0.27952138
246	0x3e94d524	0.29068863
247	0xbe82cf69	-0.25548866
248	0x3d89b1f2	0.067233935
249	0x3be37767	0.006941724
250	0x3e8c0d25	0.27353778
251	0x3e96be81	0.29442218
252	0xbe39a516	-0.18129382
253	0xbebd9328	-0.37026334
254	0x3e4ed418	0.20198095
255	0xbda485f7	-0.08033364

bias f4 [100]
0	0xbdb94995	-0.09047238
1	0xbd772d4a	-0.060345925
2	0xbe43d406	-0.1912385
3	0xbe905032	-0.28186184
4	0xbe800e6e	-0.2501101
5	0xbe76be61	-0.24096061
6	0xbe8af28f	-0.27138183
7	0xbe7c8718	-0.24660909
8	0xbe8b42ae	-0.2719931
9	0xbe48fbc8	-0.19627297
10	0xbd1217d3	-0.03566725
11	0xbe1e9b3e	-0.15488908
12	0xbea89630	-0.32927084
13	0xbe91a13b	-0.28443322
14	0xbe8a6aff	-0.27034757
15	0xbe804f06	-0.2506029
16	0xbe805d4e	-0.25071186
17	0xbe71dee8	-0.23620188
18	0xbdbc06b5	-0.09180967
19	0xbe80ee84	-0.25181973
20	0xbe7606b3	-0.24025993
21	0xbdaa16ea	-0.08305152
22	0xbda90cf7	-0.08254426
23	0xbe97091b	-0.29499134
24	0xbe5ae24b	-0.21375386
25	0xbe86c9ed	-0.26325932
26	0xbe658d5b	-0.22417204
27	0xbeb841ad	-0.35987607
28	0xbe6a2244	-0.22864634
29	0xbe5483a7	-0.20753346
30	0xbeb74aa8	-0.35799146
31	0xbe829909	-0.25507382
32	0xbe8eb55f	-0.2787275
33	0xbe4e4ab5	-0.20145686
34	0xbe8eb674	-0.27873576
35	0xbd0b06ae	-0.033941917
36	0xbda753fb	-0.08170315
37	0xbe6aa902	-0.22916034
38	0xbe45addd	-0.19304605
39	0xbebde24f	-0.37086722
40	0xbda49918	-0.08037013
41	0xbe2ecb12	-0.17069653
42	0xbea88a5e	-0.32918066
43	0xbd8bc533	-0.06824722
44	0xbea420e2	-0.32056338
45	0xbeadb898	-0.33929896
46	0xbd7b3c90	-0.061337054
47	0xbeb01f2b	-0.3439878
48	0xbe52dc65	-0.20591886
49	0xbe587a95	-0.21140511
50	0xbe17f126	-0.14838085
51	0xbeca604b	-0.3952659
52	0xbf79f07e	-0.97632587
53	0xbea8e41d	-0.32986537
54	0xbeaa4d4c	-0.33262098
55	0xbe6da0c0	-0.23205853
56	0xbeb26a2d	-0.3484663
57	0xbeabe7de	-0.33575338
58	0xbe598cd8	-0.21245134
59	0xbea25ba9	-0.31710556
60	0x3e34c9b2	0.17655066
61	0xbd62d180	-0.055375576
62	0xbea39570	-0.3194995
63	0xbe8ea275	-0.2785832
64	0xbe903de3	-0.28172216
65	0xbe3c5c25	-0.18394525
66	0xbd74ee20	-0.059797406
67	0xbeaf1ad1	-0.34200147
68	0xbe8ba96d	-0.272777
69	0xbf39d618	-0.72592306
70	0xbe2bdf6c	-0.16784447
71	0xbe80e75f	-0.25176522
72	0xbe7619d5	-0.24033292
73	0xbe85c916	-0.2612998
74	0xbe575e4e	-0.21032068
75	0xbe979e3f	-0.2961292
76	0xbee40574	-0.4453541
77	0xbe16b56b	-0.14717643
78	0xbe52d019	-0.20587195
79	0x3c5c546c	0.013447862
80	0x3da4ec9f	0.080529444
81	0xbea9d881	-0.33172992
82	0xbe6926d9	-0.22768725
83	0xbe56a718	-0.20962179
84	0xbea565f0	-0.32304335
85	0xbe8d611e	-0.27613157
86	0xbe954abd	-0.29158583
87	0xbe71dc1e	-0.23619124
88	0xbe961fcb	-0.2932113
89	0xbe8fec87	-0.28110144
90	0xbe9ae3a2	-0.30251795
91	0xbe7b0097	-0.24511944
92	0xbe82b22d	-0.25526562
93	0xbe5d5851	-0.21615721
94	0xbe5496c4	-0.20760638
95	0xbd92175d	-0.071333624
96	0xbe82e51c	-0.25565422
97	0x3d990de0	0.074733496
98	0xbe53c47c	-0.20680422
99	0xbe5aa5c6	-0.213523

weight f4 [100, 100]
0	0x3db51e65	0.08843688
1	0xbd875378	-0.06607717
2	0xbe001917	-0.12509571
3	0x3e515e1f	0.2044606
4	0x3e81a280	0.2531929
5	0xbe2df264	-0.16986996
6	0xbe64a510	-0.22328591
7	0xbe378ef3	-0.17925625
8	0xbe58f451	-0.2118695
9	0xbe74290d	-0.23843785
10	0xbcae3d8d	-0.021269584
11	0xbe637dda	-0.22215977
12	0x3eab3028	0.33435178
13	0xbe5484b0	-0.20753741
14	0xbe8b7893	-0.27240428
15	0x3e688d6e	0.22710201
16	0xbe4a5c1f	-0.19761704
17	0xbe3739ee	-0.17893192
18	0x3be70867	0.007050562
19	0x3eb19f8a	0.3469203
20	0x3ea67137	0.3250825
21	0xbd49db83	-0.04928161
22	0xbd53ca27	-0.05170646
23	0x3e90be21	0.28270057
24	0xbcc1958f	-0.023630885
25	0x3e9898d3	0.29804096
26	0x3e8d0aa2	0.27547175
27	0xbeb96ee4	-0.36217415
28	0x3ea03671	0.31291535
29	0x3ea34ff0	0.31896925
30	0xbe7531cc	-0.23944777
31	0xbe906541	-0.2820225
32	0xbe96fd30	-0.29490042
33	0x3e911e69	0.28343514
34	0x3e35101e	0.1768193
35	0xbe8701e1	-0.2636862
36	0x3d5ae410	0.053440154
37	0x3e9a8436	0.30178994
38	0xbe5df525	-0.21675546
39	0xbe464ed2	-0.19366005
40	0x3da697cb	0.08134421
41	0xbe09dc87	-0.13463031
42	0xbe491655	-0.19637425
43	0x3d5bb7dd	0.053642143
44	0xbe8fb921	-0.2807093
45	0x3e527d33	0.20555572
46	0x3c41c180	0.011825919
47	0x3eb69bf7	0.35665867
48	0xbe634588	-0.22194493
49	0xbe31e609	-0.17372908
50	0xbe9953dc	-0.29946792
51	0x3e983d85	0.29734436
52	0xbf5a1f97	-0.8520445
53	0x3e565465	0.20930631
54	0xbe95c9ab	-0.29255423
55	0xbe9e05b7	-0.30863735
56	0x3e518c71	0.2046373
57	0x3e85d6bb	0.2614039
58	0x3e0911a3	0.13385634
59	0xbe58af58	-0.21160638
60	0x3eb83153	0.3597513
61	0x3b4812cd	0.0030528784
62	0x3ec2f436	0.38076943
63	0xbe074eb3	-0.13213615
64	0x3e88477a	0.26617032
65	0xbe36b7c6	-0.17843542
66	0xbd2aa64d	-0.041662503
67	0x3ec5f750	0.38665247
68	0x3e69d5b4	0.22835428
69	0xbda27ab4	-0.0793356
70	0xbe90650b	-0.2820209
71	0x3eb5819c	0.35450447
72	0xbe747503	-0.23872761
73	0x3e8712a8	0.2638142
74	0xbe847566	-0.25870818
75	0x3e80d04a	0.25158912
76	0xbe612b7a	-0.21989241
77	0x3e1f989e	0.15585563
78	0x3ec0063f	0.37504765
79	0x3e48fef7	0.19628511
80	0x3ec795a8	0.38981366
81	0x3e8dc334	0.2768799
82	0xbe17d2db	-0.14826529
83	0x3eb52676	0.35380906
84	0x3e973197	0.29530022
85	0x3eb34875	0.35016218
86	0x3e597cb5	0.21238978
87	0x3e9583fb	0.29202256
88	0x3d4df007	0.050277736
89	0x3e8dc7bd	0.2769145
90	0xbe9e7fdb	-0.3095692
91	0xbe8ba6aa	-0.27275592
92	0x3ec20283	0.3789254
93	0xbe5a6b2f	-0.2132995
94	0x3ea645e1	0.32475188
95	0xbd3e1eba	-0.046416022
96	0x3eb36fa8	0.35046124
97	0x3e75a95c	0.23990387
98	0x3eccad2b	0.39975867
99	0x3eba7692	0.36418587
100	0xbdb14a45	-0.08656744
101	0x3da892f5	0.08231155
102	0x3e1be406	0.15223703
103	0xbe99f0a2	-0.300664
104	0xbe91c029	-0.2846692
105	0x3e14ec47	0.14543258
106	0xbb52be6a	-0.0032156953
107	0x3e32eb49	0.17472567
108	0xbea6e8c2	-0.32599455
109	0x3e6661bd	0.22498222
110	0x3db04229	0.08606369
111	0x3e824c8a	0.2544902
112	0xbe97163c	-0.2950915
113	0xbe7bab88	-0.24577153
114	0x3e8dc0bf	0.27686116
115	0xbeaaae48	-0.3333609
116	0x3e0b49bc	0.13602346
117	0x3e5c449d	0.21510549
118	0xbdab9463	-0.08377912
119	0xbe93e08b	-0.2888225
120	0xbe744acd	-0.23856659
121	0x3dbb70d3	0.09152379
122	0xbd56e7e0	-0.052467227
123	0xbe5cf29c	-0.21576923
124	0xbe1da472	-0.15394762
125	0xbeb8312d	-0.35975018
126	0xbe921964	-0.28534997
127	0x3e73fcc0	0.23826885
128	0xbeba828d	-0.36427727
129	0xbe8b8a72	-0.27254063
130	0x3eb83396	0.35976857
131	0x3eacf97a	0.33784086
132	0xbe654cb9	-0.22392549
133	0xbe7bb9ab	-0.24582545
134	0xbd098bdd	-0.03358065
135	0x3e46d9c9	0.19419016
136	0x3da20d87	0.079127364
137	0xbe8be5c1	-0.27323726
138	0x3e95e9cf	0.29279944
139	0x3e393fdb	0.18090765
140	0x3cbea907	0.023273958
141	0x3e5a6aff	0.21329878
142	0x3e8d1f91	0.27563146
143	0xbd95364b	-0.07285746
144	0x3e88bf68	0.2670853
145	0xbea54a82	-0.32283407
146	0xbd0b92f7	-0.034075703
147	0xbe5e5461	-0.21711875
148	0x3e0755c5	0.13216312
149	0x3e713857	0.23556648
150	0x3e85de8a	0.26146346
151	0xbe8feae5	-0.28108898
152	0x3f827f16	1.0195034
153	0xbe9367fa	-0.28790265
154	0x3eae40a0	0.3403368
155	0x3e8a4d85	0.27012268
156	0xbebbc058	-0.36670184
157	0xbec5bff1	-0.38623002
158	0xbc362f37	-0.011119655
159	0x3e613aa4	0.21995026
160	0xbe8ca7c9	-0.2747176
161	0x3cb2f9ed	0.02184769
162	0xbec1aa80	-0.37825394
163	0xbdcca882	-0.09993078
164	0xbeab5cf6	-0.3346936
165	0x3e08484e	0.13308832
166	0xbd805493	-0.06266131
167	0xbea50a93	-0.3223463
168	0xbe80e411	-0.25174
169	0x3e1263f1	0.14295937
170	0x3e90c2f8	0.2827375
171	0xbea3e68b	-0.32011828
172	0x3e2b4c98	0.16728437
173	0xbeb9adb2	-0.36265332
174	0x3dfe1acb	0.12407454
175	0xbe71769c	-0.23580402
176	0x3ea35844	0.3190328
177	0x3dcfffc1	0.10156203
178	0xbe8d2808	-0.27569604
179	0xbd98240b	-0.0742875
180	0xbe1d22c7	-0.15345298
181	0xbe7a3b59	-0.24436702
182	0x3e597dad	0.21239348
183	0xbe884f0f	-0.26622817
184	0xbe934f7e	-0.28771585
185	0xbea72ca9	-0.3265126
186	0xbe73e405	-0.23817451
187	0xbe8b07d0	-0.27154398
188	0xbe26d096	-0.16290507
189	0xbe51f6c6	-0.20504293
190	0x3e6176c1	0.22017957
191	0x3ea033a9	0.31289414
192	0xbe665973	-0.2249506
193	0x3e4fdd6c	0.2029931
194	0xbead00a8	-0.33789563
195	0x3cb0613a	0.021530736
196	0xbe7398f5	-0.23788817
197	0xbe3f0b12	-0.18656567
198	0xbe8a5531	-0.2701812
199	0xbe824e0c	-0.2545017
200	0xbd44a2d3	-0.048006844
201	0xbd4e5297	-0.050371733
202	0x3e366c4f	0.17814754
203	0xbe2d39f3	-0.16916637
204	0xbe9bccfa	-0.30429822
205	0x3e2e6338	0.17030036
206	0x3bee0cff	0.007264733
207	0x3e22dd2d	0.15904684
208	0xbecae510	-0.39627886
209	0x3e96250d	0.29325143
210	0xbd8ef78a	-0.06980808
211	0x3e6e697e	0.2328243
212	0xbe56ee8a	-0.20989433
213	0xbe8b769d	-0.27238932
214	0x3e89db5a	0.26925164
215	0xbea282af	-0.3174033
216	0x3e8f771e	0.28020567
217	0x3e64400a	0.22290054
218	0x3bd6e833	0.006558442
219	0xbebc241f	-0.36746308
220	0xbeafebe5	-0.3435966
221	0xbdab6232	-0.08368339
222	0x3d8ddb8b	0.0692664
223	0xbe5d955e	-0.2163901
224	0xbd1d4d98	-0.038404077
225	0xbe86c277	-0.2632024
226	0xbeb19a89	-0.34688213
227	0x3e9f21fb	0.31080613
228	0xbe8497a3	-0.2589694
229	0xbe53b98a	-0.20676246
230	0x3e492799	0.19644012
231	0x3e5eed74	0.21770269
232	0xbe9e72f1	-0.30947068
233	0xbe60dfec	-0.2196042
234	0xbe1d8701	-0.15383531
235	0x3eb0bfd0	0.3452134
236	0xbd18006a	-0.03710977
237	0xbea14beb	-0.31503233
238	0x3e7803af	0.24220155
239	0x3e80ad3a	0.2513216
240	0x3d9cbb82	0.07652952
241	0x3e972b05	0.2952501
242	0x3e4abbee	0.19798252
243	0xbd388a37	-0.045053687
244	0x3eafee92	0.34361702
245	0xbe72ae7e	-0.23699376
246	0x3ad1cf33	0.0016007185
247	0xbe604ed3	-0.21905069
248	0x3e7181af	0.23584627
249	0x3e056936	0.13028416
250	0x3e4360a5	0.19079836
251	0xbe6b2241	-0.22962286
252	0x3f6ddfb5	0.92919475
253	0xbebfa873	-0.37433204
254	0x3e82a621	0.2551737
255	0x3e13bd34	0.14427644

bias f4 [100]
0	0xbde6eb45	-0.11275343
1	0x3d9cc458	0.07654637
2	0x3d956d89	0.07296283
3	0xbd3471dc	-0.044053897
4	0xbd9b55d8	-0.07584733
5	0xbde1df2c	-0.11028895
6	0xbdd921b4	-0.106021315
7	0x3c8dc7a4	0.01730711
8	0x3cd7fd92	0.026366029
9	0x3c4d0c03	0.012515071
10	0xbdcd99d7	-0.10039108
11	0xbdfb7f2b	-0.12280115
12	0xbdc7dd3e	-0.097589955
13	0xbdbb5b35	-0.09148256
14	0x3d919715	0.07108895
15	0xb8961510	-7.1564806e-05
16	0xbd59eec8	-0.053206235
17	0x3dc79933	0.09746017
18	0xbdc06b21	-0.09395433
19	0xbdadfd7c	-0.08495614
20	0x3de21fb5	0.11041204
21	0x3b122ac7	0.002230333
22	0xbdcb90c8	-0.09939724
23	0x3d3cb3cd	0.04606991
24	0xbd3a52e3	-0.045489203
25	0xbdab5854	-0.08366457
26	0x3d619893	0.055077147
27	0xbcfbe2fe	-0.030747887
28	0x3d9619be	0.07329129
29	0x3df6df26	0.12054281
30	0xbdba6130	-0.09100568
31	0xbd03acce	-0.03214722
32	0x3d6797dd	0.056541312
33	0x3d468dc0	0.048475027
34	0xbde7a6aa	-0.113110855
35	0x3d800f50	0.06252921
36	0x3d3652b2	0.04451246
37	0x3da1902e	0.07888828
38	0xbd9258e2	-0.07145859
39	0xbde83e84	-0.11340049
40	0x3c08e173	0.0083545325
41	0xbd912688	-0.070874274
42	0x3db290b6	0.08719008
43	0x3cc69ced	0.02424475
44	0xbd958f7d	-0.07302759
45	0x3dcedb70	0.10100448
46	0x3dc24066	0.09484939
47	0x3db4a94a	0.08821352
48	0xbda05408	-0.07828528
49	0x3d9a7bb4	0.07543126
50	0x3dbc7f97	0.09204023
51	0x3c92601b	0.017868092
52	0xbd29981f	-0.04140484
53	0x3d8fac19	0.07015247
54	0x3d1432b8	0.03618118
55	0x3ccf9587	0.025339855
56	0x3d9cafc2	0.07650711
57	0x3c9754ed	0.018473113
58	0xbde94765	-0.113905706
59	0xbdb98fb8	-0.09060615
60	0xbc11048e	-0.008851184
61	0xbd2d96a4	-0.04237999
62	0x3d9a7ba2	0.07543112
63	0x3dccd15d	0.100008704
64	0x3d770841	0.060310606
65	0x3d70c491	0.05878121
66	0xbc945112	-0.018105064
67	0xbdbe7129	-0.09298927
68	0x3d8cf45c	0.06882545
69	0x3d55a8f4	0.05216308
70	0x3d928eeb	0.07156166
71	0x3dcbd5b2	0.099528685
72	0xbde2a117	-0.11065882
73	0xbd914d78	-0.07094854
74	0xbd04a4f5	-0.032383878
75	0x3db4fbe0	0.08837104
76	0x3cc255c2	0.023722533
77	0xbd95653a	-0.07294698
78	0x3d8500a5	0.064942636
79	0x3df914b3	0.12162151
80	0xbd9e36bb	-0.07725283
81	0x3d3a66da	0.045508243
82	0x3d22773f	0.039664503
83	0x3d7d0a28	0.061777264
84	0xbdc84704	-0.0977917
85	0xbd361e8c	-0.044462726
86	0x3ce680b5	0.028137544
87	0xbd904a55	-0.07045428
88	0x3df18357	0.11792629
89	0xbd63ae4b	-0.05558614
90	0xbcf4b8a7	-0.029873205
91	0x3dc9f1e0	0.09860587
92	0xbd6a8da0	-0.05726397
93	0x3daa1aca	0.08305891
94	0x3ded022e	0.11572681
95	0xbd9897c7	-0.07450824
96	0xbdd5c338	-0.10437626
97	0x3d4067cf	0.046974
98	0x3cfbbcc1	0.030729653
99	0xbd982f09	-0.07430846
