Results/Nodes_256/model_weights.pth (torch, 127624 bytes, 8 tensors)

weight f4 [100, 2]
00000000: 4848 2abf 731a a63e 0a73 a4be 5bc6 bbbe
00000010: 46fe 2c3e 2aef bcbe d551 a7be 52fa 73be
00000020: 7e20 1bbf 4c46 0cbf ff45 43be 8f2b 3c3e
00000030: ed7b 12bf 8722 dbbe 9cb2 a4be f0a6 6ebe
00000040: fe1f 663d 850d 8fbe 0e55 03be deec 4e3d
00000050: 8ec3 873d 7668 7cbf a42d 18bf a96e 72bf
00000060: 2a1a e5be 3ba6 c93e 5e18 b3be 0fef 21bd
00000070: d6c1 29bf 5309 0dbe 61fb dabe f0fa b43e
00000080: 9adc 26bf 6a44 0abf 46ae 71bf dbc8 aabe
00000090: 5ed8 aa3e c588 e33b f25a 36bf 548f a6be
000000a0: b6c9 9ebd e7bb 11bf 87ef 0d3f 06c3 3a3c
000000b0: dfa9 adbd beb7 04bf 8a11 29bf 63ea 59be
000000c0: 83d9 853e bb68 223e 5993 15bf a3d1 e73e
000000d0: bc2c d5bd cbb7 ddbe 6354 2dbf 5e6c b33e
000000e0: 7b17 b5be b01d e5be 3a24 07bf 9421 d6be
000000f0: ab75 18bf 63da 0fbf 5f50 8f3d 2ace 883e
00000100: e152 e33e d6c2 3dbf f479 143e 2af7 2cbf
00000110: 47b6 b13d 8c03 343e 1ef1 993e 3920 8e3e
00000120: 527b e23e b97d 613c b459 a63e e386 81be
00000130: dcdb 9d3d 8660 eabe 95e4 b1be 14de cfbe
00000140: 5c2a f8be 7254 32bf 113f 74be 6931 e7be
00000150: 19d1 22bf fc98 3c3d bc47 023e e92e a03e
00000160: e844 d33e 7ea8 bbbe a9cd 70bf b7df e23c
00000170: 1eb3 2b3e 0cb6 55bf 70d2 813e 380c 193f
00000180: ce72 2f3d 071d dabe d969 143f a598 9a3e
00000190: be79 703e 0b15 36bf 4446 a73d 186b 83be
000001a0: 1b1e 333f 4c65 99be d03c 4a3e 4baf b1bd
000001b0: 6621 2e3e 692b 92bd bcb3 943e 36e3 96be
000001c0: afdd 7dbf e17e 1bbf 65f0 813e 8400 f9be
000001d0: 13f7 b2bc f678 00bf e01e 463e 8232 b33d
000001e0: f39b 7f3e 6f0f b9be 1716 4ebf f84a 4dbe
000001f0: c54d 43bf 9d0b 683e 87f4 2dbf 9ac8 a13e
00000200: f175 343f ba51 b53e 779d 54bb 92b1 6abf
00000210: e46e aa3e 764b e9be 6025 29bf 10b2 323f
00000220: f6e5 1ebf 81b8 c3be 686d d43e 2182 38bf
00000230: c211 00bf bb7e eb3d aa1b a6be a37c 87bd
00000240: 780b 54bf 188d 5abe 2d05 a1be 3efb b1be
00000250: da4e 7abf 9312 373d d57b 0b3e a50a 19bf
00000260: 3f15 653e 77e6 f5bd c2fe 54be 08aa 43bf
00000270: 87ae 03be d9c0 e93e 2d99 1f3e 3efb 60bf
00000280: ddec d43e 434a 2fbe c320 ae3e eb97 0c3f
00000290: 82c2 0e3f a8f7 2cbe 5a50 943e 1155 50bf
000002a0: fc1f 593d bdfa fcbe eabd 1ebe ba9d 03bd
000002b0: bb40 dabe 4f1d e7be badc aabe 8db5 b03e
000002c0: 4159 d23e bc8c ca3e d140 44bd 1fe1 5d3e
000002d0: 6167 b9be 8ad8 8bbe 4249 d0bd 47ac 61bf
000002e0: 1702 4fbf 3a01 1fbe b2ee 1dbf 2481 b8be
000002f0: 5b25 26be 7c6c e13d d147 633e f8d2 f3be
00000300: e796 593e 637a 543e 98ee 0abf b2c9 0bbf
00000310: 4c75 12bf 8e67 c6be c67c 1abf 5139 c3be
-0.6651654 0.32442054 -0.32119018 -0.3667477 0.16893873 -0.36901218 -0.3267962 -0.23825958
-0.60596454 -0.54794765 -0.1906967 0.18375991 -0.57220346 -0.4279978 -0.32167518 -0.23305869
0.056182854 -0.27940002 -0.12825415 0.050518863 0.06629096 -0.98596895 -0.5944464 -0.94700104
-0.44746524 0.39384636 -0.34979528 -0.039534625 -0.66311395 -0.13773088 -0.42769912 0.353477
-0.6518036 -0.5401064 -0.94406545 -0.33356366 0.333682 0.0069437944 -0.7123252 -0.32531226
-0.07753317 -0.5692734 0.55443615 0.011399036 -0.08479666 -0.5184287 -0.6604239 -0.21280818
0.2614251 0.15860264 -0.5842796 0.45277128 -0.10408923 -0.43304285 -0.6770689 0.35043615
-0.35369477 -0.44749212 -0.5278965 -0.41822493 -0.5955455 -0.56192607 0.069977514 0.2671979
0.4439917 -0.7412542 0.14499646 -0.6756464 0.08677345 0.17579478 0.3006677 0.2775896
0.4423471 0.013762885 0.32490313 -0.25298223 0.077079505 -0.45776767 -0.34744707 -0.4059912
-0.48469818 -0.69660103 -0.23852183 -0.45154884 -0.6360031 0.046044335 0.12722677 0.3128579
0.4126351 -0.36651987 -0.9406381 0.027694566 0.16767547 -0.83480906 0.25355864 0.5978427
0.042834096 -0.4260027 0.5797401 0.30194584 0.23483941 -0.7112586 0.08167699 -0.25667644
0.6996781 -0.29960096 0.1974976 -0.086760126 0.17004928 -0.07137186 0.29043376 -0.29470223
-0.9916639 -0.60740477 0.2537872 -0.48633206 -0.02184633 -0.5018457 0.19347715 0.08749868
0.24961834 -0.36144587 -0.80502456 -0.2004813 -0.7629054 0.2266068 -0.67951244 0.3159836
0.70492464 0.35413915 -0.003244249 -0.916772 0.33287728 -0.45565385 -0.66072655 0.6980295
-0.6206964 -0.38226703 0.4148972 -0.7207356 -0.50027096 0.11498781 -0.3244298 -0.066155694
-0.8283 -0.21342885 -0.3144926 -0.34761995 -0.9777657 0.044695448 0.13621457 -0.5978187
0.22371386 -0.12006848 -0.20800307 -0.7643132 -0.12859546 0.45654944 0.15585776 -0.87883365
0.41586962 -0.17118172 0.3400937 0.5491931 0.55765545 -0.16891348 0.28967553 -0.813798
0.05300902 -0.49410048 -0.15502134 -0.03213284 -0.4262751 -0.45139548 -0.33371526 0.34513512
0.4108372 0.39560497 -0.047913376 0.21667908 -0.36211684 -0.27313644 -0.10170223 -0.881535
-0.80862564 -0.15527812 -0.61692345 -0.36036026 -0.16225187 0.1100702 0.22195365 -0.47621894
0.21248971 0.20749812 -0.54270315 -0.5460464 -0.5721023 -0.3875088 -0.6034664 -0.38129666

bias f4 [100]
00000000: 0717 30be 65eb b6be e408 66be 2bf7 82be
00000010: c6a9 ea3e 952e 86be 299c 01bf d29f 1bbd
00000020: bddd c0be 49d6 3f3e fbe2 ed3d 94f5 a63e
00000030: 3c92 04bf e5e7 563e 793e b03e 3ec9 b2be
00000040: 8c42 a03e 42fa 4b3e e96e a8be 8a6f b63b
00000050: 2d27 7dbe d3e1 1dbf b9bc 60bd 8451 f3bd
00000060: 169d ecbe 8b97 c83d 7da1 1abf fcad 863e
00000070: 76e4 a83e 3858 27bd 4a27 e3be 1bcb 83ba
00000080: 3a79 e1bd 6cb5 36bd 2625 d2bd 0739 933e
00000090: 029e 9bbe ace0 22be 7d33 1abd 9305 86be
000000a0: c746 8b3e 1a28 bebe a1f2 d2bc 7909 4cbe
000000b0: 964e 40be 92d8 743e a499 1abe b24d 27bf
000000c0: 17e3 9cbd 8434 a4be 3459 28be b628 d3be
000000d0: 2c8f 33bf 53e8 b6be 68f8 7ebe cc83 55be
000000e0: fc80 a53e 1ebc e8be e55c 563e 070e 25be
000000f0: eecd 18bf 57c2 79bd 609b 763e 4acf ecbe
00000100: 4203 eabe b6c6 e33e 4707 5f3e adfa c9be
00000110: 54fd bd3d 33c4 a4be e778 32bf bc87 34be
00000120: 2d1a ddbb e231 59be 04b6 acbd 30ca 1abf
00000130: 4a5c 1c3e cb2d 893e d878 1c3e 66ec 55be
00000140: e886 893b e5f9 02bf 49b7 f0be b482 cbbe
00000150: 3178 c9be 5bb4 05bf 819a 093e bf61 a03d
00000160: 4e66 24bf c61a d9bd dbbb 2bbd 7010 dc3e
00000170: 47aa 2c3e f62c a03e 330e 6dbe b4c3 843e
00000180: 8b20 633e 0ff1 2abf 314e 11bf 64b0 3dbe
-0.17196284 -0.35726467 -0.22464329 -0.255792 0.45832652 -0.26207414 -0.50628906 -0.037994213
-0.37669173 0.18734087 0.11615559 0.32609236 -0.51785636 0.20986898 0.34422663 -0.3491916
0.3130077 0.19919685 -0.32897118 0.0055674957 -0.24721976 -0.61672705 -0.05486748 -0.11880782
-0.46213597 0.097945295 -0.6040266 0.26304615 0.32986802 -0.040855616 -0.44365913 -0.0010055037
-0.1100945 -0.04460661 -0.10260992 0.28754446 -0.30393988 -0.15906018 -0.03764676 -0.26176128
0.27202436 -0.3713997 -0.02575046 -0.19925489 -0.18779978 0.2391074 -0.15097672 -0.6535293
-0.076605015 -0.32071316 -0.16440278 -0.41241997 -0.7014034 -0.35724124 -0.24899447 -0.20851058
0.3232497 -0.45456022 0.20933874 -0.16118632 -0.59689224 -0.060976353 0.24082708 -0.462519
-0.4570561 0.44487542 0.2178012 -0.39449063 0.09276834 -0.32180938 -0.6971573 -0.17629904
-0.006747505 -0.21210435 -0.08433154 -0.60464764 0.1526958 0.2679275 0.15280473 -0.2089096
0.0041969903 -0.5116256 -0.47014835 -0.39748156 -0.3934951 -0.52228326 0.13437845 0.078311436
-0.64218605 -0.1060081 -0.0419272 0.4298129 0.1686183 0.31284302 -0.23149948 0.2593056
0.22180383 -0.66774076 -0.56759936 -0.18524319

weight f4 [100, 100]
00000000: 37a8 5f3d a07e 4bbd c071 343c 9a39 18b9
00000010: a583 57be 3019 5cbd c707 673d fa19 2cbe
00000020: 8381 97be e54b 70be 75e9 70be f04a 50be
00000030: dbc9 be3d 2437 53be 7b48 84be 08f0 b73d
00000040: 7610 8cbe c925 87be 7dbf 67be 18ca 9ebe
00000050: 4d49 323c a8f3 8abd 6b0f 66be 55c8 62be
00000060: dac9 623c e09a a3be 0d84 c2bd 88fc 41be
00000070: 7d8d 19be 9b46 a5be a7b6 173d 5135 9ebe
00000080: db9b 6abe 1bb1 11be 72f7 22be c93a 9ebe
00000090: f75d 7d3d edf0 553d 810e 71be f215 03be
000000a0: b2de 8cbe 0da4 bebc 8304 4fbd b45f 61be
000000b0: cde9 d83c 58bf 68be 81e3 94be 6063 38bd
000000c0: 9353 0b3d f592 b3bd e626 80be 3a97 6abe
000000d0: 83f4 25bd 43cf 46be 9396 b1be 68c8 8f3d
000000e0: f0fd 79be d064 6f3e 7d11 29be 0f2e 62be
000000f0: 0d9e eabc afb6 98be 38ff 58be 1a54 c3bd
00000100: 53c2 d73c d704 3fbe 5bac a5be b013 86bd
00000110: 280c 9dbe 4655 18be cf1a ae3d f5e0 67be
00000120: 0a2c 0fbe 50ee 08bd 4bfc a7be 3a12 0f3d
00000130: 881a 4dbe 4ef0 0cbe 224c 71be d353 20be
00000140: b28c 32be 553a 943d 3a57 c9be 75da 13be
00000150: 1595 aebd 009b b73d 0829 75be faea a5be
00000160: 47d0 e33c f89f 82be 0800 a6be 6c5d 8bbe
00000170: 9e37 66be 8e6e 21be add8 fbbc 37bc 34be
00000180: c2a4 64be 67e8 5c3b f3bf 9c3c 471c 96be
00000190: ba3a aabd 7ab3 00bd fdd7 bebd 6704 3fbd
000001a0: 394f 5ebf 18e2 86bd 83e6 29bd fa32 93bc
000001b0: cdbf 3cbc 32b8 6dbf 1a74 9d3b 73f7 65bc
000001c0: a049 ea3c e8b8 5dbf 0535 6cbf ca04 0dbd
000001d0: 53ab 5abf 9a95 7fbd 1a43 003c 675c e7bb
000001e0: 80ea 1e3d 67e0 c13c da44 993d cd0a 58bb
000001f0: ea53 97bd ec31 52bf 5f69 8abd 0e26 63bf
00000200: 00b4 67bf a36b 1bbd a08b 17bd 76c9 46bf
00000210: 737a 6a3d ed07 e33c 5f4c c03d f587 77bf
00000220: 3a31 843c af1b 833d ed0b 883d a8fd a2bd
00000230: bac5 113d e757 69bd 8009 80bb 53f1 aabc
00000240: 3000 abbd 6983 70bf cdbc 86bd 4add 393d
00000250: 975d 3b3d ab20 b2bd 77d2 19bd 3319 d63a
00000260: 0711 b1bd 7dca 663d d767 48bf 9ae2 903c
00000270: 602b 98bd ba06 bf3c d9e7 54bf 622b a23d
00000280: 93ef 59bd 7a7b b7bd f29c 53bf 6700 cc3b
00000290: 6075 05bd 7e96 6abf bede 6cbf f5c8 a53d
000002a0: 1358 8dbc 05b4 933d 8dd0 b63d cd8b 4f3c
000002b0: 0781 ae3c 672a dfbb e8a8 8c3d f58a b8bd
000002c0: c451 55bf 05f9 5cbf ed27 54bf cd84 e9b9
000002d0: 836f 66bf 80dd 30bc 3521 52bf 5f3d 8ebd
000002e0: 3374 81bd 737f b7bc 6d92 14bd e93f 55bf
000002f0: 00d3 893d 6778 2fbc 4da7 c13d b463 6abf
00000300: d3d9 65bd 573a 69bf ff19 8dbd ed97 71bf
00000310: 77f6 76bf 8f82 b5bd 60cf d53c d3cb 793d
00000320: a346 c03d b772 ae3d 1ab9 bcbb 87f6 9e3c
00000330: e75f b8be ad51 1e3d e35e c4bd 3397 81be
00000340: 7c4f 90be b501 8abe 64fe 86be 2c3f b1be
00000350: 7dbd af3d 1e4e 81be 0d37 70be c065 583c
00000360: de2c 73be c490 6ebe b588 82be 9f79 65be
00000370: b395 94bc d5a9 863d 79f1 8dbe 8cdd 75be
00000380: 9379 c73d 9425 8ebe ad07 18bd b8d5 9ebe
00000390: 8d53 8bbe 3c1b 91be edc7 dfbc a63f 63be
000003a0: f8f4 75be 088b b9be 89e9 9dbe d3a7 9ebe
000003b0: bf5a 80bd 00f8 6e3c 4675 a9be 5929 b4be
000003c0: 2b34 aabe d30a 12bd 7deb c33d f019 86be
000003d0: e08b c93d 9eb3 8bbe 2b25 8ebe 4a62 283d
000003e0: f399 8c3c a0b8 a0bd 2804 b8be 5eef a5be
000003f0: 330b c53a 6b26 86be 3db7 1d3d 7878 a23d
0.05460378 -0.049681306 0.011013448 -0.00014517308 -0.21046312 -0.05373496 0.0564039 -0.16806784
-0.29590997 -0.23466451 -0.23526557 -0.20341086 0.093158446 -0.20626503 -0.25836548 0.08981329
-0.2735631 -0.26396015 -0.2263164 -0.3101356 0.010881734 -0.06784755 -0.22466819 -0.22146733
0.0138420705 -0.31954098 -0.09497843 -0.1894399 -0.1499538 -0.3228043 0.037039425 -0.30900052
-0.22911017 -0.14227717 -0.15914705 -0.30904225 0.06185719 0.052231718 -0.23540689 -0.1280134
-0.27513653 -0.023271585 -0.050541412 -0.22009164 0.026478672 -0.22729242 -0.29079822 -0.045016646
0.03401525 -0.08768264 -0.25029677 -0.22909251 -0.040516388 -0.19415002 -0.34685192 0.07020646
-0.24413276 0.233783 -0.16510577 -0.22087882 -0.028639818 -0.29826877 -0.21191108 -0.095375255
0.026337778 -0.1865419 -0.3235806 -0.06546724 -0.30673337 -0.14876279 0.08501207 -0.22644408
-0.13981643 -0.033430398 -0.32809672 0.03492949 -0.20029652 -0.13763544 -0.23564199 -0.15656976
-0.17436484 0.072376885 -0.3932436 -0.14438803 -0.08524529 0.08965111 -0.23941433 -0.32405835
0.027809275 -0.2551267 -0.324219 -0.27219713 -0.22482154 -0.1576483 -0.030742968 -0.17649923
-0.22328475 0.0033707859 0.019134497 -0.2931845 -0.083119825 -0.031421162 -0.0931854 -0.046635058
-0.86839634 -0.06586093 -0.0414796 -0.017968643 -0.011520338 -0.92859185 0.0048051 -0.014036047
0.02859956 -0.8661027 -0.922684 -0.034428395 -0.8541767 -0.06239853 0.007828498 -0.0070605758
0.038797855 0.023666574 0.074838355 -0.0032965422 -0.07389052 -0.82107425 -0.06758379 -0.8872994
-0.90509033 -0.037944447 -0.03699839 -0.77651155 0.057245683 0.02771374 0.09389567 -0.9669183
0.016136754 0.064017646 0.066429 -0.07958537 0.035588957 -0.056968596 -0.0039073825 -0.020867025
-0.08349645 -0.93950516 -0.0657898 0.045377053 0.04574355 -0.08697637 -0.03755423 0.0016334414
-0.08645826 0.05634545 -0.7828345 0.017686177 -0.07430148 0.023318637 -0.8316627 0.07918431
-0.05320699 -0.08959098 -0.82661355 0.006225634 -0.03258264 -0.9163588 -0.9252738 0.0809497
-0.017253911 0.072120704 0.08926497 0.012667608 0.02130176 -0.0068104747 0.06868154 -0.09010879
-0.8332789 -0.86317474 -0.8287342 -0.00044540167 -0.90013903 -0.010794997 -0.8208192 -0.06945299
-0.06320991 -0.02239964 -0.036272455 -0.83300644 0.06729698 -0.0107098585 0.09455738 -0.91558385
-0.056115936 -0.91104645 -0.06889724 -0.94372445 -0.96469826 -0.08862793 0.02609986 0.060985398
0.09388473 0.08517974 -0.0057593705 0.019404663 -0.36010668 0.03865211 -0.09588411 -0.25310668
-0.28185642 -0.26954427 -0.2636596 -0.3461851 0.08581064 -0.2525491 -0.234585 0.013207853
-0.23747584 -0.23297411 -0.25494924 -0.22409676 -0.018137788 0.06575362 -0.27723292 -0.24010295
0.09739985 -0.27763045 -0.037116695 -0.3102243 -0.27212182 -0.2834109 -0.027317012 -0.22192249
-0.2401923 -0.36238885 -0.30842236 -0.30987415 -0.062673084 0.014585495 -0.33097285 -0.35187796
-0.33242926 -0.035654854 0.095664 -0.26191664 0.09841132 -0.27285475 -0.27762732 0.04110936
0.017163252 -0.078477144 -0.3594067 -0.32409185 0.0015033245 -0.26201186 0.038504828 0.07933134

bias f4 [100]
00000000: 75e1 97be cba1 4dbf c55d 6abe a015 933d
00000010: 6da7 e03c ab77 72be 3389 f1ba 90f7 58bd
00000020: b43a 54be 88dd 9bbf 0103 45be d735 52bd
00000030: 9775 2dbd 41a2 b8be 8144 87be 7c56 39be
00000040: a7b0 fe3c 240a 87be 50c0 2bbe 6c65 6abe
00000050: e36d 2fbd af93 97bd 2deb 23be 12c2 b9bd
00000060: 6d12 9ebd 91bd c3be d602 96be a095 8abd
00000070: 6030 98be 236f 33bd 9741 27be 988f b6bd
00000080: 7294 9abd 95f2 c8be 1879 b4bd 33f4 54be
00000090: 402f bdbe 4ced a4be a2dc b3be b3b8 dcbc
000000a0: 22be a3be a360 823d 9c69 b0be 8eef 95be
000000b0: 3ddc 683d 4566 56be ed21 60be d85a 80be
000000c0: 3612 79be 9a81 54bd adc0 9ebe 07f6 93be
000000d0: 781d 96be 1138 a1be e743 81be d1cf a83b
000000e0: 756e 09be 0a99 0cbd 8b87 7bbe f05d c1bd
000000f0: c5cb 49be 15ae 94be 68e0 bebd 7159 63be
00000100: 401c 1dbd f8b0 b8be b204 a1be 9aad 76bd
00000110: d02c 80be b959 5cbe e669 73be 606c 25bd
00000120: fb1e 48be 3bd6 8bbd 6aa9 60be 3a01 88bc
00000130: a00d 67bf c319 6bbe 5dd6 56be 2954 a8be
00000140: 07b4 68be 66e9 63be b79e 93bd 1b47 97bd
00000150: 1944 5cbe 4fb2 55be 623b 76be 1682 50be
00000160: 3355 87bd a068 58bd 17ea 19bd fa64 63bd
00000170: f111 8ebe 9c3b 87be 4167 92be 181a 33be
00000180: cc59 a9be 440d 5cbe 1f0c 82be e2d1 72be
-0.29664198 -0.80325 -0.22887333 0.07181859 0.027423585 -0.23678462 -0.0018427729 -0.05297047
-0.20725518 -1.2176981 -0.19239427 -0.051320877 -0.04234847 -0.3606129 -0.26419452 -0.18099397
0.031090094 -0.26374924 -0.1677258 -0.22890252 -0.042829406 -0.07401215 -0.16007681 -0.09070219
-0.07718358 -0.38230565 -0.2929904 -0.0676682 -0.29724407 -0.04380716 -0.16333614 -0.08914107
-0.07547845 -0.39247575 -0.08812159 -0.2079628 -0.3695011 -0.32212293 -0.35129267 -0.02694354
-0.31980997 0.06366088 -0.34455574 -0.29284328 0.05685066 -0.2093745 -0.21887942 -0.25069308
-0.24323353 -0.05188141 -0.31006375 -0.2889864 -0.29319358 -0.31488088 -0.25247118 0.005151727
-0.13421042 -0.034325637 -0.24563424 -0.09441745 -0.19706638 -0.29039064 -0.09320146 -0.22202088
-0.03835702 -0.36072516 -0.31448895 -0.060224153 -0.2503419 -0.21518601 -0.23770866 -0.040386558
-0.19543068 -0.068279706 -0.21939626 -0.016602147 -0.90255165 -0.22959046 -0.2098021 -0.3287671
-0.22724925 -0.22257003 -0.07208007 -0.07386609 -0.21510352 -0.208688 -0.2404609 -0.20362124
-0.06608047 -0.052834153 -0.03757676 -0.05551622 -0.27748063 -0.26412666 -0.285944 -0.17490423
-0.33076322 -0.21489435 -0.25399873 -0.23712876

weight f4 [100, 100]
00000000: 9b3c 9e3d 678f afbb da01 c13d 838c 583d
00000010: fdb0 7abd cd7b ec3b ba40 47bd da07 9b3c
00000020: 2059 77bd fa2f 18bd 779d 28bd 2a73 c6bd
00000030: 1a0d bc3d 4a39 0cbd 00fc fabc 331f 08bb
00000040: 67ac e63a b702 acbd 6de6 e33c e759 7fbd
00000050: 37a7 a2bd bae0 75bd cfb3 9fbd d270 a03d
00000060: 0a9d 1c3d 4f76 b33d 47cf a4bd 6295 a2bd
00000070: 307d 223d aabf 3fbd 4d11 fbbc 67a6 70bd
00000080: 0852 acbd 1d4c 71bd 63c9 80bd fdda 513d
00000090: 33fa 2cbb 10f7 7f3d 050d b23d f33f 873d
000000a0: 77b0 a6bd e715 703d 6347 693d 7d82 39bd
000000b0: c08a acbc 9aad 093d 3356 27bc d084 7abd
000000c0: 8d2b 91bc 470c e2bc e395 7a3d 206e 323d
000000d0: 1307 803d b3a7 8abb fa70 babd 53f4 c73d
000000e0: 67ad 4a3b d7ae 2e3d f74b 68bd 4d49 a2bb
000000f0: e0aa da3c 5a97 26bd cad3 62bd 073e e63c
00000100: b26f a43d a7ca 9f3d d071 0b3d 0d81 0b3c
00000110: 6a1a 383d e7e5 ffbc 9ff0 9d3d 631e 583d
00000120: 8834 ccbd 70bd ba3d cd37 9a3b 5dd9 9abd
00000130: 73bc 1cbd 88eb c63d 3ffc aabd 4df5 cc3c
00000140: 00c3 09bd 8237 a8bd 5742 1e3d faa1 6e3d
00000150: b754 c93d c012 a7bd c752 483d afbf 913d
00000160: 9a29 21bb a000 9e3d 68f6 ba3d 48db a5bd
00000170: fdce 4d3d 2039 c33c a760 393c f7f9 963d
00000180: 00f0 af3b 938b 18bd f5e5 ae3d ad57 6d3d
00000190: 50b2 463d 408d dcbc b0d3 aabd a768 64bc
000001a0: 2d73 99bc f3b9 a4bc 1a09 51bd 1d0e 933d
000001b0: c049 88bc 939e c8bd 7f4f 83bd e89b cabd
000001c0: 3dab 623d 0df9 3bbc 0dc6 50bd c310 9dbd
000001d0: f79c 473d aa01 b1bd 5546 babd 80a1 13bc
000001e0: a791 743d 80b7 a1bd 7296 84bd 1d0e 043d
000001f0: 02f3 c6bd a813 883d 53f5 5a3d 33e4 473d
00000200: a053 ae3d 7aeb b13d b02e 3dbd b361 673d
00000210: cdab 5f3d 0072 393d 539a dfbc 2a65 61bd
00000220: 7ff5 84bd 00cd af3c 678d 33bb 33df a53b
00000230: fa6c b73d 3a67 a6bd d382 bd3c ed71 933c
00000240: 9a3d 91bb 1794 873d a2f5 843d 75e2 89bd
00000250: a0aa 913c 0d7e 76bd d37b 62bd a01a abbd
00000260: 70b6 183d 8d95 27bc e514 82bd 33a8 a2bc
00000270: 9aa1 f1bb 23c2 1a3d d747 ae3d 82fb 87bd
00000280: 67c5 ccbb 483b c63d 030c 873d a0cc 3c3d
00000290: fa89 f6bc 53ce 8e3c b3bd de3b 9a7f c03a
000002a0: 08a7 853d 7387 0bbd 2dea c9bc 1bbe 8e3d
000002b0: a0e4 cf3c 9d71 c2bd eda5 a0bc f529 8a3d
000002c0: 9734 783d 8dac 883d e708 70bd 9206 99bd
000002d0: 8dd2 023d d22a 9d3d f06b a73d 5d5f 1d3d
000002e0: cdca 713d 6f5f 8dbd ade7 c43c cdd7 28bc
000002f0: 9a63 92ba 8a70 413d 326c 99bd c00b 1e3c
00000300: 8d81 0fbd 7791 4d3d 60dc b6bd 6df4 61bd
00000310: 5349 92bd a75d 993d 50e9 7e3d 65d3 a93d
00000320: 4489 03be ed8f f93c d743 a03e 53da e43c
00000330: 3a69 833c 7a30 88be 0793 9abd d090 9d3d
00000340: 29ef 96be f3dd 8e3d 2336 77be ba60 d43c
00000350: b371 193d db51 9cbe 0272 8dbe 92a4 8fbe
00000360: c72c 50bd 3d94 76bd 65ee 3c3e 898b 9d3e
00000370: 00ec 86ba 4d50 db3c d1e9 09be 1ae2 fdbb
00000380: c7aa 44bd 262b 693e 22c7 13be 27f7 b4bd
00000390: 1fb9 b23e 603c b33d c1a6 32be 6746 4aba
000003a0: 40c4 54bc 81f5 6ebe 6dcc 59bd b334 44be
000003b0: 9de9 893e 16b5 b43e bd66 8e3e 18ad 88bd
000003c0: bbdb a1be 5de1 703d 3b6a ac3e 5650 98be
000003d0: 252c 85bd 6f1d 8f3e 24d5 943e 74cf 82be
000003e0: f2b1 893d 6777 e33b 260d 8c3e 80be 963e
000003f0: 35a5 39be 2593 bdbe 19d4 4e3e f785 a4bd
0.07726403 -0.005357671 0.09424181 0.052868377 -0.061203945 0.0072169066 -0.048645712 0.018924642
-0.06038773 -0.03715513 -0.041165795 -0.096899346 0.091821864 -0.034234323 -0.030637741 -0.002077055
0.0017598987 -0.08398955 0.027819837 -0.062341597 -0.0794205 -0.06002877 -0.07797968 0.07834019
0.0382357 0.087628 -0.080473475 -0.07938649 0.03967017 -0.046813644 -0.030647898 -0.058752444
-0.08414084 -0.058910478 -0.062884115 0.051234234 -0.0026394248 0.062491477 0.086938895 0.06603994
-0.08139127 0.058614638 0.056952845 -0.04529046 -0.021062255 0.033612825 -0.010213423 -0.061161816
-0.017720962 -0.027593745 0.0611781 0.043562055 0.06251349 -0.004231417 -0.0910358 0.09763398
0.003092611 0.04264721 -0.05671307 -0.004952586 0.026692808 -0.040671684 -0.05537776 0.028105749
0.08029117 0.07802325 0.034044087 0.008514655 0.044947065 -0.031237556 0.077119105 0.052763354
-0.09970957 0.091181636 0.004706359 -0.0756099 -0.038265657 0.09712893 -0.083488934 0.025019312
-0.033633232 -0.08213712 0.038637485 0.05825994 0.09830611 -0.08157873 0.048907068 0.07116639
-0.0024591447 0.07714963 0.091290295 -0.08098465 0.050246228 0.02383095 0.011314548 0.07371896
0.0053691864 -0.037242483 0.085399546 0.057944942 0.048509896 -0.026922822 -0.083411574 -0.013940967
-0.018731678 -0.020108199 -0.05103407 0.07180426 -0.01663673 -0.09795871 -0.06411647 -0.09893018
0.055339087 -0.011472953 -0.050970126 -0.07669213 0.048733678 -0.086428955 -0.09095446 -0.009010673
0.059709217 -0.07896328 -0.06474008 0.032240022 -0.09714319 0.06644374 0.053456616 0.048801612
0.08512044 0.08687492 -0.046187103 0.056489658 0.0546072 0.045274734 -0.027295267 -0.05502812
-0.06492137 0.021460056 -0.0027397515 0.005062008 0.089563325 -0.08125158 0.02313367 0.01799866
-0.0044323923 0.06620043 0.06492163 -0.067326464 0.017781556 -0.060178805 -0.05529387 -0.08354688
0.03728336 -0.010228527 -0.063516416 -0.019855594 -0.0073740007 0.0377828 0.08509796 -0.06639768
-0.006249118 0.09679276 0.06594088 0.046093583 -0.03009509 0.017432367 0.0067975163 0.0014686466
0.06525999 -0.03406472 -0.024647797 0.069698535 0.025377572 -0.09494326 -0.01961037 0.06746284
0.06059703 0.066735364 -0.05860224 -0.07471956 0.031939078 0.07674183 0.08174884 0.038421024
0.059031297 -0.06902968 0.024036253 -0.010305357 -0.00111686 0.047226466 -0.0749134 0.009646356
-0.03503566 0.050187554 -0.08928752 -0.055164743 -0.07142892 0.07488566 0.062234223 0.082922734
-0.12845331 0.030464137 0.31301758 0.027936136 0.016041387 -0.26599485 -0.075475745 0.076936364
-0.2947934 0.06975927 -0.24141745 0.02592503 0.037461948 -0.305312 -0.27626044 -0.28055245
-0.050823953 -0.060199965 0.18450315 0.3077052 -0.0010293722 0.026771689 -0.134681 -0.0077479007
-0.04801443 0.22770366 -0.14431432 -0.08836203 0.3490686 0.0875175 -0.17446424 -0.0007716179
-0.012986243 -0.2333584 -0.05317347 -0.19160728 0.26936045 0.35294408 0.27812758 -0.0667364
-0.31612954 0.058808673 0.33674797 -0.2974879 -0.065025605 0.27952144 0.29068863 -0.255489
0.067233935 0.006941724 0.2735378 0.29442215 -0.18129428 -0.37026325 0.20198096 -0.08033364

bias f4 [100]
00000000: 9549 b9bd 4a2d 77bd 40d4 43be 3350 90be
00000010: 6e0e 80be 68be 76be 9400 8bbe 0487 7cbe
00000020: ae42 8bbe 5efc 48be 3244 13bd 919b 1ebe
00000030: 3096 a8be 39a1 91be 006b 8abe 064f 80be
00000040: 8e5d 80be acdd 71be b506 bcbd 83ee 80be
00000050: b306 76be ea16 aabd f70c a9bd 1b09 97be
00000060: cdde 5abe ecc9 86be 5b8d 65be b041 b8be
00000070: 4422 6abe a983 54be a74a b7be 0899 82be
00000080: 5fb5 8ebe b54a 4ebe ebbb 8ebe 5ff3 0abd
00000090: fb53 a7bd 00a9 6abe 8faf 45be 50e2 bdbe
000000a0: 1899 a4bd 59cb 2ebe 608a a8be 33c5 8bbd
000000b0: e220 a4be 98b8 adbe 903c 7bbd 2b1f b0be
000000c0: d3dc 52be ab7a 58be 74f1 17be 4a60 cabe
000000d0: 2df0 79bf 1ae4 a8be 4d4d aabe b742 90bd
000000e0: 2d6a b2be dbe7 abbe b394 59be aa5b a2be
000000f0: 0dec 2c3e 80d1 62bd 7095 a3be 28a1 8ebe
00000100: e33d 90be 805c 3cbe 20ee 74bd cf1a afbe
00000110: 6ca9 8bbe 176b 27bf 2bc3 2bbe 5ee7 80be
00000120: 9319 76be 15c9 85be 9c52 57be 3f9e 97be
00000130: f4d9 afbe b2b5 16be 19d0 52be dffe 973c
00000140: c690 a93d 81d8 a9be fdc3 68be 17a7 56be
00000150: ef65 a5be 1e61 8dbe be4a 95be 1edc 71be
00000160: ee77 94be 85ec 8fbe 9281 84be e200 7bbe
00000170: 2cb2 82be 5e58 5dbe c696 54be 5d17 92bd
00000180: 1ae5 82be 6af9 913d 7dc4 53be c4a5 5abe
-0.09047238 -0.060345925 -0.19123936 -0.28186187 -0.2501101 -0.24096072 -0.2714888 -0.2466088
-0.2719931 -0.1962752 -0.035953708 -0.15489031 -0.32927084 -0.28443316 -0.2703476 -0.2506029
-0.25071377 -0.23619717 -0.09180967 -0.2518197 -0.24025993 -0.08305152 -0.08254426 -0.29499134
-0.21374054 -0.2632593 -0.22417204 -0.35987616 -0.22864634 -0.2075335 -0.35799143 -0.2550738
-0.2787275 -0.20145686 -0.27877745 -0.033923503 -0.08170315 -0.22916031 -0.19305252 -0.37086725
-0.08037013 -0.17069758 -0.32918072 -0.06824722 -0.32056338 -0.33929896 -0.061337054 -0.3439878
-0.2059205 -0.21140544 -0.14838201 -0.39526588 -0.97632104 -0.32986528 -0.332621 -0.07043975
-0.3484663 -0.3357533 -0.2124813 -0.3171056 0.16886921 -0.055375576 -0.3194995 -0.27857327
-0.28172216 -0.18394661 -0.059797406 -0.3420014 -0.27277696 -0.6539778 -0.1677367 -0.2517652
-0.24033193 -0.26129976 -0.21027607 -0.2961292 -0.34345973 -0.14717749 -0.20587195 0.01855415
0.082795665 -0.33172992 -0.22731014 -0.20962177 -0.32304332 -0.27613157 -0.29158586 -0.23619124
-0.2899775 -0.28110138 -0.25880104 -0.24512056 -0.2552656 -0.2161574 -0.2076064 -0.071333624
-0.25565416 0.0712765 -0.20680423 -0.21352297

weight f4 [100, 100]
00000000: 651e b53d 7853 87bd 3219 00be 205e 513e
00000010: 80a2 813e 66f2 2dbe e69b 64be f48e 37be
00000020: 5ef4 58be 1529 74be a67d d0bc f77d 63be
00000030: 2930 ab3e b384 54be 9278 8bbe 6d8d 683e
00000040: 255c 4abe f83b 37be 6708 e73b 8b9f b13e
00000050: 3771 a63e 83db 49bd 27ca 53bd 20be 903e
00000060: 9eca c0bc d298 983e a20a 8d3e e36e b9be
00000070: 7136 a03e f04f a33e ce31 75be 4065 90be
00000080: 33fd 96be 691e 913e b1ff 343e 3b02 87be
00000090: 10e4 5a3d 3484 9a3e 8ef3 5dbe d14e 46be
000000a0: cb97 a63d aedc 09be 5516 49be ddb7 5b3d
000000b0: 28b9 8fbe 347d 523e 80c1 413c f79b b63e
000000c0: a545 63be 12e6 31be f253 99be 883d 983e
000000d0: 5309 5abf 6554 563e aac9 95be 7bdb 94bf
000000e0: 728c 513e bcd6 853e b01c 093e 5aaf 58be
000000f0: 0ebc c23e cd12 483b 34f4 c23e 1654 07be
00000100: 7b47 883e ceb7 36be 4da6 2abd 52f7 c53e
00000110: b3d5 693e d2dc c8bd fe65 90be 9881 b53e
00000120: 0975 74be a812 873e fc75 84be 4ad0 803e
00000130: 9bde 68be 28b9 1f3e 4006 c03e 1715 763e
00000140: c5d1 c43e 34c3 8d3e f3d5 17be 7626 b53e
00000150: 9731 973e 7448 b33e b57c 593e fc83 953e
00000160: 69ef 4f3d bcc7 8d3e bbe5 a4be baa6 8bbe
00000170: 8302 c23e 326b 5abe e045 a63e ba1e 3ebd
00000180: a76f b33e f2a5 563e 2aad cc3e 9276 ba3e
00000190: 454a b1bd f592 a83d bce3 1b3e a3f0 99be
000001a0: 2bc0 91be 42ec 143e cae7 51bb 4ceb 323e
000001b0: c0e8 a6be 9561 663e 6cbe b03d 744c 823e
000001c0: 3b16 97be a4aa 7bbe bec0 8d3e 48ae aabe
000001d0: b249 0b3e c340 5c3e 6394 abbd 8ce0 93be
000001e0: d34a 74be d370 bb3d e0e7 56bd 9cf2 5cbe
000001f0: 6db3 1dbe 2c31 b8be 6419 92be c0fc 733e
00000200: 8c82 babe 728a 8bbe 9433 b83e 79f9 ac3e
00000210: a34c 65be a8b9 7bbe 9471 08bd 52d8 463e
00000220: 870d a23d bee5 8bbe 7de7 953e d63f 393e
00000230: 07a9 be3c bc6a 5a3e 921f 8d3e 4b36 95bd
00000240: 6fbf 883e 844a a5be f792 0bbd 6054 5ebe
00000250: 8055 073e 4738 713e 58de 853e e6ea 8fbe
00000260: 8975 823f fa67 93be a040 ae3e 184b e03c
00000270: 59c0 bbbe f1bf c5be e66b 37bc a53a 613e
00000280: 70d6 9bbe edf9 b23c 80aa c1be 46b7 ccbd
00000290: f75c abbe 4b48 083e 9354 80bd 940a a5be
000002a0: 10e4 80be b021 1d3e cbc1 903e 8be6 a3be
000002b0: a84c 2b3e b2ad b9be 4b14 fe3d 9c76 71be
000002c0: 1d52 a13e e200 d03d 0828 8dbe 4b73 d4bd
000002d0: 6657 48be 5a3b 7abe 307a 593e 0f4f 88be
000002e0: 7e4f 93be a92c a7be 05e4 73be d007 8bbe
000002f0: 10ee 26be c3f6 51be 0cd2 5f3e 8a33 a03e
00000300: 7159 66be 6bdd 4f3e a500 adbe 3a61 b03c
00000310: f498 73be 02ee 59be 2f55 8abe 0b4e 82be
00000320: d3a2 44bd 9752 4ebd 526c 363e f039 2dbe
00000330: fbcc 9bbe 3d63 2e3e ae2a ec3b 36dd 223e
00000340: 10e5 cabe 0c25 963e 8dab 90bd 8769 6e3e
00000350: 89ee 56be 9576 8bbe 5adb 893e b082 a2be
00000360: 1e77 8f3e 3f40 643e 33e8 d63b 1f24 bcbe
00000370: e5eb afbe 3262 abbd 8bdb 8d3d 6195 5dbe
00000380: ba78 1dbd 77c2 86be 899a b1be fd21 9f3e
00000390: a397 84be 89b9 53be 9927 493e 77ed 5e3e
000003a0: f272 9ebe ecdf 60be 3648 1dbe d7bf b03e
000003b0: 6a00 18bd ec4b a1be 5602 783e 3aad 803e
000003c0: 82bb 9c3d 092b 973e edbb 4a3e 378a 38bd
000003d0: 96ee af3e 7cae 72be 33cf d13a d24e 60be
000003e0: b081 713e 3769 053e a960 433e 4122 6bbe
000003f0: 87d6 6d3f 74a8 bfbe 20a6 823e c70d 8c3e
0.08843688 -0.06607717 -0.12509611 0.20446062 0.2531929 -0.16986999 -0.22325096 -0.17925626
-0.21186969 -0.23843797 -0.025450539 -0.2221602 0.3343518 -0.20753746 -0.27240425 0.227102
-0.19761713 -0.1789397 0.007050562 0.34692034 0.3250825 -0.04928161 -0.05170646 0.28270054
-0.023534115 0.29804093 0.27547175 -0.36217412 0.31291535 0.31896925 -0.2394478 -0.28202248
-0.2949005 0.28343514 0.17675664 -0.2636889 0.053440154 0.30178988 -0.2167494 -0.19366004
0.08134421 -0.13463089 -0.19637425 0.053642143 -0.2807095 0.20555574 0.011825919 0.35665867
-0.22194536 -0.17372921 -0.29946858 0.29734445 -0.8517048 0.20930631 -0.2925542 -1.162948
0.20463732 0.26140392 0.1338985 -0.21160641 0.380341 0.0030528784 0.38076937 -0.1321567
0.26617035 -0.17843553 -0.041662503 0.38665253 0.22835426 -0.09807743 -0.28202814 0.35450435
-0.2387277 0.2638142 -0.25871265 0.25158912 -0.22741167 0.15597975 0.37504768 0.24031483
0.3844129 0.2768799 -0.14827709 0.35380906 0.29530022 0.35016215 0.21238978 0.2920226
0.05076543 0.27691448 -0.3220652 -0.2727564 0.3789254 -0.21329954 0.32475185 -0.046416022
0.3504612 0.2096174 0.39975864 0.36418587 -0.08656744 0.08231155 0.15223593 -0.30066404
-0.28466925 0.1454325 -0.0032029026 0.17472571 -0.3259945 0.22498162 0.0863007 0.25448954
-0.29509148 -0.24576813 0.27686113 -0.3333609 0.13602331 0.2150908 -0.08377912 -0.28882253
-0.23856668 0.09152379 -0.052467227 -0.21576923 -0.15400477 -0.35975015 -0.28534997 0.23826885
-0.36427724 -0.27254063 0.3597685 0.33784083 -0.22392516 -0.24582541 -0.03331144 0.19418457
0.079127364 -0.27323717 0.29278174 0.18090758 0.023273958 0.21329778 0.2756315 -0.07285746
0.26708552 -0.32283413 -0.034075703 -0.21711874 0.1321621 0.23556624 0.26146197 -0.281089
1.0192119 -0.28790265 0.3403368 0.027379557 -0.36670187 -0.38623002 -0.011195159 0.21995027
-0.3043704 0.02184769 -0.37825394 -0.09995894 -0.33469364 0.13308828 -0.06266131 -0.32234633
-0.25173998 0.15344882 0.28272852 -0.32011828 0.16728461 -0.36265332 0.12406214 -0.23580402
0.3150796 0.101564184 -0.27569604 -0.10373553 -0.1956459 -0.24436703 0.21238017 -0.26622817
-0.28771585 -0.3265126 -0.23817451 -0.27154398 -0.16301751 -0.20504288 0.2185747 0.3128932
-0.22495057 0.20299308 -0.33789554 0.021530736 -0.23788816 -0.21282199 -0.27018115 -0.25450167
-0.048006844 -0.050371733 0.17814758 -0.16916633 -0.30429825 0.17030044 0.0072072363 0.15904698
-0.39627886 0.2932514 -0.07063971 0.23282443 -0.20989431 -0.27238908 0.26925164 -0.31740332
0.28020567 0.22290133 0.006558442 -0.36746308 -0.3435966 -0.08368339 0.0692664 -0.21639015
-0.038445212 -0.2632024 -0.34688213 0.31080619 -0.2589694 -0.20676245 0.19644012 0.21770273
-0.3094707 -0.2196042 -0.15359578 0.34521362 -0.03710977 -0.31503236 0.24219641 0.2513216
0.07652952 0.2952502 0.1979825 -0.045053687 0.34361714 -0.23699373 0.0016007185 -0.21905068
0.23584628 0.13028418 0.19079842 -0.22962286 0.9290547 -0.37433207 0.25517368 0.2735426

bias f4 [100]
00000000: 9ead e7bd 6062 b23d 49d2 aa3d 6caa 70bd
00000010: 7d28 b4bd 5167 f6bd 7e4d e5bd ddeb eb3c
00000020: 059c 2d3d 3fd0 cd3c b01a e7bd d184 08be
00000030: 7569 e0bd e70a d4bd 689d ac3d ed63 28bc
00000040: ac88 89bd d3d8 dd3d 2e86 d6bd 3982 c5bd
00000050: 9e4c f83d f5d8 99bc 2a4f e4bd 2f82 793d
00000060: a531 82bd 8105 c5bd 877f 8d3d b0bb 3cbd
00000070: b1c8 ac3d 0559 063e 2987 cbbd 642d 38bd
00000080: a4bd 8a3d 651b 7e3d 3669 fcbd e73b 9c3d
00000090: 3797 773d 036a b73d b6ad acbd 4281 febd
000000a0: 36a0 5e3c 38ac aabd 1031 ca3d a8e9 163d
000000b0: 8db2 afbd a752 ea3d d0f6 dc3d ecd1 ce3d
000000c0: e0eb bdbd 76c5 b33d ea58 d23d 1197 ad3c
000000d0: 8809 5cbd a2c9 aa3d d4a1 503d cbe6 263d
000000e0: 3256 b53d 7be1 003d 18ef febd 03d3 cfbd
000000f0: 8a12 c2bc bba8 5bbd a104 b43d 24c2 e43d
00000100: 8d4b 923d 9fab 933d 9962 13bd 0235 d5bd
00000110: 50c8 a93d 515f 883d a9cf ab3d 4df6 e13d
00000120: 7596 f8bd 7514 afbd 72d6 40bd d554 cd3d
00000130: 2569 1e3d e477 b2bd d88e 9a3d 333d 043e
00000140: 0be1 b2bd 3137 7a3d 0176 623d 5114 953d
00000150: 8290 ddbd 06ee 5bbd 3725 423d 0b80 a4bd
00000160: 819e 023e e139 90bd 0824 42bd d819 df3d
00000170: 9771 95bd cc43 c63d 5fe8 003e 2ee4 b3bd
00000180: e3aa edbd 54e4 773d aa0f 453d 9a53 b5bd
-0.11312412 0.0871017 0.0834089 -0.058756277 -0.08796785 -0.12031425 -0.11196421 0.028798992
0.04238512 0.025123714 -0.11284387 -0.13331915 -0.10957614 -0.10353642 0.0842846 -0.01027773
-0.06715521 0.108323716 -0.104748115 -0.096439786 0.121239886 -0.018780211 -0.11147912 0.06091517
-0.06357125 -0.096201904 0.069090895 -0.04607743 0.08436716 0.13119896 -0.09937889 -0.044965163
0.06774452 0.062037844 -0.12324755 0.07628613 0.060446944 0.08955767 -0.0843157 -0.12426998
0.013588002 -0.08333629 0.09872639 0.036843926 -0.08578978 0.11441546 0.10789263 0.10098633
-0.09273505 0.08777897 0.10270865 0.021190198 -0.053720027 0.0833924 0.05093558 0.040747445
0.08854331 0.031465035 -0.12447947 -0.10147669 -0.02369048 -0.05362771 0.087899454 0.11169842
0.071433164 0.072104685 -0.035982702 -0.10410501 0.0829016 0.06658805 0.083892174 0.11033306
-0.121380724 -0.08548824 -0.04707951 0.10025946 0.038674492 -0.087142736 0.075467765 0.1291397
-0.0873433 0.06108779 0.05528832 0.07279266 -0.10818578 -0.053693794 0.047398772 -0.08032235
0.12755777 -0.070422895 -0.047397643 0.10893601 -0.07297056 0.096809 0.12588643 -0.08783756
-0.1160486 0.060520485 0.04811064 -0.08853836
