Results/Nodes_256/model_weights_with_Jacobian.pth (torch, 127792 bytes, 8 tensors)

weight f4 [100, 2]
0	0xbf0bbe4d	-0.5458725
1	0xbe8d27ad	-0.27569333
2	0x3ecce8d0	0.40021372
3	0xbee7b84a	-0.4525779
4	0x3f18e3ef	0.597228
5	0x3ef1c79c	0.47222602
6	0xbe982511	-0.2971578
7	0xbd5e7678	-0.0543122
8	0xbebf2246	-0.37330836
9	0x3f0d851d	0.5528124
10	0x3dc55d5b	0.09636947
11	0x3d7360d3	0.05941851
12	0xbe485a32	-0.19565657
13	0x3f230758	0.6368308
14	0xbcae7e96	-0.021300595
15	0x3f02a39f	0.51030916
16	0x3e52174b	0.20516698
17	0x3b80153f	0.0039087827
18	0x3f5fdde8	0.8744798
19	0xbcc43e3f	-0.023955463
20	0x3d39cdec	0.045362398
21	0xbe8c66ae	-0.27422088
22	0xbf3be636	-0.7339815
23	0x3dfa634f	0.12225973
24	0xbf012aea	-0.50456107
25	0x3edea424	0.43484604
26	0x3e94acf0	0.2903819
27	0xbdf3455d	-0.11878464
28	0x3ecbbfe5	0.3979484
29	0xbeef32ce	-0.46718448
30	0xbf0227d2	-0.5084201
31	0x3efe84f8	0.49710822
32	0x3d13aae6	0.036051653
33	0x3d96b833	0.07359352
34	0xbe99b4da	-0.3002079
35	0x3f805889	1.0027019
36	0x3e19aeab	0.15008037
37	0xbd678dbc	-0.056531653
38	0x3ef2c09d	0.47412577
39	0x3e1a12d6	0.15046248
40	0xbf2d28f3	-0.6764061
41	0x3e9e0087	0.30859777
42	0x3ed640db	0.41846356
43	0xbe970d01	-0.2950211
44	0x3dfb26b3	0.12263241
45	0x3ca5a723	0.020221299
46	0xbddc93c7	-0.10770374
47	0xbdd96d1a	-0.106165126
48	0x3ed06e47	0.40709135
49	0x3dedf01f	0.11618065
50	0xbf0a5ddf	-0.54049486
51	0x3f67a2a5	0.9048255
52	0x3e5787c4	0.21047884
53	0xbf02dbd9	-0.5111671
54	0x3f5848d7	0.84486145
55	0xbf250e60	-0.6447506
56	0xbe21c903	-0.15799336
57	0xbe689a5e	-0.22715136
58	0xbe745ee3	-0.23864321
59	0x3de78419	0.113044925
60	0x3e359226	0.17731532
61	0x3e038a5a	0.12845746
62	0x3d0e4938	0.034737796
63	0xbebe54a0	-0.3717394
64	0x3c524e68	0.012836076
65	0x3d8c32a6	0.06845598
66	0xbe327143	-0.17426018
67	0xbf1c4de7	-0.6105637
68	0xbf271fcd	-0.652829
69	0x3efa2e73	0.48863563
70	0xbeba3f26	-0.36376303
71	0x3ec78f32	0.38976437
72	0x3ef6d6f9	0.48210886
73	0x3e7e9ca9	0.24864449
74	0xbe7ba65b	-0.24575178
75	0xbeafc983	-0.3433343
76	0x3f0eaba5	0.5573066
77	0x3f00fe1f	0.5038776
78	0x3ed38821	0.41314796
79	0x3f476779	0.7789226
80	0xbedddd00	-0.43332672
81	0xbba1e4d2	-0.0049406076
82	0xbeb61305	-0.35561386
83	0xbd1ebd58	-0.03875479
84	0xbdba9724	-0.09110859
85	0xbefdc3e0	-0.49563503
86	0xbe3265f9	-0.17421712
87	0xbd384975	-0.04499193
88	0x3df57293	0.11984744
89	0x3d9cdf9e	0.07659839
90	0xbf03e324	-0.51518464
91	0xbebc1f6e	-0.3674273
92	0xbe2bd024	-0.16778618
93	0x3ee29c30	0.44259787
94	0xbf164e89	-0.58713585
95	0x3ee0e36b	0.43923506
96	0x3e7a9be1	0.24473526
97	0x3e92b177	0.2865102
98	0xbeaa2b09	-0.33235958
99	0xbef3aee5	-0.4759437
100	0x3e61f73c	0.22066969
101	0x3e4164db	0.1888613
102	0x3ede69ef	0.43440196
103	0x3e115d47	0.14195739
104	0x3ea98642	0.33110243
105	0xbe496ec7	-0.19671164
106	0xbe391aee	-0.18076679
107	0xbe51c73c	-0.20486158
108	0x3e9b4e33	0.303331
109	0x3e6b0783	0.22952084
110	0xbea4979e	-0.32146925
111	0x3e080871	0.1328447
112	0x3eba6e72	0.36412388
113	0x3eada6e4	0.3391639
114	0x3eb187e8	0.34674
115	0xbf2b0dc8	-0.66817904
116	0x3e2b5350	0.16731
117	0x3f286f9f	0.6579532
118	0xbd6b1001	-0.05738831
119	0xbe8f6733	-0.28008422
120	0xbd53c155	-0.051698048
121	0x3ea4cb00	0.32186127
122	0xbe06a8ad	-0.13150282
123	0x3c2fec52	0.0107374955
124	0x3f2a8ae9	0.6661821
125	0x3f061619	0.5237747
126	0x3e9554cd	0.2916626
127	0x3f05f1df	0.5232219
128	0xbf09e713	-0.53868216
129	0x3d735a51	0.059412304
130	0xbe7ec6c8	-0.24880517
131	0xbe870774	-0.26372874
132	0x3f0951d3	0.5364048
133	0x3ee71c37	0.45138714
134	0x3ed35ea1	0.41283134
135	0xbe944dcf	-0.28965613
136	0xbdf8142d	-0.12113223
137	0x3f126f9a	0.5720154
138	0x3e126df3	0.14299755
139	0xbe056c0c	-0.13029498
140	0x3f07b5a3	0.5301153
141	0xbe869f97	-0.26293632
142	0x3f252e32	0.64523613
143	0xbebde6f3	-0.37090263
144	0x3d801da5	0.06255654
145	0xbe94a077	-0.29028675
146	0xbedfdc5d	-0.4372281
147	0xbe284596	-0.16432795
148	0x3e45d00c	0.19317645
149	0xbe6ba643	-0.23012643
150	0x3eee34d4	0.4652468
151	0xbe303aee	-0.1720998
152	0xbe88d31f	-0.26723573
153	0xbeebd6aa	-0.46062213
154	0xbf783d29	-0.96968323
155	0x3f57f6a3	0.8436071
156	0x3f2d24f3	0.67634505
157	0xbf0bf839	-0.5467563
158	0x3e822c68	0.25424504
159	0x3ed20381	0.41018298
160	0xbecdcc88	-0.40195107
161	0xbf0facb0	-0.56122875
162	0x3dad7aef	0.08470713
163	0xbf0f95fb	-0.5608823
164	0xbe15556d	-0.14583369
165	0x3f450113	0.76954764
166	0x3deb3d8f	0.11486351
167	0x3ec557fb	0.38543686
168	0x3ebb2bc0	0.36556816
169	0x3ec28400	0.37991333
170	0xbe226add	-0.15861078
171	0xbd68de9d	-0.056852926
172	0xbf251e9e	-0.64499843
173	0xbed4324e	-0.4144463
174	0x3ec2e6d3	0.3806673
175	0x3e9e6301	0.3093491
176	0xbecdccf8	-0.4019544
177	0x3dd0f1fa	0.10202403
178	0x3d9f036f	0.07764327
179	0x3e297b5c	0.16550964
180	0xbec586fc	-0.38579547
181	0xbce94139	-0.028473483
182	0x3e1babd4	0.15202266
183	0x3deac754	0.114638
184	0xbe42c438	-0.19020164
185	0x3ed0d0c9	0.4078429
186	0xbeb79fd1	-0.35864118
187	0xbe198c98	-0.14995039
188	0xbf011e74	-0.5043709
189	0x3e801f4a	0.25023872
190	0xbeb2db7f	-0.34933087
191	0x3eb53cbf	0.35397908
192	0xbd8baaac	-0.068196625
193	0xbd6bbc8a	-0.05755285
194	0x3ee6f0a9	0.45105484
195	0xbeb70c0b	-0.35751376
196	0x3eb84c2f	0.35995623
197	0x3ef35282	0.47523886
198	0xbf28ae9e	-0.65891445
199	0x3e92456d	0.28568593

bias f4 [100]
0	0xbf1ee8a2	-0.6207372
1	0x3ea8d0da	0.3297184
2	0xbee494d2	-0.4464479
3	0xbe5589df	-0.20853375
4	0xbeb320db	-0.34986004
5	0x3d3de1f7	0.046358075
6	0xbc439d19	-0.0119393105
7	0xbf112df6	-0.56710756
8	0xbf07361a	-0.5281693
9	0xbe2f4fb2	-0.17120245
10	0xbee0439f	-0.4380159
11	0xbc4c6cff	-0.012477159
12	0x3ecf9e59	0.40550497
13	0x3e644e40	0.22295475
14	0x3e0f5489	0.13997091
15	0x3f1e4ebb	0.61838883
16	0xbd10857a	-0.035283543
17	0xbe0a9440	-0.13533115
18	0xbf077339	-0.5291019
19	0x3d9a7de0	0.0754354
20	0xbf060851	-0.5235644
21	0xbd804fc4	-0.06265214
22	0xbf0f7a42	-0.56045926
23	0xbeb02a96	-0.3440749
24	0xbe960643	-0.29301652
25	0xbb18ec74	-0.0023334296
26	0x3dce50c2	0.10073997
27	0xbdb86734	-0.090040594
28	0xbeb38988	-0.35065866
29	0xbf2995b8	-0.6624408
30	0x3d4bb099	0.049728964
31	0x3f14fb67	0.5819611
32	0x3df07621	0.11741281
33	0xbef314b6	-0.4747674
34	0xbf1c1488	-0.6096883
35	0xbf1cc2c2	-0.61234677
36	0xbefd53c4	-0.4947797
37	0xbeee3de7	-0.46531603
38	0x3f09c0b3	0.5380966
39	0xbe71b009	-0.23602308
40	0x3e75c4b0	0.24000812
41	0x3e5db346	0.21650419
42	0x3e61f1c6	0.22064885
43	0xbf30ca48	-0.69058657
44	0x3e270d3c	0.16313642
45	0x3e167432	0.14692762
46	0xbf28b7b6	-0.6590532
47	0xbeedfa00	-0.46479797
48	0x3e6a9551	0.22908522
49	0xbe1516e8	-0.1455952
50	0xbefea591	-0.49735692
51	0x3e06a4eb	0.13148849
52	0xbf2a117a	-0.6643292
53	0x3ea91536	0.33023995
54	0x3ec95269	0.39320686
55	0x3e8737fd	0.26409903
56	0x3ea2b864	0.31781304
57	0xbee0f89c	-0.43939674
58	0xbdbc3391	-0.09189523
59	0xba4ae5c2	-0.0007739925
60	0x3df072be	0.11740635
61	0x3ea6420f	0.32472274
62	0x3e439cfd	0.19102855
63	0xbf10279f	-0.56310457
64	0xbee65f97	-0.44994804
65	0x3e7bf2cc	0.24604338
66	0x3ea0f64f	0.3143792
67	0x3e323327	0.17402326
68	0x3dbf3f99	0.09338302
69	0x3eb737d5	0.35784784
70	0xbf3110ee	-0.6916646
71	0xbf2e5231	-0.68094164
72	0xbeb30967	-0.3496811
73	0xbeacdcc3	-0.33762178
74	0xbda64cbc	-0.08120105
75	0x3e884116	0.26612157
76	0xbe42a8d2	-0.19009712
77	0x3d87fca9	0.06639988
78	0xbf0b39e5	-0.54385215
79	0xbe966fd2	-0.29382187
80	0x3ef941ad	0.4868292
81	0x3f0ac5b5	0.54207927
82	0xbe26e0c3	-0.16296677
83	0x3e30b2a8	0.17255652
84	0x3ea4d8cf	0.32196662
85	0x3e1887ac	0.14895505
86	0xbc6efb96	-0.01458635
87	0xbee9bb33	-0.45650634
88	0xbe57f8fd	-0.21091075
89	0x3e958873	0.29205665
90	0xbea5760a	-0.3231662
91	0x3e70bfcf	0.23510669
92	0xbf027292	-0.5095607
93	0x3e6d6e99	0.23186721
94	0x3ec5bdee	0.38621467
95	0xbdffabb4	-0.12483922
96	0x3e6f97f9	0.23397817
97	0x3eb804a7	0.3594105
98	0xbd7479bb	-0.059686404
99	0xbe1e65a8	-0.15468466

weight f4 [100, 100]
0	0x3bf6a1b3	0.0075266003
1	0xbd652167	-0.055940058
2	0xbc6e7640	-0.01455456
3	0xbdbd3e78	-0.092404306
4	0x3d09b1ad	0.03361671
5	0x3c402acd	0.0117289545
6	0xbd9fda93	-0.078053616
7	0xbcb8bf07	-0.022552026
8	0x3d0f954a	0.035054483
9	0xbd817fbd	-0.06323192
10	0x3d25574d	0.04036646
11	0xbd94684a	-0.07246454
12	0x3bae7833	0.0053243875
13	0xbc5ae933	-0.013361263
14	0xbd96d643	-0.07365086
15	0xbc83240d	-0.016008401
16	0xbd42c46a	-0.047550596
17	0xbc93ad20	-0.018026888
18	0x3c3a94b3	0.011387992
19	0xbc819933	-0.015820121
20	0xbc3a2da7	-0.011363423
21	0x3da3bd70	0.07995117
22	0x3d9e11f5	0.07718269
23	0xbd539ef0	-0.051665246
24	0x3c5881b3	0.013214516
25	0x3d19d9f7	0.037561383
26	0x3bdbacb3	0.006703937
27	0x3c007c33	0.007842111
28	0xbd1d4a93	-0.038401198
29	0x3c95a8fa	0.01826905
30	0xbd6daac0	-0.058024168
31	0xbcae742d	-0.021295631
32	0xbd33ab4a	-0.043864526
33	0x3d0c2810	0.034217894
34	0x3d0ef06a	0.034897245
35	0xbdaf7e0f	-0.08568966
36	0xbda181cf	-0.07886087
37	0x3af67000	0.0018801689
38	0x3cf63c73	0.030058121
39	0xbdc42fed	-0.095794536
40	0x3bffb967	0.007804084
41	0xbd74e38a	-0.05978731
42	0xbdb0b8f8	-0.0862903
43	0x3db3a2cf	0.08771288
44	0xbd83573f	-0.06413125
45	0xbd435b50	-0.047694504
46	0x3dc5f26d	0.0966538
47	0xbd750a47	-0.059824254
48	0xbd27097a	-0.040780522
49	0xbd778083	-0.060425293
50	0xbd56fa3d	-0.05248474
51	0x3c40789a	0.011747504
52	0x3d5595f7	0.05214497
53	0x3d05b47d	0.03264283
54	0xbcec7d40	-0.028868318
55	0x3cd8d77a	0.026469935
56	0xbd9699ca	-0.07353552
57	0x3d9a1c87	0.075249724
58	0xbd926010	-0.07147229
59	0x3d3c140d	0.04591756
60	0xbd9dfa92	-0.07713808
61	0xbd2e0ffd	-0.042495716
62	0xbdba555b	-0.090983115
63	0x3c73c1cd	0.014877749
64	0x3d4ba4aa	0.049717583
65	0xbd8defb3	-0.069304846
66	0x3d167650	0.036733925
67	0xbcbf40c7	-0.023346318
68	0x3ca93b73	0.02065823
69	0xbd8bf3c8	-0.06833607
70	0xbd97c923	-0.07411411
71	0xbc6e5c67	-0.014548398
72	0x3d236c10	0.03989798
73	0xbdc79cdb	-0.09746715
74	0xbd861c98	-0.065484226
75	0xbd9b613f	-0.075869076
76	0xbc8bfd40	-0.017088532
77	0xbd930093	-0.07177844
78	0xbd5ca86a	-0.05387155
79	0xbd3c35aa	-0.045949616
80	0xbd8afa55	-0.06786028
81	0xbd708373	-0.05871911
82	0xbd32ec6a	-0.043682493
83	0xbcdd1467	-0.026987268
84	0x3da57d9f	0.08080601
85	0xbb8828b3	-0.0041552423
86	0x3dadf367	0.08493691
87	0x3c16821a	0.009186292
88	0x3d3fb163	0.04680003
89	0x3d120153	0.035645794
90	0xbbbeb267	-0.005819607
91	0x3dc0f49b	0.09421655
92	0xbd6cad20	-0.057782292
93	0xbcdfc85a	-0.027317215
94	0x3c91ebed	0.017812693
95	0x3c01df40	0.007926762
96	0xbd1b780d	-0.037956286
97	0x3d6489d7	0.055795517
98	0xbdba655d	-0.09101365
99	0x3dbb7757	0.09153622
100	0x3cd05a9a	0.025433827
101	0x3d00b5e2	0.031423457
102	0x3db86f2d	0.0900558
103	0xbd1a192d	-0.037621666
104	0xbdc8d710	-0.09806645
105	0xbd56dcd9	-0.05245671
106	0x3c9ada21	0.01890284
107	0xbd5a8f6a	-0.053359427
108	0x3ceadf5a	0.028670955
109	0xbd22aa5e	-0.039713256
110	0x3d836b8f	0.064169995
111	0xbe154574	-0.14577276
112	0x3d0b1d56	0.033963524
113	0x3e0d7ba5	0.13816698
114	0x3d533cbc	0.051571593
115	0xbe0692c4	-0.13141924
116	0xbd6fa471	-0.058506433
117	0xbe700024	-0.23437554
118	0xbd97677d	-0.07392786
119	0x3c924eeb	0.017859897
120	0xbc8376d3	-0.01604787
121	0xbe3d8464	-0.18507534
122	0xbc50c827	-0.012743033
123	0x3c8f254d	0.017473841
124	0xbc6d020d	-0.014465821
125	0xbe6f4259	-0.23365153
126	0x3d88a6b8	0.06672424
127	0xbc8a4551	-0.016878756
128	0x3d9fc727	0.07801657
129	0xbdb4d94b	-0.08830508
130	0xbe265ed0	-0.16247106
131	0x3a027af6	0.0004977429
132	0xbc9bf61c	-0.019038253
133	0xbd3e7f90	-0.04650837
134	0x3db8bc28	0.09020263
135	0xbd961e33	-0.07329979
136	0xbd8d840a	-0.0690995
137	0xbc2794a7	-0.010228313
138	0xbc99ba66	-0.01876564
139	0x3e3a128f	0.18171142
140	0xbcd65428	-0.026163176
141	0x3d46d305	0.048541088
142	0x3dd0658b	0.10175618
143	0xbdbc74aa	-0.092019394
144	0x3c3168c5	0.010828202
145	0x3d1db8a0	0.03850615
146	0xbcbccef3	-0.0230479
147	0x3d03d93d	0.032189596
148	0xbe1aff9e	-0.15136573
149	0x3db933e2	0.09043099
150	0xbd8ae57a	-0.067820504
151	0x3e1352c4	0.14387041
152	0x3d957e73	0.07299509
153	0x3e1e713b	0.15472881
154	0xbd8d802b	-0.06909212
155	0xbe1cc4ae	-0.15309402
156	0x3ce67d20	0.028135836
157	0xbda66c00	-0.08126068
158	0xbcbcb883	-0.0230372
159	0x3dbd0747	0.09229904
160	0xbe09be6b	-0.13451545
161	0xbcd68529	-0.026186543
162	0x3d67d354	0.056598023
163	0xbcabb5e0	-0.020960748
164	0xbce9e4ba	-0.028551448
165	0xbd4b7779	-0.049674485
166	0xbc16fc10	-0.00921537
167	0x3d9bcd90	0.07607567
168	0x3bd6cb8c	0.0065550264
169	0xbd6ee199	-0.058320615
170	0x3cebc32d	0.02877959
171	0xbd848342	-0.06470348
172	0x3d641317	0.055682268
173	0xbcdd3447	-0.027002467
174	0x3db5a643	0.088696025
175	0x3cc9863e	0.024600144
176	0xbdc88850	-0.097916245
177	0xbdab14e8	-0.08353597
178	0x3dbf9158	0.09353894
179	0xbd60df2a	-0.054900326
180	0x3dc7f57d	0.0976362
181	0x3d0c99e4	0.03432645
182	0xbe35c5a7	-0.1775118
183	0xbd28c321	-0.041201714
184	0xbdb62d5b	-0.088953696
185	0x3b63b06c	0.0034742607
186	0x3dbbf2ad	0.09177146
187	0xbda1a948	-0.07893616
188	0xbc8709ed	-0.016484225
189	0x3d764d6f	0.06013244
190	0xbc35b5f3	-0.011090743
191	0x3bff244b	0.007786309
192	0x3da236cd	0.07920609
193	0xbd3d748b	-0.046253722
194	0xbd9a8fce	-0.0754696
195	0xbc971f7a	-0.018447626
196	0x3e172e39	0.14763726
197	0x3d123385	0.035693664
198	0x3c34d495	0.011037012
199	0x3aa18667	0.001232338
200	0xbda45def	-0.08025729
201	0x3da58c8d	0.080834486
202	0x3cbf3bed	0.023344005
203	0x3cf95f7a	0.030441035
204	0x3addd867	0.0016925455
205	0x3d4f15ca	0.05055789
206	0xbd5608cd	-0.052254487
207	0xbcbec4a7	-0.02328713
208	0xbdc0928b	-0.09402951
209	0x3b3573e3	0.0027687482
210	0xbdcc4b37	-0.099752836
211	0x3dbe0bf9	0.09279627
212	0xbdd34ac9	-0.103169985
213	0xbc73ca15	-0.014879723
214	0xbd07cc00	-0.033153534
215	0x3c89376b	0.016750058
216	0xbc51c257	-0.012802682
217	0x3c866111	0.016403707
218	0x3d80511a	0.06265469
219	0x3da2120e	0.079136
220	0x3dbfd882	0.093674675
221	0xbc91b900	-0.01778841
222	0xbd39577a	-0.04524944
223	0x3da99402	0.082801834
224	0x3d356fda	0.044296123
225	0xbc007a20	-0.007841617
226	0xbcf5fd2a	-0.030027945
227	0xbd624696	-0.055243097
228	0x3d6f8dca	0.05848483
229	0x3c9187ba	0.017764915
230	0x3d920e5d	0.07131646
231	0xbc20a67d	-0.009805319
232	0x3d72127a	0.059099652
233	0x3c299767	0.010351039
234	0x3baca1e7	0.0052683237
235	0x3cb6ae93	0.02230004
236	0x3d9f95ea	0.07792266
237	0x3d7c5383	0.06160308
238	0x3d937c1a	0.07201405
239	0x3c2c3381	0.010510326
240	0x3d0031a7	0.031297352
241	0xb9b96ed0	-0.0003536851
242	0x3d94cd87	0.07265764
243	0x3d21452a	0.0393726
244	0xbd002f76	-0.031295262
245	0x3b9e5de2	0.004832969
246	0xbbddb233	-0.006765628
247	0xbd19f427	-0.037586357
248	0xbd8202f5	-0.0634822
249	0xbb0ab267	-0.0021163465
250	0x3d9c8068	0.07641679
251	0x3d9ddc9a	0.07708092
252	0x3d8432ca	0.06455
253	0x3d0c6ecf	0.034285363
254	0xbd867f72	-0.06567277
255	0xbbe0d376	-0.0068611456

bias f4 [100]
0	0x3d89fe40	0.067379475
1	0xbd84eaa1	-0.064900644
2	0xbdd4763f	-0.10374116
3	0xbc48a7c1	-0.012247027
4	0x3d26d193	0.04072721
5	0xbd980e30	-0.07424581
6	0xbd807073	-0.06271448
7	0xbd781930	-0.060570896
8	0xbcbaf7cd	-0.022823239
9	0x3d678be4	0.056529894
10	0xbc8d7016	-0.01726536
11	0xbd366caf	-0.044537243
12	0xbe4bc869	-0.19900669
13	0x3d56931e	0.052386396
14	0xbd06bef7	-0.032896962
15	0xbd0727bc	-0.032996878
16	0xbd11c260	-0.03558576
17	0x3d9f433c	0.07776496
18	0x3dca5b93	0.09880748
19	0xbb865a4d	-0.00410012
20	0xbc113a19	-0.008863949
21	0x3daaeb1d	0.083456255
22	0xbda4adb7	-0.08040946
23	0xbd46ab5c	-0.048503265
24	0xbd08a8d5	-0.033364136
25	0xbd610ccb	-0.05494384
26	0xbcd8664e	-0.02641597
27	0xbc929ef3	-0.017898059
28	0x3d8c9dbd	0.06866024
29	0xbdb7ac53	-0.08968415
30	0xbd1d9682	-0.038473614
31	0x3b2e3938	0.0026584398
32	0xbd323d10	-0.043515265
33	0xbd240e4a	-0.04005269
34	0x3cc3f915	0.023922483
35	0x3d152314	0.036410406
36	0xbc8f4fd3	-0.017494118
37	0xbd4cfaf0	-0.050044
38	0xbd9ad09d	-0.07559321
39	0xbe2cb712	-0.16866711
40	0xbd3eeb55	-0.04661115
41	0xbbab4fc6	-0.0052280156
42	0xbdbdd1d5	-0.09268538
43	0x3d23931d	0.03993522
44	0xbd40dada	-0.047083713
45	0xbdaabc65	-0.08336715
46	0xbdb978ea	-0.09056266
47	0xbd211e7d	-0.039335717
48	0x3b57aa48	0.0032907892
49	0xbd987cd7	-0.07445686
50	0xbd1717d2	-0.03688795
51	0xbd08a247	-0.033357885
52	0xbcb6d4bf	-0.022318242
53	0x3d2d8c6a	0.042370237
54	0x3c6acc3c	0.01433092
55	0xbe191c5e	-0.14952227
56	0x3c90b2d7	0.017663402
57	0xbd72645a	-0.059177734
58	0xbd246f81	-0.0401454
59	0xbdc4f5a5	-0.096171655
60	0xbdd42d1b	-0.10360166
61	0xbb05e8c0	-0.002043292
62	0x3db92206	0.090396926
63	0xbb0aa1cd	-0.002115357
64	0x3c792bc1	0.015208186
65	0xbd23d857	-0.04000124
66	0xbc8cf6bd	-0.017207498
67	0xbd5fc471	-0.0546307
68	0x3da36ac2	0.07979347
69	0xbcb8fdf3	-0.02258203
70	0xbdaa101f	-0.08303856
71	0x3cc70ece	0.024299052
72	0x3d56328b	0.052294295
73	0x3d98d79e	0.07463001
74	0xbd5dd692	-0.05415971
75	0xbc19ed9a	-0.0093950275
76	0xbd38c6cf	-0.045111474
77	0xbcacb30b	-0.021081468
78	0xbdae8d27	-0.085230164
79	0x3b9c9a10	0.004779108
80	0x3d7802d1	0.06054956
81	0x3d060d12	0.03272731
82	0xbd9d5373	-0.07681932
83	0x3c28dd90	0.010306731
84	0x3d19b62d	0.037527252
85	0x3c17190d	0.009222281
86	0xbc9745b6	-0.018465858
87	0xbda92140	-0.08258295
88	0xbae54f57	-0.0017494959
89	0xbd5b6434	-0.053562358
90	0x3cf8a678	0.030352816
91	0xbd212eed	-0.039351393
92	0x3dca099a	0.098651126
93	0x3dd67407	0.10471349
94	0xbc144c43	-0.009051385
95	0xbb3ca5e9	-0.0028785414
96	0x3dce69f7	0.10078805
97	0x3cb57e68	0.022155002
98	0x3d2dc09a	0.042420007
99	0xbcd80053	-0.026367342

weight f4 [100, 100]
0	0x3d8e0b65	0.06935767
1	0xbce37d76	-0.027769785
2	0x3ce96491	0.028490337
3	0x3d326687	0.04355481
4	0x3dd67025	0.104706086
5	0x3d69065a	0.056890823
6	0xbd2eabf7	-0.042644467
7	0x3dafd5fa	0.08585735
8	0xbd3f8bb0	-0.046764076
9	0x3d2e6d05	0.042584438
10	0xbdf63fd9	-0.12023897
11	0x3c434277	0.011917702
12	0xbdde25b1	-0.10847033
13	0xbb95decb	-0.004573678
14	0xbde845f2	-0.11341466
15	0x3d5bacc8	0.053631574
16	0xbc20e5dd	-0.009820429
17	0xbd3b5364	-0.045733824
18	0x3cd80640	0.026370168
19	0xbd0fe0ca	-0.035126485
20	0xbd687650	-0.056753457
21	0x3d370b52	0.04468853
22	0x3dd8cb4d	0.105856515
23	0x3e63dae8	0.22251475
24	0x3c8bf2cb	0.017083546
25	0xbac8a2c7	-0.00153073
26	0xbcbaafd5	-0.022788921
27	0x3d689ffd	0.0567932
28	0xbd017521	-0.031605843
29	0xbc1b1600	-0.009465694
30	0x3dcf3d7c	0.10119149
31	0xbcae4848	-0.0212747
32	0x3d95ed62	0.07320668
33	0x3b6baf29	0.0035962558
34	0x3db60a37	0.08888667
35	0xbb8a6512	-0.0042234743
36	0xbc3538f3	-0.011060941
37	0x3d7ecd73	0.06220765
38	0xbd6a57e1	-0.057212714
39	0xbdd6aba0	-0.104819536
40	0xbdd1d1ba	-0.1024508
41	0xbdb0ba22	-0.08629252
42	0xbcbaec1a	-0.02281766
43	0xbc30c899	-0.010790014
44	0x3d915658	0.07096547
45	0xbdbfe350	-0.09369528
46	0x3d09c444	0.03363444
47	0xbd72aad3	-0.059244942
48	0x3d063738	0.032767504
49	0xbdaf3827	-0.08555632
50	0x3c9e8a81	0.019353153
51	0x3d90fe13	0.07079711
52	0x3ddc29d2	0.10750164
53	0x39d0f000	0.00039851665
54	0x3dd735c0	0.10508299
55	0x3e590542	0.21193412
56	0x3da5e692	0.081006184
57	0x3c5700c0	0.013122737
58	0x3e128968	0.14310229
59	0x3d0ba60f	0.034093913
60	0x3d8c8811	0.0686189
61	0xbdb12d3d	-0.08651207
62	0xbc167fac	-0.009185713
63	0x3d1ccecd	0.038283158
64	0xbd90202f	-0.070373885
65	0x3d0a89cb	0.033822816
66	0x3db2cd74	0.08730593
67	0x3cc3a4db	0.02388232
68	0xbd5c1241	-0.053728346
69	0x3d88dca2	0.06682707
70	0xbc502eae	-0.012706442
71	0xbc14dbc7	-0.009085602
72	0xbd8f4fdf	-0.06997656
73	0xbe251d5d	-0.16124482
74	0xbda31ff6	-0.079650804
75	0x3daf92a0	0.085728884
76	0xbd22b183	-0.03972007
77	0xbc83b92d	-0.01607951
78	0xbc36fca7	-0.011168635
79	0x3dafc573	0.08582582
80	0x3d75d2d8	0.06001553
81	0x3ca06586	0.01957966
82	0x3e03312d	0.12811728
83	0x3d7f619a	0.06234894
84	0xbdadd26a	-0.08487399
85	0xbcf591a0	-0.029976666
86	0x3d624427	0.055240776
87	0xbce4af06	-0.027915489
88	0xbe023d86	-0.12718782
89	0xbc583d7a	-0.013198251
90	0x3e418ffa	0.18902579
91	0x3d33f67a	0.04393623
92	0xbd8a5c10	-0.06755841
93	0x3d75dcb4	0.060024932
94	0x3e065b99	0.13120879
95	0x3c88c2bf	0.016694425
96	0x3c9ab7fd	0.01888656
97	0xbd8647c8	-0.0655666
98	0x3bf1e200	0.0073816776
99	0xbd56c467	-0.052433398
100	0xbd955828	-0.07292205
101	0xbc0ed188	-0.008716948
102	0x3cf0d88d	0.029400134
103	0xbd90ebcf	-0.07076227
104	0xbd77f984	-0.06054069
105	0x3ca50dfa	0.020148266
106	0xbdb9eb2d	-0.09078059
107	0xbdac22d3	-0.0840508
108	0xbd9468d8	-0.0724656
109	0xbdb8490b	-0.08998307
110	0x3d989411	0.074501164
111	0x3da75faa	0.08172543
112	0x3cb64f08	0.022254482
113	0x3d58466d	0.05280154
114	0x3d183da9	0.03716818
115	0x3d174ece	0.03694039
116	0xbd3c11fd	-0.045915592
117	0xbd967fa1	-0.07348562
118	0x3a8aee00	0.0010599494
119	0xbd204e87	-0.03913739
120	0x3d0e5996	0.034753405
121	0x3d14a1b3	0.03628702
122	0xbd91be78	-0.07116407
123	0xbd722cd8	-0.059124798
124	0x3c49ea73	0.012323963
125	0xbcf1396b	-0.029446324
126	0x3c80f6e0	0.01574272
127	0xbdc46ff8	-0.09591669
128	0xbda4ded0	-0.080503106
129	0x3d04c8b3	0.032417964
130	0xba98ef9a	-0.0011668087
131	0xbcc30687	-0.023806823
132	0x3d18204d	0.03714018
133	0xbce92567	-0.028460218
134	0x3db39aa7	0.08769732
135	0xbdcf5c16	-0.10124986
136	0x3d21c48a	0.039494075
137	0xbc007780	-0.007840991
138	0x3d85b5e2	0.06528832
139	0xbdbabc73	-0.09117975
140	0x3b8965a5	0.004193025
141	0xbcc55e2d	-0.024092758
142	0xbd21f760	-0.039542556
143	0x3be5acde	0.0070091328
144	0x3a6510cd	0.000873816
145	0xbd9af05a	-0.07565375
146	0x3c890298	0.01672487
147	0x3d626360	0.055270553
148	0x3cb4bab5	0.022061685
149	0xbc3961c0	-0.011314809
150	0x3dd43784	0.10362151
151	0xbce203ed	-0.027589763
152	0x3a0c6b5f	0.0005356576
153	0xbd4aef87	-0.049544837
154	0xbd9ee9db	-0.07759448
155	0xbcf2cada	-0.029637743
156	0xbd967918	-0.073473155
157	0xbc8f2573	-0.017473912
158	0x3cfc4c83	0.030798202
159	0x3cdf4d65	0.027258584
160	0xbc1facb3	-0.009745765
161	0xbd706018	-0.058685392
162	0x3d8b4b52	0.068014756
163	0xbc709b67	-0.014685488
164	0xbda160d2	-0.07879795
165	0xbd35b8f0	-0.044365823
166	0xbdb6e687	-0.08930688
167	0xbd9c1acb	-0.07622298
168	0xbd38ba35	-0.045099456
169	0xbd88d620	-0.06681466
170	0x3c7d7948	0.01547081
171	0x3b26e581	0.0025466385
172	0xbde46ddc	-0.111537665
173	0xbc8cbee8	-0.017180875
174	0x3d3dbd74	0.046323255
175	0xbdc273f2	-0.09494771
176	0xbdd422f7	-0.103582315
177	0x3d9ad420	0.07559991
178	0x3ca87a00	0.020565987
179	0x3c291ce7	0.010321832
180	0x3d85df47	0.065367274
181	0xbd921267	-0.07132416
182	0x3d28ea3f	0.04123902
183	0xbd950b00	-0.07277489
184	0x3d38effd	0.045150746
185	0xbcbdf18d	-0.02318647
186	0xbd1558d3	-0.036461663
187	0x3d11da8d	0.035608817
188	0x39b976f3	0.00035374574
189	0xbd8ca417	-0.06867235
190	0x3c1e044d	0.00964458
191	0xbdab5b3b	-0.0836701
192	0xbc5e9201	-0.013584615
193	0x3da29507	0.07938581
194	0x3d7b7929	0.061394844
195	0xbd9fd4a0	-0.07804227
196	0xbd82e79f	-0.063918345
197	0xbd909a33	-0.07060661
198	0x3d4f20ba	0.05056832
199	0xbd066fc3	-0.032821428
200	0xbd184a0d	-0.037179995
201	0x3d20251c	0.03909789
202	0x3bf99c40	0.0076175034
203	0x3cc64239	0.0242015
204	0xbd89a422	-0.06720759
205	0xbc7ef3e7	-0.015561081
206	0x3db9cc35	0.090721525
207	0x3d330ef0	0.043715417
208	0xbbcdcdcd	-0.006280637
209	0xbdd542d5	-0.10413138
210	0xbd2f34c8	-0.042774945
211	0x3db06f07	0.08614927
212	0xbcb5e1dc	-0.022202425
213	0x3c55e2a1	0.013054521
214	0x3d02400a	0.031799354
215	0xbd1203f1	-0.03564829
216	0xbd0d9dae	-0.034574203
217	0xbe81fc1e	-0.25387663
218	0x3b5a4900	0.0033307672
219	0x3b94f3b3	0.004545653
220	0xbdc6e7f1	-0.09712208
221	0x3dac152f	0.08402478
222	0xbccbbf11	-0.024871381
223	0x3e50d640	0.2039423
224	0xbd7f3be8	-0.06231299
225	0x3d03f126	0.0322124
226	0x3d291240	0.04127717
227	0xbd483f90	-0.048888743
228	0x3e5df151	0.21674086
229	0xbd32484d	-0.043525983
230	0x3d4b61a7	0.049653675
231	0x3d96fbaa	0.0737222
232	0x3d5c315a	0.053758003
233	0xbdeacee7	-0.11465245
234	0xbcdbb19c	-0.02681809
235	0x3d7266c6	0.059180044
236	0x3d17f1f3	0.037095975
237	0xbd85bdb3	-0.06530323
238	0x3bdee8b0	0.006802641
239	0x3cbc0451	0.022951277
240	0x3d48d549	0.04903153
241	0xbd811213	-0.063022755
242	0xbd028c0d	-0.031871844
243	0x3d176d12	0.036969252
244	0x3bfb81e7	0.0076753977
245	0xbd383a00	-0.044977188
246	0xbd41a054	-0.04727204
247	0xbdc3d3b8	-0.095618665
248	0xbe455690	-0.19271302
249	0x3dacd173	0.08438387
250	0xbe3f47a1	-0.18679668
251	0xbdbc4c50	-0.09194243
252	0x3d815cbb	0.06316515
253	0x3c98b3f3	0.018640494
254	0xbda705c2	-0.08155395
255	0xbe324cd9	-0.17412128

bias f4 [100]
0	0xbdc4a4c9	-0.09601743
1	0xbd8d8119	-0.06909389
2	0x3c145ecd	0.009055805
3	0xbdd455f1	-0.103679545
4	0xbd0ec0f8	-0.034851998
5	0xbcd1f90f	-0.025631456
6	0xbd644eca	-0.0557392
7	0xbdb859a7	-0.09001475
8	0xbd9b035a	-0.07568999
9	0xbd839e15	-0.06426636
10	0x3c7c1fb8	0.015388422
11	0xbc4740bf	-0.012161433
12	0xbda35fbb	-0.079772435
13	0xbd308630	-0.04309672
14	0xbde44ca3	-0.1114743
15	0xbdaee6e3	-0.08540132
16	0x3d407661	0.046987895
17	0xbdd1dd5f	-0.10247301
18	0xbc293c3d	-0.010329303
19	0xbd427277	-0.047472443
20	0xbe0b2e85	-0.13591965
21	0xbda4b482	-0.08042242
22	0xbca32194	-0.019913472
23	0xbce47e04	-0.02789212
24	0x3e16e23a	0.14734736
25	0x3c59e02c	0.013298076
26	0x3de2e13a	0.11078115
27	0xbd70493d	-0.058663595
28	0xbccf5f66	-0.025314044
29	0xbdae9c04	-0.08525851
30	0x3aaec74d	0.0013334543
31	0xbd334a10	-0.043771803
32	0xbdb2a66f	-0.08723151
33	0xbbcc4a3f	-0.0062344368
34	0xbd77a1c4	-0.060457006
35	0x3aee0fe3	0.0018162694
36	0x3d744613	0.05963714
37	0x3ca5d3a8	0.020242527
38	0xbd945fdc	-0.07244846
39	0xbd382ade	-0.044962756
40	0x3ab1a7bc	0.0013554017
41	0xbd7b2321	-0.0613128
42	0xbc2c3c69	-0.01051245
43	0x3cfcba94	0.030850686
44	0xbd679f20	-0.056548238
45	0x3cfdf328	0.030999735
46	0xbd8adc20	-0.06780267
47	0x3c38b1e0	0.011272877
48	0xbd1fadbd	-0.03898405
49	0xbd887a03	-0.06663897
50	0x3d3a4858	0.04547915
51	0xbd01c7a4	-0.031684533
52	0xbcd1b62b	-0.02559956
53	0xbd7abe73	-0.061216783
54	0xba6fcf18	-0.0009147986
55	0x3d78a393	0.06070287
56	0xbc437900	-0.011930704
57	0xbc259721	-0.010106833
58	0x3cefb067	0.02925892
59	0x3d25c111	0.040467326
60	0xbc9ba322	-0.018998686
61	0xbd579f19	-0.05264196
62	0xbc8ce800	-0.01720047
63	0xbde82b61	-0.11336399
64	0xbd4bb6e9	-0.049734984
65	0x3d19ff3c	0.037596926
66	0xbda0927a	-0.07840438
67	0xbe0a1536	-0.13484654
68	0x3c87977d	0.016551727
69	0xbda204d7	-0.079110794
70	0xbd8a9438	-0.06766552
71	0xbda18a4d	-0.07887707
72	0xbd947869	-0.07249529
73	0x3c2c2fa2	0.010509403
74	0x3d08f85d	0.033439983
75	0xbd69b96d	-0.0570616
76	0xba401958	-0.0007327995
77	0xbd8a3d08	-0.06749922
78	0x3d08f7c5	0.033439416
79	0xbd6d0958	-0.05787024
80	0x3ce14f10	0.02750352
81	0xbd27f027	-0.04100051
82	0x3d91d5d5	0.07120863
83	0x3c9ccc6f	0.01914045
84	0xbdc4f319	-0.0961668
85	0xbd7e05b7	-0.06201717
86	0x3d10c11f	0.035340425
87	0xbd9f09b6	-0.07765524
88	0xbdba5db9	-0.090999074
89	0xbde3e8cd	-0.111283876
90	0xbd34d2c6	-0.04414632
91	0xbda40177	-0.08008092
92	0xbd9298cf	-0.07158052
93	0x3d4c656d	0.049901415
94	0xbd720359	-0.059085224
95	0xbe0110b4	-0.12604028
96	0xbbf138c6	-0.0073615042
97	0x3e0dffd5	0.13867123
98	0x3cd5c79c	0.026096158
99	0x3cd81245	0.0263759

weight f4 [100, 100]
0	0xbe32c21a	-0.17456856
1	0x3cab4a70	0.020909518
2	0xbc6080e9	-0.01370261
3	0x3b7f492d	0.0038953528
4	0xbe7f3372	-0.24921969
5	0x3e615ea2	0.22008756
6	0x3b06d59a	0.0020574094
7	0x3c1d3d00	0.009597063
8	0xbdbc8687	-0.092053466
9	0xbd92e9bb	-0.07173487
10	0x3dcbbbb4	0.09947911
11	0xbde6e992	-0.11275019
12	0x3ecb8c3e	0.39755434
13	0xbd2c29fd	-0.04203223
14	0x3d8864cc	0.066598505
15	0x3d8e4805	0.069473304
16	0xbdfff403	-0.124977134
17	0xbe5c9d71	-0.21544434
18	0x3e9ab425	0.30215564
19	0x3c07914a	0.008274386
20	0x3b5dc708	0.0033840556
21	0x3e47abc6	0.1949912
22	0x3d6ac198	0.05731353
23	0x3e80b4e1	0.25138
24	0xbe9bd543	-0.30436143
25	0xbcf44d94	-0.029822148
26	0xbe5e5791	-0.21713091
27	0x3c9051f3	0.017617201
28	0xbcc20b1c	-0.023686938
29	0x3c043914	0.008070249
30	0xbdd7ca68	-0.10536653
31	0xbd5d5ad7	-0.05404171
32	0x3ccb9f73	0.024856305
33	0xbe28eb1d	-0.16495939
34	0xbc5dc407	-0.013535506
35	0x3c2ffdc5	0.010741656
36	0xbe7774d4	-0.2416566
37	0x3dd3957f	0.103312485
38	0xbd579c8c	-0.05263953
39	0x3ed8d9a2	0.4235354
40	0xbe0de351	-0.13856246
41	0x3c795ec4	0.015220348
42	0xbdb41c55	-0.087944664
43	0x3da122cc	0.07867965
44	0x3d892b77	0.066977434
45	0xbda3c1b6	-0.07995932
46	0x3d942d10	0.072351575
47	0x3dead92c	0.114672035
48	0x3d7ebc1c	0.062191114
49	0x3d16e250	0.036836922
50	0xbe7bf820	-0.24606371
51	0xbe17fc0d	-0.14842243
52	0x3a1d9ae1	0.00060121535
53	0xbbc06600	-0.0058715343
54	0xbe6baff3	-0.23016338
55	0x3db23380	0.08701229
56	0x3d4656d3	0.048422646
57	0x3bdc9ee1	0.006732807
58	0xbd538d6f	-0.051648553
59	0x3dbac66c	0.09119877
60	0x3e80e8f3	0.25177726
61	0x3cbe86fa	0.023257721
62	0x3cc64f73	0.024207806
63	0x3d163462	0.03667105
64	0x3dcd5539	0.100260206
65	0x3ec45846	0.38348597
66	0x3cbae240	0.022812963
67	0xbddc7031	-0.10763586
68	0x3dd017f1	0.101608165
69	0x3e96bbf2	0.29440266
70	0x3d1cc754	0.03827603
71	0x3c0bba33	0.00852828
72	0x3d76e20c	0.06027417
73	0xbcfe8272	-0.03106806
74	0xbd2060d9	-0.03915486
75	0xbd12bac0	-0.03582263
76	0x3e9c412a	0.30518466
77	0xbd0ddfdd	-0.03463732
78	0x3e199cf1	0.15001275
79	0x3d71479b	0.05890618
80	0x3e18fdd1	0.14940573
81	0x3da7139a	0.081580356
82	0xbca97d62	-0.02068967
83	0xbf1cdb70	-0.61272335
84	0xbda4c8bd	-0.080461
85	0x3d7759b0	0.060388267
86	0xbccc638c	-0.024949811
87	0xbe40bc2c	-0.18821782
88	0x3e519feb	0.2047116
89	0xbe4735ac	-0.19454068
90	0xbc8cbe49	-0.017180579
91	0x3deaf8d6	0.11473243
92	0x3d2f1b87	0.04275086
93	0xbe6c124f	-0.23053859
94	0x3c8e3bdd	0.01736253
95	0xbc9ef8f5	-0.019405821
96	0xbcbbb425	-0.022913048
97	0xbe82c1e0	-0.2553854
98	0x3d64c99d	0.055856336
99	0xbd9fbe79	-0.07800002
100	0xbe31d0e2	-0.17364839
101	0x39ca84e1	0.00038627445
102	0xbea73fbc	-0.32665813
103	0xbd45ddab	-0.048307102
104	0x3dd604c6	0.10450129
105	0xbe2b315a	-0.16718045
106	0xbd8c3c87	-0.06847482
107	0x3dc9175d	0.09818909
108	0xbdcfe680	-0.10151386
109	0x3dbaa5c2	0.09113647
110	0x3d94c786	0.072646186
111	0x3cf4967a	0.029856909
112	0xbd068e56	-0.032850586
113	0xbdb539b0	-0.08848894
114	0x3c78677a	0.0151613895
115	0x3d9ac23d	0.07556579
116	0xbd2075ad	-0.039174724
117	0x3dbd9e69	0.0925873
118	0x3e347a10	0.17624688
119	0x3d75de74	0.0600266
120	0xbd04e2d4	-0.032442883
121	0xbd17a4c9	-0.037022386
122	0x3dd9f12c	0.10641703
123	0xbb9ff3c9	-0.0048813564
124	0x3dcf0f53	0.10110345
125	0x3d5c92f4	0.053851083
126	0x3e24552e	0.16048118
127	0xbd9244c0	-0.07142019
128	0xbe49bbfc	-0.19700617
129	0xbdcf4970	-0.10121429
130	0xbd78e724	-0.060767308
131	0xbda7513f	-0.08169793
132	0x3cc9933a	0.024606336
133	0x3e1d69b2	0.15372351
134	0x3d12b295	0.03581484
135	0xbd75c522	-0.060002454
136	0xbc7cfc95	-0.01544108
137	0xbd5a71d0	-0.053331196
138	0x3d058d93	0.03260572
139	0x3da76490	0.08173478
140	0xbe07ac68	-0.13249362
141	0xbe3c9dae	-0.18419525
142	0xbdb4e8d0	-0.08833468
143	0x3dfd1ddb	0.1235921
144	0xbd5afcf0	-0.053463876
145	0xbe8b962c	-0.2726301
146	0x3d66e14a	0.056367196
147	0xbf0052c3	-0.50126284
148	0x3d3beff4	0.045883134
149	0x3d9f5907	0.077806525
150	0x3dc8af90	0.09799111
151	0xbea28b2e	-0.3174681
152	0xbd0d9546	-0.034566186
153	0x3c6ec333	0.014572906
154	0x3e39e0ae	0.18152115
155	0xbea041c7	-0.31300184
156	0x3d097e3a	0.033567645
157	0x3d089472	0.033344693
158	0xba2fe1da	-0.0006709375
159	0xbd858ae5	-0.06520633
160	0xbe92c8d9	-0.2866886
161	0xbc90412f	-0.017609207
162	0xbd8f69d7	-0.07002609
163	0xbaf6e067	-0.0018835188
164	0xbdc5e675	-0.09663097
165	0x3e09c47e	0.13453862
166	0x3da4bbea	0.08043654
167	0x3e7ff2c9	0.24994959
168	0xbd191369	-0.037372027
169	0xbe0d90b1	-0.13824727
170	0x3d92c5f7	0.07166665
171	0xbc8520a0	-0.016250908
172	0xbaa29673	-0.0012404457
173	0xbac22ff0	-0.0014815312
174	0x3d17a54d	0.037022877
175	0x3c804924	0.015659876
176	0xbe2178fb	-0.15768807
177	0x3d36823d	0.0445578
178	0xbd98838e	-0.07446967
179	0x3acb1368	0.0015493454
180	0xbd2517a4	-0.04030575
181	0xbd04eb60	-0.032451034
182	0xbc80b384	-0.0157106
183	0xbef19d12	-0.47190148
184	0xbd4b10f1	-0.049576703
185	0xbcee98f3	-0.029125666
186	0x3df2b58e	0.11851035
187	0x3edf1e18	0.43577647
188	0xbe2ad06f	-0.16681074
189	0xbe082399	-0.1329483
190	0xbd72b41f	-0.059253808
191	0xbe00f25c	-0.12592453
192	0xbd8127d3	-0.06306424
193	0xbe9c32f2	-0.30507618
194	0x3a0fe664	0.0005489348
195	0x3f08df39	0.5346561
196	0x3aae302a	0.00132895
197	0xbe9444a6	-0.28958625
198	0x3da069cb	0.078326784
199	0x3d5e340c	0.054248855
200	0x3dc125f7	0.09431069
201	0x3d8ed9d2	0.0697514
202	0x3e2d6572	0.1693323
203	0xbdcc28ef	-0.09968745
204	0x3d932aaf	0.071858756
205	0xbcbdc581	-0.023165466
206	0x3db0d67d	0.086346604
207	0x3d33f8b3	0.04393835
208	0x3ef702f8	0.48244452
209	0xbcc0e920	-0.023548663
210	0x3e912fdb	0.28356823
211	0xbd4af1d7	-0.049547043
212	0xbd859d23	-0.06524112
213	0xbd93127f	-0.07181262
214	0xbb774f65	-0.0037736532
215	0xbda61edb	-0.08111354
216	0x3db71d69	0.089411564
217	0x3d9283da	0.07154055
218	0xbe12dcb6	-0.14342007
219	0xbcce226b	-0.025162896
220	0x3de489bf	0.111590855
221	0xbea8b686	-0.32951754
222	0xbc1f89f4	-0.00973748
223	0x3db4ca49	0.08827645
224	0x3e47da5e	0.19516894
225	0x3cf350f1	0.029701682
226	0x3b5ad3c1	0.0033390375
227	0x3d64a1b0	0.05581826
228	0xbda596df	-0.08085417
229	0x3e04222d	0.12903662
230	0x3ddc20ec	0.10748467
231	0x3d7f2527	0.06229129
232	0xbd1443b0	-0.036197364
233	0xbe00772f	-0.12545465
234	0xbdac1265	-0.08401946
235	0xbdc4b455	-0.09604708
236	0x3d69f235	0.057115752
237	0xbbad0422	-0.0052800337
238	0xbde31917	-0.1108877
239	0xbd13230f	-0.035922106
240	0x3e222c4b	0.15837209
241	0x3e1a5f8c	0.1507551
242	0xbdc414f4	-0.09574309
243	0xbc8443f4	-0.016145684
244	0xbdb144ea	-0.086557224
245	0xbdc3aa07	-0.095539145
246	0x3d3e92fa	0.046526887
247	0xbd2b7637	-0.041860785
248	0xbd498c7f	-0.049206253
249	0xbda64dca	-0.08120306
250	0x3d8b962e	0.06815754
251	0x3e84cfe8	0.2593987
252	0x3d56fd52	0.05248768
253	0x3ca8086d	0.02051183
254	0x3e232d1d	0.15935178
255	0x3da866ae	0.082227096

bias f4 [100]
0	0xbdfb0a93	-0.12257876
1	0xbceb1e85	-0.028701076
2	0xbd81793a	-0.0632195
3	0xbd8941c8	-0.06702
4	0x3b8a76df	0.0042255963
5	0x3c39fd67	0.01135192
6	0x3d00124d	0.031267453
7	0xbce467cc	-0.027881525
8	0xbc5a52a9	-0.013325372
9	0x3b7b9544	0.003838853
10	0x3d010316	0.031497084
11	0x3d0a1fdd	0.033721793
12	0x3c060e82	0.00818217
13	0xbbe7b4d6	-0.007071118
14	0x3c888adc	0.016667776
15	0x3bc56976	0.006024535
16	0x3cde4cd4	0.027136244
17	0x3c920a88	0.017827287
18	0x3c88754c	0.016657494
19	0x3c85ad16	0.016317885
20	0xbbc1534e	-0.0058998233
21	0x3c86a09d	0.016434008
22	0xbc07f4b4	-0.008298088
23	0xbc018633	-0.007905531
24	0x3ad93d66	0.0016574084
25	0x3c4725ef	0.01215504
26	0xbba686f0	-0.005082004
27	0x3b23459a	0.0024913312
28	0x3bc32553	0.005955377
29	0xbc22cee2	-0.00993702
30	0xbc21c30e	-0.009873165
31	0xbb8848d9	-0.0041590747
32	0xbb9ad736	-0.004725362
33	0x3c784876	0.015153995
34	0xbb74f48a	-0.0037377202
35	0x3c0b43b9	0.008500033
36	0xbba86c34	-0.005139852
37	0xba4127ce	-0.0007368297
38	0xbbb794a8	-0.005602438
39	0x3b9f20e8	0.0048562177
40	0x3bba5650	0.005686559
41	0xbc3eee02	-0.011653425
42	0x3b9b29fa	0.0047352286
43	0x3c0f5e29	0.008750477
44	0xbb57fd4c	-0.0032957373
45	0xbb6e7be0	-0.0036389753
46	0xbbb9a331	-0.005665206
47	0x3b92e8f0	0.0044833347
48	0x3b1dd312	0.0024082107
49	0xbb0f14b7	-0.0021832415
50	0x3c3f0bd1	0.011660532
51	0x3a6d6cbc	0.0009057035
52	0xbbd475ad	-0.0064837546
53	0xbb9f4917	-0.004861008
54	0xbb1dd970	-0.0024085902
55	0x3b141c13	0.0022599741
56	0xba985870	-0.0011623036
57	0x3bc825f9	0.0061080423
58	0x3b900a81	0.0043957834
59	0xbb14bc49	-0.0022695235
60	0xbc011a8f	-0.007879867
61	0x3bb5a16c	0.0055429246
62	0x3bcff522	0.006346361
63	0xbc0966b9	-0.008386307
64	0x3a5734ff	0.0008209496
65	0xb9b9da08	-0.00035448396
66	0xbb780958	-0.0037847366
67	0xbc3dea93	-0.011591571
68	0xbc1de7d4	-0.009637792
69	0xbb1e6294	-0.0024167644
70	0xbb51534f	-0.0031940525
71	0x3ad27067	0.0016055227
72	0xbc3424cc	-0.010995101
73	0x3a966b32	0.0011476038
74	0x3c194edb	0.0093571795
75	0xbb48dcd0	-0.0030649193
76	0xbbc4d6e3	-0.006007062
77	0x3ad524c4	0.0016261567
78	0x3b641e7b	0.0034808207
79	0x3bdd7516	0.0067583425
80	0x3bfe393d	0.007758288
81	0x39725c9e	0.00023113421
82	0x3bb58999	0.0055400846
83	0x3abfe24d	0.0014639586
84	0xbba1ad24	-0.00493397
85	0xbb704523	-0.0036662302
86	0xbb90d246	-0.004419598
87	0xb9a60cca	-0.00031671516
88	0xbb321d5b	-0.0027178142
89	0xbb1bd3c2	-0.002377734
90	0x3bbdab63	0.005788253
91	0xba3ea5d7	-0.0007272637
92	0x394e2c0e	0.00019662103
93	0xbbc39386	-0.005968514
94	0xbb9097e2	-0.004412637
95	0xbb94b3bc	-0.0045380276
96	0xbba2eafd	-0.0049718604
97	0xbae4286b	-0.0017407065
98	0x3af17823	0.0018422644
99	0xbb2ad114	-0.0026064562
