Results/Nodes_256/model_weights_with_Jacobian.pth (torch, 35408 bytes, 6 tensors)

weight f4 [61, 2]
00000000: 4848 2abf 731a a63e 903a 1cbf 8312 9fbd
00000010: 46fe 2c3e 2aef bcbe a40e 65bf d8aa a9bf
00000020: 8302 88be 6f33 97be 011c bbc0 266a c840
00000030: dc3a 24bf a277 28c0 cb7f b9be 4ce0 78be
00000040: bcd2 c13f 2f70 92c0 8f1f 673e 71c7 cd3e
00000050: ea76 b4be c968 8ac0 cd27 8abe 1699 1bbf
00000060: 2a1a e5be 3ba6 c93e d6ff 6fc0 7a04 ce3f
00000070: dc84 d4be ba0f dc3d d93c da3e 3386 ee3f
00000080: 91c4 1340 3363 56c0 dc0e 1dbf b016 193b
00000090: d0df 2b3f c5b9 af3e 370e a3be 8462 623e
000000a0: b6c9 9ebd e7bb 11bf 7049 2140 1847 a6be
000000b0: 117d 183e a333 92be 3891 21bf 0111 3cbe
000000c0: 83d9 853e bb68 223e 957b aebe 53c0 2f3f
000000d0: bc2c d5bd cbb7 ddbe 49e5 f5bf 9a10 9140
000000e0: 8e30 5bbe 6357 93be aaaa 96be 44d0 3dbe
000000f0: 5582 713d e511 54c0 287a 6f3f 6524 2340
00000100: 8567 f43e e7e6 17bf 3cd0 c33e ff16 e0be
00000110: 6009 453e da83 8d3e 6c6d 8d3f e1f5 4dbf
00000120: 0812 4dc0 8ce0 d7bf b459 a63e e386 81be
00000130: 9e6c 6e40 1d1e 88c0 859a 4340 0790 4ac0
00000140: f8d0 2a3f 0441 c7c0 fbe4 a03e 4237 4bc0
00000150: 4125 e0bf 6dfe 95bf a0f4 ea3e fedc 243f
00000160: b574 7e40 1995 4bc0 a607 33bf 8753 893e
00000170: cffd 1d3d 30b7 77bf 70d2 813e 380c 193f
00000180: ce72 2f3d 071d dabe 89c1 533e 41c1 a0bd
00000190: db01 2c3e 9034 36be 21c3 083e d808 52be
000001a0: 6867 1c40 ecb7 f1be b40c 50bf dcac 3cbf
000001b0: 0981 43c0 93de 09c0 018f 223f 7664 47c0
000001c0: a6b1 bcbf 0515 97bf af49 1640 e623 f2bf
000001d0: 5483 4e3d 0f21 f1be c938 c63f 0814 1a40
000001e0: 76c1 d8bd 72f7 2dbf
-0.6651654 0.32442054 -0.6102686 -0.07767203 0.16893873 -0.36901218 -0.89475465 -1.3255262
-0.26564416 -0.29531428 -5.8471684 6.2629576 -0.6415231 -2.6323018 -0.3623031 -0.24304312
1.5142436 -4.5761943 0.22570632 0.40191224 -0.35246974 -4.325291 -0.2698349 -0.60780466
-0.44746524 0.39384636 -3.74999 1.6095116 -0.41507614 0.10745187 0.42624548 1.8634704
2.3088725 -3.3498046 -0.613508 0.002335947 0.67138386 0.34321418 -0.31846783 0.22107893
-0.07753317 -0.5692734 2.5201073 -0.32476115 0.14891459 -0.2855502 -0.6311221 -0.18365861
0.2614251 0.15860264 -0.3407866 0.6865284 -0.10408923 -0.43304285 -1.9210597 4.5332766
-0.21405241 -0.28777608 -0.2942708 -0.18536478 0.058962185 -3.3135922 0.9354577 2.5490963
0.4773523 -0.59336704 0.38244808 -0.43767545 0.19241858 0.27639657 1.1049018 -0.80453306
-3.2042255 -1.6865401 0.32490313 -0.25298223 3.7253795 -4.253676 3.0563061 -3.1650407
0.6672511 -6.2266865 0.31424698 -3.1752477 -1.7511369 -1.171827 0.4588976 0.6439971
3.9758732 -3.1809752 -0.69933546 0.2682154 0.03857213 -0.96763897 0.25355864 0.5978427
0.042834096 -0.4260027 0.20679297 -0.0784936 0.16797583 -0.17793489 0.13355686 -0.20511186
2.4438114 -0.47210634 -0.81269383 -0.7370126 -3.0547507 -2.1542099 0.63499457 -3.1155066
-1.4741714 -1.180329 2.3482473 -1.8917205 0.050418213 -0.47095534 1.548608 2.4074726
-0.10583775 -0.67955697

bias f4 [61]
00000000: 93ea 13bf fd60 86be 8e64 d4be 955f 1b3f
00000010: 87f4 2dbf fdf1 de3d 4fcf 3e3f 5255 57bc
00000020: 8fdd ec3e ca2a 2ebf 656f 003f 0eb4 f7bd
00000030: 6025 29bf c034 7f3f 1c53 93be 882b 6eba
00000040: 95b1 7dbd 28f7 fabe c211 00bf 388a 91be
00000050: 57d7 c1bd b129 23bf 66d2 17bf a0e9 8ebe
00000060: 2d05 a1be 3efb b1be 7cbf 25bf c091 0bbe
00000070: 8d01 eabd a50a 19bf 27d5 293f c0f4 23be
00000080: 4f72 66be ea90 d4be bf48 87be 5846 f9be
00000090: 9a2c 063f 96fd 0cbf b34c 253e cea9 b63d
000000a0: b5f2 8bbe 918d afbe ad72 5e3f 621c 0dbf
000000b0: d2c0 e03c 38e3 f5be a578 9dbe bdfa fcbe
000000c0: eabd 1ebe fb73 c7be aa0d c5be 2180 c7be
000000d0: 1e1c 6fbe 34f0 68bc 66a6 853e ab84 b3bd
000000e0: 598e 463f c0ef daba 46df 5abe 0eb4 d8be
000000f0: 8e14 5dbe
-0.57779807 -0.2624587 -0.41482967 0.6069272 -0.67951244 0.10885999 0.7453508 -0.013142901
0.46262786 -0.6803404 0.50169975 -0.120948896 -0.66072655 0.99689865 -0.28774345 -0.0009085466
-0.061936934 -0.4901669 -0.50027096 -0.28425765 -0.09464901 -0.6373549 -0.5930542 -0.27912617
-0.3144926 -0.34761995 -0.64745307 -0.13629818 -0.11426077 -0.5978187 0.6634087 -0.16011333
-0.22504543 -0.4151681 -0.26422688 -0.4868648 0.52411807 -0.5507444 0.1614254 0.089191064
-0.27333608 -0.34287694 0.8689373 -0.55121434 0.027435694 -0.48024917 -0.30756107 -0.49410048
-0.15502134 -0.38955674 -0.38486987 -0.38964942 -0.2335057 -0.014217425 0.26103514 -0.08765539
0.77560955 -0.0016703531 -0.21374235 -0.4232487 -0.21589872

weight f4 [61, 61]
00000000: 8eb0 e4bd 963b d3bd 0b98 803c ac63 b3be
00000010: 2ef9 19bb 75c8 a8be 5889 8fbe 022e 5ebe
00000020: 4e7b afbe 5600 d23d 6af6 4bbe c540 c9bd
00000030: 287e cabd a1c7 cebe 9db3 8fbd d526 4cbd
00000040: ddac 9ebe 3814 ffbc 6d7c 84bd 2b91 aebe
00000050: 85b6 3dbd a9db 32be 4c5f 42bd 5625 c7be
00000060: 1002 5a3d dd56 f2bb efbe c83d 628f 61be
00000070: fc06 3bbe fb09 c0bd 3732 5fbe 0873 45be
00000080: 2b1d babe e506 f13d 3232 51be e805 99be
00000090: 5344 74be ee5a 37bd b9ea d2be 612b 89be
000000a0: 8632 86be c095 c4be c5e4 73be 6ffe dfbd
000000b0: 46a5 42be 4eee fd3d 98e4 87be 2a86 a4bd
000000c0: ba3a 7f3d 9091 8ebe 00ea 87be d15b 2c3d
000000d0: 16a9 4fbe 37eb b5be b87c a8be 1edd 87be
000000e0: 1299 92be 02c2 49be da2b bcbe c720 9cbe
000000f0: e37d 8dbe 0649 0bbd 6ac2 b23d b374 653c
00000100: 6157 24bf 2143 63bc 09a4 11bf e9af 11bf
00000110: f1ca 73bc 9762 35bf d721 bfbc cb02 18bf
00000120: 53a5 1abd 15ec f03d 3610 0cbf 5074 a83d
00000130: e902 f6be a238 20bf c578 f63c 884f d93d
00000140: 9a84 abbd fd7d a9bd 673a c6be 2eb2 d23d
00000150: 6c4a 92bd 10ca 9d3d 662f 86bc d543 01be
00000160: ce6a 00bf 7171 293d aa4f 1dbd 2578 09bf
00000170: 434d 1fbf eab8 b53d 188d df3d f89a 903d
00000180: 1c46 fcbe 060c 0abf 77ba bdbd f30f 1dbf
00000190: e339 07bf 7b1c 27bf 54bb 1dbf 0e67 debe
000001a0: 3df4 b13d 94bc 23bf fde1 263d cc57 553d
000001b0: ab19 f93d 45b5 973d 6b11 f13d 2bb2 2bbd
000001c0: aea7 b73d 31af d1be 65cf 33bf b419 2fbf
000001d0: bb3c 0ebf db3c e7be 8333 14bf 0a09 673c
000001e0: 8249 03bf 53bd 043d 50e7 8cbd ede6 933d
000001f0: e260 ae3d 0d3a c7be 2893 a23a 228f 99be
00000200: b5b0 84be 8d57 39be 2084 86be 0254 eebc
00000210: 54ba 3dbe f990 47bd 4548 18bd e443 95be
00000220: b8ae c7bd b345 643c e637 c6be 51b1 573c
00000230: 1cfb 483c 4baa 90be eb20 ddbd 0501 d8be
00000240: b34d 713d e0e0 e03d b7af e8bd cc3f 423d
00000250: 8406 c1bd 99a1 95be b580 39be beec c63d
00000260: b6ab c9be 8b61 62be 3c00 6fbe 6bee 4db9
00000270: ea78 34be 1ac7 b3be 23ff a8be 8b87 84bd
00000280: d04e 90be 4057 88be 7b84 94be e49f bebe
00000290: 6840 b7be a763 323d a438 d3be b858 a3bc
000002a0: 6b31 9bbe d97b 54bd 55da 3e3d 0384 95be
000002b0: de6e 57be 0f4e 3abc 7d1d c3be 94d8 56be
000002c0: 1a96 90be 0984 acbe bbf2 c4be 2860 8abe
000002d0: 5d43 d8be a979 88be c0a7 72be e404 e6bd
000002e0: fbaa abbd 3384 bcbd e1c4 08be 13eb de3d
000002f0: 5b19 69be 8614 febd ba7d 88be f6fa b5be
00000300: 142f 373d 18fa 3cbe a789 003e d16f 1bb8
00000310: 698b 06be 28bb a03d 4dc9 bd3d c6ee bbbe
00000320: 41ed d73d a187 dfbd d8d5 9abe 56dd adbb
00000330: 6c52 9fbe bbd7 113d 66b8 8b3e 1b86 ebbd
00000340: 1421 3ebd 214a 583c cac0 fdbd 574d 8dbe
00000350: 00c0 9b3d 181f 72be 9029 48be f7e6 38be
00000360: 2416 acbd 8d0a 98be 32a0 87be 71f2 adbe
00000370: 8d92 74bd dda9 62be a1fc f0be 4414 97be
00000380: 18eb 87be 3df5 83be bfbf 90bd c60e 66be
00000390: 9638 93bc 1421 f2bd 2780 bd3b cbf1 82bd
000003a0: 6938 dbbd 1efc 983e 8435 b7be 413b 51be
000003b0: 545e 6ebe 0fbb 32be a6e2 4dbe 612c adbe
000003c0: 347c 6dbe 615f a4be 06f5 18be 30c1 97be
000003d0: b92b 90bc 97d0 29bd dafe 46bd c6fe b1be
000003e0: 7cf5 f03d 546d 68be c092 87be 1b60 38be
000003f0: ef25 d5be 4041 a93c 668c 5fbe 9730 ae3d
-0.11166488 -0.103140995 0.0156975 -0.3503698 -0.002349447 -0.32965437 -0.28034472 -0.21697238
-0.34273762 0.1025397 -0.19918218 -0.09826807 -0.09887344 -0.4038668 -0.070166804 -0.04984172
-0.3099126 -0.03113757 -0.06469045 -0.3409513 -0.046316642 -0.17466606 -0.047454163 -0.38895673
0.053224623 -0.007395609 0.09802043 -0.22027352 -0.18264383 -0.093769036 -0.21796499 -0.19282162
-0.36350378 0.11768893 -0.20429304 -0.2988732 -0.23854189 -0.04476445 -0.41194704 -0.26790908
-0.2621042 -0.383955 -0.23817737 -0.10937201 -0.1900836 0.12398969 -0.2654159 -0.08033402
0.062311865 -0.2784543 -0.26545715 0.04207975 -0.20279345 -0.35531017 -0.32907653 -0.26535887
-0.28632408 -0.19702914 -0.36752206 -0.30493757 -0.27635106 -0.034005187 0.08728488 0.014004874
-0.6419583 -0.013870985 -0.5689092 -0.5690904 -0.014879928 -0.7085356 -0.023331566 -0.5937926
-0.03775532 0.11763779 -0.54712236 0.0822531 -0.48049095 -0.62586415 0.030086884 0.106108725
-0.08374901 -0.082759835 -0.38716432 0.10287891 -0.07143101 0.07704556 -0.016380023 -0.12623532
-0.5016297 0.04136795 -0.03840605 -0.5369895 -0.6222727 0.0887316 0.10915583 0.07060808
-0.4927224 -0.53924596 -0.09264081 -0.6135246 -0.52822703 -0.6527783 -0.61613965 -0.43438
0.08689163 -0.6395962 0.040742863 0.052085683 0.12163099 0.07407621 0.117709 -0.04191796
0.08967529 -0.40953973 -0.70238334 -0.68398595 -0.5556142 -0.45163617 -0.578911 0.014101276
-0.5128404 0.032407116 -0.06880057 0.0722178 0.08514573 -0.38911477 0.0012403475 -0.29992014
-0.25916067 -0.18099804 -0.26272678 -0.029092792 -0.1852811 -0.04872224 -0.037178297 -0.2915336
-0.09750122 0.013932633 -0.38714522 0.013164834 0.0122669 -0.28254923 -0.10797294 -0.42188278
0.05891199 0.109803915 -0.1136164 0.047424123 -0.09425071 -0.29224852 -0.18115504 0.09713124
-0.39388818 -0.22107522 -0.23339933 -0.00019639141 -0.1762425 -0.3511284 -0.33007154 -0.06471165
-0.2818513 -0.26629066 -0.29007325 -0.37231362 -0.35791326 0.043552067 -0.4125415 -0.019939765
-0.3031114 -0.051875923 0.046594936 -0.2920228 -0.21038386 -0.01137115 -0.38108435 -0.20981055
-0.28239518 -0.33694485 -0.3846644 -0.27026486 -0.42238894 -0.2665532 -0.23696804 -0.112314016
-0.08382221 -0.092049025 -0.13356353 0.108846806 -0.22763579 -0.12406258 -0.26658422 -0.3554303
0.04472263 -0.18454778 0.1255251 -3.7059017e-05 -0.13139118 0.07848197 0.09266911 -0.36705607
0.105432995 -0.10914541 -0.30241275 -0.0053059263 -0.3111757 0.035606127 0.27289122 -0.11500188
-0.046418265 0.013201267 -0.12390287 -0.27598068 0.076049805 -0.23644674 -0.19547105 -0.18056856
-0.084026605 -0.2969555 -0.26489407 -0.3397403 -0.059710074 -0.2213511 -0.4706774 -0.2950765
-0.2654655 -0.2577304 -0.07067823 -0.22466573 -0.017971318 -0.118227154 0.005783099 -0.063937746
-0.10704119 0.2987985 -0.35783017 -0.2043276 -0.23278171 -0.1745417 -0.20105991 -0.3382292
-0.23191911 -0.32104018 -0.14937219 -0.29639578 -0.017598974 -0.041458692 -0.04858289 -0.3476469
0.117655724 -0.22697955 -0.2647915 -0.18005411 -0.41630504 0.020660996 -0.21830902 0.085053615

bias f4 [61]
00000000: 0541 85be 0754 e4be 42e7 9cbe 6728 05be
00000010: 99b4 b3be 22ab 8cbe 9c4d bbbe c19f 05bf
00000020: 6a95 43be cb2c 9bbe 4059 95be 3989 c03e
00000030: 9223 d7bd 7b70 b3bd 5012 c03d 5cf2 76bd
00000040: c116 b5be 70f0 9cbc 2650 d8bf 043c 12bd
00000050: ebf6 43be ebb6 7dbe fda1 8ebe 7525 6fbe
00000060: b0f1 30bf e274 4dbe ed03 c2bd 6060 efbe
00000070: de05 a1be 20cb b4bd 00ce 4ebe a486 fabe
00000080: d9e3 b9be 009b 74be 60ea 33be 6bb9 febd
00000090: 498c 70bf 7f72 b3be b09d 36be 62d0 983d
000000a0: abbe 61be ca78 5fbe ab41 9b3f 52cf 52be
000000b0: 7aca 6bbb f594 93be aafc 92be 3a18 f0be
000000c0: c639 45be 0a8d 0bbf 8d0f 40be 90d2 07bd
000000d0: fd25 89be 432f 11be 0138 39be 6e53 97be
000000e0: 8f46 b63e e5a7 81be e23c 9abe 9620 95be
000000f0: 9006 5fbe
-0.26026168 -0.44595358 -0.30645186 -0.13003694 -0.35098723 -0.27474314 -0.3658265 -0.5219689
-0.19099966 -0.30307612 -0.29169655 0.37604693 -0.105048314 -0.08761688 0.09378493 -0.060289726
-0.35368922 -0.019157618 -1.6899459 -0.035701767 -0.1913716 -0.24776809 -0.27857962 -0.23354132
-0.69118786 -0.20064119 -0.09473405 -0.46753216 -0.3144979 -0.088278055 -0.2019577 -0.48930848
-0.36306646 -0.23887253 -0.17569876 -0.124377094 -0.9396406 -0.3504829 -0.1783359 0.07461621
-0.2204539 -0.21823421 1.2129415 -0.20586899 -0.003597884 -0.28824583 -0.28708392 -0.46893483
-0.1926032 -0.54512084 -0.18755932 -0.033159792 -0.26786795 -0.14178185 -0.1808777 -0.2955584
0.35600707 -0.25323406 -0.30124575 -0.29126424 -0.21779847

weight f4 [61, 61]
00000000: daa7 b03e fb12 113f 686f 483e 4590 acbe
00000010: 2786 923e 52d4 7f3e 72e3 c9be 95e8 ddbe
00000020: 04d2 ba3e 11e0 403e 233f 423e fc41 4740
00000030: fdca 613d d411 9abc 9498 38c0 7edb bebc
00000040: 527b 5a3e feda 803d 3d48 5ac0 26cc e9bd
00000050: 78b4 353e febb 15be f718 b6be a89b 433e
00000060: 07dd 1bbf 35ca 633e c8b1 f3bd ec72 dfbe
00000070: d3ae 813e 21a2 943d e63e a53e 5ae2 8b3e
00000080: b532 423e c8fc b73e b6f7 843e 8e35 cf3b
00000090: efb5 44bf ed97 553e 1c8d 79be ab80 d1bc
000000a0: 3724 c43e 0005 983e f87e 6440 dbae 35be
000000b0: 4240 3bbd 2655 323e cdfd 51be 4d95 e73e
000000c0: 51dc 9abe 32a6 e7be 898f 8f3e fcee cc3d
000000d0: 5e39 c43e 56de 6d3e 62e4 8cbe 3b88 9ebe
000000e0: 9215 1740 08d8 41be 4028 5c3e ae0e a03e
000000f0: 4019 bd3e a1db cb3e 6576 f2be 39c5 7bbe
00000100: ef39 483e ad29 9b3e 7abd 583e 55b5 cf3e
00000110: 843c e9be 6949 6b3e 78cd 403e 19dc cc3e
00000120: 1a39 62bf c72a a83d 8b69 ffbd fd8f e5be
00000130: 033d 143e 8759 d73e 6b7c b1bc 6125 07c0
00000140: 285f 183d d63f d93e 77e1 9c3e 5869 a73e
00000150: 1be5 d23e d879 babf 8bb7 873e 93fa 283d
00000160: eb6e 10bf dfcc 983e 0344 cebd 74eb 4c3e
00000170: 402b f8be 2541 8fbe aa27 923e 4142 883e
00000180: 982c 75bd 2956 633f ee7b 473e fd47 b63e
00000190: 2470 a2bc 5182 8dbe 0e56 af3e 9e6f 81c0
000001a0: 9602 4cbe 80c3 78ba 601e 9f3e 2ac4 a73d
000001b0: 0fef 093f 597a 853e 66c7 0c3f 823e 933e
000001c0: 1100 c63d a691 cd3e 5100 2ebe 40c9 623e
000001d0: b3da 863e d6d6 5b3f dc75 3a3e 9948 8e3e
000001e0: 8011 a13e cb1d 673e 960b 463e c72e 153f
000001f0: 44b5 b13e e970 6abe 125d c53e 6b7b 513e
00000200: 9554 cb3e 78d0 1f3f e795 833e eb82 dd3e
00000210: eedd 693e ba63 adbf d7ff d03d 6823 07bd
00000220: 209e 143f 4044 03be e7a9 8e3e 2d32 a53d
00000230: 1caa c5be ab47 693d 14eb a73e 559e 10be
00000240: 68f4 3bbe 8570 a13e b9d1 ef3f 4671 c63e
00000250: 58a3 923d 9554 d1bd d4a2 23be 0d09 e83b
00000260: 2ae8 b03e 71f4 1d3f 0024 5a3e 930e a33e
00000270: 531a 8c3e cd2c 00be d5ab 7abf 2728 913e
00000280: 9082 9bbd 5ee7 acbd e562 84be fd85 bf3e
00000290: 8517 ba3e dfe4 b53e 73f5 c53c 2a1e 3c3e
000002a0: e039 29be e38a 24bf f9dd 63bd bae2 15bf
000002b0: f8db b23e 0c50 c93d fedf cb3e cf35 c53e
000002c0: 0584 01be 1472 8bbe 364b 183f af31 78be
000002d0: 50cc 7f3e fd57 813e 4415 d73e ab2d 8bbe
000002e0: 4e70 dcbe 99a0 94be 3997 38bd 88b5 c9be
000002f0: ee1d 8abe 1b62 a93e a209 0e3f 70d9 3ebe
00000300: 0154 b0be 1d30 96be e2a9 5f3f 169c 25bc
00000310: ad89 07bc a3b5 12bf 6bd8 97be 680c 763e
00000320: 07d2 973d 8e0f 673d f0a1 f4bd 08b6 bfbe
00000330: aa91 28be 0d86 7cbe 5ce1 3ebe a93a 6e3e
00000340: 632e aabe ba43 d4bd de80 e3be 7f88 91be
00000350: c2df e33d 2135 a33e 4114 a73e 47e6 423e
00000360: d5b4 90be d44f 8abe 1b59 a43d db74 6cbf
00000370: e692 a1be 2ed7 b9be 167a b0bd 84e6 7cbe
00000380: 6ebe 8fbe 00e5 0ebe e93e 983e e421 4ebb
00000390: f841 9cbe b20c 58be f057 de3e d6c1 87be
000003a0: 3aba ecbe 7070 67be ddaa 7bbd d0f3 4dbe
000003b0: d3cb afbe 8e44 f9bd 4fd0 a5bd 29c1 aebf
000003c0: 8372 74be 2347 373e e9ab b3be 2d7f b3be
000003d0: 49c6 d6be 52f7 fe3e 2d81 c73e b850 5e3e
000003e0: e8eb 31be 69c0 d4be 4a31 7fbe 6222 e4be
000003f0: 5c0c 34be 0757 aebe 55ee d4be 3332 503e
0.3450306 0.56669587 0.19573748 -0.3370382 0.28617975 0.24983338 -0.3943134 -0.43341509
0.36488354 0.18835475 0.18969397 3.1134024 0.055125225 -0.01880733 -2.8843126 -0.023298021
0.21336105 0.062917694 -3.410659 -0.11415891 0.17744625 -0.14622495 -0.35565922 0.19102347
-0.60884136 0.22245105 -0.118991435 -0.43642366 0.25328693 0.07257486 0.3227455 0.2732113
0.18964656 0.35935044 0.25970238 0.006323523 -0.7684011 0.20858736 -0.24370235 -0.025574049
0.3830888 0.29691315 3.5702496 -0.17742483 -0.045715578 0.17415294 -0.20506974 0.45231095
-0.30246213 -0.45243984 0.28039196 0.1000652 0.38325018 0.23229346 -0.27517992 -0.3096331
2.3606915 -0.18930066 0.21499729 0.312612 0.36933327 0.39816 -0.47355953 -0.24586953
0.1955335 0.30305234 0.2116603 0.40568033 -0.45553982 0.22977223 0.1882838 0.4001167
-0.8836838 0.08211284 -0.124713026 -0.44836417 0.14476399 0.4206049 -0.021665772 -2.1116564
0.037200123 0.42431515 0.30640766 0.32697558 0.4119042 -1.4568434 0.2650722 0.04125459
-0.5641925 0.29843804 -0.10071566 0.20011693 -0.48470497 -0.2797939 0.28545886 0.26613048
-0.05985698 0.88803345 0.19480869 0.35601798 -0.019828863 -0.27638486 0.34245342 -4.044875
-0.19922861 -0.0009489581 0.31077862 0.08191712 0.538804 0.26069906 0.5499176 0.28758627
0.096679814 0.40150183 -0.16992308 0.22147083 0.2633873 0.8587469 0.18209022 0.27789763
0.31458664 0.22569959 0.19340357 0.582745 0.34708607 -0.22894634 0.3854757 0.20457236
0.39712968 0.62427473 0.25700304 0.43263945 0.22838566 -1.3546059 0.102050476 -0.03299275
0.5805378 -0.12819004 0.27864 0.08066211 -0.38606346 0.056953114 0.32796538 -0.14122899
-0.18354952 0.31531158 1.8735877 0.38758296 0.071600616 -0.10221211 -0.15980083 0.007081157
0.34552127 0.61701113 0.21302795 0.31847057 0.27363834 -0.1251709 -0.97918445 0.28350946
-0.07593262 -0.08442567 -0.258567 0.37406912 0.3634607 0.35526177 0.02416489 0.18370882
-0.16525984 -0.64274424 -0.05563161 -0.5854908 0.34933448 0.09829721 0.3981933 0.38517615
-0.12648018 -0.27235472 0.5948976 -0.24237703 0.24980283 0.25262442 0.42008412 -0.2718328
-0.43054432 -0.29028776 -0.045066092 -0.3939631 -0.2697596 0.3308266 0.5548345 -0.18637633
-0.3443909 -0.29333583 0.87368596 -0.010108015 -0.008272571 -0.57308406 -0.296573 0.2402817
0.074131064 0.05641132 -0.119449496 -0.37443566 -0.16461816 -0.24660511 -0.18640655 0.23264565
-0.33238515 -0.1036448 -0.44434255 -0.2842445 0.11126663 0.31876472 0.3263264 0.19033156
-0.28262964 -0.2701403 0.08024808 -0.9236581 -0.31557387 -0.36296982 -0.08617036 -0.2469731
-0.28074974 -0.13954544 0.29735497 -0.0031453306 -0.3051908 -0.21098593 0.43426466 -0.26515073
-0.4623583 -0.22601485 -0.061442245 -0.20112538 -0.34335193 -0.12171279 -0.08096372 -1.3652698
-0.23871808 0.1789823 -0.35092095 -0.35057965 -0.41948155 0.49798065 0.3896574 0.2171048
-0.17375147 -0.41553047 -0.24921146 -0.44557482 -0.1758284 -0.34050772 -0.41588083 0.2033165

bias f4 [61]
00000000: 6916 9f3d 5159 9f40 4995 8f3e 2056 b23f
00000010: 220d a23e 95e7 f5bd c533 ddb9 ba9b cbbb
00000020: 7463 96bd 1c57 283d cba4 4bbc 38da 563c
00000030: 83a0 42bc d4e7 a43c 94d1 80bc 59f8 0c3c
00000040: cdba 8fbc 807d 0d3c 06cf f43b 3762 253a
00000050: e963 ab3a d973 763b 39fb 3cbb d6b7 1a3c
00000060: c933 4639 c44a c5bb 99e1 96ba 926a 043b
00000070: 4f17 07bc 0306 6dbb 3be2 e5b9 c259 13bb
00000080: 40c6 81bb 4aed 6fba 6210 5dbb b5ac 5bbb
00000090: f43f be3a 5ed4 703a 90de 743b 2a73 e3b8
000000a0: ed36 a0bb 8df7 af3a 2638 40ba 3be4 af3b
000000b0: 8c42 2dba ca20 143b 9d5b cd38 3a79 e1ba
000000c0: b33a e83a 5877 ab39 c418 4039 a5c8 6a39
000000d0: 26f3 e43a 3933 0bbb 1ce9 f83a 2feb 49bb
000000e0: 6eec fd3a 589d 3e3a f7e1 223b f2c3 723a
000000f0: 9fc2 a03b
0.07767946 4.979653 0.28043583 1.3932533 0.31650645 -0.120070614 -0.00042190976 -0.0062136324
-0.07343188 0.0410987 -0.012429426 0.013113551 -0.011879089 0.020130076 -0.015724935 0.008604133
-0.017545128 0.008635879 0.007470968 0.00063088856 0.001307604 0.0037605672 -0.0028836264 0.009443244
0.00018902043 -0.0060208756 -0.0011511325 0.0020205122 -0.008245303 -0.0036166913 -0.00043846839 -0.002248392
-0.003960401 -0.0009152485 -0.0033731689 -0.003351969 0.0014514909 0.00091869186 0.0037364103 -0.000108456545
-0.00488936 0.0013425216 -0.00073325855 0.0053677834 -0.00066093425 0.0022602552 9.792226e-05 -0.0017202266
0.0017717689 0.0003270458 0.00018319773 0.00022390725 0.0017467483 -0.0021240248 0.001899037 -0.0030810346
0.001937283 0.0007271371 0.0024853924 0.00092607655 0.004906013
