Results/Nodes_4096/model_weights_with_Jacobian.pth (torch, 127856 bytes, 8 tensors)

weight f4 [100, 2]
000000 4d be 0b bf ad 27 8d be 48 45 21 3f 11 3d 3d bf
       -0.5458725 -0.27569333 0.6299634 -0.73921305
000010 ef e3 18 3f 9c c7 f1 3e 11 25 98 be 78 76 5e bd
       0.597228 0.47222602 -0.2971578 -0.0543122
000020 46 22 bf be 1d 85 0d 3f fe 95 07 be e3 5c 44 3e
       -0.37330836 0.5528124 -0.13240811 0.19176058
000030 46 db 97 be c4 ce 26 3f 96 7e ae bc 9f a3 02 3f
       -0.2965948 0.6515925 -0.021300595 0.51030916
000040 4b 17 52 3e 3f 15 80 3b 61 03 3e 3f c6 a5 91 bd
       0.20516698 0.0039087827 0.74223906 -0.07111697
000050 ec cd 39 3d ae 66 8c be f0 ed 16 bf d2 e9 d0 be
       0.045362398 -0.27422088 -0.58956814 -0.4080339
000060 55 0d 5a bf b0 2f 25 3f 5e b8 20 3f 33 8d b4 be
       -0.85176593 0.6452589 0.6278132 -0.35263976
000070 b2 68 17 3f 5f 67 3d bf 67 d7 55 bf 7f e3 31 3f
       0.5914413 -0.73985857 -0.835318 0.69487756
000080 09 88 1d 3e 81 3b 1e 3c 02 dd fe be 5b 51 75 3f
       0.15383925 0.0096577415 -0.4977799 0.95827264
000090 ab ae 19 3e bc 8d 67 bd 26 1b 4c 3f e7 77 c1 bc
       0.15008037 -0.056531653 0.79728925 -0.023616744
0000a0 f3 28 2d bf 87 00 9e 3e ac c6 eb 3e 37 7f 12 bf
       -0.6764061 0.30859777 0.46050012 -0.57225364
0000b0 b3 26 fb 3d 23 a7 a5 3c c7 93 dc bd 1a 6d d9 bd
       0.12263241 0.020221299 -0.10770374 -0.106165126
0000c0 47 6e d0 3e 1f f0 ed 3d 94 18 53 bf b9 af 59 3f
       0.40709135 0.11618065 -0.8245938 0.85033756
0000d0 f4 04 c8 3e d3 30 3b bf 42 d9 6e 3f 5e fe 56 bf
       0.3906628 -0.73121375 0.9330026 -0.83981884
0000e0 03 c9 21 be 5e 9a 68 be e3 5e 74 be 19 84 e7 3d
       -0.15799336 -0.22715136 -0.23864321 0.113044925
0000f0 69 9a 87 bc 91 34 8a 3e 44 e6 f0 3d be 3d 2b bf
       -0.01655312 0.2699323 0.1176267 -0.66891086
000100 51 21 7f 3e 19 da d7 bd 43 71 32 be e7 4d 1c bf
       0.24915053 -0.10539646 -0.17426018 -0.6105637
000110 cd 1f 27 bf 73 2e fa 3e 26 3f ba be 32 8f c7 3e
       -0.652829 0.48863563 -0.36376303 0.38976437
000120 f9 d6 f6 3e a9 9c 7e 3e 5b a6 7b be 83 c9 af be
       0.48210886 0.24864449 -0.24575178 -0.3433343
000130 c6 86 2a 3f e0 f3 0b 3f 1f 61 44 3e bf 37 67 3f
       0.666119 0.54669 0.19177674 0.90319437
000140 5d e6 1b bf 64 4f b8 3d 09 1c 35 bf ec b9 32 3e
       -0.6089838 0.089995176 -0.70745903 0.17453736
000150 94 84 1d 3d 2d 64 3c bf f9 65 32 be 75 49 38 bd
       0.038456514 -0.73590356 -0.17421712 -0.04499193
000160 aa d5 f2 bd 3f c2 01 3f bd e2 1c bf 57 0f 05 bf
       -0.118571594 0.5068702 -0.61283475 -0.5197653
000170 24 d0 2b be 30 9c e2 3e 89 4e 16 bf 6b e3 e0 3e
       -0.16778618 0.44259787 -0.58713585 0.43923506
000180 48 32 91 3e 38 68 07 3f 09 2b aa be e5 ae f3 be
       0.28358674 0.528934 -0.33235958 -0.4759437
000190 3c f7 61 3e db 64 41 3e 93 76 2b 3f ba 50 80 3d
       0.22066969 0.1888613 0.66977805 0.06265397
0001a0 42 86 a9 3e c7 6e 49 be d4 67 00 be ec 30 fd be
       0.33110243 -0.19671164 -0.12539607 -0.49451387
0001b0 d7 6d 00 3f 27 82 7a 3e c4 2c 20 bf 4d b4 88 3e
       0.501676 0.24463712 -0.62568307 0.2670006
0001c0 a4 ae 0c 3f c8 e0 be 3e e8 87 b1 3e c8 0d 2b bf
       0.5495398 0.3728087 0.34674 -0.66817904
0001d0 a5 6c 12 bb 17 74 2b 3f 57 fe a2 be 7b 9d 20 be
       -0.002234259 0.66974014 -0.3183467 -0.15685074
0001e0 74 1d 7a be c2 d8 06 3f 50 99 c7 be 79 31 6d 3d
       -0.24425298 0.52674496 -0.38984156 0.05790851
0001f0 5c 64 3a 3f ba 32 1e 3f cd 54 95 3e df f1 05 3f
       0.72809386 0.6179615 0.2916626 0.5232219
000200 13 e7 09 bf 51 5a 73 3d 29 6c 11 bf cd 9c a9 be
       -0.53868216 0.059412304 -0.56805664 -0.33127442
000210 4a 06 10 3f 53 77 1a 3f 42 a4 35 3f 75 82 fd be
       0.56259596 0.60338324 0.7095376 -0.49513593
000220 f7 79 29 be cc e0 39 3f 99 36 d3 3e a5 4b c4 be
       -0.16550432 0.7260864 0.41252592 -0.38338962
000230 a3 b5 07 3f 97 9f 86 be 32 2e 25 3f f3 e6 bd be
       0.5301153 -0.26293632 0.64523613 -0.37090263
000240 a5 1d 80 3d 77 a0 94 be 5d dc df be 96 45 28 be
       0.06255654 -0.29028675 -0.4372281 -0.16432795
000250 0c d0 45 3e 43 a6 6b be af f1 2e 3f a9 ee bb be
       0.19317645 -0.23012643 0.6833753 -0.3670552
000260 1f d3 88 be aa d6 eb be d0 76 09 bf 66 85 28 3f
       -0.26723573 -0.46062213 -0.5369692 0.6582855
000270 f3 24 2d 3f 39 f8 0b bf 68 2c 82 3e 81 03 d2 3e
       0.67634505 -0.5467563 0.25424504 0.41018298
000280 ff 56 cb be df 1d 30 bf 58 9f 79 3e 91 4d 3b bf
       -0.3971481 -0.6879558 0.24377191 -0.7316523
000290 b8 b1 ae be c8 d9 7f 3f 9b d6 a9 bb 86 e2 0d 3f
       -0.34119964 0.9994168 -0.0051830537 0.5542377
0002a0 71 00 09 3f 69 e5 c7 3e 60 f8 95 be be 87 93 be
       0.535163 0.39042214 -0.29291058 -0.288145
0002b0 9e 1e 25 bf 4e 32 d4 be d3 e6 c2 3e 01 63 9e 3e
       -0.64499843 -0.4144463 0.3806673 0.3093491
0002c0 f8 cc cd be fa f1 d0 3d c3 30 09 be ec 38 e1 3e
       -0.4019544 0.10202403 -0.13397507 0.4398874
0002d0 fc 86 c5 be 39 41 e9 bc a8 03 8f 3e 7f 93 c4 3d
       -0.38579547 -0.028473483 0.27932477 0.09598445
0002e0 38 c4 42 be c9 d0 d0 3e 3b ad 16 bf 8a a8 1f be
       -0.19020164 0.4078429 -0.5885808 -0.15591636
0002f0 77 6f 3c bf b3 b0 bc 3e 7f db b2 be bf 3c b5 3e
       -0.7360758 0.3685356 -0.34933087 0.35397908
000300 bb ff a8 bd 03 b2 bc be 88 a8 32 3f fb 6e 11 bf
       -0.08251902 -0.36854562 0.6978841 -0.5680997
000310 83 3c c8 3e e2 ef 28 3f 9e ae 28 bf 6d 45 92 3e
       0.39108667 0.6599103 -0.65891445 0.28568593

bias f4 [100]
000000 a2 e8 1e bf 70 33 b6 3e d2 94 e4 be df 89 55 be
       -0.6207372 0.3558612 -0.4464479 -0.20853375
000010 db 20 b3 be 51 34 9f 3e 68 6a fe ba f6 2d 11 bf
       -0.34986004 0.31094602 -0.0019410374 -0.56710756
000020 1a 36 07 bf b1 ba 15 be 9f 43 e0 be 46 f5 3a 3e
       -0.5281693 -0.14621998 -0.4380159 0.18257627
000030 00 50 12 3f a1 c4 8b 3e 45 db 23 3e 66 ac 41 3f
       0.5715332 0.27298453 0.16001613 0.75653684
000040 8c ab 21 3e 71 0f 27 3b 39 73 07 bf ea 1f 95 3c
       0.15788096 0.0025491382 -0.5291019 0.018203694
000050 51 08 06 bf 21 86 2a bd 42 7a 0f bf 96 2a b0 be
       -0.5235644 -0.04163182 -0.56045926 -0.3440749
000060 43 06 96 be c3 c7 4b 3d 0a 32 b9 3d f5 14 8e bd
       -0.29301652 0.049751054 0.09042747 -0.06937591
000070 88 89 b3 be b8 95 29 bf 44 c0 70 3e 3d 34 30 3f
       -0.35065866 -0.6624408 0.23510844 0.6882971
000080 45 94 bf 3e b6 14 f3 be 88 14 1c bf c2 c2 1c bf
       0.37417808 -0.4747674 -0.6096883 -0.61234677
000090 c4 53 fd be e7 3d ee be dc 50 0e 3f b1 a3 2a be
       -0.4947797 -0.46531603 0.5559213 -0.16664006
0000a0 9e 6b de 3e 96 2c ac 3e ec 67 84 3e 48 ca 30 bf
       0.4344148 0.33627766 0.25860536 -0.69058657
0000b0 49 3e 26 3f 27 d3 f9 3e b6 b7 28 bf 00 fa ed be
       0.6493879 0.4879391 -0.6590532 -0.46479797
0000c0 51 e4 83 3e e8 16 15 be 91 a5 fe be 37 0f 8f 3d
       0.2576013 -0.1455952 -0.49735692 0.06985324
0000d0 7a 11 2a bf ca e2 13 3f 44 25 f3 3e 14 28 e3 3e
       -0.6643292 0.5776793 0.4748937 0.44366515
0000e0 5c ad 63 3e 9c f8 e0 be 48 58 05 be 67 07 ce 3e
       0.222341 -0.43939674 -0.13021958 0.40240023
0000f0 ac 97 09 3e c4 17 1b 3f 8e 78 f2 3d 9f 27 10 bf
       0.13436764 0.6058314 0.118394 -0.56310457
000100 97 5f e6 be 60 84 14 3f 13 8a ad 3e cf 72 0a bc
       -0.44994804 0.5801449 0.33894405 -0.008450224
000110 da 4d cc 3d 13 71 c6 3e ee 10 31 bf 31 52 2e bf
       0.099757865 0.38758144 -0.6916646 -0.68094164
000120 67 09 b3 be c3 dc ac be bc 4c a6 bd ea 00 82 3e
       -0.3496811 -0.33762178 -0.08120105 0.25391322
000130 d2 a8 42 be 27 d8 d0 3c e5 39 0b bf d2 6f 96 be
       -0.19009712 0.025493694 -0.54385215 -0.29382187
000140 2d fe 17 3f d4 76 0e 3f c0 be 01 be e5 33 6a 3e
       0.59372216 0.5565007 -0.12670422 0.22871359
000150 f4 91 f9 3e c5 31 0d 3f 96 fb 6e bc 33 bb e9 be
       0.48744166 0.5515407 -0.01458635 -0.45650634
000160 fd f8 57 be 73 f5 b9 3e 0a 76 a5 be cd d3 8a 3e
       -0.21091075 0.36320075 -0.3231662 0.27114716
000170 92 72 02 bf f9 dc b8 3e 07 38 fb 3e b4 ab ff bd
       -0.5095607 0.3610609 0.49066183 -0.12483922
000180 49 c4 39 3f 00 57 ac 3e 9f 38 97 bc a8 65 1e be
       0.7256513 0.33660126 -0.018459616 -0.15468466

weight f4 [100, 100]
000000 b3 a1 f6 3b 67 21 65 bd 40 76 6e bc 78 3e bd bd
       0.0075266003 -0.055940058 -0.01455456 -0.092404306
000010 ad b1 09 3d cd 2a 40 3c 93 da 9f bd 07 bf b8 bc
       0.03361671 0.0117289545 -0.078053616 -0.022552026
000020 4a 95 0f 3d bd 7f 81 bd 4d 57 25 3d 4a 68 94 bd
       0.035054483 -0.06323192 0.04036646 -0.07246454
000030 33 78 ae 3b 33 e9 5a bc 43 d6 96 bd 0d 24 83 bc
       0.0053243875 -0.013361263 -0.07365086 -0.016008401
000040 6a c4 42 bd 20 ad 93 bc b3 94 3a 3c 33 99 81 bc
       -0.047550596 -0.018026888 0.011387992 -0.015820121
000050 a7 2d 3a bc 70 bd a3 3d f5 11 9e 3d f0 9e 53 bd
       -0.011363423 0.07995117 0.07718269 -0.051665246
000060 b3 81 58 3c f7 d9 19 3d b3 ac db 3b 33 7c 00 3c
       0.013214516 0.037561383 0.006703937 0.007842111
000070 93 4a 1d bd fa a8 95 3c c0 aa 6d bd 2d 74 ae bc
       -0.038401198 0.01826905 -0.058024168 -0.021295631
000080 4a ab 33 bd 10 28 0c 3d 6a f0 0e 3d 0f 7e af bd
       -0.043864526 0.034217894 0.034897245 -0.08568966
000090 cf 81 a1 bd 00 70 f6 3a 73 3c f6 3c ed 2f c4 bd
       -0.07886087 0.0018801689 0.030058121 -0.095794536
0000a0 67 b9 ff 3b 8a e3 74 bd f8 b8 b0 bd cf a2 b3 3d
       0.007804084 -0.05978731 -0.0862903 0.08771288
0000b0 3f 57 83 bd 50 5b 43 bd 6d f2 c5 3d 47 0a 75 bd
       -0.06413125 -0.047694504 0.0966538 -0.059824254
0000c0 7a 09 27 bd 83 80 77 bd 3d fa 56 bd 9a 78 40 3c
       -0.040780522 -0.060425293 -0.05248474 0.011747504
0000d0 f7 95 55 3d 7d b4 05 3d 40 7d ec bc 7a d7 d8 3c
       0.05214497 0.03264283 -0.028868318 0.026469935
0000e0 ca 99 96 bd 87 1c 9a 3d 10 60 92 bd 0d 14 3c 3d
       -0.07353552 0.075249724 -0.07147229 0.04591756
0000f0 92 fa 9d bd fd 0f 2e bd 5b 55 ba bd cd c1 73 3c
       -0.07713808 -0.042495716 -0.090983115 0.014877749
000100 aa a4 4b 3d b3 ef 8d bd 50 76 16 3d c7 40 bf bc
       0.049717583 -0.069304846 0.036733925 -0.023346318
000110 73 3b a9 3c c8 f3 8b bd 23 c9 97 bd 67 5c 6e bc
       0.02065823 -0.06833607 -0.07411411 -0.014548398
000120 10 6c 23 3d db 9c c7 bd 98 1c 86 bd 3f 61 9b bd
       0.03989798 -0.09746715 -0.065484226 -0.075869076
000130 40 fd 8b bc 93 00 93 bd 6a a8 5c bd aa 35 3c bd
       -0.017088532 -0.07177844 -0.05387155 -0.045949616
000140 55 fa 8a bd 73 83 70 bd 6a ec 32 bd 67 14 dd bc
       -0.06786028 -0.05871911 -0.043682493 -0.026987268
000150 9f 7d a5 3d b3 28 88 bb 67 f3 ad 3d 1a 82 16 3c
       0.08080601 -0.0041552423 0.08493691 0.009186292
000160 63 b1 3f 3d 53 01 12 3d 67 b2 be bb 9b f4 c0 3d
       0.04680003 0.035645794 -0.005819607 0.09421655
000170 20 ad 6c bd 5a c8 df bc ed eb 91 3c 40 df 01 3c
       -0.057782292 -0.027317215 0.017812693 0.007926762
000180 0d 78 1b bd d7 89 64 3d 5d 65 ba bd 57 77 bb 3d
       -0.037956286 0.055795517 -0.09101365 0.09153622
000190 9a 5a d0 3c 27 0a e0 bc 2d 6f b8 3d 2d 19 1a bd
       0.025433827 -0.027348591 0.0900558 -0.037621666
0001a0 10 d7 c8 bd 83 19 94 bd cb 1d 68 3d 6a 8f 5a bd
       -0.09806645 -0.072314285 0.056669038 -0.053359427
0001b0 5a df ea 3c 3d 9d 4e 3d 8f 6b 83 3d b5 23 fd bc
       0.028670955 0.050442923 0.064169995 -0.030900816
0001c0 d7 e0 8c 3d 2c 28 03 3e fa fa 0c bc dd 03 b0 bd
       0.06878822 0.12808293 -0.008604759 -0.08594487
0001d0 74 ad 23 3e 7f c9 e1 bd 7d 67 97 bd 9e 76 c0 3d
       0.15984136 -0.110247605 -0.07392786 0.093976244
0001e0 d3 76 83 bc dd ff ff 3d 27 c8 50 bc 4d 25 8f 3c
       -0.01604787 0.12499974 -0.012743033 0.017473841
0001f0 0d 02 6d bc 0c 6d ef bd 6a f1 e0 bd 18 bb 5c 3e
       -0.014465821 -0.11690721 -0.10983546 0.21555746
000200 27 c7 9f 3d 4b d9 b4 bd 63 43 dc bc f1 f1 c9 bd
       0.07801657 -0.08830508 -0.026887601 -0.098606
000210 d6 6a 3c 3d 90 7f 3e bd 28 bc b8 3d 33 1e 96 bd
       0.046000324 -0.04650837 0.09020263 -0.07329979
000220 0a 84 8d bd a7 94 27 bc 4c 7a 4a 3e b0 4f 99 3d
       -0.0690995 -0.010228313 0.19773215 0.07485902
000230 cd 1f a2 bd 18 2a 3f bb 07 f8 8d bc aa 74 bc bd
       -0.07916222 -0.0029169377 -0.017330183 -0.092019394
000240 4b 1d 66 3d b7 1f 25 be f3 ce bc bc 3d d9 03 3d
       0.05618028 -0.1612538 -0.0230479 0.032189596
000250 7c 91 53 3d e2 33 b9 3d 7a e5 8a bd 7c 48 6e 3e
       0.051652417 0.09043099 -0.067820504 0.23269838
000260 73 7e 95 3d dd 64 f6 bb ce dc 1f 3e 74 41 24 be
       0.07299509 -0.007519348 0.15611574 -0.16040593
000270 32 5a 80 3e 00 6c a6 bd 71 f9 bb bd 16 2c 4e be
       0.25068814 -0.08126068 -0.091784365 -0.20134005
000280 9b 86 4f bd a1 72 a4 bd 88 d5 80 3e e0 b5 ab bc
       -0.05066548 -0.08029676 0.2516291 -0.020960748
000290 ba e4 e9 bc 6d 37 78 be 09 58 44 3e da 63 4a 3d
       -0.028551448 -0.24239893 0.19174208 0.049411632
0002a0 a1 59 e7 3d e6 71 d0 bd 2d c3 eb 3c 42 83 84 bd
       0.11296392 -0.101779744 0.02877959 -0.06470348
0002b0 17 13 64 3d 47 34 dd bc 43 a6 b5 3d b0 d9 87 3c
       0.055682268 -0.027002467 0.088696025 0.016583294
0002c0 50 88 c8 bd 29 62 19 bc 58 91 bf 3d 2a df 60 bd
       -0.097916245 -0.009361782 0.09353894 -0.054900326
0002d0 d1 e6 d6 bd c6 73 7e bd f0 51 0e be 44 77 ab 3d
       -0.104932435 -0.06212213 -0.13898444 0.083723575
0002e0 e3 b9 13 3e f7 cd 65 be ad f2 bb 3d 48 a9 a1 bd
       0.14426379 -0.2244185 0.09177146 -0.07893616
0002f0 ed 09 87 bc 1b 41 fe 3d f3 b5 35 bc be 27 5f 3e
       -0.016484225 0.12414762 -0.011090743 0.21792504
000300 cd 36 a2 3d 0e 8f 27 be ef 56 9e bd 7a 1f 97 bc
       0.07920609 -0.16363165 -0.07731425 -0.018447626
000310 81 da 2e bd b1 07 1e bc 2a 2c 56 3e 67 86 a1 3a
       -0.04268885 -0.009645388 0.20915285 0.001232338
000320 ef 5d a4 bd 33 77 b0 3d ed 3b bf 3c 7a 5f f9 3c
       -0.08025729 0.086164854 0.023344005 0.030441035
000330 67 d8 dd 3a 5b cd 53 3d 26 0b c0 bd a7 c4 be bc
       0.0016925455 0.051709514 -0.093771264 -0.02328713
000340 8b 92 c0 bd 85 0c e9 bc 37 4b cc bd f7 a5 7c 3d
       -0.09402951 -0.028448353 -0.099752836 0.061681714
000350 8a 32 c8 bd d4 40 83 bb d2 c8 33 bd c2 e6 ab 3c
       -0.097752646 -0.004005531 -0.04389269 0.020984057
000360 77 01 fe bb 1d d6 b5 ba 1a 51 80 3d 91 ac a5 3d
       -0.0077516395 -0.0013873015 0.06265469 0.08089555
000370 82 d8 bf 3d 01 3f 80 bd 7a 57 39 bd 02 94 a9 3d
       0.093674675 -0.06262017 -0.04524944 0.082801834
000380 da 6f 35 3d fd dd 40 bc f4 6d 1f bd 9f a7 d2 bd
       0.044296123 -0.011771676 -0.03892322 -0.102858774
000390 ca 8d 6f 3d ba 87 91 3c 2d 5c 9d 3d e2 87 8e 3b
       0.05848483 0.017764915 0.07683597 0.0043496946
0003a0 86 74 82 3d 67 97 29 3c e7 a1 ac 3b 93 ae b6 3c
       0.06369881 0.010351039 0.0052683237 0.02230004
0003b0 ea 95 9f 3d 83 53 7c 3d a9 4c a2 3d 63 f2 21 bc
       0.07792266 0.06160308 0.07924778 -0.00988445
0003c0 df 6b 14 3d 4e 42 cf 3b 88 a2 a5 3d 2a 45 21 3d
       0.036235686 0.006325043 0.08087641 0.0393726
0003d0 d7 95 eb bc 83 5d a0 3c 33 b2 dd bb 27 f4 19 bd
       -0.028757973 0.01957584 -0.006765628 -0.037586357
0003e0 2c 3d 68 bd 67 b2 0a bb 68 80 9c 3d 45 00 aa 3d
       -0.056698963 -0.0021163465 0.07641679 0.08300833
0003f0 ca 32 84 3d 3c 56 37 3d 32 57 71 bd 28 9b 06 bb
       0.06455 0.044759974 -0.058921047 -0.0020539258

bias f4 [100]
000000 40 fe 89 3d 06 ea e4 bd c5 ba d2 bd ed b4 52 be
       0.067379475 -0.11177449 -0.1028953 -0.2057683
000010 ec 7e 9f bd 30 0e 98 bd 73 70 80 bd 30 19 78 bd
       -0.0778788 -0.07424581 -0.06271448 -0.060570896
000020 cd f7 ba bc 9d c9 eb bb 52 8a 8d 3c 5e 77 c0 3d
       -0.022823239 -0.007195665 0.01727787 0.093977675
000030 19 fb af bd 63 93 56 3d c5 69 9e 3d df 20 bf bc
       -0.08592815 0.052386653 0.07735018 -0.023331104
000040 43 03 96 3d 0d 2a 78 3d 93 5b ca 3d 4d 5a 86 bb
       0.07324841 0.060586978 0.09880748 -0.00410012
000050 ec 2c 00 be 25 12 bb 3d 0e 65 61 bd 88 0d 13 3e
       -0.12517136 0.0913432 -0.055028014 0.1436063
000060 e8 bd a3 3d b7 08 33 bd 3b d4 27 be f3 9e 92 bc
       0.07995206 -0.043709483 -0.16389553 -0.017898059
000070 81 fc 45 3d 53 ac b7 bd 09 6b cd 3c 10 72 23 bc
       0.04833651 -0.08968415 0.025075452 -0.009975925
000080 10 3d 32 bd e7 ae ab 3d 68 de a6 3d 55 39 be 3d
       -0.043515265 0.08382969 0.081478894 0.09288279
000090 d3 4f 8f bc f0 fa 4c bd 55 a9 9f bd b4 ad 86 be
       -0.017494118 -0.050044 -0.077959694 -0.263044
0000a0 02 4e fa bd 23 65 0e 3d d5 d1 bd bd 14 57 b1 3d
       -0.1222191 0.03476442 -0.09268538 0.08659187
0000b0 da da 40 bd 9a 8f af bb db a4 79 bd 6c b8 f5 bd
       -0.047083713 -0.005357695 -0.060948234 -0.11998066
0000c0 90 aa 58 3d d7 7c 98 bd ce bd a6 bc 8f bc 07 be
       0.052897036 -0.07445686 -0.020354178 -0.13255523
0000d0 c3 de dd bb 6a 8c 2d 3d 4d 6c a7 bc 1d 59 d8 bd
       -0.00677094 0.042370237 -0.020437384 -0.10563872
0000e0 4a cc 9c 3b 5a 64 72 bd 49 5e 7e 3c b4 3e f3 bd
       0.0047850953 -0.059177734 0.015525409 -0.11877194
0000f0 55 82 19 be 5a ce d4 3d 62 b3 67 bd cd a1 0a bb
       -0.14991124 0.10390921 -0.056567557 -0.002115357
000100 a7 d7 6b 3c ec 7f 1e be 13 54 10 be 19 2c 01 be
       0.014394677 -0.15478486 -0.14094572 -0.12614478
000110 40 53 91 3d f3 fd b8 bc b3 06 f0 bd af 2f c3 3d
       0.07095957 -0.02258203 -0.11720028 0.09530579
000120 7b ec 02 3e 3f 00 1c 3e 30 76 25 be 4d 08 6d bd
       0.12785523 0.15234469 -0.16158366 -0.057869244
000130 e8 b0 0e bd 2a b3 ac bc 27 8d ae bd 16 b6 ba bd
       -0.03483668 -0.021081526 -0.085230164 -0.091167614
000140 f8 cf ca 3d b6 f0 50 bd 43 94 5b 3d 21 7f 81 3a
       0.09902948 -0.05101081 0.05360819 0.0009879806
000150 9d 2a 26 3d 0d 19 17 3c ba 92 49 3b 55 e3 26 be
       0.040567983 0.009222281 0.0030757622 -0.16297658
000160 78 53 c1 3d ea 23 b8 bd 7d c6 13 3d ed 2e 21 bd
       0.094397485 -0.08991225 0.036077965 -0.039351393
000170 0f b7 6c 3c ef 6f 7f 3c 17 d9 e2 bc 95 0e b2 3c
       0.014447941 0.015590652 -0.027691407 0.021735469
000180 d3 12 3a 3e ab a3 d4 3c 9a c0 2d 3d 53 00 d8 bc
       0.18171243 0.02595695 0.042420007 -0.026367342

weight f4 [100, 100]
000000 65 0b 8e 3d f5 f9 09 3e fd f0 b2 bb 31 48 8d 3d
       0.06935767 0.13474257 -0.005460857 0.06898535
000010 1d ff 11 3e 5a 06 69 3d f7 ab 2e bd fa d5 af 3d
       0.14257474 0.056890823 -0.042644467 0.08585735
000020 b0 8b 3f bd 16 19 34 3e 7d e0 36 3d 2c 6c 80 3d
       -0.046764076 0.17587695 0.044647682 0.06270632
000030 72 ec 75 bb 1c de 95 bb 4b 7c 97 bc 43 9b d9 bd
       -0.0037524966 -0.0045735966 -0.018491885 -0.10625317
000040 c0 a1 fd 3c ec 75 2e be 40 06 d8 3c ca e0 0f bd
       0.030960917 -0.17037171 0.026370168 -0.035126485
000050 76 e6 4a 3e c4 de a3 3d 5d ee f0 3c 62 73 1e be
       0.19814476 0.080014735 0.029410535 -0.15473703
000060 fa d9 e9 3d 30 65 41 be 4e 16 b6 3d fd 9f 68 3d
       0.11418529 -0.18886256 0.08890973 0.0567932
000070 23 53 76 bc 00 16 1b bc 52 97 f1 bd 00 2f 54 bd
       -0.01503447 -0.009465694 -0.1179644 -0.051802635
000080 62 ed 95 3d 7b 9f 4b 3e 37 0a b6 3d 19 0e c7 3d
       0.07320668 0.19885056 0.08888667 0.09719486
000090 f3 38 35 bc 73 cd 7e 3d b6 10 d1 bc cb 42 97 bd
       -0.011060941 0.06220765 -0.025520664 -0.073857866
0000a0 e0 b7 d8 bd 69 a1 33 3d 1a ec ba bc 1a ae ee 3d
       -0.105819464 0.043855105 -0.02281766 0.11654301
0000b0 58 56 91 3d 50 e3 bf bd 61 1f b3 3d 1a b5 e1 bd
       0.07096547 -0.09369528 0.087462194 -0.110208705
0000c0 4c a9 07 bd 27 38 af bd 3f fb 46 be 53 24 65 bd
       -0.03312044 -0.08555632 -0.1943178 -0.055942845
0000d0 db dd e7 bd 00 f0 d0 39 31 78 18 3e 38 d5 9b 3e
       -0.113216124 0.00039851665 0.148896 0.3043611
0000e0 9b 99 1d be c0 00 57 3c 05 ba 69 3d ad d3 35 be
       -0.15390627 0.013122737 0.057062168 -0.17756529
0000f0 c9 97 87 3c 9f 3d d0 bd 0b ce 85 3e cd ce 1c 3d
       0.016551869 -0.10168003 0.2613376 0.038283158
000100 cd a9 88 bb 6e e5 93 3d 66 a3 54 be 5c 82 22 3e
       -0.0041706325 0.072214946 -0.20765457 0.1587004
000110 c5 b9 1f 3c a2 dc 88 3d fe 7c 37 be d1 94 12 bd
       0.009748881 0.06682707 -0.17918774 -0.035786454
000120 1e f8 e5 3d 2c 9f 9b 3e f0 7c 01 3e 64 3e 7b bc
       0.11228965 0.30394876 0.12645316 -0.015334699
000130 fe 18 fa bd f6 40 24 bd a7 fc 36 bc a4 dd 00 3e
       -0.12211798 -0.040101014 -0.011168635 0.12584549
000140 62 be ee 3d ed d1 32 bc d2 d9 e5 3d 0c 22 50 3d
       0.116574064 -0.010914308 0.112231866 0.05081372
000150 14 df 4a bd a0 91 f5 bc 6b b3 f1 3d 1e 37 9b 3d
       -0.04952915 -0.029976666 0.118017994 0.07578872
000160 1d 50 04 be e6 46 a5 3d 96 2b a7 bd 7a f6 33 3d
       -0.12921186 0.080701634 -0.0816261 0.04393623
000170 54 b2 df bd f4 49 e6 3d fd 32 8b bc 31 6c 8c bc
       -0.10922685 0.11244574 -0.016992087 -0.017141433
000180 0a a6 47 bc 7b fd 03 be 00 e2 f1 3b 67 c4 56 bd
       -0.012185583 -0.12889664 0.0073816776 -0.052433398
000190 28 58 95 bd e7 95 e4 3b 8d d8 f0 3c cf eb 90 bd
       -0.07292205 0.0069758776 0.029400134 -0.07076227
0001a0 07 78 64 bd fa 0d a5 3c 2d eb b9 bd d3 22 ac bd
       -0.05577853 0.020148266 -0.09078059 -0.0840508
0001b0 d8 68 94 bd 0b 49 b8 bd 3d a2 b8 3d 63 8e c7 3d
       -0.0724656 -0.08998307 0.090153195 0.09743955
0001c0 83 87 1b 3d 6d 46 58 3d 17 9d 58 3d 0d 1b 55 3d
       0.03797103 0.05280154 0.052884188 0.05202775
0001d0 fd 11 3c bd ff 5e b4 bd 00 ee 8a 3a 87 4e 20 bd
       -0.045915592 -0.088071816 0.0010599494 -0.03913739
0001e0 c3 b2 4e 3d 07 a1 a8 3c c3 27 63 bd 1a 09 32 bd
       0.05046345 0.020584596 -0.05545784 -0.04346571
0001f0 73 ea 49 3c bd ee 38 bd e0 f6 80 3c f8 6f c4 bd
       0.012323963 -0.045149554 0.01574272 -0.09591669
000200 a5 bd 84 bd b3 c8 04 3d 9a ef 98 ba 87 06 c3 bc
       -0.06481484 0.032417964 -0.0011668087 -0.023806823
000210 4d 20 18 3d 67 25 e9 bc a7 9a b3 3d fd 2f af bd
       0.03714018 -0.028460218 0.08769732 -0.08554075
000220 8a c4 21 3d 80 77 00 bc e2 b5 85 3d 73 bc ba bd
       0.039494075 -0.007840991 0.06528832 -0.09117975
000230 0d 02 a3 3c 2d 5e c5 bc 60 f7 21 bd b3 e9 b9 3c
       0.019898439 -0.024092758 -0.039542556 0.022694444
000240 cd 10 65 3a 5a f0 9a bd 67 a2 f5 3c 60 63 62 3d
       0.000873816 -0.07565375 0.029984666 0.055270553
000250 17 51 1a 3d c0 61 39 bc c8 08 b4 3d ed 03 e2 bc
       0.03767499 -0.011314809 0.087907374 -0.027589763
000260 a0 ac 84 3c 87 ef 4a bd 92 0b bf bd da ca f2 bc
       0.016195595 -0.049544837 -0.09328379 -0.029637743
000270 5f 95 8f bd 73 25 8f bc 3d 0a 3e 3d aa 02 30 3d
       -0.07010912 -0.017473912 0.046396483 0.04297129
000280 b3 ac 1f bc 27 00 30 bd 8d 3b 56 3d 67 9b 70 bc
       -0.009745765 -0.042968895 0.052302886 -0.014685488
000290 d2 60 a1 bd 6d 64 6d bd 87 e6 b6 bd cb 1a 9c bd
       -0.07879795 -0.0579571 -0.08930688 -0.07622298
0002a0 8d ed fa bc 20 d6 88 bd 67 6b ff 3c 20 9a 95 3c
       -0.030630851 -0.06681466 0.031179143 0.01826197
0002b0 17 d1 c4 bd 63 a3 06 bd da e2 7d 3d f2 73 c2 bd
       -0.09610193 -0.03287066 0.06198392 -0.09494771
0002c0 1f f8 b3 bd 20 d4 9a 3d 00 7a a8 3c e7 1c 29 3c
       -0.0878756 0.07559991 0.020565987 0.010321832
0002d0 d7 0c a6 3d e7 89 6a bd 0d 7e 68 3d fb 3a b5 bd
       0.08107918 -0.05726042 0.056760836 -0.0884914
0002e0 fd ef 38 3d 8d f1 bd bc e3 9c 55 bd 8d da 11 3d
       0.045150746 -0.02318647 -0.052151572 0.035608817
0002f0 cd a5 83 3c 6b ad ac bd 4d 04 1e 3c 3b 5b ab bd
       0.01607027 -0.08431514 0.00964458 -0.0836701
000300 67 f4 07 3b 95 b4 c2 3d 2d dc 9d 3d 8f ef bf bd
       0.002074504 0.095070995 0.07708011 -0.09371864
000310 8b 0b a3 bd 33 9a 90 bd ba 20 4f 3d c3 6f 06 bd
       -0.07961186 -0.07060661 0.05056832 -0.032821428
000320 0d 4a 18 bd ae 0f 06 3e 18 2b 01 3d 3f 42 2c 3e
       -0.037179995 0.13091919 0.031535238 0.16822146
000330 3c d3 14 3e e7 f3 7e bc 35 cc b9 3d f0 0e 33 3d
       0.14533705 -0.015561081 0.090721525 0.043715417
000340 cd cd cd bb 65 db a4 bc cb 18 40 3e a8 1d b4 3c
       -0.006280637 -0.020124147 0.18759458 0.021986797
000350 fb 7f d7 bb d1 ca 17 3d 43 27 0d be f0 91 2b be
       -0.0065765358 0.037058655 -0.13784508 -0.1675489
000360 cd 80 0b bc e2 86 ca bc 00 49 5a 3b b3 f3 94 3b
       -0.008514595 -0.02472252 0.0033307672 0.004545653
000370 5d ca cb bd e6 f8 e6 3d d2 87 15 3d 10 f2 c1 bd
       -0.09950707 0.11277942 0.03650648 -0.09469998
000380 ae d3 82 be d2 80 20 3e 6b 15 36 3c 90 3f 48 bd
       -0.25552124 0.15674141 0.011113505 -0.048888743
000390 9b c3 cd bc 4d 48 32 bd e0 43 23 3e d7 0a ed 3d
       -0.025117686 -0.043525983 0.15943861 0.11574333
0003a0 5a 31 5c 3d 60 b4 11 be d0 57 ae bd aa e3 04 3e
       0.053758003 -0.14228964 -0.08512843 0.12977472
0003b0 f3 f1 17 3d b3 bd 85 bd 27 c5 c2 bc 33 6c c7 3d
       0.037095975 -0.06530323 -0.02377565 0.09737434
0003c0 b6 10 ce bd 95 6f 71 3b 0d 8c 02 bd 1c 51 48 be
       -0.10061781 0.003684019 -0.031871844 -0.19562191
0003d0 e7 81 fb 3b f3 35 d5 3c ea 70 8e be 12 ad 3a bd
       0.0076753977 0.026026702 -0.27820522 -0.04557521
0003e0 a1 24 b0 bd 73 d1 ac 3d 06 4d 41 3d 08 59 fc bd
       -0.086007364 0.08438387 0.047192596 -0.12321669
0003f0 9f f9 6b 3c f3 b3 98 3c b6 60 a2 be 04 3f 87 be
       0.014402776 0.018640494 -0.3171441 -0.26415265

bias f4 [100]
000000 09 9b d7 bc 1f 52 ac bd a8 d5 50 3c 3d 69 e4 bd
       -0.026319044 -0.08414101 0.012746252 -0.11152885
000010 45 fe 77 3d 59 ba da 3d d0 bc 3a be 87 4b 17 be
       0.060545225 0.10680074 -0.18236089 -0.14774905
000020 7a 46 1e be 15 9e 83 bd 61 00 c4 3c 4b 15 0e 3d
       -0.15456572 -0.06426636 0.023925962 0.034688275
000030 5d 12 9a bd 9f 43 2c bc 37 97 73 be 1d 4d 30 be
       -0.07523034 -0.010514169 -0.23788153 -0.17216916
000040 2c 20 05 3e 15 ba 65 be 39 08 58 3d bb 96 94 be
       0.13000554 -0.22434266 0.052742217 -0.29021248
000050 42 32 ca bd 5e 1b 24 be 56 7c 81 3d a9 59 11 bd
       -0.09872867 -0.16026065 0.06322543 -0.035485897
000060 2a 8a 04 3e cc f5 4f be 16 45 ee 3c ea d9 c0 bd
       0.1294333 -0.20308608 0.029085677 -0.09416564
000070 a3 dc 82 bd 39 8f e3 bd e8 75 c6 3d 10 4a 33 bd
       -0.06389739 -0.11111302 0.096904576 -0.043771803
000080 6f a6 b2 bd 5a 24 82 3c b1 62 85 bd 2d 71 a9 bc
       -0.08723151 0.015886474 -0.065129645 -0.02068385
000090 0f 7c 06 3e f8 15 ca 3c 9f 4e 85 be 23 8f 90 bd
       0.13133262 0.024668679 -0.26036546 -0.07058551
0000a0 40 59 92 be 90 7e f9 bd 7a f8 2b 3c 89 0e ed 3c
       -0.28583717 -0.12182343 0.010496253 0.028937595
0000b0 bd 81 b4 bd bd c5 34 3d 20 dc 8a bd 7f 9a bb bd
       -0.08813808 0.04413389 -0.06780267 -0.09160327
0000c0 1e bf 48 3e 38 bf 23 be 52 f3 d8 3d 82 99 ba bd
       0.19604155 -0.15990913 0.10593285 -0.091113105
0000d0 3c fc b2 be 73 be 7a bd 66 a0 42 bd 18 9d 0d 3e
       -0.34958065 -0.061216783 -0.04751625 0.13829458
0000e0 88 c9 96 be e0 c7 7b bd a0 27 13 bd 75 62 4b 3d
       -0.2945063 -0.061469913 -0.03592646 0.049654443
0000f0 d5 b1 87 3d 73 6e 4e be 00 e8 8c bc 74 3e b0 bd
       0.06625716 -0.2015932 -0.01720047 -0.08605662
000100 2a be 29 3d ed 2f ff 3d 7a 92 a0 bd 51 3e 4f bd
       0.04144112 0.12460313 -0.07840438 -0.05059654
000110 22 6c f5 39 d1 19 44 bd 94 2a 82 be 4d 8a a1 bd
       0.00046810607 -0.047876183 -0.2542311 -0.07887707
000120 18 57 8a be 65 a1 31 3e 68 fd aa 3c c3 a1 85 bd
       -0.27019572 0.17346723 0.020872787 -0.06524994
000130 c2 bf 1d 3d cd 6e 7b be ae e9 0d 3d 89 63 7e be
       0.038512953 -0.24553986 0.034646682 -0.24842657
000140 b1 45 b5 3c 27 f0 27 bd 94 11 1f bc da af 9e be
       0.022127958 -0.04100051 -0.009708781 -0.3099354
000150 97 df 4c be b7 05 7e bd cd 31 a1 3d dc 91 0b 3e
       -0.20007168 -0.06201717 0.07870827 0.1362986
000160 9a fd ef 3d e0 ae d9 bd d5 0e 1f 3d 1c c0 6a bd
       0.117182925 -0.10629058 0.038832504 -0.057312116
000170 dd e5 b5 be 6c 85 bb 3d 00 ec 55 bd a4 8d c9 bd
       -0.35526934 0.091563076 -0.05222702 -0.09841469
000180 b8 34 43 be 30 86 8b 3e 03 b6 84 bd 6a fd 3a be
       -0.1906308 0.27250814 -0.064800285 -0.18260732

weight f4 [100, 100]
000000 55 90 82 be 9a 76 ab 3b d9 3d 57 3e 90 9e 22 3d
       -0.25500742 0.0052326443 0.21019687 0.039702
000010 f0 dc cf be 3a 81 2b 3e e8 cc a3 be b6 60 45 bd
       -0.4059825 0.16748515 -0.3199227 -0.048187934
000020 bf 66 90 3d bb e9 92 bd 81 7c 1f 3e 13 00 0a 3d
       0.07050847 -0.07173487 0.15574838 0.033691477
000030 3c 36 4d 3e 52 e2 ca bd 9a cc 96 3e dd ef b9 3e
       0.2004022 -0.099064484 0.29452974 0.36315814
000040 5e 8a 76 be 97 86 57 be b7 c4 21 3e 53 fa 06 3e
       -0.2407622 -0.21047436 0.15797697 0.13181429
000050 59 fe b1 3d 43 2f 0e be 43 0b 0c 3e 4f 52 05 3e
       0.08691091 -0.13885216 0.13676171 0.1301968
000060 1b fb 18 be b5 7c d4 3e f5 ca cd 3d f7 db 59 3d
       -0.14939539 0.41501394 0.100484766 0.05318829
000070 ba 23 d9 be 3e 87 31 be b2 95 d3 be d7 5a 5d bd
       -0.4241007 -0.17336747 -0.41325146 -0.05404171
000080 73 9f cb 3c 0d c8 a3 be 24 7e 90 bd de aa bf bd
       0.024856305 -0.31988564 -0.070553094 -0.09358762
000090 82 4d 7f be 11 15 05 3e 05 44 a2 be ff e7 de 3e
       -0.2493191 0.12996317 -0.3169252 0.43536374
0000a0 e6 a4 d9 3e c5 c3 bf bd 6c b7 dc 3c dc 7c 68 bc
       0.4250862 -0.09363512 0.026942931 -0.014189925
0000b0 13 46 2f 3d 8b 48 a7 bd 10 2d 94 3d e5 a2 9b be
       0.042791437 -0.08168133 0.072351575 -0.30397716
0000c0 e7 cd a1 be 9b 9b f9 3d 27 ab 7e be fb 22 0b 3e
       -0.31602404 0.121878825 -0.24869977 0.13587563
0000d0 f0 c5 94 3e 00 66 c0 bb c1 fd 9e be 32 7c ed 3d
       0.29057264 -0.0058715343 -0.31052974 0.11595954
0000e0 48 80 8f 3e 60 36 84 be d1 8f 8a be 13 ae 35 3e
       0.28027558 -0.25822735 -0.27062848 0.17742185
0000f0 8d 46 4f 3e 88 4f 94 3e 73 4f c6 3c 3c b1 f1 3d
       0.20241757 0.28966928 0.024207806 0.11801383
000100 19 59 7c 3d 0f 12 36 3e 40 e2 ba 3c d5 19 cc be
       0.061608408 0.17780326 0.022812963 -0.39863458
000110 14 5f 40 3e 48 f0 01 3e 83 be 88 3e 33 ba 0b 3c
       0.1878627 0.12689316 0.2670785 0.00852828
000120 60 6b b8 3e c3 dd 5d be c9 b5 3c 3d f6 82 e6 bd
       0.3601942 -0.21666627 0.0460718 -0.112554476
000130 01 e1 5c 3e b6 3f 85 3e a0 09 44 3e 2d 52 b6 bd
       0.21570207 0.2602517 0.19144297 -0.089023925
000140 ef e1 55 3e 9a 13 a7 3d 3c d8 62 3e 55 29 33 3e
       0.20886968 0.081580356 0.221528 0.17496236
000150 ae 29 e5 be b0 59 77 3d 5f c7 40 be 82 46 a4 be
       -0.44758362 0.060388267 -0.18826054 -0.32085043
000160 0d 00 26 3e 7f 4f 1c be 51 ed 53 3e dc c4 a2 3d
       0.16210957 -0.152647 0.20695998 0.07947704
000170 c9 74 9f 3e b0 4c 8a be 15 6d 42 3d 8a 49 47 be
       0.31143788 -0.27011633 0.04746731 -0.19461647
000180 c5 2b 09 be 42 68 58 3e 51 d8 e1 3e 38 35 88 bd
       -0.13395603 0.21133521 0.4411035 -0.06650776
000190 50 a0 02 bd 5a e4 83 3c 76 a2 13 3e 73 76 b0 bb
       -0.031891167 0.016100097 0.14417443 -0.005385214
0001a0 ee 55 cd 3d f5 7d 9c 3c 03 b7 2f be 84 7a 25 3d
       0.100261554 0.01910303 -0.17159657 0.040400043
0001b0 03 16 c4 3d c2 a5 ba 3d f7 5a 69 bc 6f 96 c9 bc
       0.09574511 0.09113647 -0.014242879 -0.024607865
0001c0 bb 52 95 3e cd d4 44 bd 73 ec 25 be 9e 8d 99 3e
       0.2916468 -0.048054505 -0.1620348 0.29990858
0001d0 92 d2 1d bd 10 3d e3 3d 0b 22 59 3d be 3d 2c 3e
       -0.038530894 0.11095631 0.05301098 0.16820428
0001e0 08 27 7b 3d 81 7a 7a be a5 4c a2 3d 60 e2 75 3d
       0.06131652 -0.24460794 0.07924775 0.06003034
0001f0 b1 b7 40 bc 26 93 d7 bd cb 6d 1b 3e a8 0a db bd
       -0.011762545 -0.10526113 0.15178601 -0.10695392
000200 41 55 90 bd 1d de 93 bd 58 51 4f 3e 3f 51 a7 bd
       -0.07047511 -0.07220099 0.20245874 -0.08169793
000210 3a 93 c9 3c 1e 5e b9 3e 4f 1f 0c 3e 0b b7 9b 3d
       0.024606336 0.36204618 0.13683818 0.07603272
000220 fd 62 67 be a4 70 4d 3d 24 ea 98 bc 01 fa df bb
       -0.22596355 0.05015625 -0.018666334 -0.0068352227
000230 92 08 9b 3c e2 26 08 3d 5a 45 ac bd 90 27 5f 3e
       0.018924985 0.033240207 -0.08411665 0.21792436
000240 c0 99 90 bc 95 cd 87 bd 4a e1 66 3d 73 6d 81 bd
       -0.017651439 -0.066310085 0.056367196 -0.06319704
000250 b9 c4 37 3d 32 cd f3 3d 32 ff b4 bd 66 b9 10 3e
       0.044865344 0.11904372 -0.08837737 0.14133224
000260 4e 41 3a 3e 33 c3 6e 3c 7f 65 57 3e 08 05 84 bd
       0.18188974 0.014572906 0.21034811 -0.06446272
000270 55 8c a2 3e 5b 42 58 3d 3a a2 dc 3d c5 2f d1 3d
       0.3174769 0.052797657 0.1077313 0.102141894
000280 fe b4 a6 3c c4 f0 28 3e d7 69 8f bd 77 94 cf 3b
       0.020349976 0.16498095 -0.07002609 0.006334837
000290 ed c3 4b be ee a6 e6 3c ea bb a4 3d ff 77 a3 3e
       -0.19898959 0.02815577 0.08043654 0.31927487
0002a0 38 de 33 3d 1a 77 43 3e fd c9 67 3e a0 20 85 bc
       0.043913096 0.19088402 0.22635646 -0.016250908
0002b0 93 e7 67 3d eb e3 a9 bc 63 2d 9a be 18 25 7d 3c
       0.05661733 -0.020738563 -0.30112752 0.015450738
0002c0 fc 46 11 3e 2c 0c 3d 3e 55 2c 75 3d 2d 4e 10 3e
       0.14187235 0.18461674 0.05985673 0.14092322
0002d0 f8 b1 d2 3d 60 eb 04 bd 41 5d fb 3d 77 f0 af be
       0.10287851 -0.032451034 0.12273646 -0.34363148
0002e0 9b 3f 5f 3e f3 98 ee bc 09 d3 ab 3d 6e 9f 35 bd
       0.21801607 -0.029125666 0.08389861 -0.044341497
0002f0 14 78 86 3d 82 6c 02 3d be 35 6b be 65 6f 36 bd
       0.06565872 0.031841762 -0.2296972 -0.044539828
000300 ce 9c 8f be 47 14 f4 bd 47 e5 7a bb de d5 24 bd
       -0.2804932 -0.1191793 -0.0038283633 -0.040243022
000310 b5 bd d1 3c e9 bc da bd 4f 0f 40 3e 7c bb 8e 3e
       0.025603155 -0.10680563 0.1875584 0.27877414
000320 be af 2a 3d 7a 59 5d 3d dc fd 00 3e da 26 e9 bd
       0.041671507 0.05404041 0.1259684 -0.113843635
000330 69 a9 48 bd ce c0 f0 3d 49 88 46 be 58 56 d0 3d
       -0.048989687 0.117555246 -0.19387926 0.10172719
000340 31 d8 2e be 20 e9 c0 bc 09 84 96 bd e4 8e c7 3d
       -0.17074658 -0.023548663 -0.073494025 0.09744051
000350 51 c1 6b be 7e ae 8b bd c2 32 e1 bd 8a 82 bc bc
       -0.23022963 -0.06820391 -0.109960094 -0.023011465
000360 8e 7c ff bc b5 64 12 3e 8e 35 11 be 42 dc 31 3e
       -0.031187322 0.14296229 -0.14180586 0.17369178
000370 22 49 24 bc 69 ff 7f be 78 78 c4 bd a2 65 ab b9
       -0.010027202 -0.24999775 -0.0959329 -0.00032691384
000380 f4 02 18 3d ce b9 ec bd 00 c6 78 bd cb 29 bb 3d
       0.03711219 -0.11558877 -0.060735703 0.09138831
000390 e4 8d a5 bd 4d 3a 80 3b 44 a3 97 3b 27 25 7f 3d
       -0.08083704 0.0039132 0.004627617 0.06229129
0003a0 b0 43 14 bd 93 37 91 bc 76 36 eb bd 74 f4 1a bc
       -0.036197364 -0.017726695 -0.11484997 -0.009457696
0003b0 45 ef ba bd 45 17 a2 bd ae 20 09 bd ec 23 12 be
       -0.09127668 -0.079145946 -0.03347843 -0.14271516
0003c0 58 7e c6 bd f5 94 34 3e c9 5e b5 bb ba 21 79 bd
       -0.09692067 0.17634948 -0.005534981 -0.06082318
0003d0 fe 5e 77 bd 1c a7 8e 3d fa 92 3e 3d fb db d5 bd
       -0.060393326 0.06965467 0.046526887 -0.104423486
0003e0 68 a7 68 39 e4 f0 9f bd ad 2c 92 bc 45 62 d3 3d
       0.00022187608 -0.07809618 -0.017843569 0.10321478
0003f0 0c 23 c9 bd 6d 08 a8 3c 4d fc 26 3d 0c 2b 92 3d
       -0.09821138 0.02051183 0.040767957 0.07137117

bias f4 [100]
000000 f8 c1 3f 3c 96 3d 1e be 55 a4 19 bd 7a 35 86 3c
       0.011703961 -0.1545318 -0.037510235 0.016382921
000010 6d 87 f4 bc cf 35 ca bc b9 ae ad bc 69 75 0c 3c
       -0.029849732 -0.024683861 -0.021201478 0.008572915
000020 97 07 85 ba 4b 9e 24 bc d0 33 ce bb 18 20 b7 bb
       -0.0010149357 -0.010047506 -0.0062927976 -0.0055885427
000030 e5 e7 a8 3b c7 61 d6 3b 15 18 63 bb 62 72 0b 3c
       0.005154597 0.0065424177 -0.0034651805 0.008511158
000040 3a 1f 71 3b 0e f3 f5 3b 66 b0 21 bb 2d db 96 3b
       0.0036792294 0.007505781 -0.0024671792 0.0046037645
000050 76 8e 89 39 df a7 8c 3b 29 e9 85 b9 a5 a8 48 3b
       0.00026236818 0.0042924727 -0.00025541455 0.0030618098
000060 dc 7c 8d ba 76 09 88 ba f7 9f 9c 3a c7 fd 10 bb
       -0.0010794657 -0.0010378796 0.0011949529 -0.002212392
000070 0d 04 26 b8 9d d2 6f 3a b9 66 f0 ba 54 21 86 3a
       -3.9581257e-05 0.000914851 -0.0018341161 0.0010233321
000080 fe d9 ba ba 7c e3 34 3a 6e e4 07 ba a9 00 1f bb
       -0.001425564 0.0006900353 -0.000518388 -0.0024261868
000090 80 bb 9a 3a 5d bc c9 ba 64 33 52 ba 65 29 99 b8
       0.0011805147 -0.001539122 -0.0008018522 -7.303319e-05
0000a0 be b2 db b6 7f 39 55 ba 9b 52 f4 b9 55 cc a7 b9
       -6.547517e-06 -0.0008133873 -0.00046600853 -0.0003200496
0000b0 27 fa 8a ba d5 7a d3 ba c8 1f eb b9 83 8f 56 38
       -0.0010603116 -0.0016134629 -0.00044846372 5.115523e-05
0000c0 c7 66 03 39 41 72 3a ba 2e 80 9c ba 44 c4 45 ba
       0.00012531421 -0.0007112362 -0.0011940056 -0.00075441995
0000d0 96 b7 92 39 ab c7 cb b9 18 53 2c b9 27 6c 41 3a
       0.00027984072 -0.00038867941 -0.00016434153 0.00073784817
0000e0 0a d8 d7 b9 a7 80 9f 39 82 c3 72 b9 39 2c 0c 37
       -0.00041168957 0.00030422697 -0.00023151751 8.354947e-06
0000f0 98 cb d4 38 e6 b5 a2 b8 91 c5 8a b9 dd 65 de 39
       0.0001014687 -7.758643e-05 -0.0002646861 0.00042419034
000100 52 db fb b9 ae 93 2b 39 15 17 b9 39 0c bf e0 39
       -0.00048037857 0.00016362846 0.00035303147 0.0004286695
000110 ac 83 25 38 bd 02 4e ba b6 41 f3 38 44 cf 34 ba
       3.9461695e-05 -0.00078586844 0.000115993826 -0.000689734
000120 e7 2e 98 b9 7d 4a 14 b8 a7 cd 20 3a 6d 01 59 39
       -0.00029026644 -3.5355322e-05 0.000613416 0.00020695264
000130 54 c0 2b 39 b3 f8 b0 b9 8a 5a 72 b9 7c 17 1c b8
       0.00016379479 -0.0003375463 -0.00023112647 -3.721517e-05
000140 4b 8c 0f 39 8e 35 2c b9 8f 46 2c 3a 45 a4 ce 38
       0.00013689806 -0.00016423149 0.00065717933 9.853443e-05
000150 3b fa 91 39 41 19 74 b9 25 13 f7 b8 75 41 d0 b9
       0.0002784299 -0.00023279061 -0.00011781444 -0.0003972162
000160 be c6 21 39 13 91 b9 37 4a e3 c3 38 57 11 d7 b8
       0.00015428194 2.2121274e-05 9.3406605e-05 -0.00010255229
000170 ca 69 0b 3a 5f 38 49 b9 b1 3a 14 b8 8a 36 b6 38
       0.0005318193 -0.00019189854 -3.534061e-05 8.688595e-05
000180 ca e1 99 39 ea 61 d8 38 ac ad 19 b7 26 d0 33 b9
       0.0002935066 0.000103179205 -9.159947e-06 -0.00017148312
