Results/Nodes_4096/model_weights.pth (torch, 127624 bytes, 8 tensors)

weight f4 [100, 2]
-0.6651654 0.32442054 -0.32119018 -0.3667477 0.16893873 -0.36901218 -0.3267962 -0.23825958
-0.50030667 -0.62891436 -0.1906967 0.18375991 -0.57220346 -0.4279978 -0.32189566 -0.23324113
0.054749258 -0.28036696 -0.11020863 0.06715971 0.061102416 -0.98933357 -0.59875286 -0.93637305
-0.44746524 0.39384636 -0.34122953 0.065834045 -0.64759654 -0.124748304 -0.42769912 0.353477
-0.63807017 -0.5059624 -0.946424 -0.32958314 0.33504528 0.00816695 -0.71077365 -0.32317823
-0.07753317 -0.5692734 0.55443615 0.011399036 -0.08200953 -0.5160956 -0.6604141 -0.21275869
0.2614251 0.15860264 -0.57038695 0.45654476 -0.10408923 -0.43304285 -0.66398734 0.36369842
-0.3303583 -0.42582214 -0.5262978 -0.4166976 -0.5955455 -0.56192607 0.083443575 0.27476937
0.44863957 -0.73663044 0.148774 -0.6704645 0.08658895 0.17604609 0.31665227 0.27884364
0.4423471 0.013762885 0.32490313 -0.25298223 0.077954 -0.45696473 -0.3457872 -0.40383786
-0.5108529 -0.6982422 -0.23852183 -0.45154884 -0.6360031 0.046044335 0.12551673 0.3113219
0.4126351 -0.36651987 -0.9309327 0.036818128 0.16736142 -0.8355935 0.25355864 0.5978427
0.042834096 -0.4260027 0.5797401 0.30194584 0.23328072 -0.71228874 0.0824336 -0.25676274
0.6996781 -0.29960096 0.19652663 -0.08765989 0.5279306 -0.033829253 0.29043376 -0.29470223
-0.99668556 -0.6018689 0.253805 -0.4862125 -0.0118970005 -0.4950603 0.19814049 0.09165731
0.24961834 -0.36144587 -0.8047661 -0.20036498 -0.6480594 0.24846849 -0.67951244 0.3159836
0.70492464 0.35413915 0.011142969 -0.90978754 0.34690616 -0.4539471 -0.66072655 0.6980295
-0.6206632 -0.38219592 0.41607904 -0.72070545 -0.50027096 0.11498781 -0.32304987 -0.06496117
-0.8260909 -0.21114379 -0.3144926 -0.34761995 -0.97781783 0.044480346 0.13621457 -0.5978187
0.2255515 -0.12110313 -0.20529477 -0.7507104 -0.12237984 0.45272055 0.15560229 -0.8800486
0.41814703 -0.172777 0.3400937 0.5491931 0.9537405 -0.5079862 0.2895282 -0.81726885
0.05300902 -0.49410048 -0.15502134 -0.03213284 -0.42111522 -0.44711438 -0.27722928 0.36468467
0.4108372 0.39560497 -0.047273114 0.21749568 -0.3643139 -0.2747689 -0.08880594 -0.8495346
-0.7981371 -0.14246628 -0.61105084 -0.34624338 -0.16225187 0.1100702 0.22624958 -0.46742052
0.230014 0.22298041 -0.54270315 -0.5460464 -0.5721023 -0.3875088 -0.6034481 -0.2813761
00000000: 4848 2abf 731a a63e 0a73 a4be 5bc6 bbbe
00000010: 46fe 2c3e 2aef bcbe d551 a7be 52fa 73be
00000020: 1914 00bf 8800 21bf ff45 43be 8f2b 3c3e
00000030: ed7b 12bf 8722 dbbe 82cf a4be c3d6 6ebe
00000040: c240 603d 428c 8fbe 10b5 e1bd 088b 893d
00000050: 8746 7a3d f744 7dbf de47 19bf 25b6 6fbf
00000060: 2a1a e5be 3ba6 c93e a3b5 aebe 00d4 863d
00000070: e3c8 25bf 0a7c ffbd 61fb dabe f0fa b43e
00000080: 9158 23bf c086 01bf d848 72bf 1fbf a8be
00000090: 0e8b ab3e acce 053c 43f5 35bf 9e77 a5be
000000a0: b6c9 9ebd e7bb 11bf 87ef 0d3f 06c3 3a3c
000000b0: 9df4 a7bd d71e 04bf e610 29bf 6add 59be
000000c0: 83d9 853e bb68 223e e104 12bf 3cc0 e93e
000000d0: bc2c d5bd cbb7 ddbe 13fb 29bf ae36 ba3e
000000e0: b924 a9be 5c05 dabe 74bb 06bf 6359 d5be
000000f0: ab75 18bf 63da 0fbf 77e4 aa3d 92ae 8c3e
00000100: 16b4 e53e d093 3cbf 3658 183e 90a3 2bbf
00000110: 8c55 b13d 6d45 343e 3f20 a23e 98c4 8e3e
00000120: 527b e23e b97d 613c b459 a63e e386 81be
00000130: 59a6 9f3d 48f7 e9be 050b b1be d6c3 cebe
00000140: 41c7 02bf 00c0 32bf 113f 74be 6931 e7be
00000150: 19d1 22bf fc98 3c3d 7587 003e 9665 9f3e
00000160: e844 d33e 7ea8 bbbe 9b51 6ebf 9bce 163d
00000170: cb60 2b3e 75e9 55bf 70d2 813e 380c 193f
00000180: ce72 2f3d 071d dabe d969 143f a598 9a3e
00000190: 24e1 6e3e 8e58 36bf f3d2 a83d 6876 83be
000001a0: 1b1e 333f 4c65 99be 473e 493e 0787 b3bd
000001b0: 7626 073f 8b90 0abd bcb3 943e 36e3 96be
000001c0: c926 7fbf 1514 1abf bbf2 813e d8f0 f8be
000001d0: a3eb 42bc 8b78 fdbe 57e5 4a3e d4b6 bb3d
000001e0: f39b 7f3e 6f0f b9be 2705 4ebf 7a2c 4dbe
000001f0: 39e7 25bf 866e 7e3e 87f4 2dbf 9ac8 a13e
00000200: f175 343f ba51 b53e 0091 363c d6e7 68bf
00000210: af9d b13e c16b e8be 6025 29bf 10b2 323f
00000220: c9e3 1ebf 2faf c3be 5008 d53e 2780 38bf
00000230: c211 00bf bb7e eb3d cb66 a5be 5d0a 85bd
00000240: b17a 53bf 1436 58be 2d05 a1be 3efb b1be
00000250: 4552 7abf 0631 363d d57b 0b3e a50a 19bf
00000260: f9f6 663e eb04 f8bd cb38 52be 8f2e 40bf
00000270: 48a2 fabd fdca e73e 3556 1f3e dd4a 61bf
00000280: 5e17 d63e 74ec 30be c320 ae3e eb97 0c3f
00000290: 5628 743f 620b 02bf 0a3d 943e 8838 51bf
000002a0: fc1f 593d bdfa fcbe eabd 1ebe ba9d 03bd
000002b0: 6a9c d7be 2dec e4be fff0 8dbe f3b7 ba3e
000002c0: 4159 d23e bc8c ca3e 74a1 41bd 30b7 5e3e
000002d0: 5a87 babe 82ae 8cbe e3df b5bd 197b 59bf
000002e0: b752 4cbf aee2 11be d46d 1cbf d046 b1be
000002f0: 5b25 26be 7c6c e13d f8ad 673e be51 efbe
00000300: ca88 6b3e fa54 643e 98ee 0abf b2c9 0bbf
00000310: 4c75 12bf 8e67 c6be 937b 1abf 8710 90be

bias f4 [100]
-0.17196284 -0.35726467 -0.22464329 -0.255792 0.45947292 -0.26207414 -0.50628906 -0.03809576
-0.3782033 0.20593032 0.11057021 0.32076114 -0.51785636 0.21936482 0.36135665 -0.3491916
0.3211242 0.19740874 -0.32782987 0.0076141837 -0.24721976 -0.61672705 -0.051905353 -0.11870985
-0.46213597 0.113613605 -0.6040266 0.275611 0.35456687 -0.039215278 -0.44365913 0.013865069
-0.10523243 -0.040844075 -0.10243011 0.30810928 -0.30393988 -0.15906018 -0.036921483 -0.25887692
0.24435535 -0.3713997 -0.02575046 -0.20101838 -0.18779978 0.25085104 -0.15141822 -0.6535293
-0.076605015 -0.32071316 -0.16590947 -0.41138506 -0.7014034 -0.35798097 0.25598845 -0.20851058
0.31970745 -0.45455483 0.22052298 -0.15660231 -0.59689224 -0.060821705 0.25316706 -0.462519
-0.4570561 0.46235946 0.23555683 -0.39449063 0.09285008 -0.32138464 -0.6971573 -0.17515017
-0.0043950593 -0.21210435 -0.084573284 -0.60464764 0.15488143 0.26681495 0.16093725 -0.20941798
0.005596384 -0.5116256 0.17153819 -0.3973822 -0.3934951 -0.52228326 0.13966535 0.14762884
-0.64218605 -0.10502597 -0.043779414 0.43753308 0.18059607 0.3160006 -0.23149948 0.26175982
0.23955038 -0.66774076 -0.56759936 -0.18528388
00000000: 0717 30be 65eb b6be e408 66be 2bf7 82be
00000010: 0940 eb3e 952e 86be 299c 01bf 4d0a 1cbd
00000020: dda3 c1be 66df 523e a272 e23d ce3a a43e
00000030: 3c92 04bf 2ca1 603e bd03 b93e 3ec9 b2be
00000040: 646a a43e 8425 4a3e 51d9 a7be 6780 f93b
00000050: 2d27 7dbe d3e1 1dbf b59a 54bd 261e f3bd
00000060: 169d ecbe 40ae e83d 7da1 1abf e31c 8d3e
00000070: ca89 b53e 33a0 20bd 4a27 e3be 502a 633c
00000080: 1a84 d7bd 1e4c 27bd e1c6 d1bd 80c0 9d3e
00000090: 029e 9bbe ace0 22be fb3a 17bd 848b 84be
000000a0: 4a38 7a3e 1a28 bebe a1f2 d2bc c3d7 4dbe
000000b0: 964e 40be 8c6f 803e 610d 1bbe b24d 27bf
000000c0: 17e3 9cbd 8434 a4be 2ce4 29be 10a1 d2be
000000d0: 2c8f 33bf 4849 b7be eb10 833e cc83 55be
000000e0: b2b0 a33e 69bb e8be c7d0 613e 5b5c 20be
000000f0: eecd 18bf 2e20 79bd 1d9f 813e 4acf ecbe
00000100: 4203 eabe 61ba ec3e cf35 713e adfa c9be
00000110: 2f28 be3d 878c a4be e778 32bf 915a 33be
00000120: 6e04 90bb e231 59be c234 adbd 30ca 1abf
00000130: 3d99 1e3e f89b 883e bccc 243e ab71 56be
00000140: df61 b73b e5f9 02bf b5a7 2f3e ae75 cbbe
00000150: 3178 c9be 5bb4 05bf 6f04 0f3e 042c 173e
00000160: 4e66 24bf db17 d7bd 0b52 33bd 5604 e03e
00000170: 2dee 383e d5ca a13e 330e 6dbe 6205 863e
00000180: b24c 753e 0ff1 2abf 314e 11bf 0fbb 3dbe

weight f4 [100, 100]
0.05460378 -0.049681306 0.011013448 -0.00014517308 -0.2104959 -0.05373496 0.0564039 -0.16805263
-0.2940999 -0.23464759 -0.23523636 -0.20339738 0.093158446 -0.20626108 -0.2583591 0.08981329
-0.27355254 -0.2639612 -0.22625647 -0.31013697 0.010881734 -0.06784755 -0.2246478 -0.22147302
0.0138420705 -0.31954053 -0.09497843 -0.18943365 -0.14993793 -0.32280615 0.037039425 -0.30898017
-0.22907 -0.14224891 -0.15912327 -0.3090237 0.06185719 0.052231718 -0.2353832 -0.12540472
-0.27512264 -0.023271585 -0.050541412 -0.22006509 0.026478672 -0.22729625 -0.29075655 -0.045016646
0.03401525 -0.08768264 -0.25025657 -0.22689143 -0.040516388 -0.194086 -0.347654 0.07020646
-0.24413016 0.2350343 -0.16508757 -0.2208492 -0.028639818 -0.2982991 -0.21198227 -0.095375255
0.026337778 -0.18652299 -0.323555 -0.06546724 -0.3067255 -0.1485878 0.08501207 -0.22644839
-0.13983767 -0.033430398 -0.32809797 0.03492949 -0.20027316 -0.13761573 -0.23563023 -0.15646555
-0.17433798 0.072376885 -0.39234853 -0.14348057 -0.08524529 0.08965111 -0.23940003 -0.32404512
0.027809275 -0.2551068 -0.3242048 -0.27217937 -0.22482394 -0.15763782 -0.030742968 -0.17647815
-0.22326416 0.0033707859 0.019134497 -0.29341286 -0.083119825 -0.031421162 -0.0931854 -0.046635058
-0.3106866 -0.06586093 -0.0414796 -0.017968643 -0.011520338 -0.37049216 0.0048051 -0.014036047
0.02859956 -0.3107382 -0.36522546 -0.034428395 -0.31611472 -0.06239853 0.007828498 -0.0070605758
0.038797855 0.023666574 0.074838355 -0.0032965422 -0.07389052 -0.27046442 -0.06758379 -0.32906246
-0.34764817 -0.037944447 -0.03699839 -0.2232359 0.057245683 0.02771374 0.09389567 -0.40601906
0.016136754 0.064017646 0.066429 -0.07958537 0.035588957 -0.056968596 -0.0039073825 -0.020867025
-0.08349645 -0.41040915 -0.0657898 0.045377053 0.04574355 -0.08697637 -0.03755423 0.0016334414
-0.08645826 0.05634545 -0.22478557 0.017686177 -0.07430148 0.023318637 -0.2787969 0.07918431
-0.05320699 -0.08959098 -0.2713411 0.006225634 -0.03258264 -0.35721672 -0.36684138 0.0809497
-0.017253911 0.072120704 0.08926497 0.012667608 0.02130176 -0.0068104747 0.06868154 -0.09010879
-0.2754895 -0.33099228 -0.26966667 -0.00044540167 -0.35186332 -0.010794997 -0.26125747 -0.06945299
-0.06320991 -0.02239964 -0.036272455 -0.27599174 0.06729698 -0.0107098585 0.09455738 -0.35707322
-0.36560634 -0.3599046 -0.06889724 -0.38537118 -0.4044717 -0.08862793 0.02609986 0.060985398
0.09388473 0.08517974 -0.0057593705 0.019404663 -0.3601067 0.03865211 -0.09588411 -0.2531068
-0.28190017 -0.26954424 -0.2636597 -0.34618512 0.08581064 -0.2525492 -0.23458503 0.013207853
-0.23747592 -0.23297423 -0.25494933 -0.22409695 -0.018137788 0.06575362 -0.27723336 -0.2401032
0.09739985 -0.2776305 -0.037116695 -0.31022432 -0.27212197 -0.28341123 -0.027317012 -0.22192258
-0.24019258 -0.36238906 -0.3084224 -0.30987415 -0.062673084 0.014585495 -0.33097294 -0.35188788
-0.33242932 -0.035654854 0.095664 -0.2619167 0.09841132 -0.2728548 -0.27762827 0.04110936
0.017163252 -0.078477144 -0.35940734 -0.3243891 0.0015033245 -0.26122072 0.038504828 0.07933134
00000000: 37a8 5f3d a07e 4bbd c071 343c 9a39 18b9
00000010: 3d8c 57be 3019 5cbd c707 673d fd15 2cbe
00000020: 4394 96be 7547 70be cde1 70be 6747 50be
00000030: dbc9 be3d 1b36 53be a547 84be 08f0 b73d
00000040: 140f 8cbe ec25 87be c7af 67be 46ca 9ebe
00000050: 4d49 323c a8f3 8abd 130a 66be d3c9 62be
00000060: dac9 623c d19a a3be 0d84 c2bd e5fa 41be
00000070: 5489 19be d946 a5be a7b6 173d a632 9ebe
00000080: 5391 6abe b3a9 11be 36f1 22be 5b38 9ebe
00000090: f75d 7d3d edf0 553d 4b08 71be 186a 00be
000000a0: e0dc 8cbe 0da4 bebc 8304 4fbd be58 61be
000000b0: cde9 d83c 59c0 68be 0bde 94be 6063 38bd
000000c0: 9353 0b3d f592 b3bd a121 80be 3a56 68be
000000d0: 83f4 25bd 7bbe 46be b5ff b1be 68c8 8f3d
000000e0: 42fd 79be d5ac 703e b70c 29be 4b26 62be
000000f0: 0d9e eabc a9ba 98be e111 59be 1a54 c3bd
00000100: 53c2 d73c e2ff 3ebe 00a9 a5be b013 86bd
00000110: 200b 9dbe 6627 18be cf1a ae3d 16e2 67be
00000120: 9b31 0fbe 50ee 08bd 75fc a7be 3a12 0f3d
00000130: 6814 4dbe 23eb 0cbe 0d49 71be 8138 20be
00000140: a885 32be 553a 943d e8e1 c8be 92ec 12be
00000150: 1595 aebd 009b b73d 4825 75be 3ee9 a5be
00000160: 47d0 e33c 5c9d 82be 2cfe a5be 185b 8bbe
00000170: 3f38 66be cf6b 21be add8 fbbc b0b6 34be
00000180: 5c9f 64be 67e8 5c3b f3bf 9c3c 363a 96be
00000190: ba3a aabd 7ab3 00bd fdd7 bebd 6704 3fbd
000001a0: 5012 9fbe 18e2 86bd 83e6 29bd fa32 93bc
000001b0: cdbf 3cbc 26b1 bdbe 1a74 9d3b 73f7 65bc
000001c0: a049 ea3c 1419 9fbe d5fe babe ca04 0dbd
000001d0: cad9 a1be 9a95 7fbd 1a43 003c 675c e7bb
000001e0: 80ea 1e3d 67e0 c13c da44 993d cd0a 58bb
000001f0: ea53 97bd 507a 8abe 5f69 8abd e07a a8be
00000200: f1fe b1be a36b 1bbd a08b 17bd f497 64be
00000210: 737a 6a3d ed07 e33c 5f4c c03d bbe1 cfbe
00000220: 3a31 843c af1b 833d ed0b 883d a8fd a2bd
00000230: bac5 113d e757 69bd 8009 80bb 53f1 aabc
00000240: 3000 abbd 2621 d2be cdbc 86bd 4add 393d
00000250: 975d 3b3d ab20 b2bd 77d2 19bd 3319 d63a
00000260: 0711 b1bd 7dca 663d 302e 66be 9ae2 903c
00000270: 602b 98bd ba06 bf3c 78be 8ebe 622b a23d
00000280: 93ef 59bd 7a7b b7bd 38ed 8abe 6700 cc3b
00000290: 6075 05bd 1ce5 b6be a2d2 bbbe f5c8 a53d
000002a0: 1358 8dbc 05b4 933d 8dd0 b63d cd8b 4f3c
000002b0: 0781 ae3c 672a dfbb e8a8 8c3d f58a b8bd
000002c0: f60c 8dbe d277 a9be c011 8abe cd84 e9b9
000002d0: 6e27 b4be 80dd 30bc 8ac3 85be 5f3d 8ebd
000002e0: 3374 81bd 737f b7bc 6d92 14bd ca4e 8dbe
000002f0: 00d3 893d 6778 2fbc 4da7 c13d 4dd2 b6be
00000300: c130 bbbe 6a45 b8be ff19 8dbd 5f4f c5be
00000310: ea16 cfbe 8f82 b5bd 60cf d53c d3cb 793d
00000320: a346 c03d b772 ae3d 1ab9 bcbb 87f6 9e3c
00000330: e85f b8be ad51 1e3d e35e c4bd 3797 81be
00000340: 3855 90be b401 8abe 67fe 86be 2d3f b1be
00000350: 7dbd af3d 214e 81be 0f37 70be c065 583c
00000360: e32c 73be cc90 6ebe b888 82be ac79 65be
00000370: b395 94bc d5a9 863d 88f1 8dbe 9ddd 75be
00000380: 9379 c73d 9625 8ebe ad07 18bd b9d5 9ebe
00000390: 9253 8bbe 471b 91be edc7 dfbc ac3f 63be
000003a0: 0bf5 75be 0f8b b9be 8ae9 9dbe d3a7 9ebe
000003b0: bf5a 80bd 00f8 6e3c 4975 a9be a62a b4be
000003c0: 2d34 aabe d30a 12bd 7deb c33d f219 86be
000003d0: e08b c93d a0b3 8bbe 4b25 8ebe 4a62 283d
000003e0: f399 8c3c a0b8 a0bd 3d04 b8be 5416 a6be
000003f0: 330b c53a b9be 85be 3db7 1d3d 7878 a23d

bias f4 [100]
-0.29662722 -0.24122243 -0.22887333 0.07181859 0.027423585 -0.2367868 -0.0018427729 -0.05297047
-0.20211352 -0.043160703 -0.004086892 -0.051320877 -0.04234847 -0.33737788 -0.2623219 -0.18130143
0.031090094 -0.26374158 -0.008420661 -0.22890255 -0.042829406 -0.07401215 -0.1632721 -0.09070219
-0.07718358 -0.38230565 -0.29223827 -0.0676682 -0.29724407 -0.04380716 -0.18014102 -0.08914107
-0.07547845 -0.3924668 -0.08812159 -0.20538607 -0.36950108 -0.3221229 -0.3512926 -0.02694354
-0.31980997 0.06366088 -0.34455565 -0.28953305 0.05685066 -0.2093745 -0.2188794 -0.2558726
-0.17559727 -0.05188141 -0.31006378 -0.28898558 -0.29252425 -0.31488097 -0.25247115 -0.23155798
-0.13394058 -0.034325637 -0.30534726 -0.09441745 -0.19426492 -0.28644234 -0.09320146 -0.22069
-0.03835702 -0.36072516 0.05901885 -0.060224153 -0.25034186 -0.21518593 -0.23770869 -0.040386558
-0.1799884 -0.068279706 -0.21939589 -0.016602147 -0.41272667 -0.21786669 -0.20980209 -0.3287671
-0.22724931 -0.22038487 -0.07208007 -0.07386609 -0.2151035 -0.20868826 -0.24046084 -0.20362182
-0.06608047 -0.052834153 -0.03757676 -0.05551622 -0.27178714 -0.2641267 -0.2859386 -0.17546266
-0.33076313 -0.21489434 -0.23891868 -0.23712875
00000000: 86df 97be 0303 77be c55d 6abe a015 933d
00000010: 6da7 e03c 3d78 72be 3389 f1ba 90f7 58bd
00000020: d9f6 4ebe 47c9 30bd 56eb 85bb d735 52bd
00000030: 9775 2dbd cbbc acbe 0e4f 86be 15a7 39be
00000040: a7b0 fe3c 2309 87be d0f6 09bc 6e65 6abe
00000050: e36d 2fbd af93 97bd cd30 27be 12c2 b9bd
00000060: 6d12 9ebd 91bd c3be 41a0 95be a095 8abd
00000070: 6030 98be 236f 33bd e376 38be 988f b6bd
00000080: 7294 9abd 69f1 c8be 1879 b4bd ba50 52be
00000090: 3f2f bdbe 4bed a4be a0dc b3be b3b8 dcbc
000000a0: 22be a3be a360 823d 9969 b0be ad3d 94be
000000b0: 3ddc 683d 4566 56be ec21 60be bc01 83be
000000c0: c5cf 33be 9a81 54bd aec0 9ebe ebf5 93be
000000d0: bdc5 95be 1438 a1be e643 81be 891d 6dbe
000000e0: b827 09be 0a99 0cbd 7a56 9cbe f05d c1bd
000000f0: 62ed 46be 92a8 92be 68e0 bebd 8ffc 61be
00000100: 401c 1dbd f8b0 b8be c0bd 713d 9aad 76bd
00000110: cf2c 80be b359 5cbe e869 73be 606c 25bd
00000120: e14e 38be 3bd6 8bbd 51a9 60be 3a01 88bc
00000130: e950 d3be 7218 5fbe 5cd6 56be 2954 a8be
00000140: 0bb4 68be 92ac 61be b79e 93bd 1b47 97bd
00000150: 1844 5cbe 60b2 55be 5e3b 76be 3d82 50be
00000160: 3355 87bd a068 58bd 17ea 19bd fa64 63bd
00000170: af27 8bbe 9d3b 87be 8b66 92be 7cac 33be
00000180: c959 a9be 430d 5cbe 19a7 74be e1d1 72be

weight f4 [100, 100]
0.07726403 -0.005357671 0.09424181 0.052868377 -0.061203945 0.0072169066 -0.048645712 0.018924642
-0.06038773 -0.03715513 -0.041165795 -0.096899346 0.091821864 -0.034234323 -0.030637741 -0.002077055
0.0017598987 -0.08398955 0.027819837 -0.062341597 -0.0794205 -0.06002877 -0.07797968 0.07834019
0.0382357 0.087628 -0.080473475 -0.07938649 0.03967017 -0.046813644 -0.030647898 -0.058752444
-0.08414084 -0.058910478 -0.062884115 0.051234234 -0.0026394248 0.062491477 0.086938895 0.06603994
-0.08139127 0.058614638 0.056952845 -0.04529046 -0.021062255 0.033612825 -0.010213423 -0.061161816
-0.017720962 -0.027593745 0.0611781 0.043562055 0.06251349 -0.004231417 -0.0910358 0.09763398
0.003092611 0.04264721 -0.05671307 -0.004952586 0.026692808 -0.040671684 -0.05537776 0.028105749
0.08029117 0.07802325 0.034044087 0.008514655 0.044947065 -0.031237556 0.077119105 0.052763354
-0.09970957 0.091181636 0.004706359 -0.0756099 -0.038265657 0.09712893 -0.083488934 0.025019312
-0.033633232 -0.08213712 0.038637485 0.05825994 0.09830611 -0.08157873 0.048907068 0.07116639
-0.0024591447 0.07714963 0.091290295 -0.08098465 0.050246228 0.02383095 0.011314548 0.07371896
0.0053691864 -0.037242483 0.085399546 0.057944942 0.048509896 -0.026922822 -0.083411574 -0.013940967
-0.018731678 -0.020108199 -0.05103407 0.07180426 -0.01663673 -0.09795871 -0.06411647 -0.09893018
0.055339087 -0.011472953 -0.050970126 -0.07669213 0.048733678 -0.086428955 -0.09095446 -0.009010673
0.059709217 -0.07896328 -0.06474008 0.032240022 -0.09714319 0.06644374 0.053456616 0.048801612
0.08512044 0.08687492 -0.046187103 0.056489658 0.0546072 0.045274734 -0.027295267 -0.05502812
-0.06492137 0.021460056 -0.0027397515 0.005062008 0.089563325 -0.08125158 0.02313367 0.01799866
-0.0044323923 0.06620043 0.06492163 -0.067326464 0.017781556 -0.060178805 -0.05529387 -0.08354688
0.03728336 -0.010228527 -0.063516416 -0.019855594 -0.0073740007 0.0377828 0.08509796 -0.06639768
-0.006249118 0.09679276 0.06594088 0.046093583 -0.03009509 0.017432367 0.0067975163 0.0014686466
0.06525999 -0.03406472 -0.024647797 0.069698535 0.025377572 -0.09494326 -0.01961037 0.06746284
0.06059703 0.066735364 -0.05860224 -0.07471956 0.031939078 0.07674183 0.08174884 0.038421024
0.059031297 -0.06902968 0.024036253 -0.010305357 -0.00111686 0.047226466 -0.0749134 0.009646356
-0.03503566 0.050187554 -0.08928752 -0.055164743 -0.07142892 0.07488566 0.062234223 0.082922734
-0.20153102 0.030464137 -0.28750435 0.027936136 0.016041387 0.0119408965 -0.075475745 0.076936364
0.23250031 0.06975927 0.04587703 0.02592503 0.037461948 0.32218596 -0.33522803 -0.35336724
-0.050823953 -0.060199965 0.045563545 -0.2928167 -0.0010293722 0.026771689 -0.2078968 -0.0077479007
-0.04801443 -0.37279227 -0.21763892 -0.08836203 -0.25147146 0.0875175 -0.24674301 -0.0007716179
-0.012986243 0.36319056 -0.05317347 -0.2648971 -0.3311724 -0.24756055 -0.32240778 -0.0667364
-0.03818574 0.058808673 -0.2637622 -0.3708682 -0.065025605 -0.32015273 -0.30981627 -0.3283295
0.067233935 0.006941724 -0.32698226 -0.30596077 -0.25446638 0.22957255 -0.398525 -0.08033364
00000000: 9b3c 9e3d 678f afbb da01 c13d 838c 583d
00000010: fdb0 7abd cd7b ec3b ba40 47bd da07 9b3c
00000020: 2059 77bd fa2f 18bd 779d 28bd 2a73 c6bd
00000030: 1a0d bc3d 4a39 0cbd 00fc fabc 331f 08bb
00000040: 67ac e63a b702 acbd 6de6 e33c e759 7fbd
00000050: 37a7 a2bd bae0 75bd cfb3 9fbd d270 a03d
00000060: 0a9d 1c3d 4f76 b33d 47cf a4bd 6295 a2bd
00000070: 307d 223d aabf 3fbd 4d11 fbbc 67a6 70bd
00000080: 0852 acbd 1d4c 71bd 63c9 80bd fdda 513d
00000090: 33fa 2cbb 10f7 7f3d 050d b23d f33f 873d
000000a0: 77b0 a6bd e715 703d 6347 693d 7d82 39bd
000000b0: c08a acbc 9aad 093d 3356 27bc d084 7abd
000000c0: 8d2b 91bc 470c e2bc e395 7a3d 206e 323d
000000d0: 1307 803d b3a7 8abb fa70 babd 53f4 c73d
000000e0: 67ad 4a3b d7ae 2e3d f74b 68bd 4d49 a2bb
000000f0: e0aa da3c 5a97 26bd cad3 62bd 073e e63c
00000100: b26f a43d a7ca 9f3d d071 0b3d 0d81 0b3c
00000110: 6a1a 383d e7e5 ffbc 9ff0 9d3d 631e 583d
00000120: 8834 ccbd 70bd ba3d cd37 9a3b 5dd9 9abd
00000130: 73bc 1cbd 88eb c63d 3ffc aabd 4df5 cc3c
00000140: 00c3 09bd 8237 a8bd 5742 1e3d faa1 6e3d
00000150: b754 c93d c012 a7bd c752 483d afbf 913d
00000160: 9a29 21bb a000 9e3d 68f6 ba3d 48db a5bd
00000170: fdce 4d3d 2039 c33c a760 393c f7f9 963d
00000180: 00f0 af3b 938b 18bd f5e5 ae3d ad57 6d3d
00000190: 50b2 463d 408d dcbc b0d3 aabd a768 64bc
000001a0: 2d73 99bc f3b9 a4bc 1a09 51bd 1d0e 933d
000001b0: c049 88bc 939e c8bd 7f4f 83bd e89b cabd
000001c0: 3dab 623d 0df9 3bbc 0dc6 50bd c310 9dbd
000001d0: f79c 473d aa01 b1bd 5546 babd 80a1 13bc
000001e0: a791 743d 80b7 a1bd 7296 84bd 1d0e 043d
000001f0: 02f3 c6bd a813 883d 53f5 5a3d 33e4 473d
00000200: a053 ae3d 7aeb b13d b02e 3dbd b361 673d
00000210: cdab 5f3d 0072 393d 539a dfbc 2a65 61bd
00000220: 7ff5 84bd 00cd af3c 678d 33bb 33df a53b
00000230: fa6c b73d 3a67 a6bd d382 bd3c ed71 933c
00000240: 9a3d 91bb 1794 873d a2f5 843d 75e2 89bd
00000250: a0aa 913c 0d7e 76bd d37b 62bd a01a abbd
00000260: 70b6 183d 8d95 27bc e514 82bd 33a8 a2bc
00000270: 9aa1 f1bb 23c2 1a3d d747 ae3d 82fb 87bd
00000280: 67c5 ccbb 483b c63d 030c 873d a0cc 3c3d
00000290: fa89 f6bc 53ce 8e3c b3bd de3b 9a7f c03a
000002a0: 08a7 853d 7387 0bbd 2dea c9bc 1bbe 8e3d
000002b0: a0e4 cf3c 9d71 c2bd eda5 a0bc f529 8a3d
000002c0: 9734 783d 8dac 883d e708 70bd 9206 99bd
000002d0: 8dd2 023d d22a 9d3d f06b a73d 5d5f 1d3d
000002e0: cdca 713d 6f5f 8dbd ade7 c43c cdd7 28bc
000002f0: 9a63 92ba 8a70 413d 326c 99bd c00b 1e3c
00000300: 8d81 0fbd 7791 4d3d 60dc b6bd 6df4 61bd
00000310: 5349 92bd a75d 993d 50e9 7e3d 65d3 a93d
00000320: 265e 4ebe ed8f f93c c533 93be 53da e43c
00000330: 3a69 833c c0a3 433c 0793 9abd d090 9d3d
00000340: 9014 6e3e f3dd 8e3d 8de9 3b3d ba60 d43c
00000350: b371 193d 8ff5 a43e 02a3 abbe 8dec b4be
00000360: c72c 50bd 3d94 76bd d7a0 3a3d 12ec 95be
00000370: 00ec 86ba 4d50 db3c e6e2 54be 1ae2 fdbb
00000380: c7aa 44bd a1de bebe bddc 5ebe 27f7 b4bd
00000390: dec0 80be 603c b33d 33aa 7cbe 6746 4aba
000003a0: 40c4 54bc 1df4 b93e 6dcc 59bd 98a0 87be
000003b0: 6e8f a9be 8380 7dbe a212 a5be 18ad 88bd
000003c0: a768 1cbd 5de1 703d d70b 87be 70e2 bdbe
000003d0: 252c 85bd 0feb a3be 3da0 9ebe ce1a a8be
000003e0: f2b1 893d 6777 e33b 386a a7be e4a6 9cbe
000003f0: 6b49 82be 1115 6b3e 780b ccbe f785 a4bd

bias f4 [100]
-0.09047238 -0.060345925 -0.25510564 -0.28186396 -0.2501058 -0.24109744 -0.295372 -0.2466245
-0.27199233 -0.19734557 -0.14513627 -0.15917005 -0.32927084 -0.025050664 -0.27034763 -0.2506029
-0.25278905 -0.26689804 -0.09180967 -0.2518197 -0.24026395 -0.08305152 -0.08254426 -0.2949913
-0.3248777 -0.26326016 -0.224172 -0.35987616 -0.22864637 -0.20753346 -0.08004695 -0.25507385
-0.019344939 0.05238428 -0.050747395 -0.014622177 -0.08170315 -0.2291603 -0.19187586 -0.37086728
-0.08037013 -0.1689485 -0.3291807 -0.06824722 -0.32056424 -0.339299 -0.061337054 -0.3439878
-0.20586406 -0.20665784 -0.15143685 -0.3952659 -0.024311114 -0.3298653 -0.33262074 -0.009669903
-0.34846637 -0.3357533 -0.07758446 -0.3171056 0.06311708 -0.055375576 -0.31949955 -0.33682737
-0.28172222 -0.18326913 -0.059797406 -0.3420014 -0.2727772 -0.1121058 -0.041157257 -0.25176525
-0.24391395 -0.26129973 -0.17623483 -0.2961292 -0.013542642 -0.07337018 -0.20587191 -0.34736678
0.0150654875 -0.2542102 -0.18360817 -0.20962176 -0.32304338 -0.27613157 -0.29158583 -0.23619121
-0.048580278 -0.2811014 -0.073297836 -0.2456483 -0.2552656 -0.21626763 -0.20760638 -0.071333624
-0.25565416 0.0017999446 -0.20680422 -0.213523
00000000: 9549 b9bd 4a2d 77bd 359d 82be 7950 90be
00000010: de0d 80be 3fe2 76be 003b 97be 228b 7cbe
00000020: 9442 8bbe f514 4abe 9a9e 14be 79fd 22be
00000030: 3096 a8be 0d37 cdbc 016b 8abe 064f 80be
00000040: 916d 81be dca6 88be b506 bcbd 83ee 80be
00000050: c107 76be ea16 aabd f70c a9bd 1a09 97be
00000060: 5f56 a6be 09ca 86be 588d 65be b041 b8be
00000070: 4622 6abe a783 54be a8ef a3bd 0a99 82be
00000080: 4779 9ebc e690 563d 80dc 4fbd db91 6fbc
00000090: fb53 a7bd ffa8 6abe 1b7b 44be 51e2 bdbe
000000a0: 1899 a4bd d600 2dbe 5f8a a8be 33c5 8bbd
000000b0: ff20 a4be 99b8 adbe 903c 7bbd 2b1f b0be
000000c0: 07ce 52be 1d9e 53be 4312 1bbe 4b60 cabe
000000d0: 1a28 c7bc 1be4 a8be 444d aabe 836e 1ebc
000000e0: 2f6a b2be dbe7 abbe 9ae4 9ebd aa5b a2be
000000f0: 8743 813d 80d1 62bd 7295 a3be a374 acbe
00000100: e53d 90be e7aa 3bbe 20ee 74bd cf1a afbe
00000110: 74a9 8bbe ba97 e5bd 8394 28bd 60e7 80be
00000120: 94c4 79be 14c9 85be e776 34be 3f9e 97be
00000130: f5e1 5dbc 1b43 96bd 16d0 52be 0fda b1be
00000140: 3cd5 763c d727 82be c803 3cbe 16a7 56be
00000150: f165 a5be 1e61 8dbe bd4a 95be 1cdc 71be
00000160: 1dfc 46bd 86ec 8fbe 2d1d 96bd 3a8b 7bbe
00000170: 2cb2 82be 4375 5dbe c496 54be 5d17 92bd
00000180: 1ae5 82be 1eec eb3a 7cc4 53be c6a5 5abe

weight f4 [100, 100]
0.08843688 -0.06607717 0.39981085 0.20446043 -0.34702757 -0.16889526 0.29513544 -0.17931738
0.3856416 -0.23748092 0.30432627 -0.21891503 0.3343523 0.05176301 -0.27240428 0.22710161
-0.2977682 -0.13134429 0.007050562 0.34691873 -0.2752933 -0.04928161 -0.05170646 -0.31783617
0.33868054 0.2980405 0.27546477 -0.36217418 -0.28755566 0.31894132 0.038493287 -0.2820225
-0.035533715 0.17422634 -0.07889972 -0.24611387 0.053440154 0.30178916 -0.21498758 -0.19366017
0.08134421 -0.13177343 -0.19637422 0.053642143 -0.28072906 0.20555648 0.011825919 0.35665944
-0.31876382 -0.17415555 -0.29473343 -0.3030989 0.09836137 -0.391237 -0.29255426 0.019102385
0.20463629 0.26139224 -0.0435145 -0.2116064 0.1894446 0.0030528784 -0.21974877 -0.25492123
0.2661687 -0.1778422 -0.041662503 0.38665497 0.2283414 -0.08470274 -0.24499068 0.35450515
-0.1387748 -0.33672208 -0.22351709 0.25159076 -0.19305477 0.31241512 0.3750476 0.24770904
0.07392157 -0.24662802 -0.101707324 0.3538073 0.29529944 0.35016215 0.21239059 0.2920205
0.08930206 0.2769785 -0.24598926 -0.27041963 0.3789251 -0.21300535 0.3247516 -0.046416022
0.35046118 0.010802802 0.3997586 0.3641844 -0.08656744 0.08231155 -0.36684066 -0.3006637
-0.2845118 0.14473905 -0.29975006 0.17473167 0.27443913 0.22414945 -0.10138543 0.25428283
-0.29509163 0.0131532075 0.27686113 -0.33336076 0.13530058 0.19357327 -0.08377912 -0.2888223
-0.23850365 0.09152379 -0.052467227 -0.21576336 -0.3594511 -0.35974994 -0.2853498 0.23826885
-0.36427686 -0.27254033 0.08182895 0.33784086 0.03540763 -0.2775826 0.08214376 0.18421827
0.079127364 -0.27323708 0.2915548 0.18090782 0.023273958 0.21284465 0.2756315 -0.07285746
0.2671082 -0.32283378 -0.034075703 -0.21711837 0.13041241 0.23732254 0.25939834 -0.28111598
0.06884184 -0.2879022 0.34033674 -0.017838571 -0.3667017 -0.38622984 -0.049883593 0.21995026
-0.3103447 0.02184769 -0.37819314 0.2050366 -0.33469298 0.13320482 -0.06266131 -0.32234547
-0.25172973 0.15671152 0.26485562 -0.32011765 0.16871268 -0.36265355 0.10637092 -0.23580298
0.3094852 -0.2613316 -0.2756959 -0.26680607 -0.14252108 0.27582523 0.19474445 -0.266228
-0.28771564 -0.32651243 -0.23817416 -0.2715432 0.061983537 -0.20503914 0.21107483 0.3115645
-0.22495039 0.2032352 -0.33789542 0.021530736 -0.23788793 -0.024694826 -0.27018103 -0.2545016
-0.048006844 -0.050371733 -0.34620777 -0.16916387 -0.30395618 0.16912706 -0.24490777 0.15875025
-0.3962988 0.29348785 -0.28379777 0.23372008 -0.2098927 -0.013096809 0.26925159 -0.3174033
0.2801835 0.24180916 0.006558442 -0.36746308 -0.34344023 -0.08368339 0.0692664 -0.21639115
-0.28427935 -0.2632025 -0.34688216 0.3108062 -0.25896946 -0.20676242 -0.08150027 0.2177027
-0.050095167 -0.42469323 -0.0011793018 0.3516092 -0.03710977 -0.31503236 0.24234334 0.25132182
0.07652952 0.29631755 0.19798253 -0.045053687 0.34363657 -0.23699376 0.0016007185 -0.21905069
0.23695073 0.13075446 0.19219664 -0.22960213 -0.021913124 -0.37433234 0.25517368 -0.16189064
00000000: 651e b53d 7853 87bd 02b4 cc3e 135e 513e
00000010: 99ad b1be e1f2 2cbe fe1b 973e fa9e 37be
00000020: d172 c53e 332e 73be a7d0 9b3e 432b 60be
00000030: 3a30 ab3e 7305 543d 9378 8bbe 538d 683e
00000040: 1375 98be 1e7f 06be 6708 e73b 559f b13e
00000050: 3ef3 8cbe 83db 49bd 27ca 53bd 6cbb a2be
00000060: 8967 ad3e c498 983e b809 8d3e e56e b9be
00000070: 7f3a 93be 474c a33e 23ab 1d3d 4165 90be
00000080: cd8b 11bd 6468 323e 2d96 a1bd 4605 7cbe
00000090: 10e4 5a3d 1c84 9a3e b425 5cbe da4e 46be
000000a0: cb97 a63d 9def 06be 5316 49be ddb7 5b3d
000000b0: b8bb 8fbe 667d 523e 80c1 413c 119c b63e
000000c0: 0335 a3be d555 32be 4de7 96be c72f 9bbe
000000d0: b071 c93d 3750 c8be acc9 95be 9b7c 9c3c
000000e0: 2d8c 513e 34d5 853e 433c 32bd 59af 58be
000000f0: c4fd 413e cd12 483b d205 61be 0985 82be
00000100: 4447 883e 441c 36be 4da6 2abd a4f7 c53e
00000110: 54d2 693e a178 adbd d6de 7abe b381 b53e
00000120: fb1a 0ebe d666 acbe aae1 64be 81d0 803e
00000130: 26b0 45be e0f4 9f3e 3d06 c03e 70a7 7d3e
00000140: 3164 973d 0e8c 7cbe ee4b d0bd 3b26 b53e
00000150: 7d31 973e 7448 b33e eb7c 593e b683 953e
00000160: 00e4 b63d 20d0 8d3e 9ce4 7bbe 7174 8abe
00000170: 7902 c23e 131e 5abe d745 a63e ba1e 3ebd
00000180: a66f b33e 3cfe 303c 29ad cc3e 6176 ba3e
00000190: 454a b1bd f592 a83d 8ad2 bbbe 98f0 99be
000001a0: 88ab 91be 7936 143e d778 99be dcec 323e
000001b0: 4983 8c3e 6f87 653e 2aa3 cfbd 5c31 823e
000001c0: 4016 97be 8d80 573c bec0 8d3e 43ae aabe
000001d0: 3c8c 0a3e 1238 463e 6394 abbd 84e0 93be
000001e0: 4d3a 74be d370 bb3d e0e7 56bd 12f1 5cbe
000001f0: f909 b8be 2531 b8be 5e19 92be c0fc 733e
00000200: 7f82 babe 688a 8bbe f095 a73d 7af9 ac3e
00000210: 9707 113d 4e1f 8ebe fd3a a83d b7a3 3c3e
00000220: 870d a23d bbe5 8bbe ac46 953e e63f 393e
00000230: 07a9 be3c f3f3 593e 921f 8d3e 4b36 95bd
00000240: 68c2 883e 784a a5be f792 0bbd 4754 5ebe
00000250: d58a 053e ae04 733e dccf 843e 6fee 8fbe
00000260: f3fc 8c3d eb67 93be 9e40 ae3e 3222 92bc
00000270: 53c0 bbbe ebbf c5be bd52 4cbd a43a 613e
00000280: 80e5 9ebe edf9 b23c 88a2 c1be 1df5 513e
00000290: e15c abbe d866 083e 9354 80bd 770a a5be
000002a0: b8e2 80be fc78 203e 289b 873e 76e6 a3be
000002b0: 04c3 2c3e baad b9be ffd8 d93d 5676 71be
000002c0: d874 9e3e 41cd 85be 0328 8dbe ce9a 88be
000002d0: 0cf1 11be f738 8d3e 176b 473e 094f 88be
000002e0: 774f 93be a32c a7be ede3 73be b607 8bbe
000002f0: 73e2 7d3d c8f5 51be 0024 583e 6285 9f3e
00000300: 6559 66be e31c 503e a100 adbe 3a61 b03c
00000310: e598 73be ce4c cabc 2b55 8abe 094e 82be
00000320: d3a2 44bd 9752 4ebd 2542 b1be 4b39 2dbe
00000330: 25a0 9bbe a52f 2d3e 1ac9 7abe 6d8f 223e
00000340: ade7 cabe 0a44 963e f14d 91be 5154 6f3e
00000350: 1dee 56be 0094 56bc 58db 893e af82 a2be
00000360: 3674 8f3e d29c 773e 33e8 d63b 1f24 bcbe
00000370: 66d7 afbe 3262 abbd 8bdb 8d3d a495 5dbe
00000380: 108d 91be 7ac2 86be 8a9a b1be fe21 9f3e
00000390: a597 84be 87b9 53be 9de9 a6bd 75ed 5e3e
000003a0: 9730 4dbd 6471 d9be cd92 9aba 1f06 b43e
000003b0: 6a00 18bd ec4b a1be da28 783e 41ad 803e
000003c0: 82bb 9c3d efb6 973e efbb 4a3e 378a 38bd
000003d0: 22f1 af3e 7eae 72be 33cf d13a d34e 60be
000003e0: 36a3 723e 7fe4 053e 32cf 443e d21c 6bbe
000003f0: 2783 b3bc 7da8 bfbe 20a6 823e a9c6 25be

bias f4 [100]
-0.016388435 0.03547292 0.05159211 -0.02821601 -0.050525874 -0.049443573 -0.0642218 0.03063915
0.029228734 0.033029214 -0.059804507 -0.06394304 -0.06695628 -0.059801485 0.04040669 -0.0042021982
-0.027594136 0.05125727 -0.05159558 -0.049133934 0.06557782 -0.008243249 -0.0664897 0.04344786
-0.041118544 -0.054120243 0.02287503 -0.030929936 0.039390393 0.07640391 -0.06122882 -0.031190636
0.033338685 0.036381483 -0.07341171 0.049286325 0.033011504 0.04848001 -0.042748373 -0.06415138
0.0078022885 -0.047030892 0.046718307 0.024194006 -0.04775592 0.059034534 0.05420301 0.045959093
-0.0568424 0.057981733 0.06313095 0.021312324 -0.02287141 0.042894714 0.040771432 0.035112754
0.05437134 0.031223172 -0.06941838 -0.050975103 -0.0049122754 -0.029514367 0.04373422 0.05704238
0.03349864 0.037584513 -0.02483448 -0.062142216 0.047498703 0.0468896 0.048621614 0.07043914
-0.06313908 -0.047094528 -0.01908192 0.056543995 0.020343183 -0.04353876 0.037146054 0.07392167
-0.03884443 0.04246771 0.048195723 0.048439626 -0.05033997 -0.031088157 0.024571244 -0.05308488
0.07393832 -0.039008293 -0.034222353 0.060147107 -0.038455185 0.04991742 0.057693858 -0.04720202
-0.05252627 0.029340928 0.031206025 -0.04291435
00000000: 0a41 86bc 0d4c 113d 4052 533d 4325 e7bc
00000010: 38f4 4ebd 5885 4abd b886 83bd f4fe fa3c
00000020: 1971 ef3c a449 073d 92f5 74bd 92f4 82bd
00000030: 6020 89bd 67f2 74bd 7c81 253d 98b2 89bb
00000040: 190d e2bc 25f3 513d e355 53bd aa40 49bd
00000050: aa4d 863d b10e 07bc c02b 88bd 62f6 313d
00000060: eb6b 28bd 30ad 5dbd 6a64 bb3c c760 fdbc
00000070: d257 213d a779 9c3d 12cb 7abd 8183 ffbc
00000080: 258e 083d c004 153d e158 96bd 75e0 493d
00000090: 1237 073d fa92 463d eb18 2fbd cc61 83bd
000000a0: 57aa ff3b 77a3 40bd b25b 3f3d 8232 c63c
000000b0: b69b 43bd 32ce 713d fa03 5e3d 9a3f 3c3d
000000c0: 94d3 68bd 417e 6d3d cd4a 813d 2f97 ae3c
000000d0: d35c bbbc 5eb2 2f3d f2ff 263d 64d2 0f3d
000000e0: 7bb4 5e3d bdc7 ff3c 392b 8ebd 45cb 50bd
000000f0: 27f7 a0bb 1dc8 f1bc a722 333d 45a5 693d
00000100: df35 093d 38f2 193d ae71 cbbc d688 7ebd
00000110: 008e 423d 4f0f 403d 7527 473d 6542 903d
00000120: 104f 81bd 31e6 40bd b051 9cbc ad9a 673d
00000130: bfa6 a63c b355 32bd 7626 183d 3f64 973d
00000140: 561b 1fbd 9ff2 2d3d e168 453d a168 463d
00000150: 4931 4ebd 97ac febc a249 c93c 886f 59bd
00000160: f96c 973d 29c7 1fbd bd2c 0cbd d05c 763d
00000170: 2f83 1dbd 3576 4c3d 6550 6c3d e856 41bd
00000180: c925 57bd 635c f03c c7a3 ff3c f5c6 2fbd
