Results/Nodes_16/model_weights_with_Jacobian.pth (torch, 4944 bytes, 6 tensors)

weight f4 [7, 2]
000000 5d b7 6e bf 76 c3 69 3d 11 e6 e2 3f a0 90 c2 c0
       -0.9324854 0.05707117 1.7726461 -6.0801544
000010 68 7a be bf b2 68 1f 40 d5 51 a7 be 52 fa 73 be
       -1.4881105 2.490765 -0.3267962 -0.23825958
000020 14 aa 94 c0 3d fa 8d bf 54 0d 9a 40 08 2e 69 c0
       -4.6457615 -1.1091992 4.814127 -3.6434345
000030 29 27 91 bf 6d 38 59 bf
       -1.1340076 -0.84851724

bias f4 [7]
000000 01 9a 83 be fa 84 16 3f 07 38 00 3f d7 4f fe be
       -0.25703433 0.58796656 0.5008549 -0.49670288
000010 a2 10 79 3f 9d 13 87 be ba 19 8b be
       0.97291005 -0.2638215 -0.27168065

weight f4 [7, 7]
000000 24 3f b4 be d3 58 09 bf cb de 32 bf aa eb 74 be
       -0.35204422 -0.5365116 -0.69871205 -0.23918024
000010 58 8c 32 be b0 cd dd be b8 2f 39 be 3e 31 63 be
       -0.1743635 -0.4332099 -0.1808461 -0.22186753
000020 44 aa 78 be 53 65 07 bf dc 79 41 3e b0 61 ee be
       -0.24283701 -0.52888983 0.18894142 -0.46558905
000030 6f 44 ca be 4b d2 20 bf b0 84 89 3e 99 66 49 40
       -0.39505336 -0.6282088 0.26859045 3.146887
000040 53 aa aa 3e d6 7f 4e be 94 47 25 3f 42 64 00 c0
       0.33333072 -0.20165953 0.64562345 -2.0061193
000050 77 91 69 3e 2c 4f 10 3f c4 3d b9 be c1 fb 48 be
       0.22809397 0.56370807 -0.36179936 -0.19627286
000060 d4 4b 1c be 9e a1 de be f1 16 1b be 02 84 19 3e
       -0.15263301 -0.4348268 -0.1514547 0.14991763
000070 65 9f ad 3d f0 6d 08 bf 26 fb 46 bd b5 e4 63 bd
       0.08477668 -0.5329275 -0.048579358 -0.055638034
000080 dc 3c 27 bf 38 01 18 bf 87 00 14 bc 99 b2 98 37
       -0.6532724 -0.5937686 -0.009033329 1.8202978e-05
000090 c1 26 52 bd c6 11 21 be 51 eb ca bd 79 fc a2 be
       -0.05130649 -0.15729436 -0.09908164 -0.31833246
0000a0 10 c9 99 be 23 87 62 3e a1 49 65 3d ae 39 87 bf
       -0.3003621 0.22121863 0.05597842 -1.0564477
0000b0 a6 af 2b bf 56 55 51 3e 53 ee 17 bf 4e 2b c8 bf
       -0.67064893 0.2044271 -0.5934803 -1.5638216
0000c0 3f e3 f7 3a
       0.0018912329

bias f4 [7]
000000 f1 59 98 bd 32 5f e6 bc 28 69 42 3f 0a 70 6c be
       -0.0743903 -0.028121565 0.75941706 -0.23089615
000010 f4 bd 71 be 58 78 0a be 0f 41 97 bf
       -0.23607618 -0.1352247 -1.1816729

weight f4 [7, 7]
000000 1e c8 90 3e d1 7d 96 3e f8 2e 12 c0 8f fb fd 3d
       0.28277677 0.29392865 -2.2841167 0.124014966
000010 05 0e 64 3e 1f 8e 02 be 09 ff ee 3d a4 99 35 bf
       0.22270973 -0.12749527 0.11669738 -0.7093756
000020 bc 23 8d be 23 c9 de 3b 63 83 40 bd 7b a6 35 be
       -0.27566326 0.0067988797 -0.0470003 -0.17739289
000030 72 9d 48 be 80 c4 1f bf 58 7f 4b be 9a 3d b5 bd
       -0.1959131 -0.6240921 -0.19872797 -0.0884964
000040 b1 75 6b ba 1f a8 95 be 11 4f 39 bd f2 8f bb 3c
       -0.0008982076 -0.2922983 -0.04524142 0.022895787
000050 30 e0 0f bf 55 81 f4 bc 1d 36 0e be 84 78 ae bb
       -0.5620146 -0.029846827 -0.1388783 -0.005324425
000060 72 c2 72 be 01 18 11 be da 2f 84 be 02 24 20 3d
       -0.23706988 -0.14169313 -0.25817758 0.03909684
000070 e0 85 03 bf 30 88 94 bd 79 ad 9d 3a bc 13 94 3e
       -0.5137615 -0.07252538 0.0012029848 0.28921306
000080 11 7b e0 be 1f f8 1e 3e 40 d6 fc be 88 97 69 bc
       -0.43843892 0.15524338 -0.4938221 -0.014257319
000090 08 c8 1e 3e 50 b8 fb b8 82 ea 60 3e de 68 f7 3e
       0.15505993 -0.000120029435 0.21964458 0.48322195
0000a0 e8 18 0f be 2d 7c 1f 3f c1 fa da bd 55 da 2a be
       -0.13974345 0.6229885 -0.10692359 -0.1668485
0000b0 1e 38 94 ba af 99 bc be 0f b7 ac be b5 0e 63 be
       -0.0011308228 -0.36836 -0.33733413 -0.22173579
0000c0 4a a1 99 bc
       -0.018753666

bias f4 [7]
000000 e5 2a 44 40 3a 5d 9f 3b 10 10 2f ba 89 61 7f 3b
       3.065118 0.0048634084 -0.0006678114 0.0038968048
000010 cf 6e 1b 3a 81 15 3e 3b 23 b8 52 3a
       0.00059292925 0.0029004517 0.0008038303
