Results/Nodes_16/model_weights.pth (torch, 4356 bytes, 6 tensors)

weight f4 [3, 2]
00000000: 4848 2abf 731a a63e 0a73 a4be 5bc6 bbbe
00000010: 46fe 2c3e 2aef bcbe
-0.6651654 0.32442054 -0.32119018 -0.3667477 0.16893873 -0.36901218

bias f4 [3]
00000000: d551 a7be 52fa 73be 8302 88be
-0.3267962 -0.23825958 -0.26564416

weight f4 [3, 3]
00000000: f9e8 76be a970 1fbe eaa3 193e 2035 efbe
00000010: 41ec b2be 6a06 0a3c 9e6f a43d 6e42 a33e
00000020: 10a5 cfbe
-0.2411231 -0.1557032 0.15003935 -0.4672022 -0.34945872 0.008424381 0.08029102 0.3188662
-0.4055562

bias f4 [3]
00000000: a039 a5be 76a1 3ebe abbe 9abe
-0.32270527 -0.1861628 -0.30223593

weight f4 [3, 3]
00000000: 1c94 62bd 7fe2 b33e 84f9 913d 218e 56bf
00000010: 7004 5ebe 846d 20bf 6b19 353f 4f91 273e
00000020: 158b 183f
-0.05531703 0.3513374 0.071276695 -0.8381062 -0.2168138 -0.6266711 0.7074191 0.16364025
0.5958722

bias f4 [3]
00000000: 63fa 00bc 132e 9a3a 6506 acb8
-0.007872197 0.0011762999 -8.20279e-05
