Results/Nodes_16/model_weights_with_Jacobian.pth (torch, 4560 bytes, 6 tensors)

weight f4 [3, 2]
000000 c6 92 30 3d 8b 49 7c 3e b0 81 e3 be 4f ac 98 3d
       0.043108724 0.2463743 -0.4443488 0.0745474
000010 bd e0 33 be db 42 b3 be
       -0.175662 -0.35011944

bias f4 [3]
000000 30 1b 1c 3f cd 0b 0c bf 7d 39 d4 3d
       0.60978985 -0.54705507 0.103625275

weight f4 [3, 3]
000000 0c e0 01 bf 2f 76 a0 bc db 5a 83 be 1c 98 42 3e
       -0.50732493 -0.019587604 -0.25655255 0.19003338
000010 14 fe a5 be a5 32 bd 3e 51 df ef be c6 8c b1 3e
       -0.3242041 0.369527 -0.46850064 0.34677714
000020 18 0d de be
       -0.43369365

bias f4 [3]
000000 22 52 9e 3e f1 ef 78 be 51 4a b0 ba
       0.30922037 -0.2431028 -0.0013449882

weight f4 [3, 3]
000000 66 cb d7 bd ff da bf 3e 35 c1 41 3e 54 3e 02 bf
       -0.10536842 0.37471768 0.18921359 -0.50876355
000010 64 6c 59 3d f5 ec cb be 4e fb dc 3e 2b 45 c2 3d
       0.053081885 -0.3982922 0.4316048 0.09485849
000020 09 0c 18 be
       -0.14848341

bias f4 [3]
000000 f8 d6 a2 b9 0c f5 08 ba 27 d0 94 38
       -0.00031059212 -0.0005224503 7.095961e-05
